checkpoints/trans/zara2/m_vae_model_best.pth (torch, 98009 bytes, 29 tensors)

V_obs_trunc f4 [16, 8]
000000 12 0a 2b bd cf a2 87 b3 bc 5d fa bd 18 0d 94 b3
       -0.04175765 -6.316042e-08 -0.1222491 -6.894169e-08
000010 4f 48 63 3e a2 5d c0 b3 31 ec 9a be a3 31 0b b5
       0.22195552 -8.9577284e-08 -0.30258325 -5.1853766e-07
000020 23 b0 7e bd 90 91 c6 3b fa 0d 31 be 23 cc de bc
       -0.062179696 0.006059833 -0.17290488 -0.02719695
000030 9b ac 8b 3e 7b 14 66 3d 22 e6 9a be 6e d2 a8 bd
       0.27280125 0.056171875 -0.30253702 -0.08243261
000040 02 76 5d bd f6 c5 ad 3c fc 18 0d be 1a 67 bb bd
       -0.05406762 0.02121256 -0.13779062 -0.091505244
000050 4f 0b 30 3e 7e 37 37 3e f4 04 e1 bd 9f eb 73 be
       0.17191814 0.17892262 -0.10987273 -0.23820351
000060 34 dd 10 bd 0b 29 56 3d eb fe af bd 17 a4 48 be
       -0.035367206 0.052285235 -0.085935436 -0.19593845
000070 8d 18 c2 3d 04 29 9b 3e 77 21 24 bd da 13 81 be
       0.09477339 0.3030473 -0.040070977 -0.25210458
000080 7d 6b ce bd 45 4e 2d 3d ce 18 66 be d4 f2 08 be
       -0.100790955 0.04231097 -0.224704 -0.13373882
000090 55 92 3d 3e b1 22 14 3e 2f 78 1c 3d 0a 3b b2 bc
       0.18512852 0.14466359 0.038200554 -0.021756668
0000a0 4e 32 16 be c8 b1 08 3d 39 82 8a be cd 6b cc bd
       -0.14667627 0.03337267 -0.27052477 -0.09981499
0000b0 83 c9 ab 3d 9c da c3 3d 7f 0d 76 3e 28 67 52 3b
       0.08388045 0.09563181 0.24028586 0.0032104943
0000c0 a6 c3 a6 bd 8d df d3 3d 78 84 ee bd 66 41 86 be
       -0.08142786 0.10345373 -0.1164636 -0.2622177
0000d0 80 51 fa bc 4f 3e 14 3e 71 58 06 3e d3 dd 2d 3e
       -0.03055644 0.14476894 0.13119675 0.1697915
0000e0 16 83 99 bd cd a8 12 3e 4b d8 ce bd e4 f4 8b be
       -0.07495706 0.14322205 -0.10099848 -0.27335274
0000f0 f8 c1 1a bd 9a 12 e0 bb cd d7 e4 3d 8d 04 89 3e
       -0.03778264 -0.006838155 0.11173973 0.26761284
000100 b1 47 47 be de 65 9c 3d 39 ef 3c be 22 f6 d4 bd
       -0.19460942 0.07636617 -0.18450631 -0.103985086
000110 49 6c 4b be 20 04 7c bd cf 01 0e 3e d6 bb a5 3d
       -0.19865526 -0.06152737 0.13867877 0.080924675
000120 a5 5c 56 be 21 e7 b4 3d 25 39 d0 bd 53 af e4 bd
       -0.20933779 0.08833147 -0.101671495 -0.11166253
000130 86 b9 7b be 85 a5 a3 bd 7a f3 8f bd de bb a1 3d
       -0.2458249 -0.07990555 -0.07028861 0.07897161
000140 b0 2c c5 bd 54 de 63 3e 6d 22 42 bc 7c eb 27 be
       -0.09627664 0.2225278 -0.011849028 -0.16398424
000150 92 26 c1 bd f2 3f 83 be d7 70 a5 bd 62 1a 1c bd
       -0.09431185 -0.25634724 -0.08078163 -0.038111098
000160 39 ab 0b be e3 11 62 3e ec 7f 8c bb 59 5f 4a bd
       -0.13639535 0.22077136 -0.0042877104 -0.049407337
000170 66 dd 00 be 33 fe 5a be e6 a2 04 be d6 4a 47 be
       -0.12584457 -0.21386032 -0.12952766 -0.19462141
000180 06 cb 93 be 88 14 d1 3d 7a 2c d9 3d 5d 93 26 3c
       -0.28865832 0.10208994 0.10604186 0.01016697
000190 1d 71 f3 bd fd 11 7c bd df 16 80 be 0d 22 b4 bd
       -0.11886809 -0.061540592 -0.2501745 -0.08795557
0001a0 a0 05 75 be 1b e7 36 3e eb 17 33 3e cf ea 26 3d
       -0.23927927 0.17861597 0.17489593 0.040751275
0001b0 30 ab 75 3d ed d3 a6 bd aa 5f 31 bd 79 79 1b be
       0.05997771 -0.081458904 -0.043304123 -0.15183057
0001c0 ba 0c e5 bd 19 97 ae 3e a7 71 d1 3d 0d 29 53 3e
       -0.11184068 0.34099653 0.102267556 0.20621128
0001d0 f3 0a 94 3d 9e a1 89 3d 5d 24 31 3d 9e 8d 8d bd
       0.07228651 0.06720279 0.04324757 -0.06911777
0001e0 08 0d 93 2f 9c 41 00 3f ad 3c 3c b4 7d 93 ea 3e
       2.6748403e-10 0.5010011 -1.7530938e-07 0.4581565
0001f0 10 e0 75 34 4d 8e d7 3e a4 97 d1 b3 86 e3 b6 3e
       2.2898917e-07 0.42100754 -9.759904e-08 0.35720462

conv_layers.0.weight f4 [64, 1, 3]
000000 0e 51 b9 3e 85 0e ef 3e 45 4b 2d be 35 55 17 3f
       0.36194652 0.46690765 -0.16923244 0.5911439
000010 37 35 96 3e 7b 9e af 3e c2 b5 42 3e c1 a0 65 3d
       0.29337475 0.34300599 0.19014648 0.05606151
000020 5a 1a 31 bd 65 d5 e5 3e 99 3c fe 3e 44 df 2e be
       -0.04323802 0.4488937 0.49655607 -0.17077357
000030 98 7f d3 be 85 7b 06 3f 88 d2 08 3f b8 d4 04 3f
       -0.41308284 0.52532226 0.53446245 0.51887083
000040 ca 61 a8 3e 94 23 e5 3d 7d 20 ba 3e 9b 51 9e 3e
       0.32887107 0.111884266 0.36352912 0.30921635
000050 8d e2 f8 3e a7 31 16 bd f1 d6 ac bd bd 5b 15 3f
       0.48610345 -0.036668446 -0.08439434 0.58343107
000060 59 e3 dc be 9a 6a cc be 1f 1d 0d bf fa 07 a3 bb
       -0.43142202 -0.3992508 -0.5512256 -0.004975316
000070 a3 6d 08 3e ca b2 7f 3d e3 6a 80 3c 93 5e bf bd
       0.13323073 0.062426366 0.015675968 -0.093442105
000080 8a db 6a be b7 07 ca 3e 90 01 cf 3e cc 8c 17 be
       -0.2293531 0.3945901 0.4043088 -0.14799803
000090 2a db 53 bd 86 17 82 3e 5d d9 3b be 3d 09 9f 3d
       -0.051722683 0.25408572 -0.18344636 0.07765434
0000a0 4c f0 03 3f 97 28 1b be 80 4e 82 be a1 d5 e7 bd
       0.5153854 -0.15152203 -0.25450516 -0.11320043
0000b0 60 7e 9c be 46 04 07 bf 22 95 0a 3f a6 f5 76 3d
       -0.30565166 -0.52740896 0.5413381 0.060292862
0000c0 63 03 36 3d d1 f1 a6 be 3a 5a c0 3b 54 39 9f be
       0.044436824 -0.32606366 0.005870131 -0.31098425
0000d0 6b 39 f3 3e f0 c6 f8 be 7d 38 a8 be ff b4 8e 3e
       0.47504744 -0.48589277 -0.32855597 0.27872464
0000e0 92 22 19 bd 8b fb 70 3e 0f 8c 07 bf ba 6d af 3e
       -0.037386484 0.23533456 -0.5294809 0.34263402
0000f0 95 8e 66 3e a2 65 bf 3e 04 98 06 3f 01 50 8c 3e
       0.22515328 0.37382227 0.5257571 0.27404788
000100 e7 d7 c1 3e f0 e4 b2 be b0 bf 13 be 6f d8 15 bf
       0.37860033 -0.3494029 -0.14428592 -0.58533376
000110 bc 21 b3 3e 05 19 bd 3e dd 99 0b 3f fa 66 ce be
       0.34986675 0.3693315 0.5453165 -0.4031294
000120 c0 8b 0a bf a9 6a f8 3e 7b 08 f9 be 00 ec a2 3e
       -0.5411949 0.48518875 -0.48639283 0.3182068
000130 64 f0 95 3e f5 32 0b bf 28 74 fc 3d 1b 38 fc 3c
       0.29284966 -0.5437463 0.123268425 0.030788472
000140 4b 07 11 bd 30 83 c4 3e 2c 09 6d bd ac c3 8d be
       -0.035407346 0.38381338 -0.057870075 -0.27688348
000150 65 d5 62 3e 48 e5 cd be 7f 6c a1 be 9c da d5 bd
       0.22151716 -0.4021399 -0.31528088 -0.10442087
000160 3c fe b9 3c 77 ef a6 be 25 e9 42 bd 40 f3 53 3e
       0.022704236 -0.32604572 -0.047585625 0.20698261
000170 91 72 09 bf f5 67 bc 3e 89 99 0e bf 3d 1f bf bb
       -0.5369044 0.36798063 -0.55703026 -0.0058325813
000180 04 70 4b 3e d3 ee 19 3e 8c 1c 06 bf a5 c6 ab 3c
       0.1986695 0.1503251 -0.5238731 0.020968745
000190 1e d0 59 be d3 db 04 be fb 22 7e bd 52 3f 5f 3b
       -0.21270797 -0.12974481 -0.06204508 0.0034064841
0001a0 8c 74 75 3e 71 4e 93 be ca 8b 9e 3e d0 8b c3 be
       0.2397024 -0.28770784 0.30966026 -0.38192606
0001b0 ae 10 38 bd 0c 52 ac 3e b6 c3 25 be 1e 1d 29 3e
       -0.044937782 0.33656347 -0.16187939 0.16515014
0001c0 af bc 02 bf 8d 52 ac bd c9 5a bd be 2f 8a eb 3e
       -0.5106916 -0.08414183 -0.36983326 0.46003863
0001d0 20 ff 91 3e 8f 79 96 be fb 87 19 bb 91 cc 09 bf
       0.28514957 -0.29389617 -0.0023426998 -0.5382777
0001e0 9d c5 10 be 1c 30 8e 3e d4 48 d9 bd 62 5f 0a bf
       -0.14137883 0.2777108 -0.10609594 -0.5405179
0001f0 b9 c9 b1 3e 8b b5 e4 3e 31 32 03 3f 97 34 cd be
       0.34724215 0.44669756 0.5124846 -0.40079185
000200 99 e5 d8 be 44 ce 92 3e f0 e9 d9 be 2c 70 57 3e
       -0.4236267 0.28672993 -0.42561293 0.21038884
000210 ff 13 c5 be aa d3 17 bf a1 fe 0f 3f 94 44 1a bf
       -0.38491818 -0.5930735 0.5624791 -0.6026089
000220 84 a4 00 bf f4 0a 59 3e 6e e8 1a 3f 31 2d 61 be
       -0.5025103 0.21195585 0.6051091 -0.21989895
000230 7f 92 9d be 46 1e d7 3e d4 a1 36 bd d2 9b 4e be
       -0.3077583 0.42015284 -0.044587925 -0.20176628
000240 f4 9f e8 bd da fa b3 3e 60 34 96 3e e1 e3 6b 3e
       -0.11358634 0.35152322 0.29336834 0.23036148
000250 3c 42 85 3e f6 87 d5 3e ce 1b 92 3e 4c 09 e9 3e
       0.26027095 0.41705292 0.28536838 0.45514905
000260 ae a0 8a 3e e9 50 1e be 6d d6 fc be 6f ff b1 be
       0.27075714 -0.15460552 -0.49382344 -0.34765193
000270 de 1c ef 3d 40 c4 0b bf 82 2d ca 3d 17 dd 16 bf
       0.11675428 -0.5459633 0.09871961 -0.58931106
000280 d9 7f fa be 0a 37 ec be 0b c2 f7 3e f8 d9 f2 3e
       -0.48925665 -0.4613574 0.4839023 0.47431922
000290 13 52 03 bf 30 ce a9 be d3 20 a9 bd 7d b6 0e 3e
       -0.5129711 -0.3316512 -0.08258214 0.13936801
0002a0 6d dc 97 3e d0 f5 a0 be 1a 76 18 3f 9e 1b 07 bf
       0.2966036 -0.3143754 0.5955521 -0.52776515
0002b0 6c 50 a0 be 9e 27 77 3e b8 de b8 be 66 5a 72 3e
       -0.31311357 0.24136207 -0.3610742 0.23667297
0002c0 e8 b4 0c be 2b 6a 94 3e a0 05 be bd cd be 30 3e
       -0.13740885 0.2898725 -0.09278417 0.17260285
0002d0 63 bb 84 3e b3 d0 d6 be 73 f4 47 be 29 0b c9 3e
       0.25924215 -0.419561 -0.19526844 0.39266327
0002e0 0f 0c 07 3f 48 3e d9 3d d5 e6 34 be 78 d1 b9 3e
       0.52752775 0.10607582 -0.1766618 0.36292624
0002f0 95 48 c1 be 7b ce ce be 5a bd 1f bf a5 77 db 3d
       -0.37750688 -0.40391907 -0.623983 0.1071618

conv_layers.0.bias f4 [64]
000000 e2 88 64 be 0b 56 08 be b0 ab 4d 3e ce 71 d1 be
       -0.22317842 -0.13314073 0.20085025 -0.4090714
000010 19 9d 15 be 72 81 06 bf d4 5d a7 be 78 d8 8e 3e
       -0.14610709 -0.5254127 -0.32688773 0.27899528
000020 8d ae 93 be 7c ff 1e be 14 72 03 bf b0 e1 f3 be
       -0.2884411 -0.15527147 -0.51345944 -0.47633123
000030 42 4a e6 3e be 29 11 3e 3a 0c 24 3f e4 42 06 bf
       0.4497853 0.1417608 0.64081156 -0.52445817
000040 60 f2 9d be 00 85 26 3e a5 c4 46 3e a8 56 0b 3f
       -0.3084898 0.16261673 0.19410951 0.544291
000050 24 2e b1 3e 18 42 04 3e 24 4c 5b 3d eb 71 a0 be
       0.34605515 0.12915838 0.05353941 -0.31336913
000060 42 cc 12 3d e9 cd 03 3d 08 62 e4 be 90 5a b4 be
       0.035839327 0.032178793 -0.44606042 -0.35225344
000070 c4 c7 98 bc 31 95 c8 be de 14 c1 3e 7b f8 fe be
       -0.018649943 -0.39176324 0.37711233 -0.4979895
000080 55 8d e8 be d6 77 6e be 38 04 14 bf dd 02 6d bd
       -0.45420328 -0.23287901 -0.5781894 -0.05786406
000090 3d 62 8d be 77 67 ce 3e 41 4e e2 be 04 ea fa 3c
       -0.27614012 0.40313312 -0.44200328 0.030629165
0000a0 1a 16 14 3f 9e 66 7d be 8e c8 88 3e b7 fa e3 be
       0.57846224 -0.24746177 0.2671551 -0.44527218
0000b0 1a 27 e1 3e c4 18 94 3d c4 d9 94 3e 7a 3f a0 be
       0.43975145 0.07231286 0.29072392 -0.3129843
0000c0 7d d7 58 3e 9b 2b 0b bf 62 79 84 3e 07 41 5a be
       0.21175952 -0.5436341 0.25873858 -0.21313868
0000d0 4d b8 4d be 10 5c 33 be ca 31 0f 3f 7a 65 c4 3d
       -0.20089836 -0.17515588 0.5593535 0.095896676
0000e0 cf af c6 3e d6 60 e9 3e 7b 5b e3 bd 6c 91 3a be
       0.38806006 0.45581692 -0.11101433 -0.18219537
0000f0 66 29 07 3f 27 db bd 3e da 79 dc 3e b4 04 6e 3e
       0.52797544 0.37081262 0.43061715 0.23243982

conv_layers.2.weight f4 [32, 64, 3]
000000 48 bf 8a 3d 7d 3f ba bb 11 15 1a 3d 6e 5f 92 3b
       0.06774765 -0.005683838 0.037617747 0.0044669425
000010 3b 75 f4 3c 49 4d dc bc 51 37 03 3d 94 b9 31 bd
       0.029841056 -0.026892321 0.032035176 -0.04338987
000020 d6 27 96 3c 4e 3b 02 bd ec 54 9c 3d 7a cb 7e 3c
       0.018329542 -0.03179484 0.07633385 0.015551442
000030 a0 95 7f bd 9c 07 2f 3c 72 15 90 3b 0a ad 41 bb
       -0.062398553 0.010682967 0.0043970877 -0.0029552602
000040 10 fe 97 3d 21 29 d7 bc c9 0d 1c bd 21 86 1e bd
       0.074215055 -0.026264729 -0.038099084 -0.038702134
000050 95 2e 0a 3c 1c 5b 28 3c 42 74 4b 3d d6 0e 35 bc
       0.008433958 0.010275628 0.04967142 -0.0110509
000060 1e 12 88 3c b4 44 3e 3c 6c e3 5e bc 65 57 46 3d
       0.016610201 0.01161306 -0.013604026 0.04842319
000070 63 69 9a 3d 56 31 69 3d 96 a3 ec bc 4e 35 a2 3d
       0.07539632 0.056931816 -0.028886598 0.07920323
000080 48 0e 1d 3d ec 0c b2 bc ad a3 28 3d 93 6e 6a bb
       0.038343698 -0.021734677 0.04117172 -0.0035771474
000090 f5 f7 77 3d 47 5f 2b bd 42 f3 ef bb 32 f9 52 bd
       0.060539205 -0.04183891 -0.0073226998 -0.051507182
0000a0 13 33 b4 3c ed 81 96 bb 89 dd a4 3d 85 e9 a8 3d
       0.02199701 -0.004593125 0.08050067 0.08247665
0000b0 b1 0a 66 3d 46 f6 52 3c 5d b8 e6 3c 34 a5 8b 3d
       0.05616254 0.012876099 0.028164083 0.06818619
0000c0 1b e6 c1 3c ae d5 3e 3d 8c f6 14 bd fa 21 6b bd
       0.023669293 0.0465905 -0.036367938 -0.05740545
0000d0 e8 2b e2 bc 28 62 3e 3d 06 84 eb bc 05 1a 0d 3d
       -0.027608827 0.046480328 -0.028749477 0.034448642
0000e0 59 32 81 3d 32 6a 55 3d e3 1b a6 3c 47 81 51 3d
       0.06308431 0.05210323 0.02027697 0.05114868
0000f0 bd 40 92 bc d0 db 15 3d c2 c6 95 3c a9 b9 32 bd
       -0.017853135 0.036586583 0.018283252 -0.04363409
000100 a2 4c 9e 3c 2b ea c3 3c a9 3f c9 3d f6 57 20 bc
       0.01932365 0.02391537 0.09826595 -0.0097865965
000110 d0 0e 8c 3d 44 6c 9d 3c 48 be 40 bd f6 69 0b 3d
       0.06838763 0.019216664 -0.047056466 0.0340366
000120 41 0a 96 3d 4e 82 40 bd b0 24 9e 3d ff c7 7c 3d
       0.073261745 -0.04699927 0.07721841 0.06171417
000130 55 68 21 bc 44 ac 6b bd 74 a8 f0 ba 6c 68 7a b9
       -0.009851535 -0.057537332 -0.001836075 -0.00023880758
000140 b0 ff 77 3c 33 83 9a 3c 41 ee 3c bd 53 62 bf bc
       0.015136644 0.018861389 -0.046125654 -0.023362314
000150 dd 3c af bc d4 08 28 bd 68 7b ab 3d 8f 91 99 3d
       -0.021391327 -0.041024044 0.08373147 0.07498466
000160 d3 d3 c5 bc f0 a8 32 3d 4c 31 22 bd e9 0e 8b bd
       -0.024148857 0.043618143 -0.039597794 -0.06789953
000170 f4 f2 82 3d 53 52 36 3d 14 4f 66 3d d4 3d bc bc
       0.06393996 0.044512104 0.05622776 -0.0229787
000180 63 2e c2 3b 00 55 4d bd ac 4c 08 bc f0 0e 66 bc
       0.00592594 -0.05012989 -0.008319061 -0.014041647
000190 85 be 5f 3c de d7 d6 bb d9 fb db 3c a5 a3 a8 3d
       0.013656263 -0.006556495 0.026853489 0.08234338
0001a0 b8 d9 b5 3d 73 9e 1a 3d 65 73 a1 3d 71 15 8b bc
       0.08879417 0.037748765 0.07883338 -0.016977997
0001b0 62 0d 74 bc ee 8d 89 3c 34 8b a9 3d cd ca b3 3c
       -0.014895769 0.01679131 0.08278504 0.021947289
0001c0 c2 95 89 3c cf a6 88 3d 9a 8b 0a bc 97 5a 57 3d
       0.016795043 0.06672441 -0.008456135 0.052576628
0001d0 d9 1e 53 bd 0a e0 ae 3d c2 ba 3b bc f5 5b 3a 3d
       -0.05154309 0.08538826 -0.011458101 0.045497853
0001e0 ca 46 47 bd db 59 8a 3c 3f 04 7d 3d 4b 66 6f 3d
       -0.048651494 0.01688855 0.061771628 0.058447164
0001f0 3f 64 b2 3d f2 a6 f3 3c e0 7b 5c bd 4a 89 dd 3c
       0.08710527 0.029742692 -0.053829074 0.027043004
000200 7b b7 6a 3c ef f0 c3 3c 0e 9a 32 3d 36 69 63 3d
       0.014325972 0.023918597 0.04360395 0.05552026
000210 b3 52 2b 3d 61 10 ca 3c c8 1c 2e 3d 99 5a c0 3d
       0.041826915 0.024666013 0.042507917 0.0939228
000220 5f 5b 39 ba ed 02 e3 3c f9 80 30 bd 0c 3e 8f 3d
       -0.00070708053 0.027711356 -0.043091748 0.069942564
000230 92 6f 6e bd 78 f3 b5 3c 14 cd 8b 3d 90 d7 25 3d
       -0.05821187 0.022210822 0.06826225 0.04048878
000240 d4 94 6d 3d 51 98 4b 3c 1e 50 00 bd 25 0f 5f 3c
       0.05800326 0.012426452 -0.031326406 0.013614451
000250 f4 a3 58 bd 17 1e 5b bc 1d 14 0d bd 68 82 0e 3d
       -0.052890733 -0.013373873 -0.03444301 0.034792334
000260 24 cd 9f 3d 46 54 b4 3d 56 fb 1b 3c 69 f8 8f bb
       0.07802799 0.088051364 0.009520372 -0.0043936265
000270 26 95 00 bd 8c 4d 97 3d e9 df 41 bd cf 79 b5 3d
       -0.03139224 0.07387838 -0.047332678 0.08861124
000280 9b c3 11 3d 2b b3 2b 3d 5a e2 40 bd 1a ab 11 3d
       0.035586935 0.041918915 -0.047090866 0.035563566
000290 c5 26 07 bd f3 6c 89 3d a1 89 f9 3d 92 fb f2 3c
       -0.032995958 0.067102335 0.12184454 0.029660974
0002a0 89 f6 3e 3d 7d 91 51 3d 08 30 ec bc e8 a3 86 3d
       0.046621833 0.05116414 -0.028831497 0.065742314
0002b0 41 fa 81 bc c2 13 29 bb 47 68 30 3b 6c 1c 42 3c
       -0.0158664 -0.002579913 0.0026917623 0.011847597
0002c0 13 db 8c 3d 31 5a 6c bc 54 36 46 bd cd e6 1a 3d
       0.068777226 -0.0144258 -0.048391655 0.037817765
0002d0 b1 8d ea bc 63 db 8f 3d 2b 41 91 3c 68 49 9b 3c
       -0.028632017 0.070242666 0.01773127 0.018955901
0002e0 1a 4a 08 3a 5e b6 18 bd bc 55 4b bd 54 0e d5 bc
       0.000519903 -0.037283294 -0.04964231 -0.026007809
0002f0 d6 d0 31 bd bf f3 ab 3d f9 e6 8b 3d 1b 2a 28 3c
       -0.043412052 0.083961 0.06831164 0.010263945
000300 b8 74 fc bc 5d 16 c5 bc 2d 72 2f 3d 17 27 af 3c
       -0.030817375 -0.024058515 0.042833496 0.021380944
000310 1c f0 f3 3c c5 8f 63 3c 22 08 a1 3d 8a ff 00 3d
       0.029777579 0.013889258 0.07862879 0.0314937
000320 4c c9 61 3d ec ad 50 3d dc d9 01 bd 19 41 3d bd
       0.055123612 0.050947115 -0.031701908 -0.04620466
000330 ea dc 3b bd 1d ed a7 3c 69 4c 12 3d d3 95 14 bd
       -0.045864977 0.020498807 0.0357174 -0.036275696
000340 f3 4c a9 3d 3b 6f 24 3d d0 1b 1a 3d 2c 55 67 3c
       0.0826663 0.04014514 0.03762418 0.014119428
000350 31 a7 00 bc b3 96 13 3d 9a ae 7b bd 62 54 ed 3c
       -0.007852362 0.03603239 -0.06144581 0.0289709
000360 fc 2a 9d ba f6 5f 16 3c 5d ce 24 bb 19 8f 0d bd
       -0.001199096 0.009178152 -0.0025147416 -0.034560297
000370 cf 28 3b bd ad e1 3a bd d6 05 28 3d 24 c3 7d bd
       -0.045693215 -0.045625377 0.04102119 -0.06195368
000380 79 e8 66 bc e3 fc b1 3c 38 e6 1a bd ef 5c 93 bd
       -0.014093512 0.021727031 -0.03781721 -0.0719546
000390 0a 4e 3f bd e6 91 d6 3c 2e d7 53 3d bb c9 a3 3d
       -0.046705283 0.026192617 0.051718883 0.079974614
0003a0 07 14 a3 3d b1 db 81 bd c6 a4 6b 3d 36 a9 af 3b
       0.07962804 -0.06340731 0.057530187 0.0053607477
0003b0 29 5c 43 bd eb 87 49 bc a1 57 5f bd a2 d2 ee 3c
       -0.047695313 -0.012300472 -0.05452693 0.029153172
0003c0 db 73 79 3b c2 97 58 bd e7 bd 19 3c d9 59 59 3c
       0.003806344 -0.052879103 0.009383655 0.01326605
0003d0 93 23 83 bc e2 e3 81 bc fa 40 45 3d c0 ed 65 3d
       -0.016008174 -0.015855733 0.04815767 0.05613494
0003e0 5f d2 03 3d dd c4 9f 3d 7d 31 80 3d 65 1a 0c 3d
       0.032183047 0.078012206 0.06259439 0.03420486
0003f0 ee e9 a7 3c 8a f9 74 3d 05 41 60 bd b9 b2 31 3d
       0.020497289 0.05980829 -0.054749507 0.043383334

conv_layers.2.bias f4 [32]
000000 d1 bc 66 3c 87 df 6c bd d1 58 3b 3d d2 c4 3b 3d
       0.014083103 -0.05783036 0.045739 0.045842
000010 b5 76 9b 3d a5 54 87 3d f9 7f c5 bc cc e4 c3 3d
       0.07591001 0.066079415 -0.024108874 0.09565124
000020 8c fa 90 3d f4 00 a2 3c 61 4a 95 3d 93 87 c3 bc
       0.07079038 0.019775845 0.07289577 -0.023868358
000030 b7 36 51 3d 75 47 bb 3d 44 5f d4 3d 44 bc 2e bd
       0.05107757 0.09144489 0.10369733 -0.042660013
000040 9b 57 21 bd 72 e7 3e bd dd c5 9b bd c5 e6 87 3d
       -0.039390188 -0.046607442 -0.07606099 0.06635813
000050 6b 67 6d bc 6d 57 c4 3b ae 94 0f 3d 46 3a 64 3d
       -0.014489989 0.0059918673 0.0350539 0.055719636
000060 67 dd 5b 3d a6 1a ec bc 0e cd 57 3d 7f f1 af bc
       0.053677943 -0.0288213 0.05268579 -0.021477459
000070 35 a8 a2 3d 89 51 c0 3d be 23 fb 3c 60 0c 37 3d
       0.07942239 0.093905516 0.030656692 0.044689536

lstm.weight_ih_l0 f4 [128, 32]
000000 15 5d 04 3e 7b 8b a9 3d 26 5d 5c bd 18 86 ea bd
       0.12926133 0.08278557 -0.05379977 -0.114513576
000010 ab 01 75 3e ca f9 40 3b 0e a2 49 3b 50 70 17 3e
       0.23926418 0.002944576 0.0030766758 0.14788938
000020 33 a5 cf 3c c3 8d 5a 3c ea d0 10 3e ec b2 20 bb
       0.025347328 0.013339463 0.14142194 -0.0024520708
000030 39 71 90 3d 86 d3 c2 bd dd f3 39 3e 96 38 6e 3d
       0.070528455 -0.09513001 0.18159433 0.058159433
000040 9e 7e 49 bd 07 cc b0 bd 2c da 18 3c 16 ed d2 3d
       -0.049193017 -0.08632665 0.00932936 0.10299127
000050 0b 10 2c 3e be 95 22 be fe 0f f6 3d 3b 33 5b 3b
       0.16802995 -0.15877435 0.12014769 0.0033447284
000060 c9 4b 5d 3c 26 f9 00 3e 05 ac bf 3d 4c 4c 04 3e
       0.013506838 0.12595043 0.09358982 0.1291973
000070 57 a9 aa bd c9 80 2a 3e 19 20 01 3d eb e1 26 3e
       -0.0833308 0.1665069 0.03152475 0.16297118
000080 37 e3 b1 bd 3a 5f af bc 31 48 b2 3c 2d 8c 3b 3e
       -0.08685916 -0.021407712 0.02176294 0.18315192
000090 9f f5 a4 bd 1f cc 2d bd 9f e8 08 3e 5d 44 68 bd
       -0.08054661 -0.042430993 0.13369988 -0.05670582
0000a0 28 90 aa 3d 3d ac 0f 3e 0b 9d 91 3d aa e2 16 3e
       0.08328277 0.14030547 0.07110032 0.14734903
0000b0 3b d5 a9 bc f2 79 80 bd 58 8d 04 be 97 31 33 bd
       -0.020731559 -0.06273259 -0.12944543 -0.043748464
0000c0 9e 98 25 be 47 53 2d be b9 0b a9 3c 04 f4 0b 3e
       -0.161715 -0.16926299 0.020635473 0.13667303
0000d0 28 9d 24 3e 82 c0 21 3e 37 cc af 3d 3b a4 24 bd
       0.16075575 0.15796092 0.08583873 -0.040195685
0000e0 b4 58 ed 3c e7 71 91 3d 05 a5 b0 bd 92 d5 9f 3d
       0.028972961 0.07101803 -0.08625225 0.07804407
0000f0 dd c5 0f 3e fe d0 aa bb f3 bd 24 3e b7 d8 a1 bd
       0.14040323 -0.005212902 0.16088085 -0.07902663
000100 25 b5 9f 3c 66 d4 bf bd d1 04 c2 bd 6e 07 2d be
       0.019495556 -0.09366684 -0.09473575 -0.16897365
000110 60 f8 b5 3d de f4 5c 3d 21 3b 86 3c 2f c4 f3 3d
       0.088852644 0.05394446 0.016385617 0.119026534
000120 39 5b c7 3d 9d 5f 20 3e 0c 70 1e 3e 85 53 42 bd
       0.09734196 0.15661474 0.1547243 -0.04744293
000130 cc 21 32 3e c0 e4 96 bd 19 b3 cd bb 7d 23 39 3e
       0.17395705 -0.07367849 -0.0062774536 0.18079944
000140 dc 6c 39 3c 43 93 81 3d 09 06 af bd 0b d9 42 3e
       0.011317458 0.06326916 -0.08546073 0.19028108
000150 9d 6d 7c bd ce 63 ae bc fa 3d 95 3c f0 bc 9f bd
       -0.061627973 -0.021287825 0.01821803 -0.07799709
000160 0b cb 10 be 81 1b 2f be fb 3d 28 bd 00 8c e6 3d
       -0.14139955 -0.17100336 -0.041074734 0.11257172
000170 86 c2 2a 3e 17 79 7e 3d ef 70 94 bd 11 3e ab 3d
       0.16675767 0.0621272 -0.07248103 0.083614476
000180 0c ff d3 bd 2b 29 2c bd 84 a3 a2 3d 40 e3 35 3e
       -0.10351381 -0.04203145 0.079413444 0.1776247
000190 2e e8 cb 3d 7c a5 ca bd a7 38 25 3e 87 f7 9f bd
       0.09956394 -0.09894845 0.16134892 -0.07810884
0001a0 c7 30 1b 3d 89 bd 2b bc 88 80 bc 3d cc 78 4c bd
       0.037888315 -0.0104822 0.09204203 -0.04991989
0001b0 49 00 2d 3e 8e 83 3a 3e ba 6b 8f 3b a3 05 21 be
       0.1689464 0.18214247 0.0043768557 -0.15724806
0001c0 c0 bd 7d 38 a4 72 a4 bd 4e 73 bd 3c 89 8f d2 bd
       6.049662e-05 -0.080296785 0.02312627 -0.102812834
0001d0 a6 fd c8 3d ae 70 77 3d c4 ad 43 3e 61 25 2c 3e
       0.098140046 0.060410194 0.19109255 0.16811134
0001e0 99 fd 08 be 3a f2 f0 3d ed ec f8 bb 1e 82 77 bc
       -0.1337799 0.11764951 -0.007596603 -0.015106706
0001f0 9b 45 10 be 63 b2 a9 bd d5 a4 26 3e 48 c6 34 bd
       -0.14089052 -0.08285978 0.16273816 -0.04413441
000200 df c6 20 3e 2b b9 98 3d 5b 8c 0b be 71 ce b3 bd
       0.15700863 0.07457193 -0.1362776 -0.0877961
000210 25 3d 26 3e 55 d4 57 3d 3c b2 78 bd fd 2d e2 bb
       0.16234262 0.05269273 -0.060716853 -0.006902455
000220 07 37 88 ba 00 eb 22 be 65 f8 3a 3e 9a d7 19 be
       -0.0010392376 -0.15909958 0.18258817 -0.15023652
000230 bf 40 4f 3c f3 b0 58 3c 55 7b 11 3e 33 df 05 be
       0.012649714 0.013225782 0.14207204 -0.13073425
000240 9e 32 8c bd e1 a9 08 3e 34 69 48 3e 62 e2 86 bc
       -0.06845592 0.13346054 0.19571382 -0.01646537
000250 dc b9 e2 3c 57 27 27 bd 8b 14 18 bd 05 1f 05 3d
       0.027676515 -0.040809 -0.037128966 0.032500286
000260 71 70 20 3d c9 31 81 bd 46 ad 41 3d c6 0b ec bd
       0.039169732 -0.06308324 0.047284387 -0.11525683
000270 39 e1 82 3d dc c6 3d 3e d9 56 e6 bd a3 1f 01 bd
       0.06390614 0.1853289 -0.112470336 -0.03152431
000280 3a 68 d3 3b d8 7b da 3d f9 99 c4 bc d4 c9 05 3e
       0.0064516338 0.106681526 -0.023999201 0.13065273
000290 61 64 6d 3d 60 d0 86 3d fd 53 81 bd 7c 41 0e 3e
       0.057957057 0.06582713 -0.063148476 0.13892168
0002a0 c6 0b 05 3e 6f 0d c1 3d 19 c4 95 3d 52 aa 1a 3d
       0.12992772 0.094263904 0.07312793 0.037760086
0002b0 3c 71 ac 3d d6 19 23 3c 68 f0 16 be 7b 51 75 bc
       0.08420035 0.00995489 -0.14740145 -0.01497304
0002c0 f4 21 09 bd 74 5a 1e be f6 f5 7c 3c 85 b3 14 3e
       -0.033479646 -0.15464193 0.015439501 0.14521606
0002d0 6a 0c 41 bd 33 8c 7c 3d af 5e ff 3d fb 57 93 bb
       -0.04713098 0.061657142 0.12469231 -0.004496572
0002e0 d9 75 06 be 1c 8c cd 3d 7c 47 27 be 71 69 0a be
       -0.13130893 0.10036489 -0.16335863 -0.13516785
0002f0 1b 00 d7 3d 0c 5e ca bc ee 7b 04 3d fd cc e8 bd
       0.10498067 -0.024703048 0.03234475 -0.113672234
000300 21 19 d3 3d e8 58 2a be 4d d9 98 bd 85 ca 89 3d
       0.10307527 -0.16635478 -0.07463322 0.06728081
000310 2a f0 d5 bd 97 c7 de bd 9e 88 20 3e 61 0a fe bc
       -0.10446198 -0.108779125 0.15677115 -0.031010808
000320 c6 cf 2e 3e 2d 97 1f be c1 aa 20 3e 8f 30 06 be
       0.17071447 -0.15585013 0.15690137 -0.13104461
000330 76 f7 3a 3e 88 84 68 bd 3a 30 93 3b df c6 e1 3d
       0.18258461 -0.056767017 0.004491833 0.1102426
000340 53 f9 ed bd 53 87 97 bd 29 7b 75 3d 08 c9 b9 bc
       -0.116198204 -0.07398858 0.059931908 -0.022678867
000350 e5 21 8d 3d 43 e5 26 3d 5d ec 7b 3d 2b 20 21 3e
       0.068912305 0.040745985 0.06150471 0.15734927
000360 3c 58 4c bc eb c8 2f 3e de b5 21 bd 8b 0f a9 3d
       -0.012472209 0.17166488 -0.039480083 0.08254918
000370 bb 87 b7 3c a6 4b 65 bd 89 a9 bf bd 15 2f 05 be
       0.022403589 -0.055980347 -0.09358508 -0.13006242
000380 64 3f 30 3e 49 c9 2b 3c e7 c2 d2 bd f0 6e 00 be
       0.17211682 0.010485002 -0.10291081 -0.1254232
000390 1c 1d 93 bd 16 c4 47 3e 71 b0 95 3d 91 2a cf 3d
       -0.071832865 0.19508395 0.07309044 0.10115541
0003a0 66 f5 d3 3d d1 6c a2 bc 09 7b 6f 3d 4c 05 fd 3d
       0.103495404 -0.019827278 0.058466945 0.12354526
0003b0 64 04 d6 3c 20 86 70 3c 60 88 c9 3d 8b 2a 02 bc
       0.02612514 0.014680415 0.098404646 -0.007944713
0003c0 70 cf 02 3d 79 a3 06 be 97 2e 2c 3e 32 86 92 bc
       0.03193611 -0.13148297 0.16814648 -0.017886255
0003d0 3a 0d 96 3d 5f da 46 3b 14 20 24 be 0c 6f 3f 3d
       0.073267415 0.0030342562 -0.16027862 0.046736762
0003e0 3f 78 bd 3c 79 c5 7e 3d 6b 66 e0 3c 27 59 3b 3c
       0.023128627 0.062200043 0.027392587 0.01143483
0003f0 9c 84 10 bd 66 7d 43 3e fc 0b 44 3e d9 9c 27 3e
       -0.035282716 0.19090804 0.19145197 0.16368426

lstm.weight_hh_l0 f4 [128, 32]
000000 72 f6 5c 3d fd ce 30 be 75 50 4e 3d ee 4b 59 be
       0.053945966 -0.1726646 0.0503697 -0.21220371
000010 d5 d6 2c 3e 59 cf 00 be 3e 57 d7 3c 69 2c 4b 3c
       0.16878827 -0.12579097 0.026286718 0.012400725
000020 05 fa 17 3e b3 fd f3 3d 09 8a fa bd e3 c6 1b 3e
       0.14841469 0.11913624 -0.12233359 0.15212588
000030 de a8 07 3e 94 4e 84 3d a1 76 3a be 20 8f 01 bd
       0.13248011 0.064603 -0.18209316 -0.031630635
000040 fd 96 f7 bd 93 35 31 be 96 83 00 3e 0e 38 f0 bd
       -0.120893456 -0.17305593 0.12550196 -0.117294416
000050 d0 c3 43 be 94 50 f8 bd 22 46 df bd 31 c9 c3 3d
       -0.19117665 -0.12124744 -0.10902049 0.095598586
000060 51 0a 98 bc 09 fd df bd 9d 94 2e be 34 92 9c bd
       -0.018559607 -0.109369345 -0.17048879 -0.076450735
000070 7f cc eb 3c 41 cc f3 3d 06 ff 2e 3d 23 32 ef 3d
       0.028784035 0.11904193 0.042723678 0.11679485
000080 b8 c9 00 be c4 36 1d 3e af 91 a9 3d 13 51 27 be
       -0.1257695 0.15352923 0.0827974 -0.16339521
000090 03 0d 4d 3d ed 90 f8 3c 84 c2 31 bd 62 89 62 3c
       0.050061237 0.030342543 -0.043398395 0.0138267
0000a0 44 c1 88 bd 2a 07 3c 3e 4f 21 e4 bd 99 1c fb bd
       -0.066774875 0.18362108 -0.111391656 -0.12261314
0000b0 0b bd 3d be 18 09 db bd ed 69 e8 3d 5b 34 11 3d
       -0.18529145 -0.10695094 0.11348329 0.03545032
0000c0 82 0d 29 bd d6 bb 12 3e 96 65 0e be 5d 36 bd bd
       -0.041272648 0.14329466 -0.1390594 -0.092388846
0000d0 15 3d 1b bd bb 51 00 be 25 7d a1 3d d9 40 b4 bc
       -0.03790005 -0.12531178 0.078851976 -0.022003578
0000e0 66 65 ca 3d d4 2e a7 bc fd 2a c4 3d 14 bf a3 3d
       0.098826215 -0.020408072 0.09578512 0.0799543
0000f0 fa 70 e8 bd 81 c8 9e 3d 29 bf 16 bd 55 97 dc 3b
       -0.113496736 0.07753087 -0.0368034 0.0067319074
000100 77 0c fc 3d 90 cd 05 3e 39 ef cd bd 9d 8d 2a be
       0.12307065 0.13066697 -0.10055394 -0.16655584
000110 97 27 61 bc 91 8f af bd 6c 49 38 3d 0b 79 1b 3c
       -0.013742349 -0.08572305 0.044991896 0.009489308
000120 d6 5c a5 bd 77 29 cc bc e3 a2 04 3e 59 42 77 3d
       -0.08074348 -0.024922116 0.12952761 0.06036601
000130 2a 0b f4 3a b4 d1 74 3e dd 10 17 bb 2d ac bb 3d
       0.001861905 0.2390812 -0.0023050823 0.09163699
000140 17 60 eb bd fa 26 2f be e7 60 3f 3d 0c 1f 02 be
       -0.11492937 -0.17104712 0.046723273 -0.12707156
000150 39 16 b8 bd af 57 ba bd c6 f4 2d bd b6 ea c9 3d
       -0.08988614 -0.090987556 -0.042469762 0.09859221
000160 be b2 be bd 4a 6f 84 3c 2b 87 23 3e 1e 4a 0b 3e
       -0.09311436 0.016166348 0.15969531 0.13602492
000170 2b eb bd bc 1a 92 38 bc 66 55 dd bd ac 75 10 3e
       -0.023183426 -0.011265302 -0.10807304 0.14107388
000180 e9 eb bc 3c 31 76 de 3d 8b a2 07 3e c6 95 48 3d
       0.02306171 0.10862387 0.13245599 0.04897096
000190 b4 ed 13 bd 6f 7c 9f 3d 13 25 a5 3d af 50 0a 3e
       -0.036115363 0.07787406 0.08063712 0.13507341
0001a0 02 3d 29 3e a1 ec cb bd 85 a5 31 3e 4c d9 25 be
       0.16527179 -0.09957243 0.17348297 -0.16196173
0001b0 6a a0 ba 3d ae c6 ad 3b 4b 63 43 3d 04 2b ac 3d
       0.09112628 0.0053032255 0.047702115 0.08406642
0001c0 9a 57 5c 3c 4c 17 30 3e de e0 e1 bd 90 45 b0 bd
       0.01344862 0.17196387 -0.11029218 -0.08607018
0001d0 15 99 1a bd b5 fa 24 be 45 14 a4 bd 5b 8b f0 bd
       -0.037743647 -0.16111262 -0.080116786 -0.1174533
0001e0 87 99 95 3d 5a 4f 69 bc d1 e4 15 be ee 65 c8 3c
       0.07304674 -0.01424011 -0.14638068 0.024462666
0001f0 7f 4e b8 3d ce af e2 3d 92 08 46 3d 45 cb 80 3d
       0.08999347 0.11068688 0.048348017 0.062887706
000200 d0 05 83 3d 14 2d b4 bd e2 96 1c bd 1c f2 0d bd
       0.06397593 -0.087976605 -0.03822983 -0.03465472
000210 5e ce 28 be ed 54 b8 bd fb 6b 2d be 06 68 f6 bd
       -0.16484973 -0.09000573 -0.16935723 -0.1203156
000220 47 e5 16 3e f1 c1 28 3e 06 b1 85 3d 22 48 b0 3d
       0.147359 0.16480233 0.06527905 0.08607508
000230 bf 33 e4 bd 3e 53 3a 3e 84 01 e3 3d e4 f2 8f 3c
       -0.11142682 0.18195817 0.110842735 0.017571874
000240 a5 f5 0c 3e a0 95 1b be 05 e2 46 bd 1e f1 5f 3d
       0.13765581 -0.15193796 -0.048555393 0.054673307
000250 83 9e 05 3d 82 ae 20 be 3c 77 c2 3d d6 25 f8 bd
       0.03262187 -0.1569157 0.094953984 -0.12116592
000260 1c e1 c0 bd 60 80 b5 3d 1d b1 c8 3b 3d 82 1b 3e
       -0.09417936 0.08862376 0.006124629 0.151864
000270 8f 88 67 bd d5 4b 22 bd 90 43 b8 bd 85 eb 00 bd
       -0.056526717 -0.0396231 -0.089972615 -0.03147461
000280 bd 4b 0d be d9 d0 38 3e 0c 5c 18 3d 58 ba fc bd
       -0.13798423 0.18048419 0.037197158 -0.1234023
000290 d4 5b f5 bd 19 8a 2e bd 86 ec 0a 3e 75 5e 30 bb
       -0.119804054 -0.04261217 0.13566789 -0.002691177
0002a0 c7 1c 06 3e 4a 88 2e bd 6d e1 8f bd d9 a0 e8 3d
       0.13096915 -0.042610444 -0.070254184 0.11358804
0002b0 88 59 f7 3d e1 28 21 3e cb 03 14 3e 6e 28 00 3c
       0.120776236 0.1573825 0.14454572 0.007822139
0002c0 ba 31 eb bd 13 58 01 3d 8a 48 bb bd 79 1c 3a 3e
       -0.11484094 0.031578135 -0.09144695 0.18174924
0002d0 4e 37 f1 3d c8 d7 ed 3d 9c 19 e1 bd b3 13 94 bd
       0.11778127 0.11613423 -0.10991213 -0.0723032
0002e0 a3 c2 62 bd d1 77 7f 3d fe b8 02 3d f5 7d 84 3c
       -0.0553614 0.062370125 0.031914704 0.016173342
0002f0 4e 93 57 bd ba a9 35 be 19 d7 42 be 40 c8 2f be
       -0.052630715 -0.17740527 -0.19027366 -0.17166233
000300 e5 83 98 bd 04 ba a7 bd dc 47 3a 3e 46 76 2d be
       -0.07447032 -0.081897765 0.18191475 -0.16939649
000310 34 55 8b bd bf f4 2b bc c1 a0 91 3d 1d 08 24 bc
       -0.068033606 -0.010495364 0.071107395 -0.0100117
000320 90 de fd 3d 44 db 7b bb 1b 4c fa ba e1 f5 80 3d
       0.12395966 -0.0038430253 -0.0019096168 0.06296898
000330 9b 07 5c 3d ce cc 07 3d d0 ef 99 bd 32 83 14 3e
       0.05371819 0.0331543 -0.07516444 0.14503172
000340 a0 3f 26 be 7d 64 d4 bd 30 9a 8c 3d ae 4d 94 bd
       -0.16235209 -0.10370729 0.068653464 -0.07241379
000350 6d 6d d1 bd e4 1e 03 be e8 57 9d 3d e3 d8 c2 bd
       -0.102259494 -0.12804753 0.076827824 -0.09514024
000360 45 74 1f 3e e4 1d eb 3d a0 58 07 3e 77 ec e5 3c
       0.15571697 0.114803106 0.13217402 0.028066857
000370 4c d3 07 3e 41 49 92 3b 11 48 80 bc f8 4a 1c be
       0.13264197 0.004464299 -0.015659364 -0.15262973
000380 99 30 aa 3d c7 7e c8 3d 5b 8d 12 be 46 30 06 3c
       0.083100505 0.09789806 -0.14311735 0.00819022
000390 32 e2 66 bd d2 c8 a2 3d 62 c9 8c bd d3 aa 29 3e
       -0.05636806 0.0794846 -0.06874348 0.1656907
0003a0 0e a8 cb bd 9f 1e 3f 3e 6e 29 ac bb 12 c1 fc 3c
       -0.09944163 0.18664025 -0.0052539622 0.030853782
0003b0 47 de 23 be 2a 2e 26 bc 3d ac 89 3c 7e fe 41 bc
       -0.16002761 -0.010142842 0.016805762 -0.011840461
0003c0 93 bd 74 3d 8c 25 f8 bd ad 67 7b 3d 8a 33 28 3e
       0.059751105 -0.121165365 0.06137817 0.1642591
0003d0 de 86 0e 3e 45 a4 0f 3c 60 a3 b5 bc f0 79 5e 3e
       0.13918635 0.008767192 -0.02217263 0.21726203
0003e0 bf 96 70 3e 6f 89 98 3c 67 bd 4a 39 b9 95 97 bd
       0.23495005 0.018620221 0.00019334779 -0.07401604
0003f0 e5 f7 a7 bd 33 3b de 3d 33 1c 15 3e 11 db c3 bd
       -0.08201579 0.10851135 0.14561538 -0.09563268

lstm.bias_ih_l0 f4 [128]
000000 f6 53 8a bd ac ad 36 bd 34 85 db 3d 00 f9 fa 3d
       -0.067542955 -0.04459922 0.10718766 0.12254524
000010 c6 26 25 bd 84 7c 04 3e bb a9 f6 bc 00 e6 43 3e
       -0.04032018 0.12938124 -0.03011023 0.19130707
000020 a8 9c a0 3d b7 9b 1a 3e f4 73 01 3e 88 ae 93 3d
       0.0784238 0.15098463 0.12641889 0.072110236
000030 cd bd 0b 3e 67 c0 1f 3e 13 9d 5d 3e 8b f4 03 be
       0.13646622 0.1560074 0.2164195 -0.12886254
000040 2e 8c 69 bc f3 ea 9b bc 2a 55 e7 3d 2d 0d 8f bd
       -0.014254613 -0.019032931 0.11295541 -0.06984935
000050 15 cf 4a 3e 2f 73 ce 3d bd 3c 82 bd fd 54 a2 3c
       0.19805558 0.10080563 -0.06359241 0.019815916
000060 a4 67 e5 bd 36 ca 4b 3d 3b 12 6f 3c 21 d0 cf 3d
       -0.112014085 0.04975339 0.014591749 0.10147119
000070 3d c1 09 3b 6a db 92 bd 0b e2 5b 3d 32 91 11 3d
       0.002101972 -0.07170756 0.05368237 0.03553886
000080 68 6b 13 3e 4c d0 16 be c5 df 40 3e 77 79 8e bd
       0.14396441 -0.14727896 0.18835361 -0.06956761
000090 e2 d0 a2 3d d2 67 cc 3d 81 0a 0f 3c 4b 80 26 bd
       0.079499975 0.0998074 0.008730532 -0.040649693
0000a0 ef 0c b8 3d 68 86 44 bc d7 11 e4 3d f5 31 0e bc
       0.08986842 -0.011994936 0.11136215 -0.008678903
0000b0 91 8f 02 3d 47 8c c3 bd 1e 6b d1 bd 6a 78 26 bd
       0.031875197 -0.0954824 -0.10225509 -0.04064218
0000c0 73 14 29 3e 78 3f 84 3c b0 e0 49 bd f2 16 27 3e
       0.16511707 0.016143546 -0.049286544 0.16317347
0000d0 07 14 c3 3d 36 23 c5 bb 96 8e 6d 3e 38 84 c4 bc
       0.09525304 -0.0060161604 0.23198923 -0.023988828
0000e0 82 e5 9c 3d ba fb fd bd ec 8d 95 3d 0b 04 9b bc
       0.07660963 -0.12401529 0.0730246 -0.018922826
0000f0 a6 78 6f 3d 4e bd 0f be 86 2a 6e bd 89 8a 0d bd
       0.05846467 -0.14037058 -0.058146022 -0.034555946
000100 24 d9 c1 3d 5f 04 f3 3d 78 06 0b 3e 30 40 b7 bd
       0.094652444 0.11866068 0.13576686 -0.0894779
000110 c6 ed f6 3d f0 05 cd bb 88 22 ec 3c 38 62 a9 bc
       0.120570704 -0.0062568113 0.02882506 -0.020676717
000120 59 eb fb bd 3d 5c 4c 3d 0b 29 0c 3d 91 86 a4 bd
       -0.123007484 0.049892653 0.03421883 -0.08033479
000130 7b 93 91 bc e7 cc 6b bc bf f6 ba 3d 2e fc e7 bc
       -0.01777052 -0.014392114 0.09129094 -0.02831849
000140 8e ef 43 bb 0c d8 46 3e aa 83 4d bc 64 ee 98 bd
       -0.0029897424 0.19418353 -0.012543598 -0.074673444
000150 7a b4 7a 3d fe eb 29 bd c9 58 a4 3c d0 cf 03 3c
       0.061207272 -0.041484825 0.020061867 0.008045152
000160 dd 41 64 bc 43 91 31 bd f0 2b 1d 3e 20 d9 87 3c
       -0.013931719 -0.043351423 0.15348792 0.016583025
000170 f8 ca bd bd 61 97 2c be 66 f3 e4 3d fd 20 ba bd
       -0.09267229 -0.16854621 0.11179237 -0.09088323
000180 1f a9 bd 3b e0 7e b4 bd 43 37 9c 3d e1 82 87 bc
       0.005787983 -0.08813262 0.07627728 -0.0165419
000190 d3 c9 1d 3e 1d 55 08 3d 41 f3 fc 3b 83 79 5f 3d
       0.15409021 0.033284295 0.007719428 0.054559242
0001a0 2c cd 0f be a5 cb b0 3d 49 36 31 3e 77 66 bc bd
       -0.1404311 0.08632592 0.17305864 -0.09199231
0001b0 b2 b5 d2 bd 6f 11 e6 3d a8 05 5d 3e 70 a3 1d be
       -0.10288562 0.11233794 0.21584189 -0.15394378
0001c0 98 fe fa bd 14 fe dd 3d f7 46 fe 3d 64 75 5a 3d
       -0.12255591 0.10839477 0.12415879 0.05333461
0001d0 f6 89 19 3e 1d 13 17 be 5a 48 b3 bd 9f 8a 80 3d
       0.14994034 -0.14753385 -0.08754034 0.0627644
0001e0 dc cf da bd db 81 7d 3d 44 e7 8b 3d 88 01 1d 3e
       -0.10684177 0.061891418 0.0683122 0.15332615
0001f0 68 bd ad 3d 7e 28 17 be a4 38 01 3d ff 00 8f bc
       0.08483392 -0.1476154 0.031548157 -0.01745653

lstm.bias_hh_l0 f4 [128]
000000 27 8d 8d 3c b1 06 0d be 58 4a 8f bb 85 20 2d 3e
       0.01727922 -0.13772084 -0.004372876 0.16906936
000010 68 83 0e be 12 a2 c3 bd 49 8e 19 3d aa 1c e7 bd
       -0.13917315 -0.09552397 0.03748921 -0.11284764
000020 78 05 82 3d 70 f7 dc bd ce fd 23 bd 93 c4 c1 bc
       0.06348699 -0.107893825 -0.04003697 -0.023653304
000030 34 f6 e3 bb 91 78 44 bd c6 7b 9e 3c f2 04 a5 bc
       -0.00695684 -0.047966544 0.01934613 -0.02014396
000040 92 8e 0a 3e 5a 17 c8 bd d5 92 0e be db 7e 41 3e
       0.13530949 -0.09770079 -0.139232 0.18896048
000050 a1 b9 12 bd ed 1d e0 3d 36 cf 99 3d 11 47 56 bd
       -0.03582156 0.10943208 0.075102255 -0.052313868
000060 72 ca 35 3a d7 c5 75 3e 18 b9 6a 3d 29 af 4f 3d
       0.0006934769 0.24001251 0.057305425 0.050704155
000070 03 3d 49 bc e1 94 a5 bd 8c 00 b9 bc b3 b0 de 3d
       -0.012282613 -0.08085037 -0.022583269 0.108735465
000080 ba ef e2 bd 0e aa 3f 3e 21 8c 5e bd 01 e8 f9 bd
       -0.110808805 0.18717214 -0.054332856 -0.12202454
000090 fb 35 ab bd dc 24 0f be a4 03 39 3e 34 fb 49 3e
       -0.08359905 -0.13978904 0.18067795 0.19724733
0000a0 5c 21 3d bd cd cd 28 3e 37 a0 b1 bd f2 a0 80 bd
       -0.046174392 0.16484757 -0.08673137 -0.06280698
0000b0 98 6c 61 bd 59 02 eb bd 23 9d 57 bc df c8 2e 3e
       -0.055035204 -0.11475057 -0.013160023 0.17068814
0000c0 33 40 a5 3d 6c 4d 98 3d b4 3e 05 bc 98 b6 0f be
       0.08068886 0.07436642 -0.008132625 -0.14034498
0000d0 0e a7 bb 3d aa df 35 bd 07 71 98 3d 88 9a 3b bc
       0.091627225 -0.044402756 0.07443433 -0.011450417
0000e0 c0 17 a2 3d 54 bf d1 bc 62 31 2c be 2e c3 a0 bd
       0.07914686 -0.025603928 -0.16815713 -0.078497276
0000f0 be 83 02 3e c8 7d 56 3d d9 fe 44 3e 62 9c 2c 3e
       0.12745568 0.052366048 0.19237842 0.1685653
000100 59 c2 cc 3d 45 40 a9 bc ea 9f 13 bd 1d a3 79 3d
       0.099980064 -0.020660529 -0.036041178 0.060946573
000110 e1 16 3f be c5 f6 97 3d 49 bc 09 be 4c 56 0f 3e
       -0.18661071 0.074201144 -0.13450731 0.13997763
000120 87 58 40 3e c0 1c e8 bd 82 01 ef 3d a1 23 f1 bd
       0.1878377 -0.113336086 0.116702095 -0.11774374
000130 a7 60 8e 3d 98 6e 47 bc 39 43 e1 bc 48 62 b9 3c
       0.06952029 -0.012172364 -0.027497875 0.022629872
000140 ef f1 7c 3d 4d 7b 08 be 59 e8 a9 bd 2d b0 03 3e
       0.061754163 -0.13328286 -0.0829627 0.12860174
000150 8e fe 08 3d 75 7d 00 3e 90 b4 f9 bd 65 a3 a7 bd
       0.033445887 0.12547858 -0.12192643 -0.08185462
000160 91 79 00 3e ca a8 e0 3d f2 3c 0a 3e 1d 7b 6a bd
       0.12546374 0.10969694 0.13499811 -0.057246316
000170 3d 80 94 3c a0 33 d5 bc 87 2b 99 3d 6b b7 13 be
       0.018127555 -0.026025593 0.07479005 -0.14425437
000180 da e0 d4 bd a1 5d d5 bd 91 98 b6 bd d7 57 13 3e
       -0.103944495 -0.10418249 -0.089158185 0.14388977
000190 d1 b6 43 bc a8 1c ec bd a1 a1 1f 3e 5a 59 de bd
       -0.011945442 -0.11528903 0.15589 -0.10856886
0001a0 70 7b 04 be 82 15 14 be d3 d0 47 bc 06 01 3b 3e
       -0.12937713 -0.1446133 -0.012195784 0.18262109
0001b0 7e be 46 3e 5f 11 20 3e 36 ce ba 3d 5e cc 97 bd
       0.19408605 0.15631627 0.09121363 -0.07412027
0001c0 05 0c d7 3c 58 d6 16 3c 1d 7f 84 3d dd 1e 18 3d
       0.026250849 0.009206377 0.064695574 0.03713881
0001d0 3b 61 5c 3e 24 59 d6 bd cd c3 3a 3d 16 eb 47 3e
       0.21521465 -0.10466221 0.045596886 0.19523272
0001e0 af 6a a5 bd fb a1 07 bd 13 66 05 3e b5 6d 13 bd
       -0.08076989 -0.03311346 0.1302722 -0.035993297
0001f0 85 01 14 3d 5c 63 ed bd ed f0 a4 3c 47 c9 96 bd
       0.03613426 -0.11591217 0.020134414 -0.07362609

att.in_proj_weight f4 [96, 32]
000000 57 68 1e 3e 2a e1 d2 3d b9 59 39 be e4 f8 34 be
       0.1546949 0.10296853 -0.18100633 -0.17673069
000010 ca 99 4d 3e d6 25 80 be 3f 44 61 3e 9a 32 b6 3d
       0.20078197 -0.25028867 0.2199869 0.0889637
000020 c9 1f b2 bd ca 4c 18 be 4e 6d c1 3d a6 f2 ec bc
       -0.08697469 -0.14873043 0.09444676 -0.028924298
000030 4f 30 63 3d 4e 51 64 3e e4 ad 94 be b5 f2 12 3e
       0.055465993 0.2229664 -0.29038918 0.14350398
000040 55 b5 51 be 7b d9 d4 3d 9d d6 2d be 7a 36 32 bd
       -0.20479329 0.103930436 -0.169764 -0.043508984
000050 26 df 4c bd 4c 0d 88 bd 60 46 59 3e 49 ef 41 3e
       -0.0500175 -0.06643161 0.21218252 0.18938936
000060 bb 90 5c 3e 24 f0 51 3e c8 fa 81 be ad c9 b3 3c
       0.21539585 0.20501763 -0.25386643 0.021946752
000070 ba 3d 01 be 51 1e e7 bd a5 4d 01 be e9 14 36 be
       -0.12621203 -0.11285079 -0.12627275 -0.17781414
000080 15 0e 43 bd d1 62 55 be 71 8d 99 3d 73 fb f3 3d
       -0.04762085 -0.20838477 0.07497681 0.119131945
000090 85 07 b8 bd de 86 1f 3d 8c fd 01 3d 77 4c 80 bd
       -0.08985809 0.03894698 0.03173594 -0.062645845
0000a0 4d a8 52 bc d1 93 26 3e 24 5d 83 bd 03 27 d0 ba
       -0.012857509 0.16267325 -0.064142495 -0.0015880767
0000b0 0f 22 a3 bd d6 57 50 be b2 3e a3 bd 26 de 6e 3e
       -0.079654805 -0.20346007 -0.079709426 0.2332693
0000c0 96 30 bc 3d 51 88 a2 3d a7 06 3e 3e eb 33 35 be
       0.091889545 0.079361565 0.18557225 -0.17695586
0000d0 d5 73 bf 3d b8 b4 2e 3e 54 9e 02 3e c9 e1 0a bd
       0.09348265 0.17061126 0.1275571 -0.03390673
0000e0 0d b1 8b bc 43 23 cd bd 69 ba 0b be 4e be b2 3d
       -0.017052198 -0.10016491 -0.13645329 0.08727704
0000f0 51 a7 aa bb df 5f 81 be 31 99 d4 bd 55 8c 7e bd
       -0.005207934 -0.25268456 -0.103807814 -0.06214555
000100 ee b4 2c be 05 73 2e be 48 e8 69 be 5e e3 92 3d
       -0.16865894 -0.17036064 -0.22842515 0.07172273
000110 fe 65 68 bd d8 e7 30 3e 92 df 6e 3c d0 43 b4 3d
       -0.056737892 0.17275941 0.0145796705 0.08801997
000120 56 2c 90 bd fe cc ea 3c 78 da 69 bc 26 d9 7d be
       -0.070397064 0.028662201 -0.014273278 -0.24789867
000130 b5 7d 9a bd c4 c9 12 3e ef 9d 6c bd aa 28 de 3d
       -0.07543508 0.1433478 -0.057767805 0.108476
000140 7f 31 dd 3d 1a a9 20 be d0 0c 02 3e ca 74 ba bd
       0.10800456 -0.15689507 0.127002 -0.09104307
000150 be 1c b5 bd 35 bd f6 bd c6 43 1f 3e 11 8e 87 be
       -0.08843373 -0.12047807 0.15553197 -0.26475576
000160 35 5f d0 3d ee 1c 59 3e dc 84 01 3e fd a4 e8 3d
       0.10174409 0.21202442 0.12648338 0.11359594
000170 a9 3c cb 3d 81 83 5a be db 7b 02 bd 55 86 ba bd
       0.099236794 -0.21339227 -0.0318564 -0.09107653
000180 12 a1 2f bd 46 4e fa 3d 02 32 65 3c ee 00 1d 3e
       -0.042878218 0.12221961 0.013988974 0.15332386
000190 42 c0 0a bd 85 cb 75 3e 56 61 39 bd 56 d9 bd bb
       -0.033874758 0.24003418 -0.045258842 -0.0057937307
0001a0 93 41 88 3c 25 bf 78 be be a0 65 3d 0f 9a 45 bd
       0.01663283 -0.24291666 0.0560615 -0.048242625
0001b0 4a 53 64 be dd 0d ba bd d8 2d fc bd 06 1b 8e bd
       -0.22297397 -0.090846755 -0.123134315 -0.06938748
0001c0 15 bf f9 bd 8b fc 58 3b 57 0a 14 3e 02 84 91 be
       -0.12194649 0.0033109512 0.1445707 -0.28421026
0001d0 3c d3 07 be 4a 75 23 be 80 6d 83 bd d3 55 3a be
       -0.13264173 -0.15962711 -0.0641737 -0.18196802
0001e0 2a c5 ea 3c 2e 90 9d bd e0 77 9e bb c5 df 45 3c
       0.028658468 -0.07693516 -0.0048360676 0.012077277
0001f0 71 de a6 3c 14 91 cc 3d 6e b9 bf 3d fd 2a 41 3e
       0.02036974 0.09988609 0.0936154 0.18864055
000200 a3 29 58 bd 29 b3 9f bb b7 44 d3 bd aa e2 46 bd
       -0.052774083 -0.0048736525 -0.10315841 -0.048556007
000210 1f 72 24 be 3f 21 00 be b0 e3 54 3e 4c da 12 be
       -0.16059159 -0.12512682 0.20789981 -0.14341086
000220 a3 f5 d9 bd 37 92 f9 bc 3f d2 4b 3d ec a4 f5 3d
       -0.106425546 -0.030465228 0.049761053 0.11994347
000230 fb 01 4c 3e f6 3f b9 bd 98 57 43 bd 70 12 fa bd
       0.1992263 -0.09045403 -0.047690958 -0.12210548
000240 91 48 b7 3b f3 6b 5b 3e 8b 0a 32 3e 1f 43 76 bd
       0.0055933674 0.21427898 0.17386834 -0.060122605
000250 6f 51 2a 3e 64 38 de bc 3b 5d b7 bc 7b a6 3e 3e
       0.16632627 -0.027126499 -0.022383323 0.18618195
000260 da 39 8f 3d a6 95 0a 3e 78 27 25 be a2 7c 34 bc
       0.06993456 0.13533649 -0.16128337 -0.011016043
000270 0a 87 60 3d 10 41 b5 3d f4 ab 4d be 4a a6 d0 3d
       0.054816283 0.088503 -0.20085126 0.10187967
000280 87 d0 62 bc 33 ff 42 3e d5 57 31 3d b9 3c 48 3e
       -0.013843662 0.19042663 0.043296654 0.19554414
000290 15 5c 2f 3e 9b 36 d5 bd b9 a3 dd 3c 71 a8 2b be
       0.1712497 -0.10410806 0.027055608 -0.16763474
0002a0 09 a5 3c 3e 59 74 67 be 97 c2 f0 bd c7 69 46 be
       0.18422331 -0.22602977 -0.11755865 -0.19376288
0002b0 81 31 84 bd 8d 18 b8 bc 38 17 18 bc 33 4d 4b be
       -0.064547546 -0.022472644 -0.0092828795 -0.19853668
0002c0 6c 64 46 3e 0b 5c 43 be 40 33 68 3e 45 6b 3c be
       0.19374245 -0.1907808 0.226758 -0.18400295
0002d0 20 51 e4 3c 91 d8 b1 bd 33 18 3f be 23 11 35 3d
       0.027870715 -0.08683885 -0.18661575 0.044205796
0002e0 45 9e fe bd 4c 69 28 be e4 87 d2 bd 3f 52 0d bd
       -0.12432531 -0.16446418 -0.10279825 -0.034502264
0002f0 b0 ad 18 3e 37 1a 32 be 32 fe 38 3e 7b 0e 43 3b
       0.14910007 -0.17392813 0.18065718 0.002976327
000300 98 5d f6 3c ae 83 38 3d 78 df f3 3d 9c fb e7 3d
       0.030073926 0.045047455 0.11907858 0.113272876
000310 6e ee 55 be e2 34 0a 3d e6 d5 20 be 59 95 84 3e
       -0.20891735 0.03374184 -0.15706596 0.25895193
000320 1a 06 26 be 22 0c 0c 3e b6 58 92 bc 05 48 89 3d
       -0.16213265 0.13676503 -0.017864566 0.0670319
000330 f2 e8 35 bd 71 0a 3e 3e e9 c6 74 bc 03 0e 20 3e
       -0.044411607 0.1855867 -0.014940002 0.15630345
000340 b7 37 6f 3e d0 c9 37 be a6 c0 bf bc 4a 6e c5 bd
       0.23361097 -0.17948079 -0.023407292 -0.096401766
000350 65 84 03 be 8a 6c 84 3e 02 eb 1d 3d 45 51 5c bd
       -0.12843473 0.2586406 0.0385542 -0.053788442
000360 c7 14 8c be 86 73 bb 3c a0 fb c0 3c 68 86 23 3e
       -0.27359602 0.022882234 0.023557484 0.1596924
000370 1e 79 1f be 05 d6 db bd 20 08 1e 3e 07 4e 7e 3e
       -0.15573546 -0.1073418 0.15432787 0.24834453
000380 02 50 14 be f0 37 0b 3e 2d bb b7 bc d8 62 f8 bd
       -0.14483646 0.13595557 -0.02242812 -0.12128228
000390 b8 38 15 be 83 18 9f 3c 31 89 8d bd c1 b8 c5 bd
       -0.14572418 0.019420868 -0.06910933 -0.0965438
0003a0 99 99 64 bc c6 2e 75 be 85 5e 68 3d b9 aa cb 3d
       -0.013952636 -0.23943624 0.056730766 0.09944672
0003b0 6f 83 1a 3e 55 3b 42 3d c7 ee 52 3e 95 6d 47 3e
       0.150892 0.047419865 0.20598899 0.19475396
0003c0 4e 28 1b 3d 0b a3 1c be fd c7 f2 bd 7e 8b 98 bd
       0.037880234 -0.15296571 -0.11854551 -0.07448481
0003d0 9e f5 e0 bd 23 36 b6 bd c1 50 cf bc c5 9e 2a bb
       -0.10984348 -0.088970445 -0.025307061 -0.0026034575
0003e0 5b a3 ca 3c ab c2 a5 bd 27 10 f9 bd 38 94 ff 3d
       0.024736097 -0.080937706 -0.12161284 0.12479442
0003f0 77 68 db 3d 8f 0d cb bd b9 49 01 bb e2 c5 49 3e
       0.107132845 -0.099146955 -0.001972778 0.19704393

att.in_proj_bias f4 [96]
000000 4a b7 80 3c 01 d2 b1 3c e8 63 c1 3c c1 8a 54 bc
       0.015712399 0.021706583 0.02360721 -0.012972535
000010 06 17 e8 3b b3 ec 33 bc 1f 11 07 3d 2e 4f b4 bc
       0.0070828227 -0.010981726 0.032975312 -0.022010412
000020 61 ed 83 3c a3 66 3c 3c c4 f5 14 3d e8 32 d4 3c
       0.016104402 0.01149908 0.036367193 0.02590318
000030 47 5b 5f 3c 99 bd a7 bc dc c9 bc 3c 75 e2 76 3d
       0.013632602 -0.02047615 0.023045473 0.06027456
000040 df 29 95 3c 63 24 89 bd b7 11 94 3c a2 23 15 3d
       0.018208442 -0.06696393 0.018074853 0.036410935
000050 e5 c7 2f 3d 14 73 aa 3c f8 15 73 3c 07 ab 40 bd
       0.042915244 0.020806827 0.014836781 -0.047038104
000060 2a a2 24 bc 08 b0 75 bc 3e 12 8a 3d b8 26 f2 3c
       -0.010048429 -0.014995582 0.06741761 0.029559478
000070 35 9e 54 3d 0b b3 59 bc b7 9e 0f 3d fd 20 b6 3c
       0.05190869 -0.013287316 0.03506347 0.022232527
000080 26 a0 91 38 cd 57 19 b9 ac ca 35 b9 3f 2e 06 39
       6.943969e-05 -0.00014623925 -0.00017337006 0.00012796464
000090 94 cd ec b8 e9 54 9d 39 31 d8 3f 3a 10 e6 d4 38
       -0.00011291649 0.00030008637 0.0007318287 0.000101518
0000a0 b2 65 0b b9 2e 22 83 b9 46 dd 01 3a 79 10 a4 39
       -0.00013293957 -0.00025011733 0.0004953932 0.0003129279
0000b0 21 7e 9d 39 55 99 95 b9 51 cb d7 b8 94 d2 61 b9
       0.00030039347 -0.00028533736 -0.000102898695 -0.00021536119
0000c0 f2 a8 22 39 b2 df a3 38 31 24 57 b8 85 c9 35 39
       0.00015512461 7.814112e-05 -5.12937e-05 0.00017336577
0000d0 48 63 3b b9 de b6 0b b9 e5 7d 96 b8 fe 2c bc 38
       -0.00017870695 -0.00013324196 -7.176007e-05 8.972919e-05
0000e0 44 1a 9d 38 d9 2b 38 b9 b3 3e a7 39 3a db ff b8
       7.491236e-05 -0.00017563942 0.00031899437 -0.00012200182
0000f0 be be 7f 39 ac 4e 41 b8 82 6b 8d 39 27 25 28 b9
       0.00024389752 -4.6088055e-05 0.00026973715 -0.00016035569
000100 f6 09 2b bc e5 50 08 3d e1 b3 9f 3c fa 2e 51 3c
       -0.010439387 0.033280272 0.019494953 0.012767548
000110 46 a7 c9 bc c8 14 99 3b 8d 30 51 3c 99 e6 12 bd
       -0.024615895 0.004671667 0.012767923 -0.035864446
000120 55 50 8c bc ae 25 a7 3b 88 95 1c bc 0d e5 16 3d
       -0.017128149 0.0051009273 -0.009557135 0.036839534
000130 db d5 a9 3c d4 93 00 bd 27 70 a6 3c 41 7a 0d bd
       0.020731857 -0.03139098 0.02031715 -0.03454042
000140 15 11 2e 39 4f e9 ef 3c 14 9d 03 bd 38 bd 85 3c
       0.00016600297 0.029286055 -0.032132223 0.016325578
000150 a7 1f 31 3c fa e6 a5 3c 33 f7 a3 3c fc 85 21 3c
       0.010810769 0.02025174 0.020015335 0.0098586045
000160 84 73 3b bc 38 84 6e 3a 76 a5 c0 bc a6 d1 14 bc
       -0.011441115 0.00090986816 -0.023516398 -0.009083187
000170 cd 97 37 3d 87 90 7b bc 22 4a 8c 3c 9b 97 a6 bc
       0.044822503 -0.015354282 0.017125193 -0.020335963
