checkpoints/trans/zara2/s_vae_model_best.pth (torch, 98009 bytes, 29 tensors)

V_obs_trunc f4 [16, 8]
00000000: 6dcc 16bd 88ff edb3 7dec eabd bfe5 2b33
00000010: f660 62be 4632 6c34 31d2 9cbe ffe1 99b4
00000020: e9e6 65bd 4815 a93b c76f 2abe 3ee1 cbbc
00000030: a0b5 8dbe 534e 5b3d 1d92 9dbe e1eb 9bbd
00000040: 1930 4cbd 6f69 953c e82e 0abe bac2 adbd
00000050: 4c12 33be 9f31 313e 03be e2bd 33b5 69be
00000060: d18b 06bd ed80 3c3d 5a67 adbd 7140 3dbe
00000070: bfa4 c5bd ffa6 9a3e b8b4 26bd 1894 88be
00000080: 0d12 c2bd a56f 1b3d 5154 65be 82f0 02be
00000090: 46a2 41be 67b7 193e aa6a 133d 097e 19bd
000000a0: 1dae 0fbe 6f84 f63c 2500 8cbe f476 c4bd
000000b0: f2d6 b7bd 96d4 cd3d 2394 713e e3c7 f5bb
000000c0: cbd4 a1bd 60ca c13d 19cd f4bd cd43 83be
000000d0: 5fe2 d93c 5330 283e 9e4c 053e a770 1b3e
000000e0: 8a56 95bd 32ff 083e e7f0 d4bd a07b 8dbe
000000f0: c9f8 0b3d 2f86 973c f692 e33d 321a 8b3e
00000100: e907 44be 1ddc 943d 1046 46be 6d39 dfbd
00000110: 9e02 433e 8aa5 56bd 8fc1 103e b42b b93d
00000120: aa1e 55be fcc0 ac3d b6e4 e3bd d4ae f1bd
00000130: 2e85 773e 302d 90bd 2a9e 8fbd a2c8 b93d
00000140: c06d c5bd ef7a 5d3e 840f 80bc f9c9 3cbe
00000150: 7cbd c03d 9874 7fbe 2be1 a6bd 09d3 54bc
00000160: 6e18 0cbe d5a1 5f3e f019 1abc fe04 8dbd
00000170: 472b 013e 477b 5fbe b3db 05be 7ca2 40be
00000180: 6041 95be c343 d13d 6dc4 c93d 3e79 3b3b
00000190: c635 fc3d bed0 86bd 66b4 7ebe bafd b7bd
000001a0: b6c2 78be c7e9 373e f33b 2f3e aedf ee3c
000001b0: 2990 69bd 1358 b9bd c8d2 1ebd 4245 22be
000001c0: c516 e9bd 3f17 b23e fea2 ce3d 8440 493e
000001d0: 2006 92bd ca93 533d 86ec 313d 923f a3bd
000001e0: debc bf2f f38f 043f 70ae 06b4 3093 ed3e
000001f0: 4cf1 2d34 d316 d43e 9939 5835 8797 b33e
-0.03681605 -1.10826534e-07 -0.11470888 4.0022993e-08 -0.221073 2.1997502e-07 -0.30629113 -2.8662905e-07
-0.056128416 0.0051600076 -0.16644202 -0.024887677 -0.2767763 0.053541493 -0.30775538 -0.0761335
-0.049850557 0.018238751 -0.13494456 -0.08484407 -0.17487448 0.17304085 -0.11071398 -0.22823028
-0.032848183 0.04602139 -0.08466978 -0.18481614 -0.096505634 0.30205533 -0.04069969 -0.26675487
-0.09476099 0.03794827 -0.22395445 -0.12787059 -0.18909559 0.15011369 0.035990395 -0.037473712
-0.14031263 0.030092446 -0.2734386 -0.09593001 -0.089765444 0.10050313 0.23591666 -0.007500635
-0.07901915 0.09462428 -0.11953182 -0.25637665 0.0265972 0.16424684 0.13017508 0.15179692
-0.07291897 0.133786 -0.10397511 -0.2763338 0.034172807 0.0184966 0.11112015 0.27168423
-0.19143642 0.07268546 -0.19362664 -0.10899625 0.19043967 -0.052403964 0.14136337 0.09041539
-0.20812479 0.08435246 -0.111276075 -0.11800924 0.24171898 -0.07039869 -0.07012589 0.09071471
-0.09640074 0.21628927 -0.015632398 -0.18436421 0.09411141 -0.2494682 -0.08148416 -0.012989768
-0.13681194 0.21839078 -0.009405598 -0.06885718 0.12614165 -0.2182437 -0.1307209 -0.18811983
-0.2915144 0.10218003 0.09851918 0.0028606202 0.12314944 -0.06582783 -0.24873504 -0.089839414
-0.24293026 0.17960273 0.17112713 0.029159393 -0.057022247 -0.09050002 -0.038775235 -0.15846732
-0.11381296 0.3478336 0.10089682 0.19653517 -0.071300745 0.051654615 0.043438457 -0.079711094
3.4876896e-10 0.5178215 -1.2543182e-07 0.46401358 1.6199664e-07 0.41423663 8.0550086e-07 0.35076544

conv_layers.0.weight f4 [64, 1, 3]
00000000: ef8b ebbe 07ce 143e 94e1 d53c 97c2 a43e
00000010: 49d5 c8be cdb2 bcbe d1a5 6a3d 7f7c 11be
00000020: 9671 883c beb8 4fbd bd84 5d3a 1ba2 95be
00000030: 6b99 d0be 0a1f 633d 464f 903e facc 7d3d
00000040: 975c bcbe 63e4 7abd 27f2 d03e d30c 0a3e
00000050: 1f63 913e 836d c23e 7102 00bf ee96 cdbd
00000060: 5c03 23be c1c6 193f 130a 9cbd 1b2f c33e
00000070: 7538 06bf b393 af3e e496 00bf c139 8d3d
00000080: adde f7be 9dde e0be 8818 adbe fb41 c1be
00000090: b036 e13e d9bc a13e 17c0 0bbf ae41 d83e
000000a0: 1cce 143e 472b 00bf 0629 c13e ab63 d33e
000000b0: 0316 dfbe 498b 2ebe 54d8 58be d984 383e
000000c0: fc83 5b3e fc80 1c3e c610 9abe bf33 e53e
000000d0: cb5d 063f d168 693b 06a6 abbd 003b 9cbe
000000e0: 3c9d 513e 64c5 a0bd 896e debd f141 863e
000000f0: 9e84 f53d cf44 173e b4e1 0abf f7d4 d5be
00000100: b7b7 c4be 254b a13e b3a3 5dbe 3736 b73e
00000110: 942d 703d 4609 053d f6a9 bbbe e0cc 2f3c
00000120: ca15 38bd c108 043f fab9 ce3e b1d3 81be
00000130: a863 56bd 5639 9f3e 359b aabd 529d 65be
00000140: bbca 643e ec2d c1be 1585 f93e c2b3 163f
00000150: 7924 89bd f225 6cbe 5184 19bf e7fc f23d
00000160: 0000 913e 696b aebd 24dd b3be b16a 083f
00000170: 21cd 56be 77a7 103e 449d db3e 49c7 e73e
00000180: 6402 f2be 6d84 5bbd 9cc0 bb3e e970 a33d
00000190: 8146 5c3e 40f0 833e 85d7 d0be 954a 00bf
000001a0: 43e0 843e 1f12 96be 092a dbbc efdb 02bf
000001b0: 0c01 92be 58d4 88be ad3e 75bc 3d3b 8c3b
000001c0: 3913 7b3e 4799 c93e d4bd ce3e 6270 d7be
000001d0: fcbe 633e 62c2 e8bd 9f9e 993e d833 9abc
000001e0: 6c81 dc3e c675 a9be bd2e e03e 3a0c a93e
000001f0: f48e d03e a1ad b33d e164 c7be fde9 cbbe
00000200: 17c0 8f3e 6305 eb3e 2f2f 0fbf 7b6d 47be
00000210: 5dcd eb3d 7573 d3be 4a81 0cbf 6bee d33e
00000220: 55f2 603e beb6 6cbd 0d0a 29be 8f97 c3be
00000230: 0c5d f63e fa2a 853e d401 ff3e 9fcb fbbd
00000240: 3eb3 b7bd f372 bf3e 74f1 a53e 76bb 86be
00000250: dbc5 36be fe1e 633c 8976 0c3f f59c bd3e
00000260: 4729 f3be c300 e83e 4163 a0be 6226 053f
00000270: 951b e6be c67a 0b3f 5ea4 0d3f 51f7 18bf
00000280: e4d2 e2bd 0f56 04bf c0e7 08bf a128 063f
00000290: c842 fb3d 5875 e1bd c387 2abe 3409 e0bd
000002a0: ea0b 8c3e 19f2 02be d7fa 543d 69a6 c13e
000002b0: 4f96 fdbe ad63 4f3e f0b3 e53e fc0c 113f
000002c0: 874f 363e 9768 46be 9809 a4be 47cb 683e
000002d0: d02f 3e3e a250 823c 0536 6f3e 6e98 bc3e
000002e0: 5281 c13e 49f7 b73e 44d7 68be 40e9 e73e
000002f0: 465e ad3b c1be 073e 17d2 98be b3fe 09be
-0.46005198 0.14531718 0.02610854 0.3217971 -0.39225224 -0.36855164 0.05728704 -0.14207648
0.016655724 -0.050713293 0.00084502605 -0.2922524 -0.4074205 0.055449523 0.2818548 0.06196306
-0.3678939 -0.061252963 0.40809748 0.13481455 0.28395936 0.37974176 -0.50003725 -0.10038553
-0.1591925 0.600689 -0.07619109 0.38121876 -0.52429897 0.34292373 -0.5023024 0.06895781
-0.48412076 -0.4391984 -0.33807778 -0.37745652 0.43987036 0.31589392 -0.5458998 0.4223761
0.1453175 -0.50066036 0.3772661 0.41286978 -0.4357148 -0.1704532 -0.21176273 0.18019427
0.21437067 0.15283579 -0.30090922 0.44766042 0.52486867 0.0035615454 -0.08381276 -0.30513763
0.20470136 -0.07850149 -0.10860927 0.26222184 0.11988185 0.14772342 -0.54250646 -0.41764042
-0.38421413 0.31502643 -0.21644478 0.3578355 0.058637217 0.032479547 -0.36653107 0.010729998
-0.044942655 0.5157586 0.40376264 -0.2535682 -0.052341133 0.3109843 -0.08330385 -0.22423294
0.2234296 -0.37730348 0.48734346 0.5886804 -0.0669641 -0.2306135 -0.59967524 0.118646435
0.28320312 -0.085165806 -0.35129654 0.532878 -0.20976688 0.14126383 0.42893422 0.4526923
-0.4726745 -0.053593088 0.36670387 0.0798052 0.2151127 0.25769234 -0.40789428 -0.50113803
0.25952348 -0.293107 -0.026753442 -0.5111684 -0.28516424 -0.26724505 -0.014968556 0.0042795227
0.24519052 0.39374754 0.40379202 -0.4207793 0.22240824 -0.113652006 0.3000383 -0.01882355
0.4306749 -0.33097667 0.43785658 0.3301714 0.40734065 0.087733515 -0.38944152 -0.39826956
0.2807624 0.45902547 -0.5593137 -0.19475357 0.11513779 -0.41299024 -0.5488478 0.41392836
0.21967442 -0.057791464 -0.1650774 -0.38201568 0.48117864 0.2600935 0.49806082 -0.12294697
-0.089697346 0.37392387 0.32410777 -0.26314896 -0.17848913 0.01386237 0.5486837 0.3703381
-0.4749243 0.4531308 -0.31325725 0.5201169 -0.44942918 0.5448421 0.5532893 -0.59752375
-0.110753804 -0.51693815 -0.5347862 0.52405745 0.12268597 -0.1100871 -0.16653351 -0.10939255
0.2735284 -0.12787665 0.051997032 0.37822273 -0.4952874 0.20252867 0.44863844 0.5666044
0.17803775 -0.19375835 -0.3203857 0.22733794 0.18572927 0.01590759 0.2336045 0.36835045
0.37793976 0.3593085 -0.22738367 0.45295143 0.0052907793 0.1325636 -0.29847786 -0.13476066

conv_layers.0.bias f4 [64]
00000000: 28a5 86bd 5abe 163e fdc3 b2be 9b05 e4be
00000010: c440 83bd 0304 593d 2b59 153d 101b 083f
00000020: cc6c c23e 748d 11bf aaa1 163f 4d28 b63e
00000030: 0f20 b23d 7a9f 913d 27d5 b5be ddf6 95be
00000040: 6593 53be 65a4 a2be d4d9 97bd 7539 e63e
00000050: fd07 09be 465a cd3e 06de 0cbf 2f4c 143f
00000060: d738 41be 9f0c 893e 542d e83d 0150 8ebe
00000070: 80a6 bbbe 171f 1bbe b5b6 39be 84df 0fbf
00000080: f9eb 253f 1b1a 443e 44cd 253f 9285 d33e
00000090: 3d21 003f 6e21 11bc 1697 82be f714 833e
000000a0: c507 e7bd e364 163e 6387 e33e 8fcf 51be
000000b0: 66af 033f 4cc3 cb3e 48a9 993e c125 63bb
000000c0: 7f62 94be 099f 61be c650 78be 0543 a43e
000000d0: 8fdb f5be 9093 8b3e 262f 37be 1388 023f
000000e0: dbde d2be 6a64 34be b1c4 dd3e 62e2 f6bd
000000f0: a718 9bbd ddf5 d23e 0d06 0ebf 84d8 6dbe
-0.0657447 0.14721051 -0.34915152 -0.44535527 -0.064088374 0.05298234 0.03646199 0.53166294
0.3797363 -0.56856465 0.5884043 0.35577622 0.08697521 0.07110496 -0.35514185 -0.29289904
-0.20661695 -0.31766048 -0.07414594 0.4496571 -0.13381954 0.40107936 -0.5502628 0.57928747
-0.18869339 0.26767442 0.11336771 -0.27795413 -0.36650467 -0.15148579 -0.18136103 -0.5620043
0.6481319 0.19150583 0.64766335 0.41312844 0.5005072 -0.008858068 -0.25505894 0.25601932
-0.11280779 0.14686923 0.4443923 -0.20489334 0.5143951 0.39797437 0.30011964 -0.0034659954
-0.28981397 -0.22033323 -0.24249563 0.32082382 -0.48019072 0.2726102 -0.1788908 0.5098888
-0.4118565 -0.1761643 0.43314126 -0.12054898 -0.075730614 0.41203204 -0.5547798 -0.23227125

conv_layers.2.weight f4 [32, 64, 3]
00000000: e9d0 45bb 663f 25bc 7b08 17bd fb79 833d
00000010: 8c69 663d 42c4 3fbd eb28 9bbb e344 4b3d
00000020: c17a 7abc a882 fd38 cb1c d3ba 4ab1 f638
00000030: f2ae 873c 90dd de3c c87c b83d ebb3 8dbd
00000040: 1d67 a83d 0c15 c03b 8910 d4bc 1b1d 193c
00000050: d3e5 9e3d e752 3b3c 4325 603d 9752 893c
00000060: 7499 b63d 653d a63d 8e0f e5bc eff1 b73c
00000070: 33d6 663c c6e9 803d 6589 833d 2c52 3bbd
00000080: af7e 313d 25c3 c73c 0ce0 8d3d 1746 9fbd
00000090: b97d 67bc 6015 613d 43fc efbc dfcf a43d
000000a0: 55ca 6d3d ace1 3d3d 77f9 ae3d d419 09bd
000000b0: 75c6 1bbb 081e f83c f5c7 21bd 57d9 13bd
000000c0: 8c7c b23d 1a3f f93c 62c0 6cbc d7af f13b
000000d0: 1223 cf3d ddab 33bd 1334 6a3c 6752 b73d
000000e0: feab bbbc 29ce eb3c 4305 b9bb a979 61bd
000000f0: d247 c73d 382a ba3d 3577 ef3d af73 de3b
00000100: 8fb5 943d c39c b5bc 9294 2fbd dac3 1abc
00000110: cfeb 2fbd 6be5 03bd 3b45 333d d2a0 f33c
00000120: caf0 d0bc 0111 6a3c 287c 0cbd 67a3 1fbd
00000130: f761 09bb c577 87bd 8653 99bc 883c 4cbb
00000140: 63f4 2d3c 08bf 89bc 4e5b 3dbd a661 86bd
00000150: 0ce5 2f3c bb6b 2a3d c507 3abc 0ab2 ad3d
00000160: 045f 0dbd 053a 653d 1859 ed3c 6306 03bd
00000170: fdd4 863d 7e51 e13c c07d 61bc f1d5 8dbc
00000180: 90aa 503b 114d 4abd 857c 123d 5155 afbc
00000190: 0a02 5c3d 54e4 793d ee90 1dbd bb2c 1abd
000001a0: a819 e23b eaf2 923d 9552 2f3d 9e4b 6b3d
000001b0: 6510 1abd 8d6f 753c f36d c539 7fbe 053c
000001c0: efef 0e3d 2081 7fbd 0e76 f43c 90ea eabc
000001d0: b1d2 0abb 20d6 2ebd f199 c6bc 6389 4bbc
000001e0: a560 9f3c de39 7e3d 20d2 913d 389c 89bb
000001f0: a44c e0bc a42c 443d 4eea 8ebd 2629 ab3d
00000200: 3f32 1a3d c225 71bc 1427 303c b178 573c
00000210: 5037 c3bc 8be6 2f3d e1e5 e63c 200d 023d
00000220: b6f8 38bc 0fbb acbb f5a0 6c3d a29e 883d
00000230: 75d2 1fbd 4a98 d9bc 66b3 833d 4da6 aa3b
00000240: 982f ca3d 338a cdbc 80a4 70bd 378c 953c
00000250: e223 a43d c313 7fbd 8efb be3c c62e 993b
00000260: 15d6 943d 9742 d53b 27c4 deba 870e 14bc
00000270: 92ae 933b 10bf 0fbd 1106 053d 8104 a33d
00000280: 51b1 b03c 126a 853d 2a42 923d 57a2 113b
00000290: 204d eabc 2104 48bd 31d2 f7bc 38f5 80bd
000002a0: a624 983c 95e8 01bd 83c2 99bc e915 823d
000002b0: 30ae c23c 9c77 0339 f787 08bd ecd6 3c3d
000002c0: 2b3b 903d 760a 8c3c 3066 eb39 ab04 53bc
000002d0: d34f 673d cbe0 6a3d 62ed 0b3d ea2e 873d
000002e0: ba28 e1bc 199b 423b 6bb4 513d d4b8 5b3d
000002f0: d9b9 f13c e64e 49bd 9537 c73d 81cc ec3c
00000300: 2ca5 a23d 7a90 5e3b cca9 dbbc 4e92 0dbd
00000310: cbd0 593c 0752 63b9 44b7 403d 07e9 87bb
00000320: 37a0 13bd e150 07bc 08df b1bb 30ba 0b3d
00000330: d8a1 743d 32b8 eb3c 3f2c 3abc b12f 383d
00000340: b39c 9abc b394 ebbc ba17 2a3d b00c b83c
00000350: e2d4 df3c e74b b8bd eaf8 3fbc 26e7 573c
00000360: 4a49 2d3d bd18 a13c 0716 31bd 5e52 b0bc
00000370: 23c1 febc 8c17 333d 703e a1bd 731c 55bd
00000380: 46dc a7bd b7a5 ffbc 9fa9 103d 829e 1e3d
00000390: 6360 3f3d f90b 61bd 995a 5abc dd2f b5bc
000003a0: 03dd 02bc e4b7 81bd 608e 123d 9d30 c83b
000003b0: cf75 9d3d 0e60 243a 8d27 91bc d2ac 67bc
000003c0: 313d a53d 8ba8 2c3d 368a 903d 419b 9a3d
000003d0: 192d cfbc 7ee5 5dbd fcbd 193d 291b 95bc
000003e0: 38dd 793d 41d2 b7bc 9652 8cbd 017b 55bd
000003f0: 6fa1 a3bc 5149 19bd 3424 043d 2e49 dc3c
-0.0030184335 -0.010085916 -0.036873322 0.0641975 0.056253 -0.046818025 -0.0047351024 0.049626242
-0.015288056 0.00012088317 -0.0016106603 0.00011763217 0.016562913 0.027205259 0.09008175 -0.06919082
0.08222792 0.005861884 -0.02588679 0.009345318 0.07758679 0.01143334 0.054723036 0.016763015
0.089159876 0.08117179 -0.027961519 0.02245423 0.014089155 0.06294589 0.0642269 -0.045732662
0.043333706 0.024385044 0.06927499 -0.077770405 -0.014129096 0.054952025 -0.029295092 0.08047461
0.058054287 0.046357796 0.085436754 -0.033471897 -0.0023769413 0.030287758 -0.039497335 -0.036095943
0.08715162 0.030425597 -0.0144501645 0.007375698 0.10114111 -0.043865073 0.014294642 0.08951264
-0.02290916 0.028784828 -0.005646379 -0.055047665 0.097304955 0.09090084 0.11692659 0.006788693
0.07261192 -0.022169476 -0.042866297 -0.009446109 -0.042949494 -0.032201212 0.043767195 0.029739771
-0.025505442 0.014286281 -0.034298092 -0.038974192 -0.0020962933 -0.06614641 -0.018716585 -0.003116401
0.010617348 -0.016814724 -0.046229653 -0.06561594 0.010735761 0.041606646 -0.011354391 0.08481224
-0.034514442 0.055963535 0.028973147 -0.031988513 0.06583593 0.027504679 -0.013762891 -0.01731393
0.0031839944 -0.049389903 0.035763282 -0.021402987 0.053712882 0.061008766 -0.038468294 -0.037640315
0.006900031 0.071752384 0.042803366 0.05744516 -0.03761329 0.014980209 0.00037656687 0.008163094
0.034896787 -0.062379003 0.02984145 -0.028676301 -0.002118271 -0.042684674 -0.024243327 -0.012422892
0.019455263 0.062066905 0.07120156 -0.004199531 -0.027380295 0.047894135 -0.06978284 0.08357458
0.037645575 -0.014718475 0.010751504 0.013151334 -0.023830086 0.042944472 0.028185787 0.0317508
-0.011289766 -0.0052713226 0.057770688 0.06670882 -0.039019067 -0.026561875 0.06430702 0.005207813
0.09872359 -0.025090313 -0.05875063 0.018255336 0.080146566 -0.062274706 0.02331331 0.0046747653
0.072673954 0.0065081823 -0.0016995714 -0.009036667 0.0045068944 -0.03509432 0.03247649 0.079598434
0.021568926 0.06514372 0.07141526 0.0022222006 -0.02860123 -0.048832063 -0.030251594 -0.06296772
0.018572163 -0.031715948 -0.018769508 0.06351835 0.0237647 0.00012537692 -0.03333279 0.046103403
0.070425354 0.017094832 0.00044898828 -0.012879531 0.05647261 0.057343286 0.034161933 0.06600745
-0.02748524 0.0029694496 0.05119745 0.053643063 0.029507564 -0.04914751 0.09727398 0.028906109
0.0794166 0.0033960626 -0.026814364 -0.034563355 0.013294409 -0.00021678965 0.047049776 -0.004147652
-0.036041465 -0.008259029 -0.0054281987 0.03411311 0.05972466 0.028774355 -0.011363088 0.044967357
-0.018873548 -0.028757429 0.041526534 0.022466987 0.02732319 -0.08998852 -0.011717061 0.013177669
0.042306222 0.019665116 -0.043233898 -0.02152365 -0.031097954 0.043723628 -0.07873237 -0.052029084
-0.08196311 -0.031206949 0.035318013 0.038725384 0.04672278 -0.05494306 -0.013327264 -0.02211755
-0.007987264 -0.063339025 0.03578031 0.006109311 0.07688486 0.0006270417 -0.017719055 -0.014140325
0.08068312 0.042152923 0.07057612 0.075491436 -0.025290059 -0.05417394 0.0375347 -0.018201428
0.061001986 -0.022439124 -0.068516895 -0.05211926 -0.019974438 -0.037423436 0.03226109 0.026890364

conv_layers.2.bias f4 [32]
00000000: e7d5 2fbd 0283 2f3d deb0 07bd d77f 5fbd
00000010: 77d8 883d ebc6 c8bc 2282 04bb 2ce0 80bc
00000020: 2177 b0bc a7c4 f2bc 011c 91bd 6414 5b3b
00000030: e9ce 803d 2e26 15bd 0414 49bc c5d1 33bc
00000040: d9c4 b23c d43f 0dbd 536b 933c 85f6 08bd
00000050: 643a 4f3d be43 843c cfe8 d73d 78d5 bf3c
00000060: 7750 3a3d 6f56 ea3c b4e4 9a3d 8ef6 dcbc
00000070: 2c81 0b3d 778a c63b 0cf9 34bd edc1 a63d
-0.042928603 0.04284955 -0.033127658 -0.054565277 0.066819124 -0.024508914 -0.0020219167 -0.015731893
-0.02154118 -0.029634787 -0.070854194 0.0033428902 0.06289465 -0.036413364 -0.0122728385 -0.010975306
0.02182238 -0.0344847 0.017995512 -0.033438224 0.050592795 0.016145583 0.105424516 0.02341722
0.045486894 0.028605668 0.07563153 -0.026973035 0.034058735 0.0060589868 -0.044182822 0.08142457

lstm.weight_ih_l0 f4 [128, 32]
00000000: 5215 c3bd 4f6f c63d 0450 00be 575e 2a3d
00000010: 5faa 903d 16b8 393e f802 fbbd 58ab 9dba
00000020: a233 18be 7b1a a9bd 209b 80bd ef80 733d
00000030: e29c d0bc 27a8 23bc bc7f 2d3d 7298 ebbd
00000040: 745e acbc f7f5 8dbd 3802 333d 5791 1c3e
00000050: 953f a1bd 89f8 26be e234 173d b43e 0bbe
00000060: 0f0d 97bd fcfa c4bd f1bd 23be 4426 293e
00000070: ddb6 18be 1418 d9bd 5197 9ebd f5a0 8fbd
00000080: 9031 043d 34d5 b43d 05e4 693d 1d29 01be
00000090: d3d3 573d 3986 323e aa6a 89bd 173f f1bd
000000a0: 0893 9f3d 88a9 583d cd57 833c e9a4 d8bd
000000b0: f1c9 11be 658b 10bc 0491 b5bd 0503 21bd
000000c0: 0ca2 d43d 78f5 36bc 2287 053e cba6 9b3d
000000d0: 8a06 483e 129c 093e 77df 16bb a07c 11bd
000000e0: be9f f7bd 4730 be3d 7ed3 abbd e81d 6abc
000000f0: b03a b9bd 9834 e13c 3ccb e1bd 4fdd 22bc
00000100: cdae df3d 1b44 af3d 1521 343c 7c22 463d
00000110: dc9e f43d be4f 203e 9a85 4b3e f181 33bc
00000120: e22d 253d aba9 a5bd ba0f 6b3d bfad 9fbd
00000130: a691 ec3d 777f a0bb c9dd 363d 87bd 44bc
00000140: 25e8 c43d 25ef e73c 34f4 9f3d 425f a0bd
00000150: 9489 913c dab8 14be 2cdd c23d 7db0 69bd
00000160: e2e4 263e 55af 11be aac7 34bd 3bf2 733d
00000170: f810 d2bb dcbf 6a3d 22c8 243e 0ccd 0cbe
00000180: 91a3 f43c 38f2 bfbd 5c77 c3bc 9a5c e63d
00000190: c082 343e 1e70 0ebe 95a2 293e ae4c d5b9
000001a0: 5ddc 713d b972 873d 6cd9 1dbd 98e3 eabd
000001b0: 8c3f 0bbe 2bce 0cbe 600d 72bd 4f96 cc3c
000001c0: 2119 abbb ce6c 573d 8e4c 9e3d 1bf9 263e
000001d0: c560 2c3e 1bd7 61bd edd1 063e 020c febd
000001e0: bf7c 143e b983 03be da7e 97bd 4ad8 ffbd
000001f0: 9a6a 3c3d 14e9 88bd 9545 0c3e aed3 203e
00000200: adde 593d 581a 1fbe 9427 57bd 58f7 333e
00000210: 6e46 8f38 0292 373e 0bf8 f93d cd83 7d3d
00000220: e45e a9bd b558 a43d f74c f63d ea1e 493b
00000230: b2f4 17be c2d8 00be 0ca1 cabd 6d5a 0dbd
00000240: 2c7a c73d becb 1dbb c720 313d 2611 9c3d
00000250: b556 acbb 7156 e93d 2416 80bd 52ce ccbc
00000260: 4d02 d13c 1548 a0bd 4b66 df3c f9d4 debb
00000270: 0f0f f9bd d9f8 cdbd 4404 3c3e abba c13d
00000280: e475 1d3e 98ee e13d 7af1 18be 50e2 4f3e
00000290: 10af 213d e20f 25bd 854c 443e 733b 29bd
000002a0: eee2 503d c0f3 433e 394a 35bb ff6e 4dbc
000002b0: 97ab 273e 87b4 debd 118b 5abc 871c f0bc
000002c0: 0900 e23d 9e71 b33d 69e7 163e 091a 2c3d
000002d0: 2ade e33c 0e01 c8bc d83f a9bd 3b3c 3f3e
000002e0: 7719 cf3d fdb0 003e 167a dfbc 054b 1cbd
000002f0: 95c6 18be 5a89 14be 493d 9bbd 49a9 0dbd
00000300: 7bed ddbd 53d1 673c 5c77 ad3d a395 19bc
00000310: 0dbf d5bd dc03 e3bd a545 f8bd 247d bebd
00000320: 0926 a33d aa03 643d 7c98 b03d 2803 93bd
00000330: 8b10 513d e438 c0bd c89b b63d 3db2 323c
00000340: 6033 82bd 4493 e8bd 423c c3bc bf8b 06be
00000350: 63c2 1cbe 8576 11be 5831 b23c a734 513d
00000360: bc85 3f3c b210 e3bd cd61 123c 62a0 94bd
00000370: 7b55 ad3d 6f1d bebc d169 f63d f74b b1bd
00000380: 51b3 3d3d e440 1f3e 75c0 0bbe 07c0 23be
00000390: 0aa8 153e 316f eabc 495f 2dbe f03b 9bbd
000003a0: e2ff 153d 521c 44bd 8053 0fbe a91e 8ebd
000003b0: cb7a 06bd b816 b0bd 5881 263e a345 a0bd
000003c0: 4e92 393e e08f 813d 438a 073e 8209 093e
000003d0: 0535 153e da1f abbd b719 043e 15f5 253e
000003e0: 5aef 88bc 0c66 203e 683a 9cbd b75c cbbd
000003f0: be9e 36bc a12c f33d d3b5 f23d 864d 0cbc
-0.09525551 0.09689199 -0.12530524 0.041593876 0.07063746 0.1813663 -0.122564256 -0.0012029214
-0.14863446 -0.08257004 -0.06279588 0.059449133 -0.025465433 -0.009988821 0.042358145 -0.11503686
-0.021041133 -0.0693168 0.043703288 0.15289818 -0.078734554 -0.16305746 0.036915667 -0.13598138
-0.073755376 -0.09618184 -0.15990426 0.16518503 -0.14913507 -0.10600296 -0.07743705 -0.07013122
0.03227383 0.08829728 0.057102222 -0.1261334 0.052692246 0.17434014 -0.06709798 -0.117796116
0.07791716 0.052896053 0.016033078 -0.10578329 -0.14237191 -0.008822297 -0.0886555 -0.03930952
0.103824705 -0.011166923 0.1303983 0.076001726 0.19533744 0.13438442 -0.002302138 -0.035519242
-0.12091015 0.09286552 -0.08389948 -0.014289357 -0.09044397 0.027490899 -0.11025092 -0.009940459
0.109220125 0.08557912 0.0109942155 0.04837273 0.119443625 0.15655419 0.19875184 -0.010956273
0.04032696 -0.08089002 0.057388045 -0.07796811 0.11551218 -0.0048980075 0.044645105 -0.012008077
0.096145906 0.028312275 0.0781025 -0.07830669 0.017765798 -0.1452364 0.095148414 -0.057053078
0.1629825 -0.1422704 -0.044135727 0.05955718 -0.0064107142 0.057311878 0.1609197 -0.13750094
0.02986315 -0.093723714 -0.023860626 0.11248131 0.17628002 -0.13909957 0.16565926 -0.00040683657
0.059048045 0.066136785 -0.038537428 -0.11469191 -0.1359846 -0.13750522 -0.059094787 0.024974016
-0.0052215015 0.052594 0.077294454 0.16305964 0.1683379 -0.05513678 0.13166018 -0.12404634
0.14500712 -0.12843217 -0.07397242 -0.12492426 0.0460001 -0.06685081 0.13698418 0.1570575
0.053190876 -0.15537393 -0.05252798 0.17574823 6.83189e-05 0.17926791 0.122055136 0.061893273
-0.08270052 0.08024732 0.12026399 0.0030688592 -0.14839438 -0.12582687 -0.098939985 -0.034510065
0.09740099 -0.0024077739 0.04324415 0.07620458 -0.0052593597 0.113934405 -0.06254223 -0.025000725
0.025513792 -0.078262486 0.027270457 -0.0068002907 -0.12161075 -0.100572295 0.18361002 0.09459432
0.15377003 0.11031836 -0.14935866 0.20301175 0.039473593 -0.04029835 0.19169815 -0.04131646
0.050997667 0.19135952 -0.0027662648 -0.012538671 0.1637405 -0.108742766 -0.01333882 -0.029310478
0.11035163 0.08761905 0.14736713 0.042017017 0.027815897 -0.024414565 -0.0826413 0.1867532
0.10112279 0.12567516 -0.027279895 -0.03815748 -0.14919503 -0.1450552 -0.075800486 -0.03458527
-0.108363114 0.014149028 0.084700316 -0.009374055 -0.10436831 -0.110847205 -0.12122659 -0.093012124
0.07966239 0.055667557 0.08622834 -0.071783364 0.051041167 -0.09385851 0.08916432 0.010906753
-0.06357455 -0.11356214 -0.023832444 -0.13139246 -0.15308528 -0.14205368 0.021752045 0.051075604
0.0116896 -0.11087169 0.00893445 -0.07257153 0.0846357 -0.023207394 0.12031902 -0.08657067
0.046313588 0.15552098 -0.13647635 -0.15991221 0.14614883 -0.028617473 -0.1693088 -0.075797915
0.036620982 -0.04787857 -0.13996696 -0.06939442 -0.03283195 -0.08598083 0.16260278 -0.07825782
0.18122217 0.0632627 0.13236336 0.13382533 0.14571007 -0.083556846 0.12900434 0.16206773
-0.016715694 0.15663928 -0.076283276 -0.09929793 -0.0111462455 0.11873747 0.118510865 -0.008563405

lstm.weight_hh_l0 f4 [128, 32]
00000000: cf55 16be de49 7d3d 7786 663d 4b79 dfbd
00000010: fe23 c93d 0ef4 103d 6145 8f3d 9ab0 e63c
00000020: 8e96 2f3e 3998 b23d 3faa 1f3e 4864 043e
00000030: ab59 863c bf84 a0bc d080 903d c945 cabd
00000040: fad6 bd3d 150f 563c 9273 303e f5c8 4c3d
00000050: b9bc dabc 5990 083e 9065 bb3d ad4f 7b3d
00000060: 4373 153d 2102 2bbe ed0b de3d 62cc 14be
00000070: b4f1 1bbe f930 dbbd 9566 2d3e ce0e e63d
00000080: 0169 febd eaec ed3c 6d82 0abd f60d e93d
00000090: e282 ea3d 4339 0e3d e06a f1bc 2ba4 25be
000000a0: 94ac c3bd b825 0dbd 0042 d5bd 92ee b0bc
000000b0: bad9 0e3e ec55 03be 731e 903d cbb8 08be
000000c0: 0b7e bc3d 9351 8b3d b31c 1f3e 7dbf 1ebe
000000d0: 0f31 913d 6b87 af3d 0641 0dbe 54a8 153e
000000e0: 38c8 16be 0d30 e33d e480 f0bd ebf7 f43c
000000f0: 4079 1ebd 89b1 f9bd 08a7 99bd 6a5e ed3d
00000100: 062f 393d ffdc 913d 079d 8cbc aa1c e6bc
00000110: 0dfb 4a3c 7644 9bbd 4bdb 98bc e4ff 613c
00000120: 7323 e43d 64bd a63d 9d40 adbc 1a6d d63d
00000130: e36c 623d 959b 2cbe 455a 663e 3d15 b8bd
00000140: b0bc bdbb ae17 bb3d 9596 ab3d fac8 f23d
00000150: fcb9 b7bd 2fa4 fd3d d5e5 173d c098 50bd
00000160: 1556 09be c568 1f3e 0eac 893d 084c bfbd
00000170: f0a2 2f3e c2b7 46bd b166 b5bd 7f32 53be
00000180: 3456 2b3d 7639 04be b66f 1c3e 12db 793c
00000190: f392 24be f203 a93c 83f3 49be c68f 08be
000001a0: 45cb 0a3d 0f48 3ebd 0527 8bbd 5e42 9ebd
000001b0: bdf1 3f3e 3132 c6bd 200b c8bb e92b d93d
000001c0: fa2a 0b3e 2f88 11be c1de 3abe 3ba3 e73d
000001d0: ffe7 4abc 3431 53bd 90c2 013e d15b 68bd
000001e0: 06f4 023e f7e1 cebd 2186 1fbe 2ad1 08bd
000001f0: c627 003e 5498 ff3d 911b 0f3e 6568 003e
00000200: fbe6 d5bd 962a c7bb 7b77 32be 70a5 6dbb
00000210: d97b 88bc 25a2 0f3b 2a81 f93d 029e 1e3d
00000220: 0fa3 06be 4692 253e 702f d73c 1cfe 30bd
00000230: 54db d33d e5a4 ad3a af95 23be cf08 2abe
00000240: 08b6 e83d b09b 4ebd e4c1 123c 1480 003e
00000250: 1749 c73d cbe4 21be be4f a93d 953e ba3c
00000260: e92e 193d 2eac 44bd 1896 093e 4206 1e3c
00000270: a70d 953d dd81 ce3d 0f12 21bc d82e 0d3e
00000280: e6ce 4d3e 7137 3bbd a6cd adbd f3b6 2cbe
00000290: dd6c 6e3d 80e7 7bbd 4c7b 02be 2047 fa3c
000002a0: 59f9 193e 6153 903d b843 583e 06f7 58bd
000002b0: 9a5b 5a3e 4576 293e e948 a4bd 72ff 38be
000002c0: a55c b53d 3231 603d eead 95bd ad56 5e3d
000002d0: 02ec 9abd aded 81bd 6500 f03c ce98 f9bd
000002e0: 5e39 1ebe 4d76 1bbe 3531 33be c6ac 6d3d
000002f0: d8e8 33be 938d 0ebe 6388 2e3e 9491 eb3d
00000300: d8e8 a13d 793f d0bc f744 a8ba b221 1ebe
00000310: 02ec a5bd cf73 153c 5514 f73c e31d ad3d
00000320: 4796 f6bd ed56 243d 320f bc3d 3a3b 073e
00000330: 5665 e1bd 6833 06be cb56 2abe 2754 efbd
00000340: bd7e 61bd d6a6 f1bd a3e0 92bc 064e 8ebd
00000350: 64e1 05be 3059 ccbd 4e8d 0c3e 81de 96bd
00000360: 0785 6fbd 7240 42be 81a2 bb3d 30e7 0dbe
00000370: 2245 fbbd 920f 913c 6e17 ec3c 3384 2a3e
00000380: 0b8f f4bd d937 42be cf4d d13d 616f 26be
00000390: 8480 b6bd b9b3 f1bd 94c2 9a3d b2f6 37bd
000003a0: e6fa 273d 938f 4abc 9783 11be c12a ab3d
000003b0: 10f5 b63c 12fc 2bbe e379 0d3e 6a25 0e3e
000003c0: 2c8a 24be 7b61 3d3e baa7 59bd 1e68 37be
000003d0: 6d4c 433e 58ee 063e 4176 23bd 0da2 d63b
000003e0: aa22 39bc 850e 603d 797c ddbd 8e46 8cbc
000003f0: b274 1d3e 6e4e ce3d cd0a 293c 7d39 1dbe
-0.14681171 0.061838023 0.05628058 -0.10911807 0.09821318 0.035389 0.06995655 0.028160382
0.17147276 0.087204404 0.15592287 0.1292888 0.016400179 -0.019594548 0.07055819 -0.09876592
0.09269519 0.013065119 0.17231587 0.049996335 -0.026701318 0.13336314 0.09150231 0.06135528
0.036486875 -0.16700031 0.108421184 -0.14531091 -0.15228921 -0.107027 0.16933663 0.112332925
-0.12422372 0.029043633 -0.03381579 0.11379616 0.11450745 0.034722578 -0.029469907 -0.16175906
-0.09554401 -0.0344598 -0.10412979 -0.021598134 0.13950244 -0.12825745 0.07037058 -0.13351743
0.09203728 0.068026684 0.15538292 -0.15502734 0.07089435 0.08570751 -0.13794336 0.14614993
-0.14724815 0.11093149 -0.11743334 0.029903373 -0.03868985 -0.12192065 -0.07502562 0.11590274
0.04521086 0.0712223 -0.01716472 -0.02808984 0.012388957 -0.07581417 -0.018659255 0.013793919
0.11139574 0.08141592 -0.021148974 0.10470028 0.055279624 -0.16856225 0.22495373 -0.08988426
-0.0057903156 0.09135376 0.083783306 0.118547395 -0.089710206 0.12384831 0.03708442 -0.050926924
-0.13411744 0.1556731 0.0672227 -0.09340674 0.17152 -0.04851509 -0.088574775 -0.20624731
0.041830257 -0.12912545 0.1527699 0.015249984 -0.16071682 0.020631764 -0.19721799 -0.13336095
0.03388526 -0.04645544 -0.06794552 -0.07727502 0.1874456 -0.09677542 -0.006104842 0.10604078
0.13590613 -0.14212106 -0.18249036 0.113104306 -0.012384414 -0.051560596 0.12671876 -0.056728188
0.127884 -0.10101693 -0.1557851 -0.0334026 0.12515172 0.12480226 0.1397536 0.12539823
-0.10444447 -0.0060780747 -0.1742839 -0.0036261939 -0.016660618 0.0021916714 0.12182839 0.038724907
-0.1314814 0.1616908 0.026267737 -0.043211088 0.10344568 0.0013247995 -0.15975069 -0.16604923
0.11362845 -0.050441444 0.00895736 0.12548858 0.09730738 -0.15809934 0.08267163 0.02273492
0.037398253 -0.048015766 0.13436162 0.009645047 0.072779946 0.10083363 -0.009830966 0.137874
0.20098457 -0.04570717 -0.0848649 -0.16866665 0.05820929 -0.061500072 -0.12742347 0.030551493
0.15036525 0.07047153 0.21119583 -0.052969955 0.21324006 0.16549022 -0.08021719 -0.18066195
0.08855561 0.054734416 -0.07308565 0.05428188 -0.07564546 -0.06344161 0.029297063 -0.12187348
-0.15451571 -0.15181847 -0.1749924 0.058026098 -0.17569292 -0.13921194 0.17044215 0.11502376
0.079057395 -0.025420891 -0.0012837936 -0.15442541 -0.081016555 0.009121849 0.030161062 0.08452966
-0.12040382 0.04012196 0.09182586 0.13206187 -0.110056564 -0.13105547 -0.16634671 -0.11685973
-0.055052508 -0.117993996 -0.01792938 -0.069484755 -0.13074261 -0.09977949 0.13725778 -0.07366658
-0.058476474 -0.18969896 0.091618545 -0.13857722 -0.122690454 0.01770762 0.028819766 0.16651992
-0.11941346 -0.18966617 0.10219919 -0.16253425 -0.08911231 -0.118018575 0.07556644 -0.044913
0.04101076 -0.012363332 -0.14210354 0.08357764 0.022333652 -0.16795376 0.13816027 0.1388146
-0.16068333 0.18494217 -0.053138472 -0.17910811 0.19072123 0.13176858 -0.039907698 0.0065500797
-0.011299768 0.054701347 -0.10814757 -0.017123487 0.15376547 0.10073553 0.0103175165 -0.15353961

lstm.bias_ih_l0 f4 [128]
00000000: 1842 49bd 44fa 3a3d c43f 343e 55e9 433e
00000010: d01a 1cbd 4316 063e 1c24 7b3d 31b6 b13c
00000020: 595d 0a3d aa50 efbb b45f e7bd ed8d f13c
00000030: 95bb d8bc 47ab 8cbd 0f3d 85bd e9f4 a63d
00000040: 2de6 f63d 69c0 1c3e 0f5f b0bd 32a7 99bd
00000050: 67b4 83bd b4b1 333d ded8 b03d ad03 1c3e
00000060: 569a f6bc 95b0 f13d 4326 4a3e 21d5 653d
00000070: 45fa bbbb 7f3d 883d 6254 983d 6d49 213e
00000080: ab17 213c 0547 323e 415d 8fbd b3b1 373e
00000090: 16c0 1abc aaa9 873d 41e1 e7bd 8943 223e
000000a0: f189 efbd 5478 05bd a1ff e53c 0a6c ae3d
000000b0: 7de5 903d 4fe1 393d 800e 17bc ab27 403c
000000c0: 5c3d afbd dfaa debd a65a 773d 745c 8b3d
000000d0: ee70 483d 6e86 59bd 3f59 4c3e ca8d d93d
000000e0: f529 fb3c 13a1 513d 30d5 66bd bea0 363d
000000f0: a6d2 93bd 089b 413c e54b 943d 2b9c 03be
00000100: 3914 2a3e 6294 07be 9e7e ae3d cf9e 33be
00000110: e9a9 763d 5e3c 153d a116 49be 5c4a 1d3e
00000120: 2ce1 d13d 7028 173e fdac 4e3b 52c4 8c3d
00000130: 6a2c 663c 9f3b cc3b c0a4 9bbd 63b7 fb3d
00000140: 4395 a8bc ba16 efbd 1acd 00be 23fb 263c
00000150: 1a98 e03d 446d 183e faf3 35be 311f aa3d
00000160: 64a5 833d cbe8 b83a 1cdc 9abd 1f37 2e3c
00000170: 98bf 6bbd 3dae 5dbd 4d80 fbbd 5125 a73d
00000180: 7406 333e 3f7b 073e 892b c23c 9eb6 c4bd
00000190: 2863 d5bd be46 103e c20c 04bd a6b6 38bd
000001a0: 6aba 193d f74e f4bc 63fb 0a3e de94 eb3c
000001b0: c505 9fbd 9e33 273e cf39 3b3e 8bec 113e
000001c0: 1c84 163e ee1c 343d 5b79 c23c 2eda 07be
000001d0: 4695 db3d 4ccb 8a3d ee01 073e 59ea 33be
000001e0: 73fe 083d 07f8 b43d f2da a53d ad5f b2bd
000001f0: cb0b b23d d3d0 1bbc 256d 713c 3103 91bd
-0.049135298 0.04564883 0.1760245 0.19131978 -0.038111508 0.1309443 0.061313733 0.021693321
0.03378043 -0.007303317 -0.11297551 0.02948662 -0.026456634 -0.06868606 -0.06505787 0.08152182
0.12055621 0.15307774 -0.08611881 -0.07502593 -0.064308934 0.043870643 0.08635114 0.15235777
-0.03010289 0.118012585 0.19741158 0.05611146 -0.0057366216 0.066523544 0.0743797 0.15750666
0.009832303 0.17409904 -0.07000209 0.1793888 -0.009445211 0.06624158 -0.11322261 0.15846075
-0.11696232 -0.032585457 0.028075995 0.085167006 0.070750214 0.045380887 -0.009219766 0.011728208
-0.08556625 -0.10872435 0.060389183 0.068047434 0.048935823 -0.053106718 0.1995592 0.10622747
0.030659655 0.051179003 -0.056355655 0.04458689 -0.072179124 0.0118167475 0.07241038 -0.12852542
0.16609277 -0.13240197 0.08520244 -0.1754105 0.060220633 0.036434524 -0.19637538 0.15360397
0.10248026 0.1476152 0.0031536215 0.06873383 0.014048675 0.0062326933 -0.07599783 0.122908376
-0.020578986 -0.116742566 -0.1257824 0.010191712 0.10966511 0.14885432 -0.17768851 0.083067305
0.0642803 0.0014107464 -0.07561514 0.010633259 -0.057555765 -0.054121245 -0.12280331 0.081614144
0.1748293 0.13230608 0.0237024 -0.09605144 -0.10419303 0.14089486 -0.03223873 -0.045096062
0.037531294 -0.02982281 0.13572459 0.028757509 -0.07764772 0.16328284 0.18283771 0.1425039
0.14698833 0.043972902 0.023739507 -0.13266823 0.10721831 0.06777057 0.1318433 -0.17569865
0.033445787 0.0883637 0.08098401 -0.08709655 0.086936556 -0.009510237 0.014735495 -0.07080687

lstm.bias_hh_l0 f4 [128]
00000000: f56f 2ebd ed88 443d c0a3 ba3d 0835 2f3e
00000010: 00ee 8ebd bd2e a6bd 2e38 a23c 3904 ffbd
00000020: e65c 9abd 80bd ca3d 1b53 4a3c b263 6c3d
00000030: 9fa0 76bd 119e 323d bf6a 053d c498 413e
00000040: 8da1 273e 01a5 a3bb 37e5 303e 1cbf a6bc
00000050: 8f7e 973d c970 ac3d efb3 4c3e c3fc 11bd
00000060: a722 ecbd 4497 e13d 43a4 b3bd 66de 6ebd
00000070: 5006 303e c1ad 18be d7b9 1ebe c0d2 57bd
00000080: 1010 833c b062 43bd 1ae6 93bd 0eed 2f3e
00000090: f913 ce3d 2b6b 3f3e d6e8 2b3d 4680 70bd
000000a0: e068 f4bd 8db2 b73d 0bd5 24bd 3bcd 1b3b
000000b0: f520 5a3b f8ea 3fbd 8bc7 8d3d 2a5f 103d
000000c0: 5ca7 87bd 13a8 e3bd d54f a7bc c9d3 cbbd
000000d0: d2d3 21bd 26cd ffbd e151 e63d 8afe 87bd
000000e0: d900 d93d 66e1 063e 0ee4 1a3e 9e73 93bd
000000f0: 1514 62bd d803 cebd d21f 033e f152 2a3d
00000100: 88f5 bbbd 3323 de3d 3c29 7cbd 0bc2 debd
00000110: 0baa 94bd 8b5c 863c aa6c 5b3b 7b73 013e
00000120: 0e2d c23b e038 b6bd eaf2 323e 9b79 d3bc
00000130: 7060 d93d 7447 2bbd d09e 23be 8620 aabd
00000140: cfe4 c4bd 2811 f4bd cca8 bbbd f717 c73c
00000150: a0a7 433d e192 a3bd 9800 633c 0b09 0fbe
00000160: 2ba4 b1bd ba9b 053d 0583 34be 2fbc 303e
00000170: 5dc5 0dbe 7b41 5a3d cce1 45bd 48a5 21bd
00000180: 5546 f93d a983 253d 6e27 5d3e 9665 2f3e
00000190: 15c1 1a3d 7ced df3d 1b82 2c3e 3dd0 b53b
000001a0: dc94 05be c3db d83d 4a30 9abd f677 a03d
000001b0: 344a e1bd a8e2 07be cbc9 a13d 3647 d43d
000001c0: 9e37 403e 500f 083e 65ae 28bc db7a a03d
000001d0: 4ea5 1fbd 76b9 4f3e 8e89 82bd 8cd7 423d
000001e0: e3f0 8bbd 0982 86bc 63a8 f13d 7167 2ebd
000001f0: 5215 10be 65b3 ee3d 68e0 453e f3fb d0bc
-0.04258724 0.047982145 0.09113264 0.17110074 -0.06978989 -0.08114383 0.01980218 -0.12451977
-0.0753725 0.098994255 0.012348915 0.057712264 -0.060211774 0.043607775 0.032572504 0.18905932
0.1637022 -0.004994035 0.17274939 -0.0203548 0.07397186 0.084199496 0.19990514 -0.035641443
-0.11530047 0.1101518 -0.08771565 -0.058317564 0.17189908 -0.14910032 -0.1550058 -0.05269122
0.01599887 -0.047701538 -0.07221623 0.17180273 0.10062403 0.18693225 0.041970097 -0.05871608
-0.11934066 0.08969603 -0.040242236 0.002377345 0.0033283804 -0.046854943 0.069228254 0.035247006
-0.06623718 -0.11116042 -0.020423809 -0.09952504 -0.03950865 -0.12490301 0.11246086 -0.06640346
0.10595865 0.1317192 0.15126058 -0.071997866 -0.055194933 -0.10059327 0.12805107 0.041583005
-0.09177691 0.108465575 -0.06156276 -0.108768545 -0.072589956 0.01640155 0.0033481517 0.12641709
0.005925781 -0.08897567 0.17475477 -0.025814822 0.10614097 -0.04181619 -0.15978551 -0.083069846
-0.09613954 -0.11917335 -0.09163055 0.02430342 0.04776728 -0.07986999 0.013855122 -0.13968293
-0.08673891 0.032619216 -0.17628105 0.17259286 -0.1384482 0.053285103 -0.04831104 -0.039464265
0.12171618 0.040408764 0.21597072 0.17128596 0.037781794 0.109339684 0.16846506 0.0055485056
-0.13045067 0.10588791 -0.07528742 0.07835381 -0.11000481 -0.13270056 0.07899817 0.10365145
0.18771216 0.13287091 -0.010295485 0.07835933 -0.038976006 0.20285591 -0.06373893 0.047568843
-0.06833055 -0.016419427 0.11799695 -0.04257912 -0.14070633 0.116553105 0.19323885 -0.025510764

att.in_proj_weight f4 [96, 32]
00000000: cfc6 b0bc 805c f73d 69bf 97be f14d c3bd
00000010: d8f1 8fbd 1481 3fbc 5e74 6bbd 3fe5 593d
00000020: 685f 92be b8bf 70bc f399 723e 0537 5e3e
00000030: 55a1 dbbd d87e 5bbc 112c 8abd 6ad6 07bc
00000040: bcb6 d33d d834 8d3d 7e9b 44bd 91b5 76be
00000050: ac07 c93d 6411 153e 80d3 b93d c61d 6cbe
00000060: 8940 af3d 6ede 293e 9fa3 d4bd c8d3 ddbd
00000070: bcbc e43d 3c9e 9f3e 8999 02bd 05fb a4bd
00000080: 76a8 a4bc a5db 3abd 86fd b13c faf0 fdbd
00000090: 9a1e 823e 96ee e53d 3e20 29be 5ca1 0b3e
000000a0: 9a45 1fbd 09e1 343e 477f 5b3d ee83 f5bd
000000b0: 40cb 1bbe 0dca 5abc ec7b babc ecb7 423a
000000c0: 384c 1abd 5d0a 10bc 7421 283d bfb6 a53d
000000d0: 888f 0c3e dd72 ff3c b36d fcbc 96d6 0dbe
000000e0: 573f 873e a4f0 d23d 2e18 b2bd 4f2b bcbd
000000f0: 38a6 b43d e902 0abd 1be8 e73d f148 2d3e
00000100: 9b27 87bd 2707 0bbe ecc1 7c3d 008a c7bd
00000110: 2d51 56be 2cb0 df3d 7d01 38be aa49 ea3d
00000120: e9f2 93be ce2f 0a3e fb5d 553e 4453 643e
00000130: d27e 8bbb 048e df3d 26c4 9b3e 1e2e ea3d
00000140: 549b 6c3c 9302 333d fc79 12be 5976 c3bc
00000150: 00c0 7bbe d4ad 583e dd74 45be b1c3 37be
00000160: 0395 ab3d 5046 c0bd 4668 85be 2ac9 bebd
00000170: 8493 3f3e 1315 993e ea23 16be db6d 90be
00000180: dd4e a5bd 4b54 683d 37e3 743d 9199 bcbc
00000190: bcd4 773e 9baf 1abe a9a4 0cbe 2afe c7bc
000001a0: 6a6d 31bd f43b 0fbe 95b0 c93c 473e 153e
000001b0: 8177 febd a7fa c7bb 89b0 51bd e294 92bd
000001c0: 10d9 bdbd da0e 003d bcd7 5d3e cc46 8d3e
000001d0: 9149 45bd 856e c4bd dde8 203e 954c c23d
000001e0: eb15 0a3e 6823 50be 433e 6d3d 5a6f 34be
000001f0: bd51 8d3c 41cc 5f3d 2d45 72bd ee79 b8bd
00000200: 3714 42bd 6775 02be 9a2c 8abe fdba ec3d
00000210: cc22 31be 3c3e c8bd e6b8 2dbe 65b8 5ebd
00000220: 2bc3 56be efbe 063e e544 d83d e4dc 523d
00000230: c4d8 02bd f5b3 023d b1b3 123e dc84 29be
00000240: 6e15 3b3e 9739 8cbd e914 eebd 21f0 f1bd
00000250: 32ed 63be b9b8 8b3e b5bb 00be b802 543d
00000260: 9650 b7bd e958 383b 6739 113c 0017 323e
00000270: 9d80 29bd d798 893e fec8 913d 8b3b 3ebe
00000280: af81 17be 8c53 ca3d 47e8 8c3d e290 053e
00000290: 6731 a4bc ba9c 94bc 6442 4f3e 3a5e a1bd
000002a0: 3857 8ebe c535 353b 6e7f 24be 41d7 173e
000002b0: a6fa 0dbe 1e1c abbc 3282 463e 7bfe 4fbe
000002c0: 57dc 143d fe25 143e 4fb1 babd 610e 70be
000002d0: 6bfd 4cbd 64c0 7b3e 5067 e3bd ac0e 43bd
000002e0: 9bd1 29be 8448 343e 6df1 63be c9e7 313e
000002f0: 97b8 11bd 953d a33d 4f00 82be 0059 48be
00000300: d602 6cbd 2e9a bb3c 3ad3 fb3a 26ea 293e
00000310: 7704 683d e22e 23be 898c 01bd 4d6e e7ba
00000320: f42a 163e 7317 0cbe 0c73 0cbe 270f 92bd
00000330: 0672 dcbd b567 913d e23b 8bbe 5095 753e
00000340: 5a0f d4bd b099 463d 1448 293d 004e c93d
00000350: 31c8 0b3b 6fb6 90be 057c 013e 357b 783d
00000360: 8669 913c c726 313e 1cdd cdbc ec3a c83d
00000370: 4492 62be c6f0 5e3d 0532 853e d8e6 c6bd
00000380: 92be 953d d256 0f3e 07f6 8e3e 1ea2 a33d
00000390: 5d71 953d d50c aabd 4de5 60be 50f3 383c
000003a0: beb3 863e f8a6 313e 0390 49be 0d58 973d
000003b0: b119 2c3e 25f6 a7bd 6fd3 96be 87e2 22bc
000003c0: ce5f e3bd a000 3c3e b5dd 9a3c fcbb bebc
000003d0: e260 303e 657a 55be 1c6c b6bd d927 88bd
000003e0: f734 cbbc d13d a2bc 00bd 8a3e e740 3cbe
000003f0: e7fb 0f38 50b0 aa3d 8aa4 e23d 087a 00bd
-0.021579174 0.1207819 -0.29638222 -0.095363505 -0.0702855 -0.0116884895 -0.057484023 0.05319714
-0.28588414 -0.014694147 0.2369154 0.21700676 -0.10724131 -0.013396941 -0.06746686 -0.008290866
0.10337588 0.06894845 -0.04799985 -0.240927 0.098159164 0.14557415 0.090735435 -0.23058233
0.08557231 0.16588756 -0.10382771 -0.1083141 0.11168811 0.3117541 -0.031884704 -0.08055691
-0.02009986 -0.045619626 0.021727335 -0.12399478 0.25413972 0.11227147 -0.16516206 0.13635772
-0.038884737 0.17663969 0.053588178 -0.11988054 -0.15214252 -0.013353837 -0.022764169 0.0007427919
-0.037670344 -0.008791533 0.04104753 0.08091497 0.13726628 0.0311827 -0.030814027 -0.1385139
0.26415512 0.10299805 -0.08696018 -0.09187948 0.08820766 -0.03369418 0.113235675 0.16922356
-0.06599351 -0.13576947 0.061708376 -0.09743118 -0.20929404 0.10922274 -0.17969318 0.114398316
-0.28896263 0.13494799 0.20836632 0.22297388 -0.0042570615 0.10915759 0.30423087 0.114345774
0.01444133 0.043703627 -0.14304346 -0.023860143 -0.24584961 0.2116006 -0.19282861 -0.17945744
0.08378031 -0.09388411 -0.26056117 -0.09315713 0.18708616 0.2989889 -0.14662138 -0.28208813
-0.080716826 0.056721013 0.059787 -0.023022445 0.24202245 -0.1510605 -0.13734688 -0.024413187
-0.043317236 -0.13987714 0.024620334 0.14574538 -0.12425137 -0.006102878 -0.051193748 -0.071573034
-0.09269917 0.031264164 0.21664327 0.27593076 -0.04816586 -0.095913924 0.1571383 0.09487263
0.13484924 -0.20326006 0.057920706 -0.17620602 0.01725089 0.05463815 -0.059148002 -0.09007631
-0.04738256 -0.12740098 -0.26987153 0.11559103 -0.1729843 -0.09777495 -0.16965064 -0.05437507
-0.20972888 0.13158773 0.105600156 0.05148019 -0.031945005 0.0319099 0.1432636 -0.16554588
0.18269894 -0.06846922 -0.11625082 -0.11813379 -0.22258452 0.2728937 -0.12571605 0.051760405
-0.089509174 0.0028129166 0.008863783 0.17391586 -0.04138242 0.2687442 0.07118414 -0.18577401
-0.14795564 0.098792166 0.06880241 0.1304355 -0.020043088 -0.01814114 0.2024017 -0.078793004
-0.27800918 0.0027650457 -0.16064236 0.14828207 -0.13865146 -0.02088743 0.19385603 -0.2031192
0.036342945 0.14467618 -0.0911585 -0.23442985 -0.050046366 0.2458511 -0.1110369 -0.047621414
-0.16583864 0.17605788 -0.22260065 0.17373575 -0.03557643 0.0797073 -0.2539086 -0.19565201
-0.057619892 0.022900667 0.0019212731 0.16593227 0.056644883 -0.15935853 -0.031628165 -0.0017656774
0.14664823 -0.1368082 -0.13715762 -0.07131796 -0.10763936 0.07099859 -0.27194124 0.2398274
-0.103544906 0.04848641 0.041328505 0.098293304 0.002132904 -0.28264186 0.12644966 0.060664374
0.017750513 0.17299949 -0.025129847 0.097768635 -0.22126108 0.05442884 0.26014724 -0.09711999
0.07311739 0.13997963 0.2792208 0.07989906 0.07297013 -0.08303229 -0.21962471 0.011288479
0.26309007 0.1734885 -0.19683842 0.07389841 0.16806675 -0.08201245 -0.29458186 -0.009941704
-0.11102258 0.18359613 0.018904546 -0.023282997 0.17224458 -0.20847471 -0.08907339 -0.06648225
-0.024805529 -0.019804867 0.2709732 -0.18384133 3.432846e-05 0.0833441 0.110665396 -0.031366378

att.in_proj_bias f4 [96]
00000000: ef74 f9bb 19c3 103d 765b 83bc 0c8f b23b
00000010: d8c9 02bc fed3 39bc d23d a3ba 847f ec3b
00000020: 52ce 2bbc 5004 d23c 17e5 9f3c 21d9 2bbc
00000030: 48c0 e3ba fd33 f5bb 5f7c fcbc 0486 53bb
00000040: aa70 b23c 1918 843c 03f4 bc3b c742 48bd
00000050: f817 543d aae9 7c3c d2b8 203c 4e44 58bd
00000060: f59a 88bc bfff 90bb 8531 2ebc 633f cebc
00000070: f5f7 0d3d 9ae9 ea3b 2c68 5b3d a793 90bc
00000080: 42f7 39b9 9f96 4839 1197 33b9 8d86 d6b9
00000090: ec61 3fb9 ca31 09ba 76da 1f39 4364 9b39
000000a0: 85c4 c539 5919 d137 a03a 02b9 cba3 a6b9
000000b0: 6663 333a 9125 963a c979 12b9 0808 c236
000000c0: 5ebd 3f38 9352 4638 2ba5 22b8 ed91 2c39
000000d0: 8b65 33b8 e298 f3b6 5612 5337 3aab 4638
000000e0: a0a5 6039 de28 1eb6 7353 91b8 9794 c138
000000f0: 96dd bab7 e8c4 2eb9 8f64 c0b9 0a0c 33b9
00000100: b26c c23c 9e2e cb3c f472 d5bc 92a5 37bd
00000110: 1f1d fabc be43 153d edfe f8bc afed f5bc
00000120: 98ab 3f3c 4414 8e3c 57dc a43c 4e9a b0bc
00000130: 67ce ffbc a64a 86bc 6aed 663c e8df a03c
00000140: aaf1 723c e480 913c 65cf a23c ef57 013d
00000150: b466 943d bbac eb3a b8f9 c93c e3c9 0b3d
00000160: 4350 8dbc 7856 febc a2fc 9cbc e69b 4c3d
00000170: a25b 09bd ed5d 943c 2103 e0bc 354b 943c
-0.0076128165 0.03534231 -0.016034823 0.0054491814 -0.007982694 -0.011342047 -0.0012454337 0.0072173495
-0.010486202 0.025636822 0.019518418 -0.010488779 -0.001737603 -0.007483004 -0.030821024 -0.0032275924
0.021782238 0.016124772 0.005766393 -0.04889181 0.05178067 0.015436569 0.00980969 -0.052799515
-0.016675452 -0.0044250186 -0.010631924 -0.02517671 0.0346603 0.0071689608 0.053566143 -0.017648531
-0.00017735086 0.00019129597 -0.00017127047 -0.0004091751 -0.00018251658 -0.00052335544 0.00015244805 0.00029638605
0.00037721187 2.4926545e-05 -0.00012419606 -0.00031784023 0.00068431196 0.0011455287 -0.00013969014 5.7825855e-06
4.571431e-05 4.7283782e-05 -3.8777634e-05 0.0001645756 -4.2771495e-05 -7.2597622e-06 1.2580849e-05 4.7366346e-05
0.00021424005 -2.3567623e-06 -6.9296824e-05 9.230634e-05 -2.2276112e-05 -0.00016667286 -0.00036696016 -0.00017075255
0.02373347 0.024802502 -0.02605579 -0.044835635 -0.030531464 0.036441557 -0.030394996 -0.030020563
0.011698626 0.017343648 0.020124597 -0.021557953 -0.03122635 -0.016393017 0.01409469 0.019638017
0.014828125 0.017761655 0.019874284 0.031578 0.072461516 0.0017980555 0.024655208 0.03412808
-0.017250186 -0.03104709 -0.019163433 0.049953364 -0.033534653 0.018111194 -0.027345242 0.018102268

att.out_proj.weight f4 [32, 32]
00000000: 325d 05bc 64aa 1dbe a41d 0a3e 1c0b cdbc
00000010: 73e9 36bd e625 f53d cea6 8a3d 4c02 74bd
00000020: 019e 27be d9f7 8c3a f567 80bd 25da 9abc
00000030: b087 c53d 16d9 183e d170 31be a2c8 f2bd
00000040: b83d 94bd e2e9 d93d 9bc9 3fbd b343 17bd
00000050: d5c3 6cbd 0204 45be 5332 68bd fc40 3bbe
00000060: 3a20 443d 7ad7 ee3d 0d90 1b3e c834 753d
00000070: 5224 ec3d 80f4 123d 4c1b a83d a114 0bbe
00000080: 31cd 583e 5ccb a03b f7a9 26be 01f8 b8bd
00000090: f411 f43d 0995 6b3e ec04 09be f04c 57be
000000a0: 8a46 5abd 721b 1f3e 8f71 3b3d 0c33 31be
000000b0: af2c 0f3d 9b27 3cbd 0942 783d 90c7 dfbc
000000c0: d5af 4dbe 93e0 253e db38 d3bd 3d78 323e
000000d0: 82c7 f93d 95ca 043e ee1e 13be 7db1 23bd
000000e0: 8d3a 80bd b1c2 c63d e591 a7bd 42e7 7dbd
000000f0: 23f5 19be f4ad 00be b3dd 4bbe fa9f e53d
00000100: db11 063d 41d6 6abc dc39 bdbd 9090 fbbc
00000110: 2ea9 08be 36c5 323e 8446 12bb bf20 13be
00000120: d176 e3bd ff5b e73d 1530 7abd c4ee 6abd
00000130: 7e6c e3bd d532 9ebc 1e29 ae3c 5439 c93d
00000140: 3796 833d 86f4 dc3d 8298 0bbd 8f7f 043d
00000150: 1251 5abd 7d29 c73d cf57 2ebd 07e0 db3d
00000160: e01b dcbd 527a 43be 8fb8 cb3b d289 ec3c
00000170: b170 24be 02dc f13d 89f2 32be 56f3 f93d
00000180: 2de7 993d 022f d23d a643 25bd 0aee acbc
00000190: 617e a5bd 4084 1bbe 6515 173e 0404 e4bd
000001a0: 0a0b eebc 1b6f cc3d 7d4e f23d 5507 8ebd
000001b0: cbcd 0dbe cdd8 223c b837 f1bd 7e9c 23be
000001c0: 8688 2dbe e749 e7bd 8188 acbd 580f f3bc
000001d0: ad50 bcbd f014 893d fdfc 44bd 7ecd 1bbe
000001e0: 0ca4 c93d 3229 483e 6933 973d 8b17 4bbb
000001f0: 7459 d2bd b290 e13c 7639 fb3d 771d 783d
00000200: 6dd7 403e a236 e33d 8e4b e43d 0723 e03d
00000210: 0521 bdbd 7bee 913c 7386 bd3d 5d28 09be
00000220: d13f e43d 6ed9 0b3e cea0 81bd bf43 e63d
00000230: 0348 943d a998 36be 9204 3c3e 9284 fe3d
00000240: 5e0c a0bd cde0 24bd ae05 75bd 157b 533c
00000250: d698 55be a5e0 0cbe 211c cd3d 94bc 023d
00000260: 495c 2cbe 08d6 4fbe 7177 193e 621b f43d
00000270: 16f5 44be 861e 933d 3ce7 96bd 2cba e7bd
00000280: 96c0 44be be94 473d d791 ae3d 8e6e f13d
00000290: db68 1e3d cff0 78be 3575 143c f8a5 443e
000002a0: 9b01 253d 8a13 fbbd b617 2fb8 0d61 b2bd
000002b0: bfdc c53d 1230 6d3e b9aa 383b c5fb 25be
000002c0: d084 20be 5324 08bd 7c36 aebd 87b3 8dbd
000002d0: 7ecb e4bd a297 abbd a8c1 8bbd b623 bbbd
000002e0: 121c ed3d e5cd ccbd 6669 963d 6837 d4bd
000002f0: 81c1 e93d 9488 0abe a4c1 a83d 2639 bb3d
00000300: a6f3 1f3e 2618 0c3e ddbd 06bd 95e4 203e
00000310: b444 b33d 2d88 033e 6821 f9bd b356 d63d
00000320: 7c8c 2d3e 34fd 5dbd e94a debd 7c6c 0a3e
00000330: 4b04 bf3c 81cd 29be 69ea 48bd 2c6f 47bb
00000340: 3f6b c23d 861a e13d 6971 003d a31c 183e
00000350: 3caa 24be 6e91 ef3d c130 f6bd a071 053e
00000360: ead4 36be 8b2b d83b 6d22 d13b ba2d 2ebe
00000370: 1e8d 43be 7688 123d efad 78bc fc71 f8bd
00000380: 5c2d 06be 4ee6 87bd 4e9b ce3d 2be2 53bc
00000390: 5e20 2d3b 3bb2 92bd 4310 01be cb14 04be
000003a0: 4e89 453d 62d8 28bd f58b e73d 136d c0bd
000003b0: 27ec f3bd 0cdb f83a 2616 433d b012 133e
000003c0: b7a9 3b3e eb93 19bd f248 07be b3dc 2d3e
000003d0: ae35 8fbd 9882 c3bd d7d0 0d3e d0a1 253e
000003e0: 3af8 773c 4d28 3fbe 508c a13d b317 cbbc
000003f0: bcdd 46be 76a5 423e 7bf0 8abd 14d2 39bd
-0.008139895 -0.1539703 0.1348787 -0.025029711 -0.04465623 0.11970119 0.06770097 -0.059572503
-0.16368867 0.0010755017 -0.06269828 -0.018902848 0.09645021 0.14926562 -0.17328192 -0.11854674
-0.072383344 0.10640313 -0.046823125 -0.036929797 -0.057803947 -0.1923981 -0.056688618 -0.18286508
0.047882296 0.11662193 0.1519167 0.05986479 0.11530365 0.035877705 0.082083315 -0.13582088
0.21172024 0.004907055 -0.16275774 -0.09031678 0.11917487 0.23006071 -0.13380784 -0.21025443
-0.053289928 0.15537813 0.045762595 -0.17304629 0.034954723 -0.04593621 0.06060985 -0.027316839
-0.20086606 0.1619895 -0.10313579 0.1742868 0.12196256 0.12967904 -0.14367267 -0.039964188
-0.06261168 0.09705103 -0.08182124 -0.061988123 -0.15034918 -0.12566358 -0.1990879 0.11212154
0.032731872 -0.014333309 -0.092395514 -0.030708581 -0.13345787 0.17458043 -0.0022319863 -0.1436796
-0.11106647 0.11296844 -0.06108101 -0.05735661 -0.111046776 -0.019311348 0.02125984 0.098253876
0.064251356 0.10788827 -0.03408099 0.03234821 -0.05329997 0.0972471 -0.04256421 0.10736089
-0.10747504 -0.1908963 0.0062170695 0.028874312 -0.16058613 0.11809541 -0.17475332 0.12204616
0.075147964 0.10262872 -0.040347718 -0.0211096 -0.080807455 -0.15187168 0.14754255 -0.111335784
-0.029057998 0.09982129 0.11831377 -0.06934992 -0.13848035 0.009939385 -0.11778206 -0.15977666
-0.16946611 -0.11293393 -0.084244736 -0.029670402 -0.09195075 0.06693447 -0.04809283 -0.15215108
0.098457426 0.19546965 0.073828526 -0.0030989374 -0.10270968 0.027534816 0.12266819 0.060574975
0.18832178 0.11094405 0.111472234 0.10944181 -0.092348136 0.017813912 0.0925416 -0.13394304
0.111449845 0.13657162 -0.06329499 0.1124339 0.07240298 -0.17831673 0.18361118 0.124276295
-0.07814859 -0.04025345 -0.05981987 0.012907763 -0.20859084 -0.1375757 0.10015131 0.031918123
-0.16832079 -0.2029649 0.1498697 0.11919285 -0.19234118 0.07183556 -0.07368323 -0.11314806
-0.1921409 0.048725836 0.085239105 0.11788665 0.038674217 -0.24310611 0.009061147 0.19203937
0.040284734 -0.12259586 -4.1745334e-05 -0.08709917 0.096612446 0.23162869 0.002817793 -0.16209324
-0.15675664 -0.033237766 -0.08506486 -0.06919008 -0.111716256 -0.08378531 -0.068240464 -0.09137671
0.115776196 -0.10000209 0.07344322 -0.103621304 0.11413861 -0.13528663 0.08240059 0.091417596
0.15620288 0.13681087 -0.03289591 0.15712197 0.087533385 0.12844916 -0.12164575 0.10465755
0.16948122 -0.05419655 -0.10854132 0.13517946 0.023317477 -0.165823 -0.049051676 -0.0030431254
0.09493112 0.10991387 0.031358156 0.14854674 -0.16080564 0.116976604 -0.12021018 0.13031626
-0.17854658 0.0065969876 0.0063822777 -0.17009631 -0.190968 0.03577467 -0.015178188 -0.12131116
-0.1310324 -0.06635724 0.10088216 -0.012932341 0.0026416997 -0.07162901 -0.1260386 -0.12898557
0.048226647 -0.041221984 0.113059916 -0.09395804 -0.11910277 0.001898618 0.047628544 0.14362597
0.1832646 -0.03749458 -0.1321142 0.16978721 -0.069926605 -0.09546393 0.13849197 0.16175008
0.015134865 -0.18667717 0.078880906 -0.024791574 -0.19420522 0.19008431 -0.06784149 -0.04536636
