checkpoints/SingularTrajectory-TEMP/zara1/m_vae_model_best.pth (torch, 75829 bytes, 24 tensors)

conv_layers.0.weight f4 [64, 1, 3]
0	0x3f1560b2	0.5835067
1	0xbea63bc8	-0.32467484
2	0xbe9ace8e	-0.30235714
3	0x3f016a6f	0.5055303
4	0x3f19ae0e	0.6003121
5	0xbeeac0b6	-0.45850152
6	0x3f1949aa	0.5987803
7	0x3ec0fcf2	0.37692982
8	0x3eb3ccc8	0.35117173
9	0x3e068665	0.13137205
10	0x3eac8624	0.3369609
11	0xbef27ba1	-0.47359946
12	0xbef13c4a	-0.4711631
13	0x3ec36f2a	0.3817075
14	0xbeb03772	-0.344173
15	0x3eb78aa0	0.3584795
16	0xbc86eabb	-0.01646935
17	0xbeb9acbd	-0.362646
18	0xbf00a49f	-0.5025119
19	0x3ec2bde1	0.3803549
20	0x3e6c36d0	0.23067784
21	0xbdeeca9d	-0.11659739
22	0x3e6b7d61	0.22997047
23	0xbd7054df	-0.05867469
24	0x3c84484f	0.01614776
25	0x3eee4e67	0.4654419
26	0x3e178db2	0.14800146
27	0xbd005c9a	-0.03133831
28	0x3dba5e07	0.090999655
29	0x3cb07426	0.021539759
30	0xbf05d0a9	-0.52271515
31	0xbec8edc4	-0.392439
32	0x3ed25c5f	0.410861
33	0x3f03e068	0.5151429
34	0x3cb34a5e	0.021886047
35	0x3ed7e25a	0.4216488
36	0x3ec63a7e	0.387165
37	0x3f122e9f	0.5710239
38	0xbe37ceb6	-0.17949948
39	0xbe5d17e8	-0.21591151
40	0xbcec2f96	-0.028831284
41	0x3de0df72	0.10980119
42	0xbe2bd4d5	-0.16780408
43	0xbeddf9ce	-0.43354648
44	0xbf0c7477	-0.5486521
45	0x3ecefcef	0.40427348
46	0xbe67c15c	-0.22632354
47	0x3eb79d5b	0.3586224
48	0xbd53634e	-0.051608376
49	0x3e0ed1c2	0.13947204
50	0xbf056b3b	-0.52116746
51	0x3ebd0818	0.36920238
52	0xbed6c90c	-0.41950262
53	0x3e44e1a1	0.19226696
54	0x3d8bcf65	0.06826667
55	0xbe865f71	-0.2624469
56	0xbf0a0f6e	-0.53929794
57	0x3ec400f6	0.38281983
58	0x3f16c3a1	0.58892256
59	0xbeeb4a95	-0.4595534
60	0xbe5393f9	-0.20661916
61	0xbedd484b	-0.43219218
62	0xbd95b506	-0.07309918
63	0xbe3edace	-0.18638155
64	0xbe33132e	-0.17487785
65	0xbf1e1d9c	-0.6176393
66	0xbe9a334d	-0.30117264
67	0xbf03695b	-0.51332635
68	0x3e6a8779	0.22903241
69	0xbf038f5e	-0.51390636
70	0x3e92213b	0.28540978
71	0x3d8afdb0	0.06786668
72	0x3f11abe1	0.5690289
73	0x3e597d2d	0.21239157
74	0xbda6a7a2	-0.08137442
75	0xbe84d405	-0.25943008
76	0xbefc404d	-0.49267808
77	0x3df4ed89	0.11959369
78	0xbe7ae216	-0.24500307
79	0xbe8100da	-0.25195962
80	0xbe51dffd	-0.20495601
81	0xbf0e9842	-0.55701077
82	0xbee672b9	-0.450094
83	0xbf0a88e6	-0.5411514
84	0x3eab7172	0.3348499
85	0xbe237c59	-0.15965404
86	0xbe598a21	-0.21244098
87	0x3f033414	0.5125134
88	0xbf024728	-0.50889826
89	0x3dc9a242	0.09845401
90	0xbe88ab9b	-0.26693425
91	0xbe8dfbd4	-0.27731192
92	0x3ef8cabb	0.4859217
93	0xbe0dbc6d	-0.1384141
94	0xbf025674	-0.50913167
95	0xbe6a6695	-0.22890694
96	0x3e1e237c	0.15443224
97	0x3f064ae0	0.52458
98	0xbd5f0fbd	-0.05445837
99	0xbeb37139	-0.3504732
100	0xbd89e8d2	-0.0673386
101	0x3e93d42e	0.28872818
102	0xbee46a88	-0.44612527
103	0xbf0a3245	-0.53982955
104	0x3ecf78ba	0.40521795
105	0xbe3991a4	-0.18121964
106	0x3e8f3c25	0.27975574
107	0xbee178e2	-0.4403754
108	0xbe9616af	-0.2931418
109	0x3e29f9d7	0.16599213
110	0x3e8a6d44	0.27036488
111	0x3eda7368	0.42666173
112	0x3f04fd80	0.5194931
113	0xbe8b1ffe	-0.27172846
114	0x3e2b6713	0.16738538
115	0xbf04c83d	-0.5186804
116	0x3ec3b94c	0.38227308
117	0xbd98248c	-0.07428846
118	0xbddc4e9e	-0.107571825
119	0x3e9a337a	0.30117399
120	0x3e24fcb3	0.16112022
121	0x3c71ef0e	0.014766468
122	0x3eb5649b	0.35428318
123	0xbe567d84	-0.20946318
124	0xbf1d5df1	-0.6147147
125	0x3e68667e	0.22695348
126	0x3e52fc4b	0.20604055
127	0xbe3d0ed2	-0.18462685
128	0xbd12850c	-0.035771415
129	0xba4c1a8b	-0.00077859376
130	0x3ebd6fdd	0.36999407
131	0xbe570f2b	-0.2100188
132	0xbf0b7a63	-0.5448362
133	0xbf2975d2	-0.66195405
134	0xbe648ba3	-0.22318892
135	0x3ef877f5	0.4852902
136	0x3ed95405	0.42446914
137	0x3e6c18c0	0.23056316
138	0x3ecdc078	0.40185905
139	0xbee4add6	-0.44663876
140	0xbe2077d6	-0.15670714
141	0x3e14f43f	0.14546297
142	0x3d8ac581	0.06775952
143	0x3dd235bb	0.102641545
144	0xbefa818f	-0.4892697
145	0x3e240d55	0.16020711
146	0x3e755aef	0.2396047
147	0xbe99e673	-0.3005863
148	0x3ee544ff	0.44779202
149	0xbe32a3f2	-0.17445353
150	0xbe3c52f1	-0.18391015
151	0x3c4a734f	0.012356593
152	0x3d2a0992	0.041513033
153	0x3f01cfcf	0.50707716
154	0x3e05ace7	0.13054238
155	0x3e57f870	0.21090865
156	0x3e9467dc	0.28985488
157	0xbf0a3fd0	-0.5400362
158	0x3efd8c7e	0.4952125
159	0x3ee240e3	0.4419013
160	0x3edb0e0e	0.4278416
161	0x3ed2db7d	0.4118308
162	0xbeda7a4f	-0.4267144
163	0x3eee3fde	0.46533102
164	0x3f10acd0	0.5651369
165	0xbecf31e2	-0.40467745
166	0xbe2af70a	-0.166958
167	0xbf130061	-0.57422453
168	0xbea56e9a	-0.32310945
169	0x3d7c3664	0.06157531
170	0xbe6eb6d9	-0.23311938
171	0xbed57667	-0.41691896
172	0xbeaa4793	-0.33257732
173	0x3f059fe0	0.52197075
174	0x3cbc2340	0.022966027
175	0x3eacf09a	0.33777314
176	0x3c104dee	0.008807642
177	0x3c9d202a	0.019180376
178	0xbe7f6c83	-0.24943738
179	0x3f13da70	0.57755184
180	0x3f085133	0.532489
181	0x3e07c56b	0.13258903
182	0xbed076d0	-0.40715647
183	0xbd026ec8	-0.03184393
184	0xbe93d327	-0.28872034
185	0x3e85762f	0.2606673
186	0xbf31c71f	-0.6944446
187	0xbe758f12	-0.23980358
188	0x3f04f8a3	0.5194189
189	0x3eeb68ae	0.45978302
190	0x3ea6ebcf	0.32601783
191	0xbea71e06	-0.32640094

conv_layers.0.bias f4 [64]
0	0xbe4d8001	-0.20068361
1	0xbdc0daf8	-0.09416765
2	0xbef46066	-0.47729796
3	0x3e971017	0.29504463
4	0x3ec7c7fb	0.3901976
5	0x3eca17d4	0.39471304
6	0xbe92a807	-0.2864382
7	0x3f07f565	0.5310882
8	0xbe79262f	-0.24330972
9	0x3ebde279	0.37086847
10	0xbf0bdb17	-0.5463118
11	0x3e85ee54	0.26158392
12	0xbe6faa5b	-0.23404829
13	0x3ed426d9	0.41435888
14	0xbeb1bf7e	-0.3471641
15	0xbed83f90	-0.42235994
16	0x3ec15c4c	0.3776573
17	0x3efa5942	0.48896223
18	0x3f067d47	0.5253491
19	0x3f1e09e1	0.61733824
20	0x3de31c86	0.11089425
21	0x3e24a2c0	0.16077709
22	0x3d7bc791	0.06146962
23	0xbe4e0a67	-0.20121156
24	0xbe95b8b4	-0.2924248
25	0x3f02c7b6	0.51085985
26	0xbef594ae	-0.47964996
27	0x3e4c0472	0.19923571
28	0xbea616fb	-0.32439408
29	0x3efd144d	0.4942955
30	0xbc965dfd	-0.018355364
31	0x3ee503f7	0.44729587
32	0xbe48089f	-0.19534539
33	0x3d985ec9	0.07439954
34	0x3e8631b2	0.2620979
35	0xbe855886	-0.260441
36	0x3ec5c470	0.38626432
37	0xbeea9b8f	-0.45821807
38	0xbe024d13	-0.12724714
39	0x3f24b3bf	0.6433677
40	0xbe88bebc	-0.2670802
41	0xbe9e7cfd	-0.30954733
42	0x3ea516bf	0.32243916
43	0x3e2dd84a	0.16977039
44	0xbeb16a01	-0.34651187
45	0x3e19ec76	0.15031609
46	0xbd61f7f5	-0.05516811
47	0x3f21f373	0.632621
48	0x3cb7bcb2	0.022428844
49	0x3daf27b0	0.08552492
50	0x3ebca123	0.36841688
51	0xbe378969	-0.17923512
52	0x3df6db49	0.12053544
53	0xbecb16ba	-0.39665776
54	0x3d831dc7	0.06402164
55	0xbec2d851	-0.3805566
56	0xbeabc53d	-0.33548918
57	0x3e337929	0.17526688
58	0xbe582740	-0.21108723
59	0x3e5600bf	0.20898722
60	0xbea52e0f	-0.32261702
61	0xbf0a5ff3	-0.54052657
62	0x3df12140	0.1177392
63	0x3eb42e22	0.35191447

conv_layers.2.weight f4 [32, 64, 3]
0	0x3d870a15	0.0659372
1	0x3c2cdf55	0.010551293
2	0x3d1c3fef	0.03814691
3	0x3be651e1	0.0070288037
4	0x3b3cabe4	0.0028788978
5	0xbd0eaf95	-0.034835417
6	0x3d2eb0e4	0.042649165
7	0x3db2e877	0.087357454
8	0xbcf314af	-0.029672949
9	0xbbb1e1f3	-0.0054285466
10	0x3d8cdfa2	0.06878592
11	0x3cc02680	0.023455858
12	0xbd97d85b	-0.074143134
13	0xbd3d63d3	-0.046237778
14	0x3d4b3089	0.049606834
15	0x3d6e44c9	0.058171067
16	0x3de1fde4	0.11034754
17	0x3c8b5a87	0.01701094
18	0x3d5762b0	0.05258435
19	0x3bd98a80	0.006638825
20	0xbd2ed6a1	-0.042685155
21	0x3c978790	0.018497258
22	0x3d3651c6	0.04451158
23	0x3c4988f2	0.012300717
24	0x3ce89f22	0.028396193
25	0xbd15f31c	-0.0366088
26	0xbd4dbccd	-0.050228883
27	0x3d93f14c	0.07223758
28	0x3d1fac8e	0.03898292
29	0x3db57a73	0.08861246
30	0xbc369f2c	-0.011146348
31	0x3d912e9b	0.070889674
32	0x3db39193	0.087680005
33	0xbcbe0d59	-0.023199724
34	0x3c9d668d	0.01921394
35	0xbd5d7125	-0.05406298
36	0x3da3b5e1	0.07993675
37	0xbd0192f1	-0.031634275
38	0xbd669a79	-0.05629966
39	0x3d931557	0.071818046
40	0x3cf64863	0.030063814
41	0x3c816945	0.015797267
42	0x3d9c00b6	0.07617323
43	0x3d8eb0cb	0.06967314
44	0xbd355e44	-0.04427935
45	0x3c8739c9	0.016507046
46	0x3d4f1d44	0.05056502
47	0xbd617296	-0.05504092
48	0x3d381dd7	0.044950332
49	0xbcec41d3	-0.028839981
50	0xbd203f93	-0.03912313
51	0x3c4fdf30	0.012687489
52	0x3d22c650	0.039739907
53	0xbc7e6f25	-0.015529429
54	0x3dff83e0	0.12476325
55	0x3d78f16d	0.060777117
56	0x3d8a47dc	0.06751987
57	0x3d57c4a9	0.052677784
58	0x3a2f7463	0.0006693063
59	0x3d5e075c	0.054206237
60	0x3d22e80c	0.03977208
61	0x3da53408	0.08066565
62	0x3bc6583e	0.0060529998
63	0x3dcae8e1	0.099076994
64	0x3c840e26	0.016120028
65	0x3c291684	0.01032031
66	0x3cdd5485	0.027017841
67	0xbd83f750	-0.064436555
68	0xbd459a60	-0.048242927
69	0x3ba417a5	0.0050077015
70	0x3d64b98d	0.055841018
71	0x3d098121	0.033570413
72	0x3bf05b67	0.0073351148
73	0x3d8eac38	0.06966442
74	0x3c65aa66	0.014017677
75	0xb9f285a0	-0.00046257395
76	0x3bfb2eb9	0.007665482
77	0x3d5e6f1a	0.054305173
78	0x3dd9322a	0.10605271
79	0x3d85adef	0.06527316
80	0xba86a0dc	-0.0010271329
81	0x3d9e245c	0.07721779
82	0x3d2c04ad	0.041996647
83	0x3cdcceb6	0.026954036
84	0xbd88cc0a	-0.06679542
85	0xbd44953d	-0.047993887
86	0x3c8b9110	0.017036945
87	0x3dac2ae6	0.0840662
88	0x3cf90d44	0.030401833
89	0xbc9455fc	-0.018107407
90	0x3c9c483f	0.019077418
91	0xbd4ca46b	-0.04996149
92	0xbc51a278	-0.012795083
93	0xbca761e0	-0.020432413
94	0x3d9b3e3c	0.0758023
95	0x3de969a2	0.11397101
96	0x3d2b05bf	0.041753527
97	0x3c56136b	0.013066153
98	0xbbdcfc8f	-0.0067439745
99	0x3d3a33c1	0.045459513
100	0x3e1b9842	0.151948
101	0x3dd11632	0.102093115
102	0xbbd46f3e	-0.0064829877
103	0x3cf15fb8	0.029464588
104	0x3d2ff98d	0.0429626
105	0x3d148e42	0.03626848
106	0x3d8f0ac1	0.06984473
107	0x3c389f51	0.011268453
108	0x3db1c2c7	0.08679729
109	0xbc52680e	-0.012842191
110	0x3c945b39	0.018109905
111	0x3bb8ff57	0.0056456733
112	0xbd27dc7d	-0.04098176
113	0xbd01eff6	-0.031722985
114	0xbcc4fcc8	-0.024046317
115	0x3d42cf38	0.0475609
116	0x3c78577f	0.015157579
117	0x3d8ee832	0.069778815
118	0x3dd0fc05	0.10204319
119	0xbce7b1b8	-0.028282985
120	0x3d80ffe8	0.0629881
121	0xbc9eff50	-0.019408852
122	0xbc9b1d2c	-0.018934809
123	0xbd69b9a9	-0.057061825
124	0x3c4a5bf3	0.012351024
125	0xbbac06a4	-0.005249815
126	0x3b7322c1	0.0037099572
127	0x3d26d054	0.04072602
128	0x3bcddcd0	0.0062824264
129	0xbcab8017	-0.020935101
130	0xbd17d225	-0.037065644
131	0xbbe8567b	-0.0070903874
132	0xbc8d2a2c	-0.017232023
133	0x3d07dedf	0.03317153
134	0xbcde5e0e	-0.027144458
135	0x3d70f1a4	0.058824196
136	0xbba2fd7e	-0.0049740663
137	0xbd23320e	-0.039842658
138	0xbd68901e	-0.056778066
139	0xbcc2bdf2	-0.023772214
140	0x3d8a1bb8	0.06743568
141	0x3d923cb6	0.07140486
142	0x3da81f1f	0.08209061
143	0xba79f4d7	-0.000953508
144	0xbd55f81d	-0.052238572
145	0xbd529299	-0.051409338
146	0xbd380f6c	-0.044936582
147	0xbba63b16	-0.0050729616
148	0xbd1bf8b3	-0.038078975
149	0x3b1c6f49	0.0023870042
150	0xbd5333a6	-0.051562928
151	0x3cdc92ba	0.026925433
152	0xbc89f29d	-0.01683932
153	0x3d90c5b7	0.07068961
154	0xbd17eac4	-0.037089124
155	0x3d5f7db2	0.05456323
156	0x3d56e330	0.052462757
157	0x3d4fe231	0.050752822
158	0x3d74dab6	0.05977889
159	0x3d106d6d	0.035260607
160	0x3d864c01	0.06557465
161	0xbd4d3f75	-0.050109345
162	0xbd0b2c36	-0.03397771
163	0x3b13430e	0.0022470388
164	0xbb1c8b8e	-0.0023886892
165	0x3c839dfa	0.01606654
166	0x3d71fed4	0.059080914
167	0x3cd6741d	0.026178414
168	0xbcb059a5	-0.02152712
169	0xba89fc75	-0.0010527509
170	0xbc93898b	-0.018009922
171	0x3c9e39e6	0.019314718
172	0x3d28654f	0.04111224
173	0x3d2da304	0.042391792
174	0x3d340150	0.043946564
175	0x3d3ee9c4	0.046609655
176	0xbd4bb4ae	-0.049732856
177	0x3db57185	0.08859543
178	0xbd4c3f3c	-0.049864992
179	0x3b3b0fa8	0.0028543267
180	0x3ba21e8c	0.004947489
181	0x3c547148	0.0129664615
182	0xbd75e6f9	-0.060034726
183	0xbd5c0e87	-0.05372479
184	0x3d23a6a7	0.039953854
185	0x3d11c1a9	0.03558508
186	0x3b5f7f33	0.0034102916
187	0x3df015da	0.11722918
188	0x3daf3275	0.08554546
189	0x3cfd4ef7	0.030921442
190	0x3d8b3ffe	0.06799315
191	0x3cb87413	0.022516286
192	0xbc53043f	-0.01287943
193	0x3ccfec81	0.025381329
194	0xbc21ded3	-0.009879786
195	0x3dac5c44	0.08416036
196	0xbd276e14	-0.040876463
197	0xbcea5aeb	-0.028607806
198	0xbcceb4ff	-0.02523279
199	0x3dbf019b	0.09326478
200	0xbd274588	-0.040837795
201	0xbd1efa83	-0.038813125
202	0xbd697b34	-0.05700226
203	0x3d1fe0c9	0.03903273
204	0xbd828792	-0.06373514
205	0x3d747750	0.059684098
206	0xbb492001	-0.0030689242
207	0xbe13653b	-0.14394085
208	0x3c103277	0.008801094
209	0xba981f8a	-0.0011606079
210	0x3d4b397d	0.049615372
211	0xba6502c9	-0.0008736072
212	0x3c863931	0.016384693
213	0x3ac14243	0.0014744479
214	0xbc9d3f58	-0.019195244
215	0xbc0f5c7e	-0.008750079
216	0x3db5236c	0.08844647
217	0xbcbc8dd5	-0.02301685
218	0x3dbec829	0.09315521
219	0xbd83d9cb	-0.06438025
220	0xbd452466	-0.048130415
221	0xbc4aa304	-0.0123679675
222	0x3d6200c0	0.055176497
223	0xbcab6543	-0.020922309
224	0xbdb3e13c	-0.087831944
225	0x3c9437ba	0.018092979
226	0x3dc313fe	0.095252976
227	0x3d081cce	0.033230595
228	0x3be04c58	0.0068450384
229	0xbcbd4cb3	-0.023107862
230	0x3d60616c	0.05478041
231	0xbc78cbe9	-0.015185335
232	0xbd20bb8a	-0.03924135
233	0xbd82f122	-0.06393649
234	0x3cefdeb1	0.029280992
235	0x3ce933c5	0.028467068
236	0x3d091424	0.033466473
237	0xbbd8d150	-0.006616749
238	0xbd05e899	-0.032692526
239	0x3d999cb6	0.07500593
240	0xbc4f854e	-0.01266606
241	0xbca63f09	-0.02029373
242	0xbe30355d	-0.17207856
243	0x3d8bc02b	0.068237625
244	0x3c730609	0.014832982
245	0x3c987a9c	0.018613152
246	0xbe0e7a7f	-0.13913916
247	0xbd52c95f	-0.051461574
248	0xbd471421	-0.04860318
249	0x3da48865	0.08033828
250	0xbd55abf3	-0.052165937
251	0xbcc1e78b	-0.023669979
252	0xbd9d3212	-0.07675566
253	0xbd8b74c9	-0.068093844
254	0xbacf6b50	-0.0015824828
255	0x3b94128d	0.004518813

conv_layers.2.bias f4 [32]
0	0x3d82a134	0.06378403
1	0x3c8edb6b	0.017438611
2	0x3c8a59bc	0.016888492
3	0xbd22decd	-0.03976326
4	0x3b693c57	0.0035588944
5	0x3d5a23ee	0.05325692
6	0xbc3f873c	-0.011689957
7	0x3e04526e	0.1292207
8	0x3cd1c041	0.02560437
9	0xbca54d00	-0.020178318
10	0xbcceaea1	-0.025229754
11	0x3db855c1	0.09000731
12	0x3d838f0b	0.06423768
13	0xbd0cb0fc	-0.034348473
14	0x3b5b2540	0.003343895
15	0x3d5d7248	0.054064065
16	0x3d5a88e4	0.053353205
17	0x3dc42f89	0.09579379
18	0x3bbad4cd	0.0057016374
19	0xbd943e31	-0.072384246
20	0x3cdb10f3	0.02674148
21	0xbcf8d85c	-0.030376606
22	0xbd6fc67d	-0.058538903
23	0xbcd0ba36	-0.025479417
24	0xbbf21d0f	-0.007388718
25	0x3cd271d8	0.02568905
26	0xbccbbc50	-0.024870068
27	0x3db8fb73	0.09032335
28	0xbd19510a	-0.0374308
29	0x3d8d4ebd	0.06899784
30	0xbcad62b0	-0.021165222
31	0x3c7df7da	0.015500987

lstm.weight_ih_l0 f4 [128, 32]
0	0xbcda8813	-0.026676213
1	0xbd8fa18a	-0.07013233
2	0x3e1f3928	0.15549147
3	0x3d025b3b	0.031825285
4	0x3e261cfe	0.16221997
5	0xbc571d40	-0.013129532
6	0x3e122c5c	0.14274734
7	0xbe15b4d3	-0.1461976
8	0x3e2dc938	0.1697129
9	0xbdf93939	-0.121691175
10	0x3e10a120	0.14123964
11	0xbdb7c5e2	-0.0897329
12	0x3d45da52	0.04830391
13	0x3e14dfad	0.1453845
14	0x3e2dd125	0.16974314
15	0xbdcecf16	-0.10098092
16	0xbdbb67aa	-0.09150632
17	0x3ceffd8f	0.02929571
18	0xbd7efa65	-0.062250514
19	0xbe1e60b5	-0.15466578
20	0xbcf3b654	-0.029750027
21	0x3dd69d66	0.1047924
22	0xbe205517	-0.15657459
23	0xbd5fd70f	-0.054648455
24	0x3ca858ee	0.020550217
25	0x3e2ed4f1	0.17073418
26	0xbe6a8a95	-0.22904427
27	0xbd855085	-0.065094985
28	0x3dd0a88e	0.10188399
29	0xbdf56d40	-0.119837284
30	0x3d675d58	0.056485504
31	0xbd08168f	-0.03322464
32	0xbcd6580d	-0.026165033
33	0xbd0d72f3	-0.034533452
34	0x3d8cffc1	0.06884719
35	0xbe401cc6	-0.18760976
36	0xbe779132	-0.24176481
37	0x3d96c6ff	0.07362174
38	0xbe43878e	-0.19094679
39	0xbe02daa3	-0.12778716
40	0x3d276a11	0.040872637
41	0x3c455241	0.012043537
42	0xbdc651f8	-0.09683603
43	0xbd9b7091	-0.0758983
44	0x3d5a1fb4	0.05325289
45	0x3dbc3071	0.09188927
46	0x3da9b7bd	0.082869984
47	0x3d4dcd41	0.050244574
48	0xbdd4577c	-0.10368249
49	0xbd6f3e0c	-0.058408782
50	0xbe109fd2	-0.14123467
51	0x3e21f718	0.15816915
52	0x3dafca5d	0.085835196
53	0x3d5b82b1	0.053591434
54	0xbbbfdd04	-0.0058552045
55	0x3e2c5181	0.16827966
56	0xbd2c734b	-0.04210214
57	0xbd9cc953	-0.07655587
58	0xbe09187b	-0.13388245
59	0x3e51414f	0.2043507
60	0x3e028f1e	0.12749907
61	0x3e144edd	0.14483209
62	0x3e569b83	0.2095776
63	0x3d6f59cf	0.058435258
64	0xbd5a3486	-0.053272747
65	0x3df7ce56	0.12099902
66	0x3c2361ce	0.009972049
67	0x3de35381	0.110999115
68	0x3dacc347	0.08435684
69	0xbd823ab6	-0.063588545
70	0xbdcf0afb	-0.10109516
71	0x3dfa82c4	0.12231973
72	0xbdc3191a	-0.09526272
73	0xbcd7b133	-0.026329612
74	0xbd917a2e	-0.07103382
75	0x3d456053	0.048187565
76	0xbe040f0f	-0.1289637
77	0xbd33a5eb	-0.043859404
78	0x3de407b0	0.11134279
79	0x3dec7439	0.11545605
80	0x3b5dd7da	0.0033850581
81	0x3be1291d	0.006871356
82	0x3e2374c1	0.15962507
83	0x3c8e33a7	0.017358614
84	0xbdbe8908	-0.093034804
85	0xbb93c9b6	-0.00451013
86	0xbcf51b7f	-0.029920338
87	0xbd8637cb	-0.065536104
88	0xbce11fa0	-0.0274809
89	0x3d16c18f	0.036805686
90	0xbe2bf080	-0.16790962
91	0x3da4578a	0.08024509
92	0xbd9b3ecf	-0.07580339
93	0xbdbd63b7	-0.09247535
94	0x3c8f66e2	0.017505113
95	0xbc4073d5	-0.0117463665
96	0xbe08a097	-0.1334251
97	0x3d4a45c5	0.049382944
98	0x3d4481ff	0.047975536
99	0xbe3dc4b0	-0.18532062
100	0x3e48d2b7	0.19611631
101	0x3d648c87	0.05579808
102	0xbde6e5a8	-0.11274272
103	0x3d8b2d08	0.067956984
104	0xbdfab7a8	-0.12242061
105	0x3e0f88ed	0.14017077
106	0xbe4ea341	-0.20179464
107	0xbd089ed9	-0.033354614
108	0x3d9a7b3b	0.075430356
109	0xbd960c62	-0.073265806
110	0xbd5e7d8e	-0.054318957
111	0xbdc62460	-0.09674907
112	0x3e3db886	0.18527421
113	0x3e201c3b	0.15635769
114	0x3e1a1e34	0.15050584
115	0x3e30135f	0.1719489
116	0xbc164956	-0.009172758
117	0x3d6bae7b	0.057539444
118	0x3dcad940	0.099047184
119	0x3db83168	0.089937985
120	0xbdb20118	-0.08691615
121	0xbddfd64d	-0.109295465
122	0xbe4235b1	-0.18965794
123	0xbe13deda	-0.1444048
124	0xbdda7cc1	-0.10668326
125	0x3d92a86f	0.071610324
126	0x3dfd81f9	0.12378306
127	0x3d5b6eeb	0.053572576
128	0xbe4c345c	-0.19941849
129	0xbdbb60c5	-0.09149317
130	0x3e1acf5d	0.15118165
131	0xbe288982	-0.16458705
132	0xbe4a77ab	-0.19772212
133	0xbe328124	-0.17432076
134	0x3d8f2c8f	0.06990921
135	0xbe185c3c	-0.14878935
136	0x3e3b799d	0.1830811
137	0x3bd091d7	0.0063650417
138	0xbe21105b	-0.15728895
139	0x3dd18b36	0.102316305
140	0x3b6997f7	0.0035643557
141	0xbc24c803	-0.010057452
142	0x3bf29732	0.007403278
143	0x3e13012e	0.14355919
144	0xbcab943b	-0.020944705
145	0xbc05cd88	-0.008166678
146	0x3e239f88	0.15978825
147	0xbb0b4b75	-0.0021254693
148	0xbdb06c4a	-0.086144045
149	0x3d6b4d17	0.057446565
150	0x3cda6d0c	0.026663326
151	0xbe03eaba	-0.1288251
152	0x3dbc444b	0.09192713
153	0xbe010e28	-0.12603056
154	0xbd55d99d	-0.052209485
155	0x3df3fe88	0.11913782
156	0xbd673a5d	-0.056452144
157	0xbe09052f	-0.13380884
158	0xbe1e5ac7	-0.15464316
159	0x3ddfabc7	0.10921436
160	0x3dbc6ad9	0.09200067
161	0x3e02e0cf	0.1278107
162	0xbc384130	-0.011246011
163	0x3e303b60	0.1721015
164	0xbdf9e1ab	-0.12201246
165	0xbc838a08	-0.01605703
166	0x3d0aa0ab	0.03384463
167	0x3da9720d	0.082737066
168	0xbd03f058	-0.03221163
169	0x3d14db03	0.03634168
170	0x3e251206	0.16120157
171	0x3dad83de	0.08472417
172	0x3daf8f32	0.08572234
173	0xbbaf31e8	-0.0053465255
174	0x3e4c23ad	0.19935484
175	0xbe1c9703	-0.15291981
176	0x3e2a13bf	0.16609095
177	0xbe048cff	-0.1294441
178	0xbd306564	-0.043065444
179	0x3e1e9a33	0.1548851
180	0x3e02ae4b	0.127618
181	0x3e0e9443	0.13923745
182	0xbda4fb41	-0.080557354
183	0xbd7639f4	-0.060113862
184	0xbcdfa267	-0.02729912
185	0x3d959593	0.0730392
186	0xbdad50ef	-0.084627025
187	0x3e73993b	0.23788922
188	0x3d9e8fdd	0.077422835
189	0x3ba00726	0.0048836647
190	0x3e0a8ba6	0.13529834
191	0x3d0a32ea	0.03373996
192	0xbe532578	-0.20619762
193	0xbd182049	-0.037140165
194	0xbe197f29	-0.14989914
195	0xbdc21367	-0.09476357
196	0xbaac085f	-0.0013125053
197	0x3e20b78e	0.1569502
198	0xbde96f9b	-0.1139824
199	0x3dd1e278	0.102482736
200	0x3e2ae934	0.16690522
201	0xbd2c3704	-0.042044654
202	0x3e19883e	0.14993379
203	0x3dd43bec	0.10362992
204	0xbe2829e9	-0.16422237
205	0xbdec05f0	-0.1152457
206	0x3e0c8e4f	0.13726161
207	0x3d04e944	0.032449022
208	0x3dc1d58a	0.094645575
209	0x3d55a8cc	0.05216293
210	0xbe04db1b	-0.12974207
211	0xbc978f37	-0.018500907
212	0x3e33587f	0.17514227
213	0xbd10a1ab	-0.03531043
214	0x3d4f7110	0.050644934
215	0x3d98bb17	0.074575596
216	0xbdfec779	-0.1244039
217	0xbdbb7064	-0.09152296
218	0xbdc72ef7	-0.09725755
219	0x3aea008c	0.0017852946
220	0x3e4b6108	0.19861233
221	0x3d941573	0.072306536
222	0xbdd59c58	-0.10430211
223	0xbd8bb5d3	-0.068217896
224	0x3e3260fe	0.17419812
225	0x3c721fe3	0.01477811
226	0xbe1d4854	-0.15359622
227	0xbe00aa42	-0.12564948
228	0x3e35dca8	0.17759955
229	0x3d4c522b	0.04988305
230	0x3dff9709	0.124799795
231	0x3df68d7a	0.12038703
232	0x3bb66668	0.005566407
233	0x3dfbca2c	0.122944206
234	0x3e16c37c	0.14723009
235	0xbd65507e	-0.055984966
236	0x3932ce7f	0.00017052329
237	0x3d70b73e	0.058768503
238	0x3e12b866	0.14328155
239	0xbe25bfc6	-0.16186437
240	0x3ce6ee2b	0.02818974
241	0xbb0c826c	-0.0021440042
242	0x3d8490ca	0.06472929
243	0x3df0648d	0.117379285
244	0xbd39e802	-0.045387276
245	0x3e2d8d19	0.16948356
246	0x3d88cfe7	0.06680279
247	0x3e0ee847	0.13955794
248	0xbd274331	-0.040835563
249	0xbe1c6694	-0.15273505
250	0xbdb3eac8	-0.08785015
251	0xbd47f083	-0.048813354
252	0xbe16381c	-0.14669842
253	0x3dc489a1	0.09596563
254	0xbd07b7dc	-0.033134326
255	0x3ce0a457	0.027422113

lstm.weight_hh_l0 f4 [128, 32]
0	0x3b240991	0.0025030116
1	0x3d62afff	0.055343624
2	0x3d30519b	0.043046575
3	0x3ce59bb1	0.028028341
4	0xbd5587ab	-0.052131336
5	0xbdd2507f	-0.1026926
6	0xbd0ab189	-0.033860717
7	0xbdb63a9b	-0.08897897
8	0x3daca6fb	0.084302865
9	0xbddddaf8	-0.108327806
10	0x3d3d9e07	0.046293285
11	0x3e23aef5	0.1598471
12	0xbe1ef66f	-0.15523694
13	0xbe465750	-0.19369245
14	0x3dca754f	0.09885656
15	0x3e742eab	0.23845927
16	0xbdea42b0	-0.11438501
17	0x3e0e6696	0.13906321
18	0xbe3b03fd	-0.1826324
19	0x3d7453d7	0.05965027
20	0xbe2193ff	-0.15779112
21	0x3e011a2c	0.1260764
22	0x3cc0dab0	0.023541778
23	0xbdd78838	-0.105240285
24	0xbcf7c66e	-0.030245986
25	0x3b68cb8b	0.0035521712
26	0x3d4f10ac	0.05055301
27	0x3e0f9f3a	0.14025584
28	0x3e191247	0.14948379
29	0x3d1fb4c1	0.03899074
30	0xbda3339d	-0.07968829
31	0x3e33c3fe	0.17555234
32	0x3cf2fb79	0.029660927
33	0x3e748f3e	0.23882768
34	0xbd9d92db	-0.07694026
35	0x3e0ff478	0.14058101
36	0xbe01ade4	-0.1266399
37	0xbd96eba1	-0.073691614
38	0x3e6912af	0.22761033
39	0xbda00599	-0.07813568
40	0x3e3ae1d3	0.18250208
41	0xbdb5fd95	-0.088862576
42	0x3dfb3842	0.1226659
43	0x3e189664	0.1490112
44	0xbe70db0a	-0.23521057
45	0xbc5ce1d8	-0.01348158
46	0xbe3b8088	-0.1831075
47	0xbd7304e9	-0.059330855
48	0xbd70bf8c	-0.058776423
49	0x3d5f8745	0.054572362
50	0xbd932345	-0.071844615
51	0xbb0c1240	-0.0021373183
52	0xbc077940	-0.008268654
53	0x3d7bc959	0.061471317
54	0xbe57afcd	-0.21063156
55	0xbe181cdb	-0.14854757
56	0xbc5fa8f0	-0.013651118
57	0x3d0f090a	0.03492073
58	0x39fa4b8b	0.0004774
59	0xbdec4bf2	-0.11537923
60	0x3e19839e	0.14991614
61	0x3df0485c	0.117325515
62	0x3e2e1685	0.17000778
63	0xbe0e1e58	-0.13878763
64	0x3cb36f1f	0.021903573
65	0xbdec994d	-0.11552677
66	0x3e2f0aa6	0.17093906
67	0xbc6a3423	-0.014294657
68	0xbe4018c8	-0.18759453
69	0x3e228d89	0.15874304
70	0x3e055634	0.13021165
71	0xbd8bb073	-0.068207644
72	0xbd4942f2	-0.04913611
73	0xbb09e77e	-0.002104252
74	0xbdb0e3fc	-0.086372346
75	0x3ad3f55b	0.0016171144
76	0xbd56bad0	-0.052424252
77	0x3d8bbaae	0.06822716
78	0xbd12ca98	-0.03583774
79	0xbc0a6574	-0.00844704
80	0xbddd081e	-0.10792564
81	0xbe1c50a6	-0.1526514
82	0xbcd3baa3	-0.025845831
83	0x3c09cc07	0.00841046
84	0x3d045cea	0.032315172
85	0xbdeed71b	-0.11662122
86	0xbd805207	-0.062656455
87	0xbdc21d11	-0.094782
88	0x3d177386	0.036975406
89	0x3d25b8fb	0.040459614
90	0xbc5c24e5	-0.013436531
91	0xbdc2e3f4	-0.09516135
92	0xbe1ec58d	-0.15505047
93	0xbd77f32b	-0.060534637
94	0x3da329d4	0.079669625
95	0x3e0c621b	0.137093
96	0x3e0ac627	0.13552152
97	0xbd001681	-0.03127146
98	0xbc72b7d0	-0.014814332
99	0xbdf49d82	-0.11944105
100	0xbe395759	-0.18099727
101	0x3d258852	0.04041321
102	0x3d330cc9	0.043713365
103	0xbdd55fb8	-0.104186475
104	0xbc2cf38b	-0.010556112
105	0x3df1e33a	0.11810918
106	0x3d7d0f65	0.06178226
107	0xbd94cbad	-0.072654106
108	0x3d7684c6	0.060185216
109	0x3cb3b438	0.021936521
110	0xbe5dc710	-0.21657968
111	0x3d5635b5	0.052297313
112	0x3d1cdeb1	0.038298313
113	0xbd45c7eb	-0.04828636
114	0xbe018845	-0.12649639
115	0xbe07d3c6	-0.13264379
116	0x3cd3e6bc	0.025866859
117	0x3e3e8f7a	0.1860942
118	0xbd2dcec4	-0.042433515
119	0xbe34fea7	-0.17675267
120	0x3e12964e	0.14315149
121	0x3e238ede	0.15972468
122	0xbcee0d18	-0.029058978
123	0x3d142482	0.03616763
124	0xbe212914	-0.15738326
125	0xbe691469	-0.22761692
126	0xbe6c9b03	-0.23106007
127	0xbce8e8fa	-0.028431404
128	0x3dd653c8	0.10465199
129	0x3d34e836	0.044166766
130	0xbe2dc234	-0.16968614
131	0xbe2b2312	-0.16712597
132	0xbd8e5580	-0.069499016
133	0xbd49caeb	-0.049265783
134	0x3dd9e79d	0.1063988
135	0x3dc4929d	0.09598277
136	0xbd952d2a	-0.07284005
137	0xbdf58518	-0.11988276
138	0x3e2d62d0	0.16932225
139	0xbe2016e0	-0.15633726
140	0xbe31bcbe	-0.17357156
141	0xbc80fa27	-0.015744282
142	0xbddecd58	-0.1087901
143	0x3d431cea	0.047634996
144	0xbc096701	-0.008386374
145	0x3d955c7e	0.07293032
146	0xbe0549cc	-0.13016433
147	0x3c99a156	0.018753689
148	0xbe12d73c	-0.14339918
149	0x3e353d23	0.17699103
150	0xbe072a4a	-0.13199726
151	0x3e1d6c66	0.15373382
152	0xbe047828	-0.12936461
153	0xbd171a1f	-0.036890145
154	0x3c836443	0.01603902
155	0xbe1997ac	-0.14999264
156	0xbdf0a9b2	-0.11751117
157	0xbe3f328c	-0.18671626
158	0xbdd31b48	-0.10307938
159	0x3d94722c	0.07248339
160	0x3de1652d	0.11005626
161	0x3d8c1075	0.068390764
162	0xbdc8f7b8	-0.098128736
163	0xbe48c137	-0.19604956
164	0x3e0f54ff	0.13997267
165	0x3d61591b	0.05501662
166	0xbd5afed3	-0.053465676
167	0xbddb4e6f	-0.107083194
168	0xbe0abf9d	-0.13549657
169	0xbdc6d0ef	-0.0970782
170	0x3e6888f9	0.22708501
171	0xbe12cb27	-0.14335309
172	0xbe1c4f91	-0.15264727
173	0xbe1c99fc	-0.15293115
174	0xbddd79d5	-0.10814253
175	0xbc50411b	-0.012710835
176	0xbc4da631	-0.01255183
177	0x3d8e7179	0.06955237
178	0x3df0fb6c	0.11766705
179	0xbdc1d324	-0.094641
180	0x3de9d580	0.11417675
181	0xbdbf646a	-0.09345324
182	0x3d51ed20	0.05125153
183	0xbd119e05	-0.03555109
184	0x3dc1e12c	0.09466776
185	0x3c588734	0.013215829
186	0x3d992f0d	0.07479677
187	0xbe02217f	-0.1270809
188	0xbdfb8e53	-0.122830056
189	0xbc5da9e8	-0.013529278
190	0x3e2047c3	0.15652375
191	0xbbb842ff	-0.005623221
192	0x3befe7d8	0.007321339
193	0xbd60becd	-0.05486946
194	0x3bc95901	0.0061446433
195	0xbce549de	-0.027989324
196	0xbde90f11	-0.11379827
197	0xbdaf5524	-0.08561161
198	0x3e222fcb	0.15838544
199	0x3dd4607e	0.10369967
200	0xbdd7e86e	-0.10542379
201	0xbdbf6921	-0.093462236
202	0x3d211d3a	0.039334513
203	0x3d5d6118	0.054047674
204	0xbdf4cefd	-0.119535424
205	0xbe24733f	-0.16059588
206	0x3d10ded3	0.03536875
207	0x3e32bb0b	0.17454164
208	0x3e0a31a9	0.13495506
209	0xbd8cff73	-0.068846606
210	0xbe1fbccf	-0.15599369
211	0xbde49282	-0.11160757
212	0x3dcd88f4	0.10035887
213	0x3d32d832	0.04366321
214	0x3d7cfb7f	0.061763283
215	0xbcb193f8	-0.021677002
216	0x3e22c5bd	0.15895744
217	0x3e1771f8	0.1478957
218	0xbda52e97	-0.08065527
219	0x3bd25023	0.0064182444
220	0xbd0ec4bc	-0.03485559
221	0xbc1160f9	-0.008873218
222	0xbd91443a	-0.07093091
223	0x3e05c4c7	0.13063346
224	0x3cf80e4d	0.030280257
225	0xbd4cf1d3	-0.05003531
226	0xbe353549	-0.17696108
227	0xbdbc0523	-0.09180667
228	0xbd62e2dd	-0.055392135
229	0x3e23b7a1	0.15988018
230	0x3d72c9a6	0.05927434
231	0x3ae70e44	0.0017628153
232	0x3e0bbc95	0.13646157
233	0x3d123522	0.035695203
234	0xbdcb6b6b	-0.09932598
235	0x3e09f654	0.13472873
236	0xbd7da275	-0.06192251
237	0x3d92874e	0.071547136
238	0xbd41191e	-0.047143094
239	0x3e14e698	0.1454109
240	0x3d169fc0	0.036773443
241	0x3c9e1998	0.019299313
242	0xbd0083ac	-0.031375572
243	0x3ddf071c	0.10890028
244	0x3e49bca7	0.19700871
245	0xbca72b59	-0.020406412
246	0xbe1ff82a	-0.15622011
247	0xbdbc6f6a	-0.09200938
248	0xbdb3170f	-0.087446325
249	0x3da2d246	0.07950263
250	0xbdaaf57b	-0.08347603
251	0x3d9bb6e7	0.07603245
252	0xbdac1dd7	-0.08404129
253	0xbe20b9a4	-0.15695816
254	0xbe16e8fc	-0.14737314
255	0xbc1b4f4a	-0.009479353

lstm.bias_ih_l0 f4 [128]
0	0xbe2b61c7	-0.16736518
1	0x3e120cb3	0.14262657
2	0x3cac0e56	0.02100293
3	0x3e12a7a0	0.14321756
4	0x3c3a5de6	0.011374926
5	0xbde149f0	-0.110004306
6	0x3d8d9301	0.069128044
7	0xbd8b90c2	-0.0681472
8	0xbdadd2fb	-0.08487507
9	0xbe2afb80	-0.16697502
10	0x3c836116	0.016037505
11	0xbddaeb5b	-0.10689422
12	0xbe0b376d	-0.13595362
13	0xbd93c9bf	-0.072162144
14	0xbdd612cb	-0.10452803
15	0x3e17a3ae	0.14808533
16	0x3d8c4444	0.06848958
17	0xbd6f5208	-0.05842784
18	0x3df4dfaa	0.11956723
19	0x3de5b162	0.11215474
20	0x3daab57b	0.08335396
21	0x3db0365d	0.08604119
22	0x3db374d8	0.087625206
23	0x3d8ecd75	0.069727816
24	0x3c80a909	0.015705602
25	0x3e5f6c09	0.21818556
26	0x3c270895	0.010194917
27	0x3daeb792	0.08531107
28	0x3dc54060	0.09631419
29	0x3d949865	0.072556295
30	0xbdafd18e	-0.08584891
31	0xbdc5bcf8	-0.096551836
32	0xbe04bd93	-0.12962942
33	0xbb60a400	-0.003427744
34	0x3b8dafdb	0.004323942
35	0xbbc2df0b	-0.005946999
36	0x3e39e848	0.18155015
37	0xbd571839	-0.052513335
38	0xbc9fdceb	-0.019514522
39	0xbdae9d5e	-0.08526109
40	0x3e353cde	0.17699
41	0x3e276b24	0.16349465
42	0xbda0c076	-0.07849209
43	0x3d4e762a	0.05040566
44	0x3db8b4e1	0.09018875
45	0xbd23b40a	-0.03996662
46	0x3de51c7e	0.11187075
47	0x3dec8638	0.11549038
48	0xbe235857	-0.15951668
49	0x3c5dbaa7	0.013533271
50	0x3e36ac49	0.17839159
51	0xbd5841d4	-0.052797154
52	0x3d44ef89	0.04808
53	0x3e2e349e	0.1701226
54	0x3d7aa9a4	0.06119694
55	0xbe061514	-0.13093978
56	0xbdb52f39	-0.08846898
57	0xbd175561	-0.036946658
58	0x3e2b737d	0.16743274
59	0x3d8a91c2	0.06766082
60	0x3d83d6d9	0.06437463
61	0x3e474079	0.19458188
62	0xbd902bd3	-0.07039609
63	0x3dcd8425	0.1003497
64	0x3defbb69	0.117056675
65	0x3e22a03f	0.15881442
66	0xbdb052a5	-0.08609513
67	0xbda429a1	-0.080157526
68	0xbe0c1ff7	-0.13684069
69	0x3d39ca13	0.04535873
70	0xbdc18d53	-0.094507836
71	0xbe12c978	-0.14334667
72	0x3d609326	0.05482783
73	0x3d237772	0.039908834
74	0xbceab2fc	-0.0286498
75	0x3dfc28b3	0.1231245
76	0x3b72faa9	0.0037075675
77	0x3d05b1c7	0.032640245
78	0x3e0e6266	0.13904724
79	0x3d906fa9	0.070525475
80	0xbe1533fe	-0.14570615
81	0xbc4dfd67	-0.012572623
82	0x3e465fb2	0.19372442
83	0x3e6825f1	0.22670723
84	0xbd71d10b	-0.05903725
85	0xbcd149d5	-0.025547901
86	0x3dba9925	0.09111241
87	0xbdbce312	-0.09222998
88	0x3dd98e94	0.10622898
89	0x3d0a345f	0.03374135
90	0xbcb2b607	-0.021815313
91	0x3dc940a1	0.0982678
92	0xbd7b8512	-0.061406203
93	0x3d58e89f	0.05295622
94	0xbd458840	-0.04822564
95	0xbe05abc7	-0.13053809
96	0x3e153399	0.14570464
97	0x3e032261	0.12806083
98	0xbdd45940	-0.103685856
99	0x3d2317e1	0.039817695
100	0xbd1a7b29	-0.03771511
101	0x3dfa6985	0.122271575
102	0x3d6f6c92	0.05845315
103	0x3e46be1e	0.19408461
104	0x3df97708	0.121809065
105	0x3db035a9	0.08603985
106	0x3c695fda	0.014244044
107	0xbda4863b	-0.08033415
108	0x3d23b328	0.03996578
109	0x3e519a6c	0.20469064
110	0xbdbbe07c	-0.09173676
111	0xbdd77025	-0.10519437
112	0xbe17ca57	-0.1482328
113	0xbe01d64c	-0.12679404
114	0xbdba9262	-0.091099516
115	0x3e21a495	0.1578544
116	0xbda8724a	-0.08224924
117	0x3bfa9075	0.007646615
118	0x3d395545	0.045247335
119	0xbdb73f2f	-0.08947598
120	0x3de515c9	0.11185796
121	0xbc14cf14	-0.009082574
122	0x3e5c2e1f	0.21501969
123	0x3bf15dfc	0.00736594
124	0xbe0ffa72	-0.14060381
125	0x3d435774	0.047690824
126	0xbe118024	-0.14209038
127	0xba6c528b	-0.00090149854

lstm.bias_hh_l0 f4 [128]
0	0x3b818d5a	0.003953618
1	0x3dd9c262	0.10632779
2	0xbd9f662a	-0.07783158
3	0xbd01b180	-0.031663418
4	0xbbc14bf8	-0.0058989488
5	0xbe141c27	-0.14463864
6	0xbdcae795	-0.09907452
7	0xbd9f76d4	-0.077863365
8	0xbe48cc68	-0.19609225
9	0xbdb0d4d9	-0.086343475
10	0xbdcd3fe8	-0.10021955
11	0x3e0838ba	0.1330289
12	0xbdc3a844	-0.095535785
13	0x3e1577e3	0.14596514
14	0xbe010d4d	-0.1260273
15	0x3dffd71c	0.12492201
16	0xbdc9f372	-0.09860887
17	0x3da6a0cd	0.08136139
18	0x3dce1319	0.10062236
19	0xbdc00608	-0.0937615
20	0x3ca0c8be	0.019626971
21	0xbc39db39	-0.011343771
22	0x3dbcd43c	0.09220168
23	0x3e1435c1	0.1447363
24	0x3e2dafe1	0.16961624
25	0x3c1c893b	0.009554203
26	0x3db5a281	0.08868886
27	0xbb9d7be6	-0.0048060296
28	0xbc010491	-0.007874624
29	0x3df35e30	0.11883199
30	0xbdb762a5	-0.08954362
31	0x3e2ccca0	0.16874933
32	0x3e3f1908	0.18661892
33	0x3ddb54d9	0.10709543
34	0x3d9a9150	0.075472474
35	0xbdd36883	-0.103226684
36	0x3e31067c	0.1728763
37	0x3e089716	0.13338885
38	0x3e00269b	0.12514727
39	0x3e2c88db	0.16849081
40	0x3c58ccbe	0.013232408
41	0xbd244874	-0.04010816
42	0xbd91a66b	-0.0711182
43	0xbe0f601f	-0.14001511
44	0x3e24ae80	0.16082191
45	0x3e1cb74a	0.15304294
46	0x3e0fec0d	0.1405489
47	0xbdecc251	-0.115605004
48	0xbda8f14a	-0.08249147
49	0xbde4eee0	-0.11178374
50	0x3d610632	0.05493755
51	0x3da0cc0d	0.078514196
52	0xbba84501	-0.005135179
53	0xbdd8e3ae	-0.105903015
54	0x3e372f23	0.17889075
55	0x3e001c75	0.12510855
56	0xbdfc61fa	-0.12323375
57	0xbddb773d	-0.10716102
58	0x3db9b694	0.09068027
59	0x3e3a8cbb	0.18217747
60	0xbc135863	-0.008993241
61	0xbb6192c9	-0.0034419766
62	0xbd9eb404	-0.07749179
63	0xbd86c313	-0.06580176
64	0x3dd64b3d	0.10463569
65	0x3e2c481e	0.16824386
66	0x3de552a7	0.11197405
67	0xbde09f91	-0.10967935
68	0x3e2f305b	0.1710829
69	0x3df8d889	0.12150676
70	0xbc3ad520	-0.011403352
71	0xbc996494	-0.018724717
72	0x3df1f258	0.118138015
73	0x3dd31e56	0.103085205
74	0x3e0c4304	0.1369744
75	0xbdedb49b	-0.116067134
76	0xbdc017a6	-0.093795106
77	0x3d5e8bfa	0.05433271
78	0xbd5dbaf1	-0.05413336
79	0x3d0a1560	0.03371179
80	0x3dfb233e	0.12262581
81	0xbdc9a5c7	-0.09846073
82	0xbdf9f4d0	-0.122048974
83	0x3d836399	0.06415481
84	0xbe23a83f	-0.1598215
85	0xbda7531a	-0.08170147
86	0x3d87a69a	0.066235736
87	0x3e1d7ebe	0.1538038
88	0x3d3f935f	0.046771403
89	0x3e2deb3d	0.16984268
90	0x3d924dd2	0.07143749
91	0x3e38c70f	0.18044685
92	0xbc80228f	-0.015641479
93	0x3a11d978	0.00055637164
94	0x3cd8269c	0.026385598
95	0x3e1f321f	0.15546463
96	0x3e25e23d	0.16199584
97	0x3e3597c0	0.1773367
98	0x3bd9fdaf	0.006652556
99	0xbd4823cb	-0.04886226
100	0xbe10ba5d	-0.14133592
101	0x3e184142	0.14868644
102	0x3daccd37	0.08437579
103	0x3d9a1dd7	0.07525223
104	0x3e3d46b8	0.18484008
105	0xbc193ad6	-0.0093524065
106	0x3e8e5283	0.27797326
107	0xbdf9c287	-0.12195306
108	0xbcd252d3	-0.02567426
109	0x3e305198	0.17218626
110	0x3e06803b	0.13134854
111	0xbe0f14a8	-0.13972723
112	0xbe32c6c6	-0.17458639
113	0x3c93a2ce	0.018021967
114	0xbe135bf4	-0.14390546
115	0x3e14536b	0.14484946
116	0x3da26428	0.079292595
117	0x3dbead9a	0.093104556
118	0xbe0dec06	-0.13859567
119	0x39c198c6	0.00036925654
120	0xbc7b42cf	-0.015335753
121	0x3e1ad658	0.15120828
122	0x3dd30fbe	0.10305737
123	0x3e1d7fc5	0.15380771
124	0xbd37361d	-0.04472934
125	0xbd5921fb	-0.053010922
126	0xbe01097f	-0.12601279
127	0x3df11d1b	0.117731296

fc_mu.weight f4 [4, 32]
0	0x3d7e01aa	0.062013306
1	0xbee5faad	-0.44917813
2	0x3cadeee3	0.021232074
3	0xbe3a0dee	-0.18169376
4	0x3e8a578f	0.27019927
5	0xbe087feb	-0.13330047
6	0x3d7d687b	0.06186722
7	0x3e387ab4	0.18015558
8	0xbe8e9294	-0.27846205
9	0xbdb013e0	-0.08597541
10	0x3ca5f300	0.020257473
11	0x3e7592c5	0.2398177
12	0x3d6114cb	0.05495147
13	0x3da70968	0.08156091
14	0x3de1ddb3	0.11028614
15	0xbe126d26	-0.1429945
16	0x3edceaf6	0.4314801
17	0xbe9431be	-0.289442
18	0x3e63f78d	0.22262402
19	0xbdd48075	-0.10376064
20	0xbe441125	-0.19147165
21	0x3bcb21a3	0.006199078
22	0x3e9915f5	0.29899564
23	0x3eb6862f	0.3564925
24	0xbe822c4a	-0.25424415
25	0xbe534e46	-0.20635328
26	0xbe38167e	-0.1797733
27	0xbf011faa	-0.5043894
28	0xbe92030b	-0.28517947
29	0x3e0d4e6a	0.13799444
30	0x3de0bc6b	0.10973438
31	0x3e0e2681	0.13881876
32	0x3e8e1a33	0.27754363
33	0x3f0a5f55	0.54051715
34	0x3d4fb2b0	0.05070752
35	0x3e4c9a15	0.19980653
36	0xbdffb9cb	-0.12486609
37	0x3e2c7c86	0.16844377
38	0x3df18e6e	0.117947444
39	0x3d411e56	0.04714807
40	0x3e48f89c	0.19626087
41	0xbd4584c8	-0.048222333
42	0x3cf1f81e	0.029537257
43	0xbe81a5a7	-0.25321695
44	0x3dc3508b	0.09536847
45	0x3e045faa	0.12927118
46	0xbe255a57	-0.16147743
47	0x3e6029df	0.21890973
48	0xbc8860af	-0.016647665
49	0x3e44bfda	0.1921381
50	0xbe2d8eb3	-0.16948967
51	0x3c808d25	0.015692303
52	0x3cbb1435	0.022836784
53	0x3de4c2d6	0.111699745
54	0xbe7a86bd	-0.24465461
55	0xbe6d58eb	-0.23178451
56	0x3d5268ea	0.051369585
57	0x3e94467c	0.28960025
58	0x3e549e0a	0.20763412
59	0x3e7a09bd	0.24417777
60	0x3c00ebdb	0.007868732
61	0xbd2b95d8	-0.04189095
62	0xbedf6cc0	-0.43637657
63	0x3e2f0bb1	0.17094304
64	0x3e42d34a	0.19025913
65	0x3e6db1d0	0.23212361
66	0x3e5202f3	0.20508938
67	0x3d9ea433	0.07746162
68	0xbe657966	-0.22409591
69	0xbd0fbdef	-0.035093244
70	0x3dadbc39	0.08483166
71	0xbe7e8f65	-0.24859388
72	0xbd478ff1	-0.048721258
73	0xbe06648c	-0.13124293
74	0x3e50e020	0.20397997
75	0xbe087f7a	-0.13329878
76	0xbd933bf1	-0.07189167
77	0x3e928fb8	0.28625274
78	0xbe24b39c	-0.1608414
79	0x3e8a3a4f	0.2699761
80	0xbcfc116b	-0.030770024
81	0x3e1037bb	0.1408376
82	0xbe1f9d2b	-0.15587299
83	0x3e666714	0.22500259
84	0xbd950fcc	-0.07278404
85	0x3e41ac93	0.18913488
86	0x3e786ce5	0.2426029
87	0xbda1bcb0	-0.078973174
88	0xbd63cbd3	-0.055614304
89	0x3e54f2eb	0.20795791
90	0x3d8bf3c8	0.06833607
91	0x3e4bfb3f	0.19920062
92	0x3e8024b3	0.25028
93	0xbe6a507f	-0.2288227
94	0xbe6bcaa1	-0.23026516
95	0xbe9ff323	-0.31240186
96	0x3e17d4be	0.14827248
97	0xbe598f05	-0.21245964
98	0x3e8850e4	0.26624215
99	0x3e14c3bf	0.14527796
100	0xbe49e337	-0.19715582
101	0x3e359575	0.17732795
102	0x3e8d347e	0.2757911
103	0xbe0ae32f	-0.13563226
104	0x3e7294dd	0.236896
105	0xbea71f5c	-0.32641113
106	0xbd2f0bfa	-0.04273603
107	0xbcb35d4f	-0.021895079
108	0xbec12489	-0.37723187
109	0x3ea3b028	0.31970334
110	0xbe5fb149	-0.21844973
111	0xbd90a4cf	-0.07062685
112	0xbdf8cfd4	-0.12149015
113	0x3ea47f46	0.32128352
114	0xbdeaf980	-0.114733696
115	0x3e3d2426	0.18470821
116	0xbf030f67	-0.5119538
117	0x3ea258b2	0.31708294
118	0x3ee46713	0.4460989
119	0xbdfe2ef3	-0.124112986
120	0x3e8e8b34	0.2784058
121	0x3e1d7c8b	0.1537954
122	0x3e4b24a5	0.19838198
123	0xbcbe1948	-0.023205414
124	0x3e10b1d4	0.14130336
125	0xbe29d685	-0.16585739
126	0xbe137db2	-0.14403418
127	0xbee8aea7	-0.4544575

fc_mu.bias f4 [4]
0	0x3d290fdd	0.041274894
1	0xbd0a486e	-0.03376048
2	0x3db70de6	0.08938198
3	0x3ce45a13	0.027874982

fc_logvar.weight f4 [4, 32]
0	0xbe0a07c8	-0.13479531
1	0xbd6756f8	-0.056479424
2	0xbdb148bd	-0.08656452
3	0xba69b0bb	-0.00089145795
4	0x3d9afd7d	0.0756788
5	0xbec7e2f7	-0.39040348
6	0xbd97cdf8	-0.07412332
7	0x3e943626	0.28947562
8	0xbe8ee74f	-0.2791085
9	0x3df9fc08	0.12206274
10	0xbf07ad81	-0.5299912
11	0xbe2a5f14	-0.16637832
12	0x3e8584d6	0.26077908
13	0x3e2b20e7	0.1671177
14	0x3e571430	0.21003795
15	0xbe1a018a	-0.1503965
16	0xbe271e48	-0.16320145
17	0x3d41c948	0.047311097
18	0x3e921598	0.285321
19	0xbea6d62b	-0.32585272
20	0xbd883d33	-0.06652298
21	0xbc828f80	-0.015937567
22	0x3d4c27bc	0.04984258
23	0x3e1a3a13	0.15061216
24	0x3e934938	0.287668
25	0xbe303c48	-0.17210495
26	0x3e8c5c11	0.2741399
27	0xbd54f09d	-0.05198728
28	0xbe529ba5	-0.20567186
29	0xbec00d95	-0.37510362
30	0xbd81d358	-0.06339139
31	0xbc84fc2c	-0.016233526
32	0xbe8b24f9	-0.27176645
33	0x3c31556a	0.010823587
34	0xbe381e16	-0.17980227
35	0xbe8e6d7c	-0.27817905
36	0xbe0534cf	-0.13008426
37	0xbe328c8e	-0.1743643
38	0xbd9aa2b1	-0.07550562
39	0x3d3367f0	0.043800294
40	0xbe951db7	-0.29124233
41	0x3e249b5d	0.16074891
42	0xbe8b96f0	-0.27263594
43	0xbebd4809	-0.3696902
44	0x3df2f8cb	0.1186386
45	0xbbaa66d5	-0.005200247
46	0x3ddf0107	0.10888868
47	0xbdc0c380	-0.09412289
48	0xbd9c6a36	-0.07637446
49	0xbe13481b	-0.14382975
50	0x3e9a6ce4	0.30161202
51	0xbe304028	-0.17211974
52	0xbe07477b	-0.13210861
53	0x3d0f5346	0.034991525
54	0x3d413a24	0.047174588
55	0x3d3bd471	0.045856897
56	0x3ec5afd0	0.38610697
57	0xbe8474f2	-0.25870472
58	0x3ea1eebb	0.3162745
59	0xbe436020	-0.19079638
60	0xbe08b441	-0.13350011
61	0xbefbff34	-0.49218142
62	0xbcdc5ecc	-0.026900671
63	0xbdf73117	-0.1206991
64	0xbe0b6ecd	-0.13616486
65	0x3dbc347c	0.09189698
66	0xbe11472d	-0.14187308
67	0xbdbd5abf	-0.09245824
68	0xbe444a24	-0.19168907
69	0xbea37253	-0.3192316
70	0x3dcbc3b5	0.099494375
71	0x3e956ad7	0.29183075
72	0xbe006d72	-0.1254175
73	0x3e05b743	0.1305819
74	0xbef0569b	-0.46941075
75	0xbea80155	-0.32813516
76	0x3d02f04c	0.031967446
77	0x3e687418	0.22700536
78	0x3e3ca99c	0.18424076
79	0xbe78cfa8	-0.24297965
80	0x3d9ff413	0.07810225
81	0xbdb4459b	-0.08802339
82	0x3df5302c	0.11972079
83	0xbe86666c	-0.26250017
84	0x3e103974	0.14084417
85	0xbdc454bd	-0.09586475
86	0x3d938600	0.07203293
87	0x3d8a7fd7	0.06762665
88	0x3e90cca0	0.28281116
89	0xbe065157	-0.13116966
90	0x3ebcc36d	0.36867848
91	0xbb31a952	-0.002710898
92	0xbea0fd00	-0.31443024
93	0xbed3fea4	-0.41405213
94	0xbc24707c	-0.010036584
95	0x3c9e72b4	0.019341804
96	0xbeb5933a	-0.35463887
97	0xbdf708da	-0.12062235
98	0xbe045a9b	-0.12925188
99	0xbe82f04e	-0.25573963
100	0xbdfb5ba9	-0.12273342
101	0xbeac20e0	-0.33618832
102	0xbeab04d1	-0.33402112
103	0x3e275494	0.16340858
104	0xbeba903a	-0.3643816
105	0x3dfc25b2	0.12311877
106	0xbeb35002	-0.3502198
107	0xbeb80bbd	-0.35946456
108	0x3e806ed1	0.25084546
109	0x3e856c76	0.26059312
110	0x3ea8d9b6	0.329786
111	0xbeb09dfa	-0.34495527
112	0x3d009b36	0.03139802
113	0xbdc8a96e	-0.09797941
114	0x3dc6d231	0.097080596
115	0xbe81567b	-0.25261292
116	0x3e2f10c5	0.17096241
117	0xbda561e5	-0.080753125
118	0x3e31e554	0.17372638
119	0x3e294c9a	0.16533127
120	0x3eaf8a79	0.34285334
121	0xbe6948bf	-0.22781657
122	0x3ec8d92b	0.39228186
123	0xbba2297d	-0.0049487934
124	0xbecbe2dc	-0.39821517
125	0xbebdbabd	-0.37056533
126	0xbe574cf9	-0.21025456
127	0x3e10ea36	0.14151844

fc_logvar.bias f4 [4]
0	0xbedff7aa	-0.4374364
1	0xbe957fe8	-0.29199147
2	0xbd2878cf	-0.041130837
3	0xbe2319eb	-0.15927856

fc3_obs.weight f4 [32, 4]
0	0x3deb9b9a	0.11504288
1	0x3e8dfa88	0.27730203
2	0x3f0d75da	0.5525795
3	0x3f0f5883	0.55994433
4	0xbef16fdd	-0.47155657
5	0x3f2ffcc4	0.68745065
6	0xbe8e971f	-0.2784967
7	0x3e027f0b	0.12743776
8	0x3f18e67c	0.5972669
9	0xbe7087c7	-0.23489295
10	0xbeeb7f5b	-0.45995602
11	0xbf02e4c0	-0.51130295
12	0x3ecf97ec	0.40545595
13	0x3ea760c7	0.32691023
14	0xbe02ea7c	-0.12784761
15	0xbe1b122c	-0.15143651
16	0x3e98d625	0.2985088
17	0xbeacc4ae	-0.33743805
18	0xbf1c70e1	-0.6110974
19	0x3e33358a	0.17500892
20	0x3d114b6f	0.03547233
21	0x3e9c5c25	0.3053905
22	0xbdcc9328	-0.09989005
23	0x3f23db18	0.64006186
24	0xbf3498c7	-0.7054562
25	0xbe13fb3c	-0.14451307
26	0x3f07361e	0.5281695
27	0x3e08679d	0.13320775
28	0x3dc0ae0d	0.094081976
29	0xbe34ac36	-0.17643818
30	0x3f12222a	0.5708338
31	0x3f136de5	0.5758956
32	0x3f1eaa32	0.6197845
33	0xbe548949	-0.20755495
34	0x3e5fc2ab	0.21851604
35	0xbe2e3cc3	-0.17015366
36	0x3e928c88	0.28622842
37	0xbeecce0f	-0.4625096
38	0xbe94ed84	-0.2908746
39	0xbf08da3e	-0.5345801
40	0x3e1c6b2f	0.15275262
41	0x3f1a6d95	0.6032346
42	0xbe1fc495	-0.15602334
43	0x3e6aebf4	0.22941571
44	0xbf06d01a	-0.5266129
45	0x3eb960af	0.36206576
46	0x3de6ca83	0.11269095
47	0x3dabd45f	0.08390116
48	0xbf370bb2	-0.7150222
49	0xbe21a492	-0.15785435
50	0x3ebf1a09	0.3732455
51	0x3e4b075d	0.19827028
52	0x3e900b0d	0.2813343
53	0xbe69578e	-0.22787306
54	0x3ebcd699	0.36882475
55	0x3eff3f5e	0.49853033
56	0x3d333a66	0.043756865
57	0x3f1f4ada	0.6222359
58	0x3f2fe268	0.68704844
59	0xbe856aa3	-0.2605792
60	0xbf00bbd1	-0.50286585
61	0x3f5477bf	0.8299522
62	0x3f0bfd86	0.5468372
63	0xbdf0c80a	-0.117569044
64	0xbdc51b54	-0.09624353
65	0x3e372dfc	0.17888635
66	0x3f2366b8	0.6382861
67	0x3f1ec5bd	0.62020475
68	0x3ea5aade	0.32356924
69	0x3db2bcdd	0.08727429
70	0xbf07372e	-0.5281857
71	0xbeda4b5f	-0.4263563
72	0xbe5665af	-0.20937227
73	0x3cdd8277	0.02703975
74	0x3eee50b0	0.46545935
75	0x3f1f6cfb	0.62275666
76	0xbeb2f0bf	-0.349493
77	0x3e36347c	0.17793459
78	0x3f23e87b	0.6402661
79	0xbf2e64cb	-0.6812255
80	0x3d6d2bd7	0.057903137
81	0x3f151ac5	0.5824397
82	0x3edf417b	0.43604645
83	0x3f027615	0.5096143
84	0xbf16b1d3	-0.5886509
85	0x3ed08e59	0.40733603
86	0xbd9475f0	-0.07249057
87	0xbda56229	-0.08075363
88	0x3f06a8f0	0.5260153
89	0xbef78d9c	-0.48350227
90	0xbeea4dfa	-0.45762616
91	0xbf0098fb	-0.5023343
92	0x3cd6c358	0.026216194
93	0x3edda92d	0.43293133
94	0x3f23a583	0.63924426
95	0x3e966197	0.2937133
96	0x3e910371	0.28322938
97	0x3f303270	0.6882696
98	0xbc66b257	-0.0140806055
99	0x3f15263f	0.58261484
100	0x3f116904	0.56800866
101	0x3dcbbfb4	0.09948674
102	0x3ec1805f	0.37793252
103	0x3f1960d7	0.5991339
104	0x3ec97494	0.39346755
105	0xbe8bb3ee	-0.27285713
106	0xbf1bc678	-0.60849714
107	0xbf225d43	-0.63423556
108	0xbe0d58cd	-0.13803406
109	0x3f1637d0	0.58678913
110	0x3e905306	0.28188342
111	0xbd979642	-0.07401706
112	0xbe08a443	-0.13343911
113	0x3e2e5ac7	0.17026816
114	0x3f1f594b	0.62245625
115	0x3eac9dc2	0.3371411
116	0xbec7d0f3	-0.39026603
117	0x3e488cc0	0.19584942
118	0x3f0ed751	0.55797297
119	0x3ee15d90	0.44016695
120	0xbe039a44	-0.12851816
121	0x3ec08814	0.3760382
122	0xbe921db5	-0.2853829
123	0x3e8c337e	0.27383035
124	0x3f34ac50	0.7057543
125	0xbf0f4be7	-0.5597519
126	0xbe2398d9	-0.15976276
127	0xbeee0d99	-0.4649475

fc3_obs.bias f4 [32]
0	0x3e5b0088	0.21386921
1	0x3f567e2d	0.8378628
2	0x3d01c292	0.031679697
3	0xbdc7c4de	-0.09754346
4	0x3de39d4e	0.11113988
5	0x3e8667ff	0.26251218
6	0xbe0d0cc9	-0.13774408
7	0x3bb1314a	0.005407487
8	0x3ebb1ffa	0.36547834
9	0xbdd4559d	-0.10367892
10	0x3deba6d2	0.11506428
11	0x3e514d45	0.20439632
12	0x3d767794	0.060172632
13	0x3e82d9d1	0.25556806
14	0x3d775a8d	0.06038909
15	0xbdd59bc1	-0.10430098
16	0x3ec678a0	0.38763905
17	0x3d0d225f	0.034456607
18	0x3ef7d428	0.4840405
19	0x3f1a41c0	0.60256577
20	0xbdbc2604	-0.091869384
21	0x3f307b87	0.6893849
22	0x3cae93a5	0.021310637
23	0x3f0e49cf	0.5558137
24	0x3ea7a7e9	0.32745293
25	0x3e91aa3c	0.2845019
26	0xbbba3337	-0.005682375
27	0x3f16c002	0.5888673
28	0x3ea922c8	0.33034348
29	0x3ed08209	0.4072421
30	0xbdb44046	-0.08801322
31	0x3dce51ac	0.100741714
