checkpoints/SingularTrajectory-TEMP/zara1/s_vae_model_best.pth (torch, 75829 bytes, 24 tensors)

conv_layers.0.weight f4 [64, 1, 3]
000000 76 ba 0e 3f d5 0b a0 be 0c 08 3e 3e c1 83 97 3e
       0.55753267 -0.31259027 0.18557757 0.29592708
000010 93 82 ac be 1a 3d 10 bf 61 5a 06 bf 12 56 b6 bd
       -0.3369337 -0.56343234 -0.5248166 -0.08903135
000020 8e 52 97 3d 15 6f f4 3e c2 9a 5e be 72 19 c7 be
       0.07388793 0.47741 -0.21738723 -0.388866
000030 0b fb 12 3f 89 3f 08 bd a7 e2 e9 be ac b0 6c be
       0.5741431 -0.033263717 -0.45680735 -0.2311427
000040 b7 73 bd be a9 0b b8 3e 82 e2 18 3f 89 e2 45 3d
       -0.37002346 0.35946396 0.59720623 0.048311744
000050 5e ed be 3c 24 98 ae 3e 0f da 85 3c 12 40 7f 3e
       0.023306545 0.3410045 0.01633933 0.24926785
000060 8b 91 e5 3e 5a 3b cc be a6 73 c9 3e bd c3 70 be
       0.44837603 -0.39889032 0.39346045 -0.23512168
000070 fb e6 98 3e 67 ce ab be bc 80 95 be 0d 06 f5 bd
       0.29863724 -0.3355591 -0.2919978 -0.11964045
000080 0c 09 ed 3e b1 72 c2 be 8b 57 fe 3e 28 69 b0 be
       0.46295965 -0.37978128 0.49676165 -0.34455228
000090 71 40 11 3f 24 1a 45 be 8d 52 98 3e 6b 29 db 3b
       0.56738955 -0.19248253 0.2975048 0.006688287
0000a0 e2 b2 06 3f 8a 4d f9 be 56 cd 52 3e 18 a7 5e be
       0.52616704 -0.4869197 0.20586142 -0.21743429
0000b0 3d 3a ee 3e 50 13 b2 3e 43 e9 dd bd b4 ed 21 bf
       0.46528807 0.3478036 -0.10835507 -0.6325333
0000c0 9d ea 0e 3e df 6e 51 3e 3f a1 08 bd fa 25 9d 3e
       0.13956685 0.2045245 -0.0333569 0.30693036
0000d0 d6 df 21 3e 5e 4c cc be 7b a9 e8 be 54 c1 59 be
       0.15808043 -0.39902014 -0.45441803 -0.21265155
0000e0 00 be 43 be 63 67 08 3f 9b 92 ac be 22 86 93 be
       -0.19115448 0.53282756 -0.337056 -0.28813273
0000f0 35 3a d0 3e 71 40 9b be 4b b2 0a be a2 11 8b 3e
       0.40669408 -0.30322602 -0.13544576 0.2716189
000100 3c 50 41 be 2a 86 0a 3f 60 2d 2b 3e 70 42 0a bf
       -0.18878263 0.5411097 0.16716528 -0.54007626
000110 14 75 1a be 70 94 8e bd b4 bc 15 3d dd 48 5c be
       -0.15083724 -0.06961906 0.036556914 -0.2151217
000120 c7 dd 77 3e a0 d2 a3 3e 3f 7f b4 bd ee 24 84 be
       0.24205695 0.31996632 -0.08813333 -0.25809425
000130 fb 4a 91 3b 40 96 c8 3e 5f bb 04 3f f9 28 5b be
       0.004433987 0.39177132 0.51848406 -0.21402349
000140 19 aa a7 3e 5e 9d ed be e7 93 8e be 8c 62 c6 be
       0.32746962 -0.46409124 -0.27847216 -0.3874706
000150 85 97 04 bf f3 ef 7e be 66 51 cb 3e bb 62 83 be
       -0.517937 -0.24896221 0.3971054 -0.25661263
000160 b6 32 ec 3e a0 fd cd 3e 29 c9 bf 3d 80 5a 66 3e
       0.4613244 0.40232563 0.0936454 0.2249546
000170 99 6d 84 3e 29 33 01 bf b3 6e cb 3e 4e 31 d5 3e
       0.25864866 -0.5046869 0.39732894 0.4163918
000180 df 8c 1a 3e e8 9f 02 3e c0 44 f5 bd 4d 24 bf be
       0.150928 0.12756312 -0.11976004 -0.37332383
000190 bd 2f 20 3e 12 1b 82 bd cf 99 b3 3e 12 a4 d6 be
       0.1564321 -0.063528195 0.35078284 -0.4192205
0001a0 a1 87 16 3f ee fe a6 3e 44 64 2c 3e 83 6c f0 3e
       0.58800703 0.3261637 0.16835123 0.46957788
0001b0 d3 f2 f8 3d 5f 23 b1 3e fe 6b 08 3f 51 cc cc 3e
       0.1215569 0.34597299 0.53289783 0.3999963
0001c0 78 f7 1a be ca e3 02 bf 1b 9a 92 be d4 c8 65 be
       -0.15133464 -0.5112883 -0.28633198 -0.22439891
0001d0 4b d5 9f 3e fa 3b 5e be 8b 23 07 3f 0f 66 7b 3e
       0.31217417 -0.21702567 0.5278861 0.24550651
0001e0 06 a5 dd 3e cd 8f ea bd 8e 69 05 3e 84 af ac be
       0.43289965 -0.11453209 0.13028547 -0.33727658
0001f0 3d d4 19 3d a5 1a d5 3e ce 69 ae be 48 96 fe be
       0.03755592 0.4162189 -0.34065098 -0.4972403
000200 c8 86 1a bf cc 79 86 be 9e 31 f7 bd 83 57 07 3f
       -0.6036191 -0.262648 -0.120700106 0.5286791
000210 5e 56 7f be ad 01 b6 bb 3a e2 51 3e f4 5d 81 bd
       -0.2493529 -0.005554399 0.20496455 -0.06316748
000220 bf 1a b6 be 3a b1 8a be 9b cd 69 be f8 73 06 bf
       -0.3556728 -0.27088338 -0.22832339 -0.52520704
000230 6e cc 11 bf 76 0e 68 be a4 de ec 3e 7c e9 19 be
       -0.5695256 -0.22661766 0.4626361 -0.15030473
000240 5a fb 93 be 0f f3 76 3d c2 97 0a bf 89 e3 6a bd
       -0.28902704 0.060290392 -0.54137814 -0.0573459
000250 ce 42 e7 be 00 83 a0 3e 0d ba dd 3e 70 f7 ad 3e
       -0.45168155 0.31349945 0.43306008 0.33977842
000260 a3 d7 a3 3c 2e 37 13 3f 0b f8 82 be 3d 1f e0 3e
       0.020000285 0.5750607 -0.25579867 0.43773833
000270 a0 08 16 3c bf 6a 21 be 03 82 22 bf d3 3d 47 3e
       0.00915733 -0.15763377 -0.6347963 0.19457178
000280 be c4 1f 3c 0e 18 d8 3e e2 dd eb bd 33 fb d5 bd
       0.009751497 0.42205852 -0.1151693 -0.10448303
000290 51 30 0a 3f bc 41 b2 bb 10 e2 2a be 08 33 15 3e
       0.53979975 -0.005439965 -0.16687799 0.14570248
0002a0 e4 be d4 be ac 46 70 be af 3b 1e bf 30 f1 28 3e
       -0.41551888 -0.23464459 -0.6180982 0.16498256
0002b0 b2 3b d7 3e ea 52 af 3e 63 c1 a7 be 1c 98 fa be
       0.4203773 0.34242946 -0.3276473 -0.48944175
0002c0 a8 c7 22 bf 07 49 5e 3e 09 be 09 bf 15 cd 29 be
       -0.635859 0.21707545 -0.53805596 -0.16582139
0002d0 f7 3c 70 be 34 14 c7 b9 46 5e 00 3f 09 73 24 3e
       -0.23460756 -0.0003797129 0.5014385 0.16059507
0002e0 98 6f 81 be 2c 58 c4 3e 26 62 71 3d ac 22 09 3f
       -0.25280452 0.3834852 0.058931492 0.5356853
0002f0 b8 af 70 3e ee 35 8b bd ef 6e 94 be d4 d3 96 3e
       0.23504531 -0.06797396 -0.28990886 0.29458487

conv_layers.0.bias f4 [64]
000000 2b c5 90 3d 91 1e 31 be d4 ca 16 3f 52 3a 0c bf
       0.07068857 -0.17296816 0.5890324 -0.5477649
000010 54 a7 80 3e d8 b5 8c be b6 f3 ef 3e 15 eb 48 be
       0.2512766 -0.27482486 0.46865624 -0.19620927
000020 5f 4d 97 be 0d 94 46 3e ac 35 3f be ee b6 f6 3e
       -0.29551217 0.19392414 -0.18672818 0.4818644
000030 d1 ec bd be 55 5f b4 3e e4 66 9f 3e c3 ec 4d 3e
       -0.3709474 0.35228983 0.31133187 0.20109849
000040 4c c3 f2 be 29 02 68 3e 48 ff 1a 3e 09 f7 a9 3d
       -0.47414625 0.22657074 0.15136445 0.08299071
000050 f4 bd ab bd 79 24 44 3d c5 2f d0 3d ec b0 dd 3e
       -0.0838584 0.047886346 0.10165361 0.43299043
000060 e9 0c 6a be 81 ce 0b 3f ff c9 81 be 4a 52 31 3f
       -0.22856487 0.54611975 -0.25349423 0.6926619
000070 e0 b2 22 3f 63 0c 05 3f f9 dd a5 ba 90 09 15 be
       0.6355419 0.51972026 -0.0012654654 -0.14554429
000080 e3 4d af be bf da 04 3f 13 6f ff be c9 88 88 3d
       -0.3423911 0.5189628 -0.4988943 0.06666715
000090 b2 13 88 3e 70 20 14 3e fd dd 32 be c7 f3 db be
       0.26577526 0.14465499 -0.17467494 -0.42959425
0000a0 a8 ed cd be 6e 2d 95 bd 7e 82 23 be 79 8f ca 3e
       -0.4022038 -0.07284056 -0.15967748 0.39562586
0000b0 89 e4 c5 3e 68 0e 96 3e 26 80 b0 3c b4 85 8d 3e
       0.3865092 0.29307866 0.021545481 0.2764107
0000c0 d7 ac 1b be ac d1 06 bf 7d 8c 8f 3e db b4 b0 be
       -0.15202652 -0.52663684 0.28036872 -0.34512982
0000d0 f3 87 74 3e bb 03 0e 3f 17 97 19 3f e7 21 e7 be
       0.23879986 0.5547444 0.5999617 -0.45143053
0000e0 6d ec 9f bd 38 2e 07 bd 65 2c 02 3f 90 1d 5a be
       -0.078087665 -0.033003062 0.5084899 -0.2130034
0000f0 36 84 e4 3e ad 33 03 3e 79 ec fa 3e 8a e4 80 3e
       0.4463212 0.12812681 0.4900854 0.2517436

conv_layers.2.weight f4 [32, 64, 3]
000000 1b 92 e1 3c 01 05 a4 3c 8c cb b7 bc 15 61 6d 3d
       0.027535489 0.020021917 -0.022435926 0.057953913
000010 99 50 04 bd c9 f4 ae 3c f7 3b ef 3c 80 bf 95 3d
       -0.032303426 0.021356957 0.029203398 0.07311916
000020 40 ac b8 3d a6 2f 50 bd d2 6b 81 3b 0d 71 92 3d
       0.09017229 -0.05082669 0.0039496208 0.07150469
000030 b6 ac b3 3d 97 93 7d bd ae b6 9e bd 7c 81 18 bd
       0.08773176 -0.06190833 -0.07749687 -0.03723286
000040 a6 04 70 bc 5a 74 41 bd 27 98 3c bd ec 4e 89 3d
       -0.014649546 -0.047230102 -0.04604354 0.06704506
000050 b0 83 f5 bc be 8e b8 bc c1 6a ad 3d 98 2e 83 3c
       -0.02997002 -0.022529002 0.08467627 0.016013429
000060 9b 7e a5 3d 10 86 95 bc 85 21 c8 3c 2a d9 98 3d
       0.08080789 -0.018252403 0.024430046 0.07463296
000070 a9 ab 47 3d 0d 8e 31 3d 39 da 87 3d 63 fd 95 3d
       0.048747692 0.04334836 0.066334195 0.0732372
000080 48 4d 80 3d e8 30 82 3d 83 bf e3 3d bb 7a 8f 3d
       0.0626474 0.063569844 0.11120512 0.07005831
000090 49 27 32 3d 99 6e 0f 3c 9f 48 2d 3d fa 63 6b bc
       0.043494496 0.008754396 0.042305585 -0.014367098
0000a0 39 2d bb bc de b8 ce 3c d6 a0 3e 3d 77 58 44 3d
       -0.022848712 0.025234636 0.046540104 0.04793593
0000b0 b9 3e 89 3c 8e 2a 07 3e 87 bd 85 3d 87 05 fa 3c
       0.016753541 0.13199827 0.0653029 0.030520214
0000c0 fd 08 29 3d 21 77 9a 3d f1 62 2c 3b 0c 09 fb 3b
       0.041268338 0.07542253 0.002630409 0.0076609906
0000d0 ca c5 32 3d 16 c8 32 3d 30 2a bf 3d 60 a3 5b bc
       0.043645658 0.043647848 0.093342185 -0.013405651
0000e0 46 72 48 3d be a4 4d bc b8 c3 33 bd 34 3d 99 3a
       0.048937105 -0.012551485 -0.043887824 0.0011691214
0000f0 8e 13 25 bd e3 8a 1c 3c 4a a1 91 bc 0a b0 7c 3c
       -0.040301852 0.009554598 -0.017777104 0.01542283
000100 66 b8 99 bc 99 06 a6 bc 78 f9 9f 3d 13 6f 55 3d
       -0.018764686 -0.020266818 0.07811254 0.05210788
000110 ff 66 6d bc e8 44 06 3d c3 9a 74 bc 86 8d 1a be
       -0.014489888 0.032780558 -0.014929476 -0.1509305
000120 bd 25 0d 3d e3 78 19 bd b5 4d 27 bb 29 ec 9c 3b
       0.03445982 -0.037468802 -0.0025528495 0.0047888947
000130 23 e2 1a 3c 84 dc a7 bb 81 7d ff 3c 09 c0 9f 3d
       0.009453329 -0.005122723 0.031187775 0.078003
000140 5c 0c 56 bd b0 6b be 3d 04 7e 3d 3c 96 22 a1 3d
       -0.05225788 0.092978835 0.011565689 0.07867925
000150 e4 17 8b 3c 52 15 d8 bc ad c4 d1 3d e3 1d 3c bd
       0.016979165 -0.026377354 0.10242591 -0.04592694
000160 1d ff a8 3d 83 ac 36 3d 29 3b 11 bb 35 e4 7f 3d
       0.08251784 0.044598114 -0.0022160506 0.062473495
000170 de 62 4c bd c8 88 a5 3c fa ad 83 bc 48 d1 46 3c
       -0.049898975 0.020206824 -0.01607417 0.0121348575
000180 dd 46 61 3c 58 37 7c 3d 8f b3 3b 3d 40 c6 d8 bc
       0.013749805 0.061576217 0.045825537 -0.02646172
000190 15 46 ba 3d 7e 41 9a bc 60 65 78 3b 54 af 58 bd
       0.09095398 -0.018830057 0.003790222 -0.05290158
0001a0 cc 9d 17 bd 63 4b 87 3d a9 70 ae 3d e0 a4 29 3d
       -0.03701572 0.06606176 0.08517582 0.041417003
0001b0 7d 9c 7e bc f6 66 45 3d 51 71 3a 3d 0d 5c 7e 3d
       -0.015540239 0.048193894 0.045518223 0.062099505
0001c0 1d d3 98 3d 0b 6b 8f 3d a5 29 6f 3d b6 4a 55 bd
       0.07462142 0.07002839 0.058389325 -0.052073203
0001d0 8e d8 84 3d 3c db 4a bd ff 12 e2 bb 2f b7 96 3c
       0.06486617 -0.049525484 -0.006899237 0.018397896
0001e0 37 ea 70 3c c1 1d be bb 09 e5 11 3d 65 02 fb 3b
       0.014704279 -0.005801887 0.035618816 0.0076601976
0001f0 1d 8d 53 bc 55 71 c3 3c f3 6e 11 3e b6 2d 18 bc
       -0.012912062 0.023857752 0.1420248 -0.009288242
000200 b5 c4 85 bd 6a f0 1a 3d ef 35 c1 3c 1e 41 cf 3c
       -0.065316595 0.037826933 0.023585288 0.025299605
000210 ab 72 0c bd 40 8f 53 3c e0 28 3b 3d 24 00 9d 3d
       -0.034289043 0.012912571 0.04569328 0.076660424
000220 2f e3 ac 3d c9 96 e7 bc 9f 6f 14 3e 52 6a 3f 3d
       0.08441769 -0.028270142 0.14495705 0.046732254
000230 09 e1 bb bc dc 0e 5b bc ab bd 0f bd 93 0d 74 3c
       -0.022934454 -0.013370242 -0.03509299 0.0148958145
000240 de 6d c8 3d 76 54 ad 3d c1 de 3e bd 9a 21 fb bc
       0.097865805 0.08463375 -0.046599153 -0.03065567
000250 b5 1c b9 bc f8 da 18 3d be be 95 3d e5 53 63 3d
       -0.022596696 0.0373182 0.07311772 0.05549993
000260 18 7a 1d 3c fc 98 24 3c f4 10 91 3d 59 61 f1 bc
       0.009611629 0.01004624 0.07083312 -0.029465364
000270 42 b7 82 3d 36 f1 8d 3d de bf 1b bd c0 65 b1 bb
       0.0638261 0.06930773 -0.038024776 -0.005413741
000280 62 4e ce 3c 1c 06 72 3d bc 46 7a 3b cf 46 c9 bc
       0.02518386 0.059087858 0.0038189134 -0.024569897
000290 38 0a ef 3c 18 6e 8e 3c 12 6f 89 3d a1 39 8f 3c
       0.029179677 0.017386481 0.06710638 0.017483534
0002a0 dc 2a b0 3d 8c 9f 6c 3d 87 13 20 3d 1f 24 b1 3d
       0.08601925 0.057769343 0.039081123 0.08649468
0002b0 ac f3 af bb 62 b6 81 3c 60 f4 4a 3d a8 7b 96 3d
       -0.005369624 0.015834037 0.04954946 0.07347804
0002c0 0a 52 98 ba ce 1e a7 3d 86 69 69 3d 0a e6 39 bc
       -0.0011621129 0.081601724 0.0569854 -0.0113463495
0002d0 50 19 06 3d b3 7e 5c 3d 7d 36 cd bc 49 e3 87 bc
       0.032738984 0.053831767 -0.025050396 -0.01658787
0002e0 fb a8 30 3b a4 f9 d6 bc e1 52 90 3d 07 09 e1 3c
       0.002695619 -0.026242085 0.07047058 0.027470125
0002f0 e5 6e bb bc 32 5a 15 3b 4e 6f 3e 3d 24 df 84 3d
       -0.022880027 0.0022789356 0.046492867 0.06487873
000300 4a 61 a1 3d 20 a4 ca bd e9 ba 1d be 41 30 1c ba
       0.078798845 -0.098945856 -0.15403332 -0.0005958118
000310 2a 93 b5 bc 94 fa cc bd 0a 28 4b 3d ac 42 07 3e
       -0.0221649 -0.100087315 0.04959873 0.13209027
000320 de 48 98 3d 11 2e 3e bd 71 c8 92 3c ff f8 03 be
       0.07435773 -0.04643065 0.017917844 -0.12887953
000330 76 63 91 bc ac fa 67 3d 9b 18 39 be 19 a3 70 3d
       -0.017747622 0.056635544 -0.18075792 0.058749292
000340 73 8a 10 3d 3b ea 0d bd c3 2c 99 3d d0 ab 6c 3d
       0.035288285 -0.034647208 0.07479241 0.05778104
000350 6b f9 37 be 48 d0 b9 3b e3 3f ac 3c 52 84 fa bd
       -0.17966239 0.005670581 0.021026557 -0.12232269
000360 b6 0d d7 3d ff fc ae 3c 6a 73 46 be 5d ed 5f 3d
       0.10500662 0.021360872 -0.19379964 0.054669727
000370 a5 2c 4a 3d bc 4b f3 3b f3 46 2b 3e e6 a8 2e 3b
       0.049358983 0.0074247997 0.16726284 0.0026650964
000380 aa 2e 99 3c 29 5a 03 3c 4b 2c ee 3d 70 c6 74 3d
       0.018699009 0.008017101 0.11629542 0.059759557
000390 a7 b9 d1 bc 0d 74 84 bd d5 94 33 be c0 21 ca bd
       -0.025601221 -0.064674474 -0.17537244 -0.098697186
0003a0 13 2b c6 3d 14 e6 1c be a2 fe 6e 3d 60 4c ac bd
       0.096761845 -0.15322143 0.058348306 -0.08413005
0003b0 1e 44 00 be 66 6f b5 3d 4f dd 12 bd fb 78 64 be
       -0.12525985 0.08859138 -0.035855588 -0.22311775
0003c0 0c f4 ea 3a f5 63 13 bd 74 61 86 bd 87 b3 68 3b
       0.0017925515 -0.035984 -0.065615565 0.0035507397
0003d0 4e ee 14 bd b3 08 4a be 08 e9 90 3d 58 3d 78 3b
       -0.036360078 -0.19729881 0.07075697 0.003787836
0003e0 5b ab 78 3d f8 38 1f 3e 7d d1 1b 3b 72 ce 1d be
       0.060710292 0.15549076 0.0023775988 -0.15410784
0003f0 f9 db 64 3d 7f 43 d3 3c d1 29 15 be 0b e2 46 3d
       0.055873845 0.02578902 -0.14566733 0.048555415

conv_layers.2.bias f4 [32]
000000 bd 9a 12 3d 62 c4 74 3d f9 ff 69 bb e1 f4 ad 3d
       0.0357921 0.059757598 -0.003570555 0.084939726
000010 ad ea a4 3d 79 8d 12 bd 41 96 8d bd 30 24 d3 3c
       0.08052573 -0.03577945 -0.06913424 0.025774091
000020 5e c7 25 3d 40 df 59 3d ab 61 a4 bc c3 79 ff bc
       0.040473334 0.053191423 -0.020066103 -0.03118599
000030 b3 e3 59 3d c9 1b 7d 3d b9 cb 89 3d 8c b4 51 bd
       0.053195667 0.061794076 0.0672831 -0.051197574
000040 96 1d 1c 3c 6b 51 ba bd 2c 5e c8 3d 48 81 b5 bc
       0.009528538 -0.090975605 0.09783587 -0.022156373
000050 cc 87 79 bc fc f7 c4 3d d3 04 92 3d 67 e9 08 bd
       -0.01523013 0.09617612 0.071298264 -0.033425715
000060 cf 83 fe bc 8d c5 c8 3d d1 18 47 bd f7 8b 69 3d
       -0.03106871 0.09803305 -0.04860765 0.057018247
000070 6a 61 fe bb eb 63 00 3d 99 88 6a bd ea df d7 3d
       -0.0077630775 0.03134529 -0.057259176 0.10540755

lstm.weight_ih_l0 f4 [128, 32]
000000 7f e8 83 bd bd 0b c3 bd 82 86 27 3e 28 85 8d bd
       -0.064408295 -0.09523723 0.16359904 -0.06910163
000010 6e 3e a4 3d 4f 74 43 3c 43 c1 8c bc 33 58 07 3e
       0.0801972 0.011929586 -0.017181998 0.13217239
000020 5c f8 9d 3d d7 68 f6 3d 9f 83 91 bd 0a f5 0b 3e
       0.077133864 0.12031715 -0.07105183 0.13667694
000030 96 2d f6 3d 73 b1 f1 bb f8 85 59 3e 0c 6f 9c 3d
       0.120204136 -0.00737589 0.21242511 0.07638368
000040 b0 13 b3 3d 6e 91 34 3d 20 18 51 3e cd 6c 4c bd
       0.087439895 0.044084005 0.20419359 -0.049908448
000050 fd 24 72 bd d8 7d 02 bd 99 87 23 bd 36 96 fd 3d
       -0.059117306 -0.031858295 -0.039924238 0.12382166
000060 e2 f1 aa bd 87 2f c3 3d 25 3a 79 bc 47 41 3c bd
       -0.08346917 0.095305495 -0.015211617 -0.04596069
000070 3e bc 45 3b 49 ac 06 be 4f 03 df 3d fa 49 44 3d
       0.0030172016 -0.13151659 0.10889303 0.047922112
000080 6a c5 81 bc 52 d5 09 bb a1 6a 1c be 72 7c 71 3d
       -0.015841205 -0.002103169 -0.1527505 0.05895657
000090 42 d8 15 bd 0f 3a b7 bd c3 17 30 3e 09 a4 89 bd
       -0.036583193 -0.08946621 0.17196564 -0.0672074
0000a0 28 13 df bd fb 4f d7 3d 7b 6b 26 3e ca 3f 83 3d
       -0.10892326 0.10513302 0.16251938 0.06408651
0000b0 96 07 94 bd a5 53 97 bd 42 50 09 3e c1 f4 eb bd
       -0.072280094 -0.07389001 0.13409522 -0.115212925
0000c0 26 69 2a 3d 77 44 be 3d b1 0d a6 bd 7a 11 2d be
       0.041604184 0.092904024 -0.0810808 -0.16901198
0000d0 8d 41 90 3d 82 70 24 be b2 42 2b 3e b0 ab 47 3c
       0.07043753 -0.16058543 0.16724661 0.01218693
0000e0 b1 ff c8 3d a4 80 4d 3e 2a cc 9a 3d 2e b1 23 3e
       0.09814394 0.20068604 0.075584725 0.15985557
0000f0 5b 34 b6 bd b4 a3 9b bd 52 f2 db b9 42 b6 c4 3b
       -0.08896705 -0.07599583 -0.00041951478 0.006003172
000100 d2 d4 2e 3e d3 41 1e 3e 5a 75 81 bd 5d d3 c9 bd
       0.17073372 0.15454797 -0.06321211 -0.098547675
000110 1a 90 d9 3d 06 7d 6d bd 53 ce 0d be a4 7a a6 bd
       0.10623188 -0.05798056 -0.13848238 -0.081288606
000120 d4 90 ac bd 98 36 b0 3d c6 13 dd 3d 05 76 65 3c
       -0.08426061 0.08604163 0.10794787 0.014005189
000130 54 e1 2c be 6f ff aa 3d 1c 28 6f 3d 49 41 bd 3c
       -0.16882831 0.08349501 0.05838786 0.02310242
000140 f8 0b 1c 3d aa 53 b6 3c 05 bc 03 3e f0 31 87 bd
       0.03809735 0.022256691 0.12864693 -0.06601322
000150 e2 c3 d5 3d e4 37 23 3e 3e 58 86 3d 11 1e 93 3d
       0.10437752 0.1593929 0.065597996 0.07183469
000160 ef 2b a1 bd 18 2a 69 3e 03 17 12 be a0 f3 77 bd
       -0.07869708 0.22769964 -0.14266591 -0.060535073
000170 8f 43 aa bd ac 31 00 3e ea 3d 10 3e 18 df 70 3d
       -0.08313667 0.12518948 0.14086118 0.05880651
000180 03 a6 db 3d 34 ba 8c bd 4d a5 9e 3d 8c 67 f9 3d
       0.107250236 -0.06871453 0.07746372 0.12177953
000190 e3 bd 7c bc 7f ae 5a bd eb 77 af 3d 46 27 1b 3e
       -0.015426132 -0.05338907 0.085677944 0.151517
0001a0 5b 27 81 bc ec 95 5b 3c d2 b1 98 3c 36 7f 12 3e
       -0.015765836 0.013402443 0.018639479 0.1430634
0001b0 05 d7 e9 bd db a6 fd 3c e8 3c 7f bd 2d a9 02 3d
       -0.11417965 0.030963352 -0.062313944 0.03189962
0001c0 23 38 80 3d 08 9a 97 3c af 24 d4 bd 1e 14 d7 bd
       0.06260707 0.018506065 -0.10358559 -0.10501884
0001d0 f3 01 e3 bd ee 30 82 3e de cb 1e 3e ef 31 1f be
       -0.11084356 0.25427955 0.15507457 -0.15546392
0001e0 d1 48 0b be fb 66 d3 bd c0 76 a9 bd 9a 2b 05 3d
       -0.13601996 -0.10322376 -0.08274603 0.032512285
0001f0 95 2d db 3d 30 6a c8 3d ab 83 c8 3d b8 d3 04 be
       0.107020535 0.09785879 0.09790739 -0.1297139
000200 4b a8 0f bd 26 f6 43 be fb 6e 7a 3d f6 e6 83 3c
       -0.035072606 -0.19136867 0.061140995 0.016101342
000210 24 6e 26 be 5f 81 07 bc 55 ae b0 3d 2d 5f 3f bd
       -0.16252953 -0.008270591 0.08627001 -0.046721626
000220 49 77 65 3d ef 86 18 be 6d bb 09 be 7c 9d ee 3d
       0.056021962 -0.14895223 -0.13450404 0.116511315
000230 ab 95 c6 bd 47 79 ef 3a db ed 26 bd 3a 75 10 3e
       -0.09696516 0.0018270396 -0.04075418 0.14107218
000240 d3 d6 b8 bd da 63 f8 3d 12 94 ca 39 bb 9d 2e 3d
       -0.090253495 0.1212842 0.00038638763 0.042630892
000250 52 7b 13 be 0e d7 3d bd 69 ae 20 be de 88 0f 3d
       -0.14402512 -0.04634767 -0.15691532 0.035042636
000260 91 b7 33 3e 14 0c 88 3d 51 17 08 3d d4 22 d3 3d
       0.17550494 0.06642929 0.03322536 0.10309377
000270 39 f6 f9 3c 17 b7 3a be 45 1f 15 3e a4 1b f2 3d
       0.030512916 -0.18233906 0.1456271 0.11821678
000280 8d 76 5d bd 94 1d 4a 3e a1 82 ed bd b7 b5 92 3d
       -0.054068137 0.19737846 -0.11597181 0.071635656
000290 30 b9 a9 3d c3 8b 1c bd f4 38 65 3e e2 85 c7 bd
       0.08287275 -0.038219225 0.22385007 -0.09742333
0002a0 80 89 51 bd 32 20 12 be cb aa a6 3d 93 41 10 3e
       -0.05115652 -0.14270094 0.08138045 0.14087515
0002b0 47 72 1a 3c eb e0 25 be d0 b1 8b bc 2c 59 02 3e
       0.00942666 -0.1619908 -0.017052561 0.12729329
0002c0 01 e0 11 3c 83 16 a9 bc ef b6 21 3e c6 72 d0 bd
       0.008903504 -0.020640617 0.1579244 -0.10178141
0002d0 a1 24 18 3e f7 23 9b 3c b2 ea 81 bd c4 99 9b 3d
       0.14857723 0.018938048 -0.06343593 0.07597688
0002e0 9f 40 75 bd da f3 32 3e 58 75 9a 3c eb b0 20 3e
       -0.05987608 0.17475834 0.018854782 0.15692489
0002f0 78 2f 2c 3d 62 f0 ee 3d 95 47 bb bd 53 a9 36 bd
       0.042037457 0.11666943 -0.091445126 -0.044595074
000300 d8 a6 18 be 53 e9 3d be 87 21 55 3d da d0 fa bd
       -0.14907396 -0.18546037 0.052033927 -0.122468665
000310 6a b9 a7 bd fb b2 97 3d 32 c7 ac 3d c5 ab 2b bc
       -0.08189662 0.07407185 0.08436431 -0.010477965
000320 71 2d b7 3a ad 7d 1c 3d f9 ca 9d 3d ca e0 fc 39
       0.0013975335 0.03820579 0.077047296 0.00048232666
000330 31 21 dd 3d 53 5e 75 3d ef 60 03 3c 2a e2 72 bd
       0.107973464 0.059904408 0.008018716 -0.059297718
000340 ba 06 0e bd e7 dd 4e 3e 3a c0 89 3d 4e e9 34 3e
       -0.034674384 0.20201837 0.067261174 0.17667124
000350 f9 14 2b 3e ae 01 2b bd 41 66 5e bd 53 42 2b be
       0.16707219 -0.04174965 -0.054296736 -0.1672452
000360 ea b3 00 be 94 12 11 bd c0 ce 06 be 69 cc 97 bd
       -0.12568632 -0.035418108 -0.13164806 -0.07412035
000370 8a 64 3c bd f4 dc 04 bd 9f b6 ad bd 5d fe be 3d
       -0.04599432 -0.03243728 -0.08482098 0.0932586
000380 f2 80 5c 3e f6 be 9b bc ca bb 0a 3d 09 af 99 3d
       0.21533564 -0.019011956 0.033870496 0.075040884
000390 1f 3d 1a bc 3b 5a 99 bc 08 6b be 3b cf d3 cb 3d
       -0.0094139865 -0.018719783 0.005811099 0.09952509
0003a0 6d 8f e3 3d 1a 03 d5 bd 78 e4 09 3e e9 8c c7 bd
       0.11111341 -0.10400982 0.1346606 -0.09743673
0003b0 d3 b4 1f 3e 9a 94 65 3e c8 64 81 be 82 f7 cd bd
       0.15596323 0.22419968 -0.25272202 -0.10056974
0003c0 99 c0 18 3e 0a bd 2a bd 9a a9 02 3e bd 5e 66 3e
       0.1491722 -0.041684188 0.1276001 0.22497077
0003d0 d7 47 7c 3e 26 56 86 3d a1 c7 b5 3d c5 af 34 3e
       0.2463678 0.065594 0.08875967 0.17645176
0003e0 ab 7f 31 bd 46 2b 7a be 40 80 a6 3d c1 7b 74 3e
       -0.043334644 -0.2443057 0.081299305 0.23875333
0003f0 bd 3b 3c 3e e3 d4 03 be b5 9d d7 3d 76 17 28 3e
       0.18382163 -0.12874179 0.10528127 0.164152

lstm.weight_hh_l0 f4 [128, 32]
000000 01 25 7d 3c c2 a3 f4 3c c3 dc 8a bc 98 a0 83 3d
       0.015450717 0.029863242 -0.01695097 0.06427115
000010 5d d9 94 3d 96 bb 30 bd 0f 80 87 bd dc cf d3 3d
       0.07268021 -0.043147646 -0.06616222 0.103423804
000020 9f f2 b7 3d cb 96 40 bd 73 2a d3 bd 48 97 14 3e
       0.08981823 -0.047018807 -0.10310831 0.14510834
000030 da 54 ad 3d 0b d0 f0 3d 10 2d e1 3c 93 fa 56 3d
       0.0846345 0.11758431 0.027487308 0.05248506
000040 8b 17 87 be f3 9b ff bd b7 37 97 3d 24 bb 34 3e
       -0.2638515 -0.12480917 0.07383674 0.17649513
000050 75 ef 21 3d b4 9c 1d 3e 34 29 96 3d 1e 2a 3b 3e
       0.039535005 0.15391809 0.073320776 0.18277785
000060 c2 46 cc bd 37 77 18 bc 8e 47 bb bd 86 9b d0 bd
       -0.099744335 -0.009305767 -0.09144507 -0.10185914
000070 ef d7 0e 3e 24 3b 37 be 1a f8 2b be 4c dd 89 bc
       0.1394956 -0.17893654 -0.16793862 -0.016829155
000080 74 4b 1f 3e e7 19 a2 bd 92 2c 92 bd f8 d5 2e be
       0.15556127 -0.07915097 -0.07137407 -0.1707381
000090 52 3a 88 3d 46 e0 93 3e 1a 17 fd 3d 40 ab 01 3b
       0.06651749 0.28882045 0.12357922 0.001978591
0000a0 9c 92 d1 bc 22 e5 13 be ba 39 c9 3d 5c 12 49 be
       -0.025582604 -0.14442876 0.098254636 -0.1963591
0000b0 64 43 8d 3e 5f a8 06 be 8d ef c1 3c 90 b7 f6 bd
       0.27590477 -0.13150166 0.023673797 -0.120467305
0000c0 b8 b2 95 bd 25 fd 0d 3e eb f5 75 be 10 33 09 3e
       -0.073094785 0.13866098 -0.24019592 0.13398385
0000d0 63 7b 70 3d 15 e8 12 be c0 6f 3e 3e 35 82 d9 bd
       0.05871142 -0.14346345 0.18597317 -0.10620538
0000e0 01 3c 41 3d a6 ee 3d 3e 38 df 78 bc 1e 75 e8 bd
       0.047176365 0.18548068 -0.015189938 -0.11350463
0000f0 2c a2 9a bb b2 62 07 be 81 c5 a2 bc 58 43 11 3e
       -0.0047190394 -0.13221243 -0.019869568 0.14185846
000100 3a e3 0e be 41 25 47 be 01 ca c4 3d 6d 38 5a 3e
       -0.13953868 -0.19447805 0.09608842 0.21310587
000110 ec 68 aa 3c ca a3 6e bd 2f 16 0e be df 8c 17 be
       0.020801984 -0.05826167 -0.1387565 -0.14799832
000120 18 9d 7b 3d 42 7c 09 be 6f 3b 30 be fa 43 5a 3d
       0.061429113 -0.13426307 -0.17210172 0.053287484
000130 42 6c 39 3e bf 5c 0a be 02 8c a2 bd e1 49 22 bd
       0.18107703 -0.13511942 -0.079368606 -0.039621238
000140 76 24 b0 3d bf f4 19 3e 77 3a 5b 3d 05 91 4c 3e
       0.08600704 0.1503477 0.053522553 0.19977196
000150 d2 6a 57 be 92 50 40 3e 25 39 96 3d 56 4a 0a be
       -0.21036842 0.18780735 0.07335118 -0.1350492
000160 ca d6 a3 bd 0a 01 a7 bd e8 27 ac bd e0 9a a1 3d
       -0.07999952 -0.08154495 -0.08406049 0.07890868
000170 f8 88 ee 3d 28 a0 de ba 03 64 0c 3d c3 44 e9 bc
       0.116472185 -0.0016984986 0.034275066 -0.028475171
000180 95 13 04 bd 15 de 79 bd 68 16 56 3e 77 17 93 be
       -0.032245237 -0.06100281 0.20906985 -0.2872884
000190 ed a8 d5 3d 53 56 14 3d 9b 1b 3d bd 11 99 f4 bd
       0.10432611 0.036215138 -0.046168905 -0.119432576
0001a0 44 ac 22 3e ff a4 13 be 3d f6 38 be ca ce 71 be
       0.15886027 -0.1441841 -0.18062682 -0.2361404
0001b0 6b 43 70 3e c7 a4 b0 3d c5 31 c9 be 0c 93 0e 3d
       0.23463218 0.08625179 -0.39295784 0.034808204
0001c0 02 ad c2 bd 99 68 8d bd 74 8c 87 bd 7a a1 12 be
       -0.09505655 -0.06904716 -0.06618586 -0.14319411
0001d0 59 0e 64 3e ef 53 0c 3e 40 bf 84 3e 96 f3 14 3d
       0.22271098 0.13703893 0.25927162 0.036365114
0001e0 75 9f ad 3d 40 9f 53 3e d5 41 a5 3d 1a a8 d8 3d
       0.0847768 0.20666218 0.08069197 0.10578938
0001f0 24 99 4d be a3 41 cf bd 24 12 e2 3c aa 46 1d bd
       -0.2007795 -0.10119941 0.02759654 -0.03839747
000200 2a 08 ac bd 70 85 93 3c e1 ab 1b be 75 1a 2c bd
       -0.08399995 0.018007964 -0.15202285 -0.04201742
000210 ef 59 77 bd d2 81 32 3e cf ce 0a 3e 54 97 22 be
       -0.0603885 0.17432335 0.13555454 -0.1587804
000220 9a 82 8c bd 58 09 9c 3c 21 7a 57 bd 96 a9 1b 3e
       -0.06860848 0.019047424 -0.052606706 0.1520141
000230 a6 d4 eb bd 65 f4 18 3e 62 bf f3 3d a3 af 34 be
       -0.11515169 0.14936979 0.11901738 -0.17645125
000240 45 1c 84 3c 6e 75 b4 3d 34 cd 56 be 24 46 e3 bc
       0.016126761 0.088114604 -0.20976716 -0.027743407
000250 06 46 44 be aa 0c e3 b9 2f dd 49 be db 66 f9 3d
       -0.19167337 -0.0004330625 -0.19713281 0.12177821
000260 14 95 9c 3d d4 78 e1 3c 0e 08 74 bc 4e 88 fd bd
       0.07645622 0.027523436 -0.0148944985 -0.12379514
000270 d0 a2 1e 3e b1 3d 5c be 2f b1 21 3e a3 09 b7 bd
       0.15491796 -0.21507908 0.15790246 -0.08937385
000280 bf bd ff 3d e3 82 4c 3d 0c 3e 27 3e 5b 8c a9 3d
       0.12487363 0.04992951 0.16332263 0.08278724
000290 d1 b5 a9 3d d9 8a d8 bd 6c c5 c3 3d f4 bd 55 be
       0.08286632 -0.10573358 0.095591396 -0.20873243
0002a0 15 cd 29 be cd 3f fc bd ce 4c a0 bd e3 94 bf bd
       -0.16582139 -0.123168565 -0.07827149 -0.0935457
0002b0 9a 95 a7 3d 8a 7a 0c bd 34 0c c3 bc ac 8e 1c bd
       0.08182831 -0.03429655 -0.02380953 -0.038222
0002c0 ad 20 c2 3d 04 e0 af bc ba f7 2c bd 50 89 d8 3d
       0.09478889 -0.021469124 -0.042228438 0.10573065
0002d0 90 ef be bd 68 59 f5 bd fb 08 7b bd 1e 4b b2 3d
       -0.09323037 -0.119799435 -0.06128786 0.08705734
0002e0 4c e4 ca bc a3 f7 14 bc 38 ca c1 bd 3d 45 2c be
       -0.024767064 -0.009092244 -0.09462398 -0.16823287
0002f0 34 93 23 3c d9 99 85 be 41 fa 01 be b8 b1 88 bd
       0.009983826 -0.2609394 -0.1269312 -0.06674522
000300 a0 b6 ea bd 09 e4 15 3e 54 72 b4 bc a2 3e fb 3d
       -0.11460614 0.1463777 -0.022027172 0.12267806
000310 3d d0 d6 3b 87 2e c2 3d 5b 55 1c be de 1a 15 be
       0.0065555857 0.09481531 -0.15266936 -0.1456103
000320 83 0e 55 be 73 35 d7 bc 9c a5 d9 3d a0 b1 07 3e
       -0.20806317 -0.026270604 0.106272906 0.13251352
000330 92 e7 9b 3d ba 21 2d 3e 89 17 3a bd 67 0c ac 39
       0.07612528 0.16907397 -0.0454326 0.00032815637
000340 de 4b c2 3c ab 06 ff 3d e7 9c 4c 3c 97 bf fc bd
       0.023717817 0.12452444 0.01248858 -0.1234123
000350 7e f4 0b bc c0 c7 f1 3d 66 6c 60 3c 84 df 0c 3e
       -0.008542178 0.118056774 0.013697719 0.1375714
000360 ac ce 66 bd 77 43 44 3e 9c 1f 72 3d 55 da 8a 3d
       -0.05634944 0.19166361 0.059112176 0.06779925
000370 74 e2 4f 3d 92 ff c9 3c 1f 32 7e 3e 61 75 1a 3e
       0.050753072 0.024657998 0.24823807 0.15083839
000380 27 20 1a be 42 0b c5 bd 57 f9 3b be 03 d9 ca 3d
       -0.15051328 -0.09621288 -0.18356834 0.09904673
000390 68 5c 69 bd 49 7b 27 be 6c c1 e8 3c f3 43 ec 3d
       -0.05697289 -0.16355623 0.028412543 0.11536398
0003a0 64 35 1e 3e ed 8d ea bd 09 d2 1a 3e 35 5e 1d 3e
       0.15450054 -0.114528514 0.15119185 0.15367968
0003b0 d8 53 bc 3d 66 68 0a bd b2 41 13 3e 7e fa 91 be
       0.091956794 -0.03379097 0.1438053 -0.28511423
0003c0 b6 0d 90 3d 8a ee 2f 3e 09 2f 93 3d 81 50 58 be
       0.07033865 0.17180839 0.071867056 -0.2112446
0003d0 c9 3b 0c bd 96 3a 2e be d7 66 49 bd 77 04 3d 3e
       -0.034236703 -0.17014536 -0.04917034 0.18458734
0003e0 4e 8b fb 3b 76 e4 3d be 2e 23 da bd 91 9d 4a be
       0.0076765185 -0.18544182 -0.10651241 -0.1978667
0003f0 7a fe e0 bb 12 a2 1e bc 61 f6 91 3d ba 14 cb 3d
       -0.0068662735 -0.009682195 0.07127071 0.09916063

lstm.bias_ih_l0 f4 [128]
000000 5c 97 e1 3b ba 50 da bd eb db 33 3e e7 22 f7 bd
       0.0068844985 -0.106599286 0.17564361 -0.12067204
000010 52 0c f1 bd 72 d7 8a 3d 73 f4 f1 3d f0 71 6e 3e
       -0.11769928 0.06779374 0.11814203 0.23285651
000020 b7 b3 8a 3d 99 c4 97 bc 75 e3 30 3e 3f 55 07 3e
       0.06772559 -0.018526362 0.17274268 0.13216113
000030 b7 95 08 bd dc 6c a7 bd 7b 04 ac 3c e1 9a 05 be
       -0.033345904 -0.0817506 0.02099823 -0.13047363
000040 80 20 37 3e b2 6b 8d bc 7a 81 1f be 5e 19 ab 3d
       0.17883492 -0.017263267 -0.15576735 0.08354448
000050 73 b1 e0 bd 3e e6 11 3e a4 92 d1 bd 7a d9 61 bd
       -0.10971346 0.14247987 -0.102330476 -0.055139042
000060 bc ef 79 bd fa 3e 2d bd e3 2d 45 3e 71 60 ad 3a
       -0.061019644 -0.042296387 0.19255786 0.0013227594
000070 53 0d 10 be 30 63 43 3e 5b 2c f7 3d 98 55 c9 bc
       -0.14067583 0.19080806 0.12069007 -0.024576947
000080 48 cb 53 3e 4a 07 f4 bd fd 9a 1a 3e 70 48 08 bd
       0.20683014 -0.11915453 0.15098186 -0.033272207
000090 94 46 e1 3c 8e fd 3f 3e df 65 28 3d c5 35 af bd
       0.027499475 0.18749067 0.041112777 -0.085551776
0000a0 e6 e6 63 bc 34 84 9f 3d a0 bc 85 bc b4 51 1e bd
       -0.013910031 0.077888876 -0.016325295 -0.038652137
0000b0 0d 49 21 3e 0f e7 4f bb f6 b1 23 3e 51 95 a1 3d
       0.15750523 -0.0031723415 0.15985855 0.07889808
0000c0 51 24 bc bd 38 1c b7 3d 56 40 ad bc 6c cc 89 3d
       -0.09186614 0.08940929 -0.021148842 0.067284435
0000d0 d5 49 00 be c2 1d bb 3d 7f 13 e1 bd 56 51 21 3e
       -0.12528165 0.09136535 -0.10990047 0.15753683
0000e0 f8 81 d0 3d c7 ca f2 3d 59 f5 e3 3d f9 77 4a 3c
       0.101810396 0.11855083 0.11130781 0.012357705
0000f0 6e 54 97 3d 91 06 eb bd 57 6c 10 be 1f f1 43 bd
       0.073891506 -0.11475862 -0.14103828 -0.047837373
000100 6e 8e 10 3e 34 4c 0c be 03 d9 10 3e 01 fb b1 bd
       0.14116833 -0.13700944 0.14145283 -0.08690453
000110 3c 9a ef bd b6 9f a2 3d 77 22 ac bd 03 30 b8 3d
       -0.1169934 0.07940619 -0.08405011 0.089935325
000120 17 a5 ed bd 0e af 22 bc 24 8a dc bd de 85 06 3e
       -0.11603754 -0.009929432 -0.10768536 0.13137004
000130 f6 fb 59 bc 21 39 be bd 26 3d 92 3d 58 7b 82 3d
       -0.013304701 -0.0928824 0.071405694 0.06371182
000140 0e d6 94 bd 72 1b 91 bd 1c 25 93 bd ac 19 05 3e
       -0.0726739 -0.07085313 -0.071848124 0.12998074
000150 45 f9 2d 3e 99 28 d4 3c d0 1b d0 bd 7f cd d3 3d
       0.1698962 0.025898265 -0.10161555 0.1034193
000160 38 29 15 be 62 d7 86 bd a4 e2 a1 3d 23 3e 15 3d
       -0.14566505 -0.0658405 0.079045564 0.03643621
000170 c0 c0 5b 3d 08 20 05 be 3c 83 24 be a2 bd 01 bd
       0.053650618 -0.130005 -0.16065687 -0.03167499
000180 24 7c f2 bd ca 4e d3 3c e5 2b 1a bd 6d 9d 47 3e
       -0.11840084 0.025794405 -0.037639517 0.19493647
000190 e8 ca 64 3d 1d 1d 4c bd 45 db e4 3d 00 3d 64 3e
       0.05585757 -0.049832452 0.11174635 0.22288895
0001a0 fc ca da bd bd e4 02 3e a6 85 39 3e 74 6c 98 bc
       -0.106832474 0.12782569 0.18117389 -0.018606402
0001b0 1f 19 8d 3c 86 03 d9 3d ca 79 3f 3e bc c0 93 bd
       0.017223893 0.10596375 0.18698803 -0.072144955
0001c0 ae 5d 90 bd 00 c4 3d 3e ad a5 a6 bd 25 83 91 bd
       -0.07049118 0.185318 -0.08137069 -0.07105092
0001d0 5f a6 b5 3d ef 00 9e bc ad f4 42 3e 14 fc 13 3e
       0.088696234 -0.019287555 0.19038649 0.14451629
0001e0 16 59 96 bb 35 a1 2f 3e 89 36 ef bd ab b2 a2 bd
       -0.0045882566 0.1715134 -0.11680324 -0.079442345
0001f0 83 c3 54 bd 00 75 a3 3d 6e 6a 86 3d 03 19 8d bd
       -0.051944267 0.079813 0.065632686 -0.06889536

lstm.bias_hh_l0 f4 [128]
000000 cb a9 df 3d 6b 4c f4 3c b0 dd 82 bd 76 c8 2f 3d
       0.10921057 0.029821595 -0.0638994 0.042915784
000010 dd ea b2 bd 41 84 0f be 4d 03 1a 3e 65 95 4d 3e
       -0.08736203 -0.14015295 0.15040322 0.2007652
000020 fc 1a 99 bd 1f 14 54 be 30 f0 10 3e b9 41 7a 3d
       -0.0747585 -0.207108 0.14154124 0.061097834
000030 85 da 5c bb d1 ff 80 bd 74 a9 0c 3e 5d 57 37 3e
       -0.0033699584 -0.06298793 0.13736516 0.1790442
000040 55 8a 57 3d 11 86 ae bd 17 80 a1 bd 29 2c 10 3d
       0.052622158 -0.08521665 -0.07885759 0.035198364
000050 4e c0 90 3d 1b 76 34 3c cf 37 e2 bd 08 2f 30 be
       0.07067929 0.011014487 -0.11045801 -0.17205441
000060 14 e1 f1 bd ba 27 1f be 65 bc 1c 3e da 6b 34 bd
       -0.11810508 -0.15542498 0.15306242 -0.044048168
000070 87 af d5 bc 4a ab 35 3e fc 27 3f 3d 17 6c 3b bb
       -0.026084675 0.17741123 0.04666899 -0.0028598362
000080 df 35 10 3d 35 1c 83 3c 21 db aa bc ee e9 d9 3d
       0.035207625 0.016004661 -0.020856442 0.10640322
000090 15 e4 a8 bd ec 0a a6 3d ef 46 4a 3d 48 ac 23 bd
       -0.08246628 0.08107552 0.049384054 -0.039959222
0000a0 55 48 4e 3e 14 ff e0 3d 0e 03 fb 3d 3e 37 02 be
       0.2014478 0.10986152 0.12256442 -0.12716386
0000b0 34 04 08 3e 83 81 5f 3e 15 38 da 3d 18 1a b1 bd
       0.13282853 0.21826749 0.10655228 -0.08647555
0000c0 db a9 d2 3d 03 bb 29 3e 61 f7 11 3e b3 37 43 3d
       0.102863036 0.16575246 0.14254524 0.04766054
0000d0 6b 71 b8 bd e8 4d 28 3e 56 d4 0c 3d 99 36 89 bd
       -0.09006008 0.16435969 0.034382187 -0.06699867
0000e0 cf 1c a6 3d a7 58 14 bc 81 45 01 be 2d f0 05 3e
       0.081109636 -0.0090543395 -0.1262417 0.13079901
0000f0 9a 33 a0 3d 00 01 0c be 23 33 d4 bd a2 83 ce bc
       0.07822342 -0.13672256 -0.10361316 -0.025209252
000100 06 db 13 3c 76 3f 1f 3e d3 53 21 3e 29 37 5a 3d
       0.009024387 0.15551552 0.15754633 0.05327526
000110 ba c1 a4 3d ce 1a 10 be ea 76 30 3e 63 d0 0d be
       0.08044763 -0.14072725 0.17232862 -0.13849024
000120 b8 3d 7c bd 8b 40 cb bd 39 e3 b6 3d af 5b 9b bd
       -0.061582297 -0.0992442 0.08930058 -0.07585847
000130 44 aa d7 3d 8d 06 50 be 48 30 27 be 77 31 db bd
       0.105305225 -0.20314999 -0.16327012 -0.10702794
000140 cf e0 9e 3d 12 61 5f bd dd 6d 1d 3c db ac b6 bd
       0.077577226 -0.054535933 0.009608713 -0.08919688
000150 a9 ad 41 3e 4d a4 33 bd 28 a6 3a bc 18 b1 dd 3d
       0.18913902 -0.04385786 -0.011392154 0.108247936
000160 d8 34 dc 3d a9 b9 00 be fe 5a de 3d 2f fd 1a be
       0.10752267 -0.12570824 0.10857199 -0.15135644
000170 43 8c d3 bd f6 13 90 3d ab d9 81 3d bb 25 bc 3d
       -0.10329487 0.07035057 0.06340345 0.09186884
000180 47 2d f6 bb c7 15 e4 3d c6 1e 39 3d e1 37 a5 bd
       -0.0075127217 0.11136966 0.045195363 -0.08067299
000190 23 3e dc 3d 27 b3 e1 3d b5 80 db 3d 6c c9 31 bc
       0.10754039 0.11020499 0.10717908 -0.010851245
0001a0 04 61 04 bd 5d 18 23 be 9c c9 f2 bc c9 c5 4a 3e
       -0.032319084 -0.15927263 -0.02963715 0.19802012
0001b0 c0 18 28 3e 62 db 87 3e fd 0e 11 3e 36 f3 95 3d
       0.16415691 0.26534563 0.14165874 0.073217794
0001c0 16 82 37 3c 33 f6 b6 bd e5 a9 4a 3e 87 a4 32 3e
       0.0112004485 -0.089336775 0.19791372 0.17445575
0001d0 ee d3 22 be 34 8f 98 bd 6e 9a 85 3d 8e 38 3d bd
       -0.15901157 -0.07449189 0.06523596 -0.046196513
0001e0 50 9a b1 3d e3 0c 54 3b 2f 25 d7 bd fc 3e 84 bd
       0.08672011 0.0032356314 -0.10505139 -0.06457326
0001f0 20 44 a8 bd 61 19 a0 3d c3 63 09 be a9 ea ae 3c
       -0.08216119 0.07817341 -0.13416962 0.021352129

fc_mu.weight f4 [4, 32]
000000 50 c5 c6 3e 6c ac 26 be 2d 16 3e ba 23 b0 c6 be
       0.38822412 -0.16276711 -0.0007251229 -0.38806257
000010 12 0c 56 3e 75 ef aa 3e 3f b1 c2 3c 0e d2 3f be
       0.20903042 0.33385816 0.023766158 -0.18732473
000020 df 12 ec 3d d9 2a 05 3f f5 ed cd 3d 3e 27 b2 3e
       0.11527037 0.52018505 0.10055152 0.34795564
000030 aa 4a 85 3e 50 e6 5a bd 8b f8 e4 3e dd e7 bf be
       0.26033527 -0.0534423 0.44720873 -0.37481585
000040 fe 2c 2b 3d 76 19 e1 3e 95 ab 06 bd 57 17 33 3d
       0.041790955 0.43964738 -0.032878477 0.04372343
000050 12 2d c9 bd ea ca d7 bd 99 6c b7 3e 58 06 ec bd
       -0.098230496 -0.1053675 0.3582504 -0.115246475
000060 7d b2 c7 3d 63 3d 8f be 69 3d ed be 8e 8a d2 bd
       0.09750841 -0.27976522 -0.46335915 -0.102803335
000070 17 f4 6d 3e b0 a1 de 3e 96 d1 50 bc ce 34 1f 3e
       0.23237644 0.43482733 -0.012745282 0.15547487
000080 ca e4 ec 3e 48 8b a7 bd 23 e8 d1 bd 30 3b f0 3e
       0.46268302 -0.08180863 -0.10249355 0.46920156
000090 48 98 37 3e 9b 4c c3 3d c7 44 85 3e 9f d4 88 3e
       0.17929184 0.09536096 0.26029035 0.26724717
0000a0 6c af e4 3d 54 91 49 3e d2 17 2a be 0e 4c a2 3d
       0.111662716 0.19684345 -0.16610649 0.079246625
0000b0 ab ac b8 3e 22 76 5c be 8f 05 1c 3e 7e b5 62 be
       0.36069235 -0.21529439 0.15236495 -0.22139546
0000c0 0b 8f dc 3b 50 f9 00 3e ef ed 4e bd 19 1d 91 bd
       0.0067309192 0.12595105 -0.05051988 -0.07085628
0000d0 aa 56 29 be 7d ca 96 be 07 6d 75 be 78 13 1e 3e
       -0.16536966 -0.2945136 -0.23967372 0.15437114
0000e0 2d a2 f4 3d f5 04 70 bc 7d bd ac bd 1a 9a 9f be
       0.11944995 -0.014649619 -0.084345795 -0.31172258
0000f0 9e f2 02 3e f8 3c 7b 3e 1e a8 a4 3e 9f 77 43 be
       0.12787864 0.24534976 0.32159513 -0.190886
000100 f5 d2 3d bd ac cd 8f be 24 ef 61 be 0f 69 26 3d
       -0.046343762 -0.28086603 -0.22063881 0.040627535
000110 12 ae 65 3c 88 2c 84 3e d0 de 1b 3e 64 06 48 3e
       0.014018552 0.25815225 0.15221715 0.19533688
000120 54 f8 af 3d 6e 7f e0 3d 63 58 b9 bd 33 fa 7f 3e
       0.08592287 0.10961805 -0.090500616 0.24997787
000130 66 73 10 bd 46 f1 0e be 55 60 06 3e 30 c6 5d 3d
       -0.035266303 -0.13959226 0.13122685 0.054144084
000140 6a f5 c8 be fe da 50 3d ef 9a a5 be 33 3a 68 be
       -0.39249736 0.050990097 -0.32344767 -0.22678451
000150 0e 12 4a 3c 87 b1 e0 bd 4f 2a 7a be 61 9d 6e 3e
       0.012333406 -0.10971361 -0.24430202 0.23302223
000160 8a 35 55 bd e9 fc 08 be 2e 2a b7 bd 0a f5 1f bd
       -0.052053012 -0.13377728 -0.08943592 -0.039052047
000170 ac 6a 89 3d 59 e3 c4 3c cf 48 9b 3e b0 ba 72 be
       0.06709799 0.024034189 0.30328986 -0.23704028
000180 46 9c ce bd f4 f0 94 3e b5 f5 0b 3e 2b 1a 92 be
       -0.100884005 0.29090083 0.13667949 -0.2853559
000190 c9 dc 52 3b d5 06 5b be 6a ec eb bd 5a 7a ae bd
       0.0032175055 -0.21389325 -0.11519702 -0.085194305
0001a0 13 17 3c be 52 01 32 3e ce bf 8f 3e 47 a3 97 be
       -0.18368177 0.17383316 0.28076023 -0.29616758
0001b0 40 25 61 3d a9 6f 75 3e 02 89 34 3d 86 5b 49 3e
       0.054967165 0.23968376 0.044075973 0.1966382
0001c0 a2 4e 91 3e e6 23 b5 3d 47 c4 2f 3d 89 56 d5 3c
       0.28380305 0.08844738 0.042911794 0.02604224
0001d0 5e a2 3e 3e 3e 3e 1e bc d7 de e3 3e c1 7c e9 bc
       0.18616626 -0.009658394 0.4450595 -0.02850187
0001e0 3f d0 60 be a9 05 bf 3d c9 8d c8 bd 61 11 71 3e
       -0.2195444 0.093272515 -0.09792668 0.23541786
0001f0 50 54 0b be a9 ea 75 be 79 bf 84 be 04 81 63 3e
       -0.13606381 -0.24015297 -0.25927332 0.22217184

fc_mu.bias f4 [4]
000000 7c 15 c0 bb bf a0 40 ba 94 fc 83 3d 3a ab 5e be
       -0.005861936 -0.0007348172 0.0644466 -0.21745005

fc_logvar.weight f4 [4, 32]
000000 cf cc 9a 3d 60 2c 6e 3c 5e 2d 3c 3e 7b d0 4c 3e
       0.075585954 0.014536947 0.18376681 0.20001404
000010 11 3f 40 be d5 94 20 3c 14 74 bc be ce 3e 80 be
       -0.18774058 0.009801109 -0.3680731 -0.25047916
000020 2a 12 32 be c7 7a 00 3e 78 2c 8b be 41 17 92 3d
       -0.17389742 0.12546836 -0.27182364 0.071333416
000030 6f 3d ac 3d 98 21 cd 3e 6d 77 be 3e d3 42 d2 3d
       0.08410155 0.40064692 0.3720049 0.10266652
000040 e4 63 e7 3d cf ae 5c be 4e e9 b3 be 6e b8 fc 3d
       0.112983495 -0.21551059 -0.35138935 0.12339865
000050 63 35 ad 3d b2 b0 aa 3e 4f dc 35 3d e4 40 ab be
       0.08457448 0.33337933 0.044399556 -0.33447945
000060 96 01 e8 be f5 7a fd 3c fe 37 6f 3e 84 e8 7e 3e
       -0.4531371 0.03094242 0.23361203 0.24893385
000070 ab 1b 98 be 57 19 af 3e b5 36 64 3e 3f db 70 3e
       -0.2970861 0.3419902 0.22286494 0.23521136
000080 1b 14 c5 bc 88 53 23 3e e6 4b d8 3e 2c 00 21 3e
       -0.024057439 0.15949833 0.42245406 0.15722722
000090 d7 b9 c1 be ce cd 94 3e 36 cc 5c be b1 7c 63 be
       -0.37837097 0.29063267 -0.21562275 -0.22215535
0000a0 6c 78 d1 be d3 53 96 3d d1 ab 62 be 65 98 91 bc
       -0.40912187 0.07340207 -0.22135855 -0.017772863
0000b0 69 80 d0 3e 5f 76 b3 3e 37 36 b9 3e 95 0c 96 3c
       0.4072297 0.35051247 0.36174175 0.018316546
0000c0 1d d9 d3 bc a9 fa a6 bb 94 5c b0 be fc 98 a5 3e
       -0.025860364 -0.005095799 -0.34445632 0.3234328
0000d0 f1 e0 11 3e ba de 6a 3e 23 bb 0d be b8 fa c2 bd
       0.14245965 0.22936526 -0.13840918 -0.09520477
0000e0 9a f8 03 bf d3 a9 2e 3d 7a db 7b 3e bd 47 bc 3e
       -0.5155121 0.042642426 0.24595442 0.36773482
0000f0 b3 d0 2d be 1f 68 bc 3e 6d d9 6f 3d 04 52 81 3e
       -0.16974144 0.36798188 0.058556963 0.25257885
000100 d2 7a 99 3c e4 ed 04 3e c6 95 dd 3e 8f 7b 2b 3d
       0.018735323 0.12981373 0.4327833 0.04186588
000110 57 17 ba be 41 f3 b2 3d c4 d3 20 bd 06 2e 4f 3d
       -0.36345932 0.08737803 -0.039264455 0.050581
000120 74 6f ac be dd ac 4b bd ad 74 19 bd a3 5a 10 3e
       -0.33678782 -0.049725402 -0.037464786 0.14097075
000130 fa df 6f 3e 2c 90 cb 3e 10 ea a0 3e b5 1b 5a 3e
       0.23425284 0.39758432 0.31428576 0.21299632
000140 3b 6b be 3d 89 ef 17 be 0f 18 c3 be 2e 12 db 3d
       0.09297796 -0.14837469 -0.38104293 0.10696827
000150 f0 c3 73 3d 15 8e 2a 3e cc cb fb 3c 6f bc 9c be
       0.059513032 0.16655762 0.030736826 -0.30612513
000160 bf 05 40 be 81 b6 2d 3d d1 00 03 3e 2c f5 69 3d
       -0.18752192 0.042410377 0.1279328 0.05711858
000170 84 61 22 3d 7e e2 af 3e 03 df 1c 3e 32 aa 54 3e
       0.03964378 0.34352487 0.15319447 0.2076805
000180 8e 9e 12 3c fa 49 be 3d 90 74 94 3e 8e ff 2c 3e
       0.008948935 0.09291454 0.2899518 0.16894361
000190 a1 6d ed be 00 09 d6 3e f3 8c 96 be 15 91 c1 bd
       -0.46372703 0.4180374 -0.2940441 -0.094515
0001a0 96 23 7f be 6f 5a 01 3e 3d dd 93 bc 00 df 63 3b
       -0.24915919 0.12632154 -0.01804983 0.003477037
0001b0 ab 79 83 3e 3d 95 fa 3e d8 13 97 3e ea 9b 31 3e
       0.25678763 0.48941985 0.29507327 0.17344633
0001c0 89 a1 54 3e 23 7e 75 be 19 49 79 be f0 0f d7 3e
       0.20764746 -0.23973899 -0.24344291 0.42004347
0001d0 e6 75 a0 3e 19 67 3b 3e 6e 0a 22 be a4 b6 b9 be
       0.3133995 0.18301047 -0.15824291 -0.36272156
0001e0 9a 7f 98 be d3 15 bd 3d ed da 09 bd 25 13 89 3e
       -0.29784852 0.09232678 -0.03365605 0.2677242
0001f0 71 7d 29 3d 01 a6 46 3e 91 bd f9 3d e9 4b da 3d
       0.041379396 0.19399263 0.1219436 0.1065901

fc_logvar.bias f4 [4]
000000 14 7c e8 be f4 dd 5b be 5c d7 12 be 23 c3 92 bd
       -0.45407164 -0.21471387 -0.14339966 -0.071661256

fc3_obs.weight f4 [32, 4]
000000 f5 b3 08 3e 88 a2 3b bf 28 13 34 bf 4a 16 dc bd
       0.13349898 -0.7329488 -0.7034173 -0.10746439
000010 e1 9a c0 3e f4 28 1a 3f 3f 86 43 be ab 9d 48 bf
       0.37618163 0.6021874 -0.1909418 -0.7836558
000020 86 6c 0a bf 51 73 bf 3e ee 5c 0f 3e 4b dc 49 bf
       -0.54071844 0.37392667 0.14000294 -0.78851765
000030 d3 a0 d6 be 59 86 54 3b 8b 59 f8 3d 98 c4 bb be
       -0.41919574 0.003242871 0.12126454 -0.36673427
000040 ca 91 3d 3e 5e 44 58 bf c9 2d 1f bf 7a 37 39 3f
       0.18512645 -0.8447932 -0.6217924 0.72350276
000050 dc 7c c8 3e b3 f9 f5 3d a4 d2 f4 3e f4 28 bc be
       0.3915776 0.12010517 0.47816956 -0.36749995
000060 24 4e 1a 3f 34 60 91 be b1 3a 22 3f 2e 81 c4 be
       0.60275483 -0.2839371 0.63370806 -0.38379806
000070 43 3f e8 be 5c 36 5f 3e 5e ee a3 be 1f a9 ca 3e
       -0.45360765 0.2179808 -0.32017797 0.39582154
000080 04 e5 13 be fd a7 eb be 6d 20 c9 be 89 a2 f0 bd
       -0.14442831 -0.46026602 -0.3928255 -0.11749751
000090 23 a8 e0 3e b9 6a 27 be f3 63 12 3f c5 ea cd be
       0.43878278 -0.16349305 0.5718376 -0.40218177
0000a0 91 e5 30 bd c4 63 f7 3e 3e c5 de 3e 78 aa 0b bf
       -0.04318768 0.48318303 0.4350986 -0.5455699
0000b0 a4 11 20 3f 53 e9 9c bd b5 d0 4e 3f c5 e3 28 bd
       0.6252692 -0.076616906 0.8078721 -0.041232843
0000c0 dd 60 1e bf 98 de 48 bf 3a 8a 3d bf 7c ca 14 3f
       -0.6186655 -0.7846465 -0.7403904 0.58121467
0000d0 e0 5e ca 3c c2 50 94 3d 11 2b 29 3e 13 9f 44 bf
       0.024703443 0.07241966 0.16520335 -0.7680523
0000e0 0b 60 8a be ca a9 0e 3f 4a 3f 92 3e af 98 e8 bd
       -0.270264 0.5572783 0.2856391 -0.11357247
0000f0 51 a7 06 3f e6 cb e3 3e 35 40 c7 3e 45 cb 27 be
       0.52599055 0.444915 0.38916174 -0.16386135
000100 4b 41 20 3f e3 ed ee 3d 00 38 2e 3f 75 d2 34 3e
       0.6259963 0.11666467 0.680542 0.17658408
000110 33 fd 2c 3d b1 33 1e bf b8 8b a3 be 61 c9 22 3f
       0.042233657 -0.61797625 -0.31942534 0.6358853
000120 07 4f 23 3f 74 4f d9 3d 81 56 c1 3e d7 43 b1 be
       0.6379246 0.106108576 0.3776131 -0.3462207
000130 9c 4c 6b 3e dd 38 38 be 74 a2 6d 3e b1 e9 7b 3e
       0.22978443 -0.17990442 0.23206502 0.24600865
000140 30 5f d5 be 9f 2c e0 3e cb f1 2b 3f 39 14 02 bf
       -0.41674185 0.43784043 0.6716582 -0.5081211
000150 5a e1 8e bd fa f8 1d bf 07 46 a1 3d 11 0d f7 3e
       -0.06976576 -0.61708033 0.07874685 0.48252156
000160 50 1a b9 3e 46 99 c0 3e 22 60 63 3e 53 d6 ec be
       0.36152887 0.37616938 0.2220464 -0.46257266
000170 e9 8d da 3d ea c4 12 be 4a f5 86 3e 78 ff 26 bf
       0.106715985 -0.14332929 0.26359016 -0.65233564
000180 b6 8c d1 be 26 5e f3 3e 4e ed 1f 3f 98 fa c7 be
       -0.40927666 0.47532767 0.62471473 -0.39058375
000190 c1 c0 25 be 61 59 2a 3f 51 3e a1 3e 39 15 a9 be
       -0.16186811 0.6654263 0.31492856 -0.33024004
0001a0 84 8a f0 3e 23 6e db 3e 4c c3 24 3f e2 68 91 3d
       0.4698068 0.42857465 0.643605 0.07100083
0001b0 56 57 64 bd 5f f5 08 3e ce 8f 4e ba 6c 2b 27 bf
       -0.055747353 0.13374852 -0.0007879705 -0.6530063
0001c0 db e1 1f 3f 8d dc 3f be 10 8c 11 3f b0 48 23 bf
       0.62454003 -0.18736477 0.56854343 -0.6378279
0001d0 8b c8 e1 3e 49 cc 83 3e f1 b3 11 3f f6 6d 72 be
       0.44098315 0.25741795 0.56915194 -0.2367476
0001e0 ea df 02 3f 1f ea e4 3d 9e ba a1 3d 6c 67 4e be
       0.51122916 0.111774676 0.078969225 -0.2015664
0001f0 af 8f 07 3f c3 51 fa 3d 77 e2 5f 3e 5c 54 32 be
       0.5295362 0.12222626 0.21863733 -0.17414993

fc3_obs.bias f4 [32]
000000 48 03 5e 3d 01 ac c5 3e e4 e4 41 bd e0 af 1d 3f
       0.054202348 0.3860779 -0.047337428 0.6159649
000010 4f 51 9c bb b8 4b f0 3e 36 13 54 3e 88 27 c6 3d
       -0.004770435 0.4693277 0.20710453 0.09675509
000020 76 00 44 be dc 29 1d 3f 0a a1 d3 3e 4b a4 81 3b
       -0.19140801 0.61392 0.413338 0.003956353
000030 7f 99 9e 3e 9c 22 c5 3e 8f 9f dc 3e cb 00 11 3f
       0.30976483 0.38502967 0.43090484 0.56641835
000040 f8 31 1e 3f df 85 e7 3e 26 33 da 3e a8 05 1c bf
       0.61794996 0.45219323 0.42617148 -0.6094613
000050 11 b7 86 3c 5c 47 46 bd 91 68 37 be 26 2c 14 3f
       0.016444715 -0.048407897 -0.17910983 0.57879865
000060 26 5f 5e 3e 1e a2 7f 3b 6a c0 9d be 14 18 a6 3e
       0.21715984 0.0039006541 -0.30810863 0.32440245
000070 28 7b 06 3e 58 40 23 3f 2e b6 e6 3e fa 6d 21 3f
       0.13132918 0.63770056 0.45060867 0.63058436
