checkpoints/SingularTrajectory-TEMP/zara2/m_vae_model_best.pth (torch, 98009 bytes, 29 tensors)

V_obs_trunc f4 [16, 8]
-0.04175765 -6.316042e-08 -0.1222491 -6.894169e-08 0.22195552 -8.9577284e-08 -0.30258325 -5.1853766e-07
-0.062179696 0.006059833 -0.17290488 -0.02719695 0.27280125 0.056171875 -0.30253702 -0.08243261
-0.05406762 0.02121256 -0.13779062 -0.091505244 0.17191814 0.17892262 -0.10987273 -0.23820351
-0.035367206 0.052285235 -0.085935436 -0.19593845 0.09477339 0.3030473 -0.040070977 -0.25210458
-0.100790955 0.04231097 -0.224704 -0.13373882 0.18512852 0.14466359 0.038200554 -0.021756668
-0.14667627 0.03337267 -0.27052477 -0.09981499 0.08388045 0.09563181 0.24028586 0.0032104943
-0.08142786 0.10345373 -0.1164636 -0.2622177 -0.03055644 0.14476894 0.13119675 0.1697915
-0.07495706 0.14322205 -0.10099848 -0.27335274 -0.03778264 -0.006838155 0.11173973 0.26761284
-0.19460942 0.07636617 -0.18450631 -0.103985086 -0.19865526 -0.06152737 0.13867877 0.080924675
-0.20933779 0.08833147 -0.101671495 -0.11166253 -0.2458249 -0.07990555 -0.07028861 0.07897161
-0.09627664 0.2225278 -0.011849028 -0.16398424 -0.09431185 -0.25634724 -0.08078163 -0.038111098
-0.13639535 0.22077136 -0.0042877104 -0.049407337 -0.12584457 -0.21386032 -0.12952766 -0.19462141
-0.28865832 0.10208994 0.10604186 0.01016697 -0.11886809 -0.061540592 -0.2501745 -0.08795557
-0.23927927 0.17861597 0.17489593 0.040751275 0.05997771 -0.081458904 -0.043304123 -0.15183057
-0.11184068 0.34099653 0.102267556 0.20621128 0.07228651 0.06720279 0.04324757 -0.06911777
2.6748403e-10 0.5010011 -1.7530938e-07 0.4581565 2.2898917e-07 0.42100754 -9.759904e-08 0.35720462
00000000: 120a 2bbd cfa2 87b3 bc5d fabd 180d 94b3
00000010: 4f48 633e a25d c0b3 31ec 9abe a331 0bb5
00000020: 23b0 7ebd 9091 c63b fa0d 31be 23cc debc
00000030: 9bac 8b3e 7b14 663d 22e6 9abe 6ed2 a8bd
00000040: 0276 5dbd f6c5 ad3c fc18 0dbe 1a67 bbbd
00000050: 4f0b 303e 7e37 373e f404 e1bd 9feb 73be
00000060: 34dd 10bd 0b29 563d ebfe afbd 17a4 48be
00000070: 8d18 c23d 0429 9b3e 7721 24bd da13 81be
00000080: 7d6b cebd 454e 2d3d ce18 66be d4f2 08be
00000090: 5592 3d3e b122 143e 2f78 1c3d 0a3b b2bc
000000a0: 4e32 16be c8b1 083d 3982 8abe cd6b ccbd
000000b0: 83c9 ab3d 9cda c33d 7f0d 763e 2867 523b
000000c0: a6c3 a6bd 8ddf d33d 7884 eebd 6641 86be
000000d0: 8051 fabc 4f3e 143e 7158 063e d3dd 2d3e
000000e0: 1683 99bd cda8 123e 4bd8 cebd e4f4 8bbe
000000f0: f8c1 1abd 9a12 e0bb cdd7 e43d 8d04 893e
00000100: b147 47be de65 9c3d 39ef 3cbe 22f6 d4bd
00000110: 496c 4bbe 2004 7cbd cf01 0e3e d6bb a53d
00000120: a55c 56be 21e7 b43d 2539 d0bd 53af e4bd
00000130: 86b9 7bbe 85a5 a3bd 7af3 8fbd debb a13d
00000140: b02c c5bd 54de 633e 6d22 42bc 7ceb 27be
00000150: 9226 c1bd f23f 83be d770 a5bd 621a 1cbd
00000160: 39ab 0bbe e311 623e ec7f 8cbb 595f 4abd
00000170: 66dd 00be 33fe 5abe e6a2 04be d64a 47be
00000180: 06cb 93be 8814 d13d 7a2c d93d 5d93 263c
00000190: 1d71 f3bd fd11 7cbd df16 80be 0d22 b4bd
000001a0: a005 75be 1be7 363e eb17 333e cfea 263d
000001b0: 30ab 753d edd3 a6bd aa5f 31bd 7979 1bbe
000001c0: ba0c e5bd 1997 ae3e a771 d13d 0d29 533e
000001d0: f30a 943d 9ea1 893d 5d24 313d 9e8d 8dbd
000001e0: 080d 932f 9c41 003f ad3c 3cb4 7d93 ea3e
000001f0: 10e0 7534 4d8e d73e a497 d1b3 86e3 b63e

conv_layers.0.weight f4 [64, 1, 3]
0.36710322 0.46473452 -0.18975312 0.59393364 0.29948702 0.35956138 0.18017898 0.04478531
-0.05059873 0.4818381 0.5238434 -0.1781221 -0.40212578 0.5408667 0.54430234 0.5366704
0.35533664 0.14544483 0.35348254 0.29716945 0.4820482 -0.023530642 -0.07942916 0.59442246
-0.43739635 -0.40312263 -0.5730067 0.017185558 0.15385073 0.081651494 -0.05564383 -0.08869648
-0.29747215 0.4342227 0.4383424 -0.11956848 -0.031968337 0.2707644 -0.17155007 0.081132665
0.52469516 -0.14008206 -0.1396881 -0.15712754 -0.25820056 -0.56591403 0.5029077 0.0049769026
0.032678157 -0.35459608 0.00015548202 -0.25348788 0.5241123 -0.43070337 -0.29927436 0.30908042
-0.023605585 0.2307948 -0.5449242 0.33375078 0.24430773 0.39023262 0.5404262 0.28515238
0.39091513 -0.33740163 -0.171969 -0.59097487 0.3198109 0.3757988 0.5561157 -0.41042
-0.4672735 0.53582644 -0.4390993 0.3270119 0.31070417 -0.52344465 0.12602155 0.03251306
-0.039062466 0.39872053 -0.039115652 -0.23478651 0.2749551 -0.34125906 -0.36621925 -0.15738219
0.017330043 -0.3806463 -0.027223717 0.23031996 -0.5317273 0.4131981 -0.50073135 0.02551576
0.20220576 0.1566201 -0.5056667 0.020709628 -0.29305628 -0.13349263 -0.04259366 0.016763488
0.26063704 -0.25822228 0.3370684 -0.3376301 -0.032851417 0.35514826 -0.13576517 0.16156538
-0.4577341 -0.08027139 -0.37725875 0.4544755 0.28264004 -0.27458802 -0.053893343 -0.55578923
-0.15485276 0.26552254 -0.121381246 -0.55832577 0.3228302 0.4316083 0.5328863 -0.31963176
-0.48524788 0.27734813 -0.4410478 0.20241627 -0.4144675 -0.5790252 0.5296426 -0.6061416
-0.55038697 0.16563337 0.5925149 -0.23208795 -0.30929378 0.4323655 -0.04608141 -0.2149358
-0.087315984 0.36852702 0.31123027 0.23156902 0.26612777 0.42697832 0.30397558 0.4611321
0.25445843 -0.09216481 -0.514939 -0.3102692 0.1352073 -0.49914226 0.13230918 -0.63182944
-0.5075986 -0.5124671 0.5005142 0.48107547 -0.4902909 -0.3359776 -0.061088428 0.08724489
0.2840669 -0.33482885 0.57271653 -0.5041116 -0.24862768 0.27426192 -0.3582602 0.24478903
-0.1327369 0.28772134 -0.104350634 0.1610639 0.2922328 -0.3663114 -0.17768312 0.4102614
0.54550755 0.13305245 -0.1759523 0.35303348 -0.39102674 -0.39431235 -0.5830219 0.116956055
00000000: f4f4 bb3e aff1 ed3e a44e 42be 090c 183f
00000010: 5d56 993e 6e18 b83e d780 383e cd70 373d
00000020: 9d40 4fbd 7cb3 f63e 9a1a 063f a465 36be
00000030: 6ee3 cdbe 3d76 0a3f 6657 0b3f 3b63 093f
00000040: afee b53e 7def 143e aafb b43e 9826 983e
00000050: 06cf f63e 55c3 c0bc c1ab a2bd 122c 183f
00000060: 6af2 dfbe 1766 cebe 91b0 12bf bac8 8c3c
00000070: 0c8b 1d3e e638 a73d c9ea 63bd 80a6 b5bd
00000080: 454e 98be 7052 de3e 6a6e e03e 52e0 f4bd
00000090: 3bf1 02bd a2a1 8a3e d2aa 2fbe e228 a63d
000000a0: 6c52 063f ac71 0fbe 660a 0fbe 0be6 20be
000000b0: dd32 84be bedf 10bf 8fbe 003f 4915 a33b
000000c0: 88d9 053d 9e8d b5be e308 2339 2ac9 81be
000000d0: 392c 063f 2785 dcbe 7d3a 99be ca3f 9e3e
000000e0: 8060 c1bc 7955 6c3e 2780 0bbf 62e1 aa3e
000000f0: ce2b 7a3e 92cc c73e 5f59 0a3f 7eff 913e
00000100: 0726 c83e e8bf acbe a418 30be 214a 17bf
00000110: 41be a33e b368 c03e 995d 0e3f 9222 d2be
00000120: 793e efbe ec2b 093f a0d1 e0be 1b6e a73e
00000130: 9e14 9f3e 7800 06bf cb0b 013e 6a2c 053d
00000140: f7ff 1fbd 1925 cc3e bc37 20bd e06b 70be
00000150: eac6 8c3e 82b9 aebe 1781 bbbe cc28 21be
00000160: bcf7 8d3c 12e4 c2be 4604 dfbc ffd8 6b3e
00000170: 481f 08bf b48e d33e ee2f 00bf 6d06 d13c
00000180: 070f 4f3e 0561 203e 5f73 01bf 3da7 a93c
00000190: 790b 96be 4bb2 08be b176 2ebd 9553 893c
000001a0: 3872 853e b635 84be 3b94 ac3e dadd acbe
000001b0: 358f 06bd fed5 b53e 0606 0bbe 6571 253e
000001c0: 205c eabe 5465 a4bd 0f28 c1be 03b1 e83e
000001d0: 32b6 903e cd96 8cbe 44bf 5cbd 3448 0ebf
000001e0: b991 1ebe 92f2 873e bb96 f8bd 70ee 0ebf
000001f0: 004a a53e c3fb dc3e 3d6b 083f c6a6 a3be
00000200: 6972 f8be 9300 8e3e 04d1 e1be 3646 4f3e
00000210: 1635 d4be ff3a 14bf a896 073f 192c 1bbf
00000220: 29e6 0cbf cb9b 293e 0eaf 173f 77a8 6dbe
00000230: c15b 9ebe 035f dd3e dcbf 3cbd 2118 5cbe
00000240: b9d2 b2bd 93af bc3e 9359 9f3e 6e20 6d3e
00000250: e641 883e e79c da3e b0a2 9b3e 8219 ec3e
00000260: 6048 823e e7c0 bcbd 0bd3 03bf 9bdb 9ebe
00000270: c873 0a3e 938f ffbe 0f7c 073e 93bf 21bf
00000280: fbf1 01bf 0b31 03bf b321 003f 864f f63e
00000290: 6907 fbbe 4205 acbe dc37 7abd 73ad b23d
000002a0: 3771 913e b06e abbe 8d9d 123f 750d 01bf
000002b0: 4198 7ebe 0f6c 8c3e e26d b7be faa9 7a3e
000002c0: 2fec 07be 3650 933e c9b5 d5bd efed 243e
000002d0: 8a9f 953e 2b8d bbbe 90f2 35be c80d d23e
000002e0: 62a6 0b3f e73e 083e d72c 34be cec0 b43e
000002f0: a834 c8be 4fe3 c9be ec40 15bf a886 ef3d

conv_layers.0.bias f4 [64]
-0.20514213 -0.15921308 0.20694816 -0.398314 -0.13540718 -0.49181947 -0.31785068 0.30882144
-0.22156836 -0.109613806 -0.46115178 -0.45869488 0.458674 0.12700921 0.62103474 -0.575363
-0.274834 0.16556749 0.23208274 0.53626525 0.37339473 0.1611448 0.03522563 -0.2943605
0.099665366 0.022891976 -0.43549678 -0.32086474 0.0328647 -0.35002634 0.368735 -0.48871037
-0.46324298 -0.14923283 -0.54458064 -0.07860048 -0.25898248 0.3986566 -0.44093302 0.050111562
0.5657657 -0.29567844 0.22878847 -0.48243758 0.4291906 0.08019233 0.257037 -0.29167604
0.25044617 -0.5398298 0.25208038 -0.12892795 -0.1817605 -0.12196914 0.56866777 0.05564948
0.3771353 0.50001943 -0.072359174 -0.15926051 0.5303441 0.3962868 0.3911938 0.27574345
00000000: c710 52be c108 23be 38ea 533e d0ef cbbe
00000010: 2ea8 0abe c3cf fbbe 53bd a2be d81d 9e3e
00000020: d1e2 62be 347d e0bd 161c ecbe 0eda eabe
00000030: 52d7 ea3e b40e 023e 22fc 1e3f fd4a 13bf
00000040: 0bb7 8cbe 868a 293e 19a7 6d3e ae48 093f
00000050: 982d bf3e 2403 253e c048 103d 6bb6 96be
00000060: 5b1d cc3d f487 bb3c 6ff9 debe 6248 a4be
00000070: 239d 063d a736 b3be d5ca bc3e 3f38 fabe
00000080: 2f2e edbe 7ed0 18be a369 0bbf 4af9 a0bd
00000090: 5a99 84be b81c cc3e f9c1 e1be c841 4d3d
000000a0: 05d6 103f 2a63 97be 8647 6a3e 0f02 f7be
000000b0: dfbe db3e e03b a43d 5b9a 833e 9056 95be
000000c0: 7b3a 803e 4932 0abf ae10 813e b005 04be
000000d0: 6d1f 3abe f5ca f9bd 3694 113f b6f0 633d
000000e0: e117 c13e 4601 003f 0c31 94bd 3015 23be
000000f0: a2c4 073f 1ae6 ca3e 8e4a c83e 3f2e 8d3e

conv_layers.2.weight f4 [32, 64, 3]
0.04804836 -0.025756681 0.0662221 -0.0071562976 0.029390845 0.007450636 0.038990647 -0.042171378
0.0694762 -0.055895798 0.053272635 0.042170066 -0.07308931 0.024205426 0.025514271 -0.02333248
0.060381766 0.0016320099 -0.051920928 -0.035044372 0.037781794 0.017743248 0.08852415 0.027240634
-0.035163056 -0.02994043 0.0028169665 0.025288697 0.07473878 0.07880111 -0.1264034 0.0054925177
0.04103759 -0.048421487 0.01666842 0.021849893 0.08354445 -0.02615758 0.03414031 -0.049073346
0.020950427 0.03280177 0.09591069 0.09856828 0.089717664 0.005241163 0.021686781 0.07104644
-0.026460612 -0.030203717 -0.062330592 -0.05525929 -0.032959286 0.058623955 -0.013055921 0.04795648
0.08724638 0.06269286 0.038571883 0.080166735 -0.022998082 0.05095905 0.052225478 -0.04175829
0.0034664986 0.06519373 0.06959968 -0.050457235 0.06501223 0.0037628529 -0.07239692 0.066307686
0.069339365 -0.05695692 0.072850525 0.048350815 -0.042823076 -0.017257553 -0.059262425 -0.060338512
0.038809642 -0.026440205 -0.08964471 0.020987693 -0.03879412 -0.03138776 0.16284144 0.0020683517
-0.049793057 0.050427303 -0.049140844 -0.07638473 0.08167118 0.024130613 0.03176516 -0.016349304
-0.048660662 -0.09630608 0.044090588 -0.07157798 -0.036976874 -0.011176569 -0.011263238 0.0864133
0.09777665 0.028173333 0.06407308 -0.027833687 -0.028023524 0.0017107404 0.108133994 0.010908003
-0.00058925943 0.08040323 -0.017616656 0.054033756 -0.035135444 0.055277765 -0.008281146 0.07271478
-0.02020389 0.041462343 0.097125486 0.053113814 0.10076534 0.04835131 -0.07077964 0.02845581
0.13123402 0.0127820205 0.037286494 0.06797366 0.018091716 -0.008667185 0.04157848 0.052573428
-0.035642505 0.025235983 -0.03777357 0.059900198 -0.006093434 -0.012208291 0.026644625 0.08307722
0.054493144 0.030367417 -0.0010026566 -0.0051380754 -0.051096532 0.010676415 -0.042913266 0.03888435
0.1100816 0.032218 -0.03433404 -0.0042720754 -0.050563253 0.042815745 -0.054223824 0.03840168
-0.0062011476 0.056083813 -0.03939645 0.025132734 0.012542057 0.012703703 0.08188772 0.03991338
0.049639486 0.07636538 0.006443628 0.015892807 -0.06018952 0.022064311 -0.00033980235 0.0009447429
0.056705505 -0.02444376 -0.039616227 0.075325996 -0.031698488 0.06732662 0.069036335 0.012307111
0.001967644 -0.0031013135 -0.03571298 -0.02017806 -0.022957934 0.07681969 0.06394817 0.026290523
-0.032623317 -0.02252605 0.05397803 0.022399697 0.032066204 0.024051161 0.07750104 0.033162933
0.06583811 0.04941142 -0.030259004 -0.035354514 -0.04146334 0.030702205 0.045684215 -0.036475122
0.08391213 0.05021001 0.0389647 0.017104404 0.0019279773 0.041119047 -0.048563916 0.035195705
0.060605116 0.06384195 0.031601194 -0.030387804 -0.03835927 -0.03205879 0.103490815 0.017657964
0.04118907 0.020955244 -0.0360928 -0.06046847 -0.032971602 0.03671589 0.068120226 0.08164106
0.08344929 -0.050486073 0.10939397 0.022251459 -0.036126856 -0.0015007204 -0.044964314 0.048909694
0.04400238 0.026280195 0.056812797 0.03314592 -0.010247625 -0.0009163622 0.07138203 0.065769166
0.04283303 0.08019286 0.07649479 0.039785843 0.022498215 0.06375523 -0.045210067 0.04182902
00000000: 5bce 443d adff d2bc 749f 873d 607f eabb
00000010: 12c5 f03c 7724 f43b a8b4 1f3d e5bb 2cbd
00000020: 8a49 8e3d fef2 64bd 6834 5a3d 85ba 2c3d
00000030: d9af 95bd 754a c63c 4e03 d13c c223 bfbc
00000040: df52 773d 2ae9 d53a 0aab 54bd b08a 0fbd
00000050: 15c1 1a3d 4a5a 913c 264c b53d c027 df3c
00000060: 2307 10bd a245 f5bc db9c 383b 3e2a cf3c
00000070: a510 993d 7a62 a13d e56f 01be 94fa b33b
00000080: 0817 283d 9c55 46bd 368c 883c 8cfe b23c
00000090: 5a19 ab3d 6c48 d6bc b6d6 0b3d 2201 49bd
000000a0: 3ba0 ab3c 265b 063d d36c c43d 2bde c93d
000000b0: e5bd b73d 10be ab3b 7aa8 b13c cc80 913d
000000c0: edc3 d8bc c96d f7bc 5d4e 7fbd 9157 62bd
000000d0: 5100 07bd ac1f 703d 80e8 55bc 046e 443d
000000e0: 3bae b23d 1d65 803d 8dfd 1d3d 752e a43d
000000f0: 7966 bcbc 70ba 503d 62ea 553d be0a 2bbd
00000100: 322e 633b 4a84 853d 478a 8e3d 3fac 4ebd
00000110: 2225 853d 329a 763b d644 94bd 53cc 873d
00000120: cc01 8e3d a94b 69bd a832 953d 810b 463d
00000130: 4067 2fbd b65f 8dbc 28bd 72bd 8425 77bd
00000140: dcf6 1e3d 2199 d8bc a597 b7bd 62ee ab3c
00000150: 95e6 1ebd 7490 00bd e8bf 263e 2f8d 073b
00000160: cef3 4bbd dc8c 4e3d e947 49bd 996f 9cbd
00000170: 3843 a73d 90ad c53c 2f1c 023d faee 85bc
00000180: 6750 47bd 1f3c c5bd 5598 343d 7a97 92bd
00000190: 1075 17bd ee1d 37bc 7289 38bc 75f9 b03d
000001a0: 203f c83d c3cb e63c bf38 833d 7903 e4bc
000001b0: 9791 e5bc ec3a e03a 5b75 dd3d 7bb7 323c
000001c0: 8878 1aba 73aa a43d ce50 90bc 8052 5d3d
000001d0: 2fea 0fbd f06a 623d a5ad 07bc 7deb 943d
000001e0: a182 a5bc 6bd4 293d bae9 c63d df8d 593d
000001f0: 0f5e ce3d 060c 463d eaf4 90bd 291c e93c
00000200: 3662 063e ae6b 513c b9b9 183d c635 8b3d
00000210: 1435 943c cf00 0ebc 324e 2a3d 3c57 573d
00000220: e0fd 11bd b1bb ce3c 75b8 1abd e959 753d
00000230: 6eab c7bb 4905 48bc d445 da3c 6424 aa3d
00000240: 3434 5f3d 17c5 f83c 936b 83ba 4d5d a8bb
00000250: 994a 51bd 21ec 2e3c d2c5 2fbd 3245 1f3d
00000260: 7672 e13d 06f7 033d daa1 0cbd c4fc 8bbb
00000270: 6a1b 4fbd 905f 2f3d cd19 5ebd 144b 1d3d
00000280: ff32 cbbb 24b8 653d 2c5e 21bd 2ae3 cd3c
00000290: 337d 4d3c 3123 503c c0b4 a73d 367c 233d
000002a0: c652 4b3d 7465 9c3d 1225 d33b a231 823c
000002b0: 4989 76bd 37c0 b43c 8027 b2b9 9fa8 773a
000002c0: 0844 683d 483e c8bc a044 22bd 8444 9a3d
000002d0: 46d6 01bd 8ae2 893d ec62 8d3d c4a3 493c
000002e0: 97f3 003b 683f 4bbb c647 12bd 754c a5bc
000002f0: 4712 bcbc a453 9d3d 42f7 823d 395f d73c
00000300: 07a0 05bd 8d88 b8bc 1118 5d3d 927f b73c
00000310: da57 033d f106 c53c deb8 9e3d dbd5 073d
00000320: 22d6 863d a163 4a3d bbe1 f7bc e5cf 10bd
00000330: 77d5 29bd 3183 fb3c 5f1f 3b3d f066 15bd
00000340: 1fda ab3d 03a9 4d3d 7399 1f3d 891e 8c3c
00000350: 2fb4 fc3a 726c 283d f5ea 46bd 5f29 103d
00000360: 123d 783d 91bf 823d 4170 013d d8ef f8bc
00000370: 9c1e 1dbd 1450 03bd fef2 d33d 6fa7 903c
00000380: dfb5 283d 55aa ab3c 0bd6 13bd c9ad 77bd
00000390: 3b0d 07bd 6763 163d 9e82 8b3d 6e33 a73d
000003a0: 76e7 aa3d 7cca 4ebd f209 e03d b148 b63c
000003b0: c1f9 13bd d2b3 c4ba 802c 38bd 8855 483d
000003c0: d73b 343d 9049 d73c 89b4 683d 04c4 073d
000003d0: a8e5 27bc 0738 70ba be30 923d fcb1 863d
000003e0: b071 2f3d 273c a43d 4da9 9c3d 7bf6 223d
000003f0: 2d4e b83c 1a92 823d 312e 39bd e854 2b3d

conv_layers.2.bias f4 [32]
0.074748725 -0.052983712 0.004256004 0.01192594 0.07284849 0.10453269 -0.021438668 0.07720468
0.07127377 -0.05621114 0.06505542 -0.015559059 0.06768929 0.1433909 0.06708572 1.2704893e-05
-0.057014804 -0.046607442 -0.0737307 0.09035024 0.02054861 -0.01450002 0.04052262 0.052982662
0.071929045 0.0017910647 0.068190426 -0.025768653 0.04452441 0.080169395 0.06367501 0.034781456
00000000: dc15 993d 7305 59bd f375 8b3b 0565 433c
00000010: 9731 953d 3c15 d63d 25a0 afbc 7d1d 9e3d
00000020: fbf7 913d a73d 66bd c73b 853d 6ceb 7ebc
00000030: afa0 8a3d 10d5 123e 3d64 893d 1a27 5537
00000040: 5b88 69bd 72e7 3ebd 1f00 97bd 8c09 b93d
00000050: 8f55 a83c 7e91 6dbc 0cfb 253d 5904 593d
00000060: 894f 933d 29c2 ea3a 6ca7 8b3d c818 d3bc
00000070: 3a5f 363d da2f a43d 0b68 823d 0077 0e3d

lstm.weight_ih_l0 f4 [128, 32]
0.14680648 0.11789308 -0.020117788 -0.08596862 0.19178787 0.039473716 -0.009957507 0.1892669
0.049355425 0.0361554 0.08535433 -0.032189205 0.09870164 -0.08789724 0.11693495 0.039759673
-0.057243783 -0.08632665 0.017002074 0.02399878 0.19196443 -0.0932248 0.12469827 -0.020174285
0.031765226 0.15728801 0.13059555 0.13402832 -0.04986627 0.17425254 0.08068264 0.17747647
-0.089275554 -0.010317931 0.022046857 0.19188842 -0.085824415 -0.042175196 0.10794763 -0.04280336
0.078161314 0.1727545 0.009991879 0.16699743 -0.005541521 -0.041124497 -0.13727331 -0.07181343
-0.17778718 -0.16926299 0.018215062 0.09772049 0.1719506 0.16926222 0.0802794 -0.064704515
0.033969227 0.12758256 -0.07333857 0.08367964 0.1407796 -0.018667452 0.18693654 -0.08436696
-0.029090695 -0.08653673 -0.09588973 -0.14413844 0.09451905 0.047891736 -0.010885686 0.11152783
0.091631025 0.1672062 0.109454334 -0.020641295 0.18234459 -0.11757009 -0.020887759 0.11324755
0.004631824 0.06326916 -0.09028867 0.07821258 -0.049755238 -0.018192995 0.046777252 -0.1001065
-0.14267635 -0.13907062 -0.040665586 0.10535655 0.17628133 0.04897401 -0.08979962 0.077685066
-0.11905688 -0.06561882 0.09365026 0.17510885 0.055092145 -0.0804228 0.11469458 -0.06943515
0.07079806 -0.02452329 0.05666126 -0.118061505 0.15520045 0.16848415 -0.043199357 -0.105515525
-0.04468577 -0.080296785 -0.0028740305 0.017346555 0.08788809 0.09827385 0.18845968 0.12694107
-0.14874604 0.11150812 -0.01412319 -0.02163342 -0.14046589 -0.066381045 0.1956873 -0.026781652
0.18237877 0.085836306 -0.12664638 -0.07902035 0.21454729 0.079531334 -0.08639762 0.012739439
0.018168535 -0.12502348 0.17513987 -0.15736039 0.013108879 0.103907615 0.13314933 -0.14230525
-0.09067598 0.13346054 0.18561861 -0.07133865 0.02286715 0.023856528 0.013793978 0.06758152
0.038291834 -0.03184645 0.055140235 -0.1254944 0.07519758 0.21111004 -0.037817918 -0.027101701
-0.021553049 0.14969622 -0.012633505 0.15625909 -0.0051500555 0.097014084 -0.094933905 0.17160027
0.14493915 0.12338977 0.07242712 0.053032376 0.12211396 -0.03126852 -0.1343307 0.05121356
-0.037426107 -0.15464193 0.030876633 0.17500858 -0.020242764 0.078132436 0.12652586 -0.029733073
-0.10967225 0.15210746 -0.12738392 -0.12773344 0.12552492 -0.030982444 0.030948648 -0.10464633
0.13191131 -0.1603405 -0.042518176 0.064122334 -0.13306837 -0.09975153 0.15645061 -0.021456897
0.18005188 -0.11865974 0.16559567 -0.11738563 0.19087215 -0.005633914 -0.0042040963 0.19375403
-0.12501574 -0.07398858 0.06647599 0.11169783 0.0734455 0.06784747 0.062702 0.14459084
-0.006655913 0.18906087 -0.035098944 0.09121582 0.04050856 -0.058179528 -0.03128291 -0.12798457
0.12558623 -0.016565995 -0.1469625 -0.15766841 -0.106136814 0.1487689 0.041813336 0.061798446
0.078527 0.014419946 -0.006599569 0.11240591 0.0017236166 -0.027105417 0.051948767 0.0384021
-0.0057976027 -0.13148297 0.16334215 -0.095555894 0.04332108 -0.025333969 -0.17365283 -0.013315268
-0.0060436255 0.057092376 0.003089582 0.023305856 -0.06451494 0.12109698 0.1365426 0.13139276
00000000: 7054 163e ed71 f13d 0fce a4bc 5110 b0bd
00000010: 0a64 443e 31af 213d d024 23bc 2fcf 413e
00000020: ea28 4a3d af17 143d 40ce ae3d d4d8 03bd
00000030: 1624 ca3d 7803 b4bd 977b ef3d 0adb 223d
00000040: 7578 6abd 07cc b0bd ef47 8b3c 1799 c43c
00000050: 5392 443e a5ec bebd ce61 ff3d 8b44 a5bc
00000060: 411c 023d 1c10 213e d7ba 053e b83e 093e
00000070: 9340 4cbd 426f 323e f13c a53d 64bc 353e
00000080: 1ad6 b6bd 8a0c 29bc 9c9b b43c 667e 443e
00000090: b6c4 afbd e6bf 2cbd a613 dd3d 9352 2fbd
000000a0: 0a13 a03d 8ee6 303e fab4 233c 6001 2b3e
000000b0: a695 b5bb 2972 28bd 6091 0cbe eb12 93bd
000000c0: d80d 36be 4753 2dbe c137 953c ae21 c83d
000000d0: d113 303e 1353 2d3e 8769 a43d cd83 84bd
000000e0: 5123 0b3d 01a5 023e 8832 96bd 3b60 ab3d
000000f0: 8728 103e 7cec 98bc 4b6c 3f3e 96c8 acbd
00000100: 9c4f eebc 2b3a b1bd d661 c4bd 0799 13be
00000110: 3493 c13d 202a 443d e059 32bc b468 e43d
00000120: 0ca9 bb3d 1a38 2b3e 9829 e03d ef17 a9bc
00000130: 8ab8 3a3e 96c8 f0bd ce1c abbc 55ee e73d
00000140: 8ec6 973b 4393 813d 44e9 b8bd eb2d a03d
00000150: 26cc 4bbd 7a09 95bc 8199 3f3d a304 cdbd
00000160: c019 12be 8768 0ebe f590 26bd 2dc5 d73d
00000170: 1883 343e f998 483d dde8 b7bd 5919 9f3d
00000180: 18d4 f3bd 2963 86bd b5cb bf3d bc4f 333e
00000190: 4da8 613d b5b4 a4bd fee4 ea3d 0434 8ebd
000001a0: 93fe 903d 11e5 c8bc a315 683d 3bca f1bd
000001b0: deec 1e3e 1c87 2c3e cff1 30bd 8618 d8bd
000001c0: 6d08 37bd a472 a4bd 3b5a 3cbb 5d1a 8e3c
000001d0: acfe b33d cd43 c93d 93fb 403e d7fc 013e
000001e0: e250 18be 5f5e e43d f464 67bc 9238 b1bc
000001f0: 4ad6 0fbe c9f2 87bd 4062 483e 3265 dbbc
00000200: 80c1 3a3e f2ca af3d 97af 01be 6cd5 a1bd
00000210: 49b2 5b3e 53e1 a23d 3cf1 b0bd 14b9 503c
00000220: 2ed6 943c 2806 00be de57 333e 1523 21be
00000230: a0c6 563c 84cd d43d 4c58 083e 78b8 11be
00000240: 54b4 b9bd e1a9 083e ce12 3e3e 001a 92bd
00000250: e453 bb3c c46e c33c 2300 623c 2e68 8a3d
00000260: e6d7 1c3d 6c71 02bd bada 613d 9b81 00be
00000270: 3001 9a3d 3b2d 583e f6e6 1abd 6304 debc
00000280: 0590 b0bc f749 193e c3fc 4ebc 6202 203e
00000290: ccc1 a8bb 52af c63d b56c c2bd fbb7 2f3e
000002a0: ee6a 143e c7b3 fc3d ab54 943d 7a38 593d
000002b0: e216 fa3d 6b13 00bd fd8d 09be 4fc5 513d
000002c0: 1e4c 19bd 745a 1ebe fef0 fc3c 7335 333e
000002d0: 27d4 a5bc e603 a03d ff8f 013e c692 f3bc
000002e0: d89b e0bd 0fc2 1b3e ee70 02be 8ecc 02be
000002f0: 9b89 003e e5ce fdbc 0588 fd3c d150 d6bd
00000300: c213 073e 4d30 24be 8a27 2ebd 9252 833d
00000310: 1343 08be 884a ccbd 9734 203e 60c6 afbc
00000320: 855f 383e e103 f3bd e991 293e e167 f0bd
00000330: fd73 433e b29c b8bb 84c2 89bb 7567 463e
00000340: 2004 00be 5387 97bd 9024 883d d5c1 e43d
00000350: 986a 963d 9df3 8a3d e869 803d 9f0f 143e
00000360: d819 dabb 2c99 413e e9c3 0fbd 5ccf ba3d
00000370: 4eec 253d a84d 6ebd 8222 00bd 630e 03be
00000380: ad99 003e 69b5 87bc 567d 16be d473 21be
00000390: 425e d9bd e056 183e 7644 2b3d 5e20 7d3d
000003a0: c4d2 a03d a341 6c3c 3341 d8bb 1235 e63d
000003b0: faea e13a 2e0c debc 3bc8 543d 854b 1d3d
000003c0: d1f9 bdbb 79a3 06be 2a43 273e cfb2 c3bd
000003d0: 7271 313d 2f89 cfbc 0cd2 31be 4828 5abc
000003e0: 9b09 c6bb b2d9 693d 967a 4a3b eceb be3c
000003f0: 6920 84bd b201 f83d d3d1 0b3e d38b 063e

lstm.weight_hh_l0 f4 [128, 32]
0.029543621 -0.104694806 0.109261274 -0.17360698 0.17666423 -0.11104988 0.09187139 -0.03338864
0.09936577 0.08892157 -0.13020548 0.20105346 0.117886186 -0.050798856 -0.15998405 0.0042500575
-0.042567905 -0.124241464 0.14337096 -0.11377252 -0.14275941 -0.13640104 -0.14224935 0.07450683
-0.05573798 -0.13583723 -0.19499698 -0.08063467 0.060921498 0.08781971 0.107913606 0.12958711
-0.10868659 0.19451359 0.11450019 -0.18808913 0.08134748 0.07991067 0.001902431 -0.054669086
-0.06942126 0.1986357 -0.1394294 -0.08165623 -0.1925664 -0.17131951 0.13360047 0.0008096503
-0.026544316 0.14596817 -0.16607568 -0.051514175 -0.01736452 -0.14650685 0.074036725 -0.024741312
0.1009298 -0.06241831 0.098571345 0.09133545 -0.0836915 0.08801014 -0.037022665 -0.03060842
0.117391765 0.15534814 -0.07015265 -0.17438385 0.007098636 -0.08563824 0.10641227 -0.04834059
-0.104257025 -0.010379984 0.09277908 0.100486 -0.009087506 0.13938545 0.0014420784 0.05296436
-0.10034059 -0.1530121 0.049767904 -0.07052814 -0.10536992 -0.07351447 -0.037596334 0.13891903
-0.06594373 -0.010459247 0.14487572 0.13581514 0.025030825 -0.0140184965 -0.10004865 0.11014181
0.00019066522 0.13979544 0.18089946 0.0753977 0.013861084 0.15414494 0.14681594 0.063631
0.14038275 -0.14584795 0.12232313 -0.09233979 0.11784328 -0.05847994 0.06299074 0.06121408
0.05410341 0.21726504 -0.14299312 -0.06324082 -0.11763301 -0.1743836 -0.0747774 -0.10854101
-0.0047462606 -0.07867627 -0.15197563 0.018128924 0.16786686 0.12733218 0.18096143 0.028379055
0.05470663 -0.032268263 0.030443896 -0.064658 -0.14584225 -0.072814845 -0.13185987 -0.19568332
0.11957525 0.1432789 0.0035280522 0.13509233 -0.100924455 0.15035743 0.09722327 0.0065163528
0.21766682 -0.049582522 -0.04634754 0.0941674 -0.020703427 -0.13022089 0.07576486 -0.06240337
-0.12973687 0.051738106 -0.009039516 0.13894153 0.008139459 -0.07071134 0.033284273 -0.048278086
-0.15214483 0.19962153 0.08080332 -0.14945285 -0.11595823 -0.056140974 0.13376607 -0.030260345
0.11191381 -0.078234516 -0.105923414 0.15841559 0.14649586 0.13518886 0.14101714 -0.020244176
-0.080942355 0.055122197 -0.11014048 0.20212464 0.069409 0.11915711 -0.13277902 -0.08923822
-0.048884556 0.050487872 -0.0047610295 0.029619806 -0.050659325 -0.20535074 -0.0774726 -0.17029889
-0.040923163 -0.054071225 0.18663456 -0.087334044 -0.061219126 0.012791383 0.074758455 -0.004323144
0.110624015 -0.003912029 0.016382538 0.08328869 0.02866233 0.016105568 -0.10878488 0.078956775
-0.12892036 -0.06333297 0.06982226 -0.047295984 -0.16008405 -0.10205372 0.063563615 -0.081600316
0.15433007 0.102836594 0.12405701 0.025743255 0.17518568 -0.027869038 0.021260282 -0.15546861
0.023140796 0.071694285 -0.15831059 -0.01458751 -0.0024155478 0.14494574 -0.032612763 0.1151569
-0.07496561 0.109826826 0.0032426682 0.065799244 -0.10774897 -0.018161828 -0.005995774 -0.020762159
0.020648876 -0.16335863 0.047355566 0.13637851 0.10437698 -0.0055656377 -0.0035074488 0.15808184
0.13213223 -0.022531267 -0.025117123 -0.0691079 -0.0961582 0.16063604 0.15285677 -0.10101694
00000000: 7705 f23c 3b6a d6bd 60c4 df3d 07c6 31be
00000010: 78e7 343e 1f6e e3bd 1127 bc3d 87c2 08bd
00000020: 4880 cb3d 831c b63d 9654 05be f5e0 4d3e
00000030: 506e f13d 7612 50bd dcd2 23be 1144 8b3b
00000040: af5b 2ebd 4f72 febd d6cf 123e 9101 e9bd
00000050: 862f 12be b7ac 0bbe d0a9 11be 0997 983d
00000060: 824d 64bd ea18 0bbe 4aad 47be ca23 a5bd
00000070: d288 793d d2da b33d cf01 dd3d 7cb2 043e
00000080: 1397 debd 922e 473e 137f ea3d 709a 40be
00000090: 8299 a63d 35a8 a33d fe5a f93a b1ec 5fbd
000000a0: bc2c 8ebd 2867 4b3e 95c6 0ebe 623b a7bd
000000b0: 2030 45be 626e 2fbe 90ce 083e b63e 543a
000000c0: 7773 d9bc ae78 153e be0f 2abe 8700 53bd
000000d0: 0a40 8ebc e405 16be 91a0 973d 4bae cabc
000000e0: 48b4 ce3d 58aa 7fbd c6df c93d 150e bb3d
000000f0: 7366 abbd a93e b43d 14a5 17bd 82be fabc
00000100: 186b f03d 9513 1f3e 31ac 8fbd ae91 32be
00000110: ad9b e83b 1a63 afbd adee d93d c800 46bd
00000120: b584 d5bd cf10 2abc f502 be3d 9bcb cd3d
00000130: c3e3 14bc 0fbb 0e3e 1f04 bd3a 28f1 583d
00000140: 5e7f cdbd 34af 1cbe 6ed9 4b3d 0f71 90bd
00000150: 2fcc d7bd c18e 96bd 9dfe 19bd ca40 0e3e
00000160: 820d 87bd 435d 2bbc 4d5a 143e 2013 0b3e
00000170: 720d cd3c d6ad 65bc 4ee6 ccbd 0792 e13d
00000180: 4eed 4739 8926 0f3e b53d 393e 1c6a 9a3d
00000190: 9a19 633c 2cd8 1d3e eb56 163e f850 823d
000001a0: 7fc0 0f3e 2a59 15be 8d84 fa3d a51c bdbd
000001b0: d157 f13d a988 6fbd 4a01 813d 9dbb 7a3d
000001c0: 8a9b 5d3d ba7a 5e3e ca6c 12be 6784 81bd
000001d0: 93e9 f0bd 9d91 32be e524 99bd c04a debd
000001e0: 8586 9bbb 0621 a1bd 809f 1bbe 1c83 943c
000001f0: 4ae5 2b3e 5e63 023e f44d 393e 317b e83c
00000200: 0f14 603d ba2b 04bd 7a65 f93c 6a6b 84bd
00000210: ac57 15be f31f 95bd 4606 07be 3561 48be
00000220: dee3 f43d b4b7 123e e536 673b a555 0a3e
00000230: 7bb1 cebd 4cf7 193e fe1c c73d 2187 d53b
00000240: 0de4 5e3e 0b17 4bbd ebd6 3dbd d6da c03d
00000250: 3c9a a9bc a058 05be 9b2a 9b3d ad9a 7fbd
00000260: bed9 04be 56eb 533d 7a1a 14bc b046 0e3e
00000270: 5e5b 053c 1bd1 90bd 1755 083d 3ebf 45bd
00000280: dbcb 1bbe 9669 4c3e 367c a53d 2b0a 19be
00000290: 827b edbd 14f4 65bd f9f9 083e 8be4 f7bc
000002a0: 1133 e53d 6b39 a0bd 60ee d8bd b237 223e
000002b0: 0303 163e f36e 0a3e cc66 103e 1dd7 a5bc
000002c0: 1bc5 a5bd d0c7 613d 5591 e1bd c3f9 4e3e
000002d0: 4e26 8e3d a508 f43d 39f7 07be 87c2 b6bd
000002e0: 2c3b 48bd 5fcc 4e3d 6902 9cbb 3ca5 f23c
000002f0: 2780 4fbd 7747 52be f4a9 9ebd d562 2ebe
00000300: 0c9f 27bd ca79 5dbd 211d 3f3e 31dc b2bd
00000310: e8c0 7abd f392 513c f61a 993d 29a9 8dbb
00000320: d88e e23d 7a30 80bb ac34 863c 4393 aa3d
00000330: 43cd ea3c d3ef 833c 9bca debd 17b4 a13d
00000340: b303 04be b7b4 81bd f9fe 8e3d 6fb9 41bd
00000350: 13ed 23be 8a01 d1bd a42d 823d 111e a7bd
00000360: b408 1e3e fe9b d23d 9a11 fe3d 85e3 d23c
00000370: e063 333e 9c4d e4bc 0b2a ae3c 2a33 1fbe
00000380: c491 bd3c 74d4 923d 2c1c 22be 7400 6fbc
00000390: 2b4e 1ebb a86c 143e f694 05bd 61d7 eb3d
000003a0: 9287 99bd e3ec e03d f282 543b c1c1 863d
000003b0: 7eab dcbd 1dc8 94bc 3378 c4bb 6715 aabc
000003c0: d527 a93c 7c47 27be e9f7 413d cfa6 0b3e
000003d0: 99c3 d53d f45f b6bb 3add 65bb 35e0 213e
000003e0: ac4d 073e 7e93 b8bc 6dc2 cdbc 7188 8dbd
000003f0: 97ee c4bd c67d 243e 7c86 1c3e f8e1 cebd

lstm.bias_ih_l0 f4 [128]
-0.08025387 -0.037161164 0.10783768 0.112422824 -0.046586495 0.14311324 -0.013867602 0.13083388
0.07872586 0.18039003 0.07194139 0.081709415 0.14413808 0.15399627 0.17910905 -0.12356511
-0.021105554 -0.048124216 0.118727826 -0.08293492 0.18093352 0.092537776 -0.1299821 -0.027936028
-0.10229289 -0.024630213 0.032663956 0.061215404 -0.03330314 -0.050757628 0.026027976 -0.008158818
0.14553507 -0.13725698 0.20889705 -0.099480286 0.0907171 0.080774225 0.0438371 -0.08382055
0.10576468 -0.03252755 0.12905996 0.009161642 0.05280541 -0.14673418 -0.09773806 -0.019877188
0.18008898 0.019820075 -0.041387808 0.17644309 0.08084722 -0.012600021 0.16990437 -0.08600702
0.05143078 -0.17856492 0.10750912 -0.037286934 0.064108886 -0.16255653 -0.049119145 -0.0293174
0.08185657 0.12178662 0.12717521 -0.08777716 0.1405128 0.008627468 0.013365478 -0.06678146
-0.13807943 0.024556369 0.05288526 -0.0630309 0.08018268 -0.024785351 0.083727926 -0.027808161
-0.00728178 0.15910615 -0.02222498 -0.07771206 0.03894116 -0.055688787 0.028135842 -0.039399967
-0.05062527 -0.056417584 0.16179739 0.011393904 -0.12023208 -0.16357455 0.096731395 -0.052197848
-0.012865448 -0.10966011 0.07337084 -0.032439616 0.14818563 0.061616477 0.014309068 0.05021327
-0.13010079 0.10666312 0.15298569 -0.09177237 -0.101810984 0.06487063 0.20873597 -0.1527514
-0.119296215 0.06754908 0.1273436 0.03179001 0.12298018 -0.1298648 -0.10119911 0.049539775
-0.12727961 0.027286243 0.08886927 0.1670489 0.050708152 -0.1440863 0.04938283 -0.024790332
00000000: 245c a4bd 4e36 18bd 00da dc3d f03d e63d
00000010: 7bd1 3ebd 478c 123e f034 63bc 51f9 053e
00000020: 063b a13d 2ab8 383e 0256 933d 4457 a73d
00000030: ef98 133e 33b1 1d3e 5d68 373e b40f fdbd
00000040: 8ee5 acbc e61d 45bd 9327 f33d c9d9 a9bd
00000050: a346 393e 7284 bd3d 071a 05be 19da e4bc
00000060: ef7e d1bd 4dc5 c9bc a4ca 053d 01bd 7a3d
00000070: e068 08bd 3be7 4fbd 9f38 d53c 90ac 05bc
00000080: 2507 153e 188d 0cbe 1ce9 553e 52bc cbbd
00000090: e3c9 b93d f56c a53d 888e 333d 1caa abbd
000000a0: 279b d83d 9c3b 05bd 4b28 043e b61a 163c
000000b0: 7c4a 583d 7c41 16be e42a c8bd 7cd5 a2bc
000000c0: 3f69 383e b65d a23c 4386 29bd 7fad 343e
000000d0: 3a93 a53d 5270 4ebc 69fb 2d3e 7324 b0bd
000000e0: 15a9 523d b9d9 36be be2d dc3d 2fba 18bd
000000f0: 854b 833d 3875 26be 2831 49bd 0b2b f0bc
00000100: 6ba4 a73d 436b f93d 383a 023e 83c4 b3bd
00000110: 96e2 0f3e 395a 0d3c e1fa 5a3c b8c4 88bd
00000120: b264 0dbe 702a c93c 379e 583d 5816 81bd
00000130: d136 a43d a60a cbbc 8c79 ab3d f1cd e3bc
00000140: ff9b eebb b9ec 223e 2911 b6bc 8027 9fbd
00000150: c480 1f3d ed19 64bd 237d e63c dc61 21bd
00000160: 715c 4fbd 2016 67bd 37ae 253e 7fad 3a3c
00000170: 3d3c f6bd 1680 27be 1c1b c63d 69cd 55bd
00000180: 9ac9 52bc 7b95 e0bd 7343 963d 67df 04bd
00000190: f9bd 173e 8f61 7c3d 9570 6a3c 6eac 4d3d
000001a0: 2439 05be 3272 da3d 48a8 1c3e 27f3 bbbd
000001b0: 4782 d0bd e5da 843d e2be 553e dd6a 1cbe
000001c0: 9351 f4bd 2c57 8a3d 5c66 023e 3e36 023d
000001d0: 08dd fb3d 47fb 04be 7b41 cfbd 38ea 4a3d
000001e0: 9655 02be 6687 df3c 1801 b63d de0e 2b3e
000001f0: 5ab3 4f3d 5c8b 13be a645 4a3d 1815 cbbc

lstm.bias_hh_l0 f4 [128]
0.0045682043 -0.13028319 -0.0037226952 0.15894723 -0.14543884 -0.08179252 0.053731848 -0.17332093
0.06378919 -0.07848841 -0.09451449 -0.014053997 0.0007148149 -0.04997755 -0.017963994 -0.0148470905
0.12845886 -0.12679188 -0.13345985 0.17587507 -0.05294365 0.10116422 0.008712413 -0.10006598
0.010414645 0.165629 0.07537753 0.0104481615 -0.047687706 -0.059900418 -0.05023779 0.065037996
-0.10923782 0.19719413 -0.033788946 -0.15193751 -0.07238193 -0.15882193 0.21578474 0.1540762
-0.030278083 0.14431494 -0.06903366 -0.044966653 -0.034105025 -0.16600224 -0.008643275 0.19145294
0.095660865 0.07804304 -0.00023395258 -0.12707557 0.07722141 -0.050986532 0.012349838 -0.07346877
0.05396802 -0.08015385 -0.13367288 -0.09686157 0.13310008 0.03018 0.20140526 0.17380339
0.08718419 -0.017534688 -0.044632677 0.06264714 -0.16666862 0.0890857 -0.14996727 0.09387299
0.17276585 -0.13867219 0.13536859 -0.10043987 0.16747324 -0.022565603 -0.035060678 0.023140214
0.05746213 -0.16836023 -0.09264402 0.12556288 0.011179873 0.111274995 -0.11385194 -0.12929994
0.08876979 0.0966306 0.14330758 -0.062435478 -0.009432472 -0.021053867 0.059728984 -0.1055692
-0.12259789 -0.12571001 -0.092064604 0.12799227 -0.01784989 -0.08695679 0.1624802 -0.11291492
-0.11904687 -0.1242762 -0.032267876 0.18284103 0.19516061 0.10884916 0.0841077 -0.0729278
0.029510701 -0.03163939 0.06788054 0.015594204 0.18825473 -0.08699361 0.03193832 0.18200819
-0.10120737 -0.067718424 0.1508292 -0.022270372 0.002008298 -0.112382375 0.037969038 -0.08095991
00000000: e0b0 953b f568 05be 76f8 73bb 10c3 223e
00000010: ebed 14be d682 a7bd ed15 5c3d 0b7b 31be
00000020: e8a3 823d 88be a0bd d090 c1bd bc42 66bc
00000030: 6a62 3b3a 42b5 4cbd 3a29 93bc 3641 73bc
00000040: b88a 033e bbd5 01be b3a9 08be 9818 343e
00000050: 71db 58bd 302f cf3d 82be 0e3c 64ef ccbd
00000060: 30a2 2a3c a69a 293e 895f 9a3d c42e 2b3c
00000070: 2f54 43bd 245a 75bd 24c6 4dbd a432 853d
00000080: 14b8 dfbd 42ed 493e 4766 0abd 8295 1bbe
00000090: fa3c 94bd 37a2 22be adf6 5c3e 27c6 1d3e
000000a0: be09 f8bc 4cc7 133e 8561 8dbd f42e 38bd
000000b0: b6b1 0bbd 7efc 29be 869c 0dbc 3d0c 443e
000000c0: d8e9 c33d 08d5 9f3d 2b51 75b9 1920 02be
000000d0: 4226 9e3d 41d7 50bd fa56 4a3c cb76 96bd
000000e0: 920d 5d3d b427 a4bd 8be1 08be 5c5f c6bd
000000f0: 634b 083e 0c3c f73c 2e3d 4e3e 84f9 313e
00000100: a08d b23d e8a4 8fbc c1d0 36bd 254d 803d
00000110: 2eab 2abe 9072 b63d 0591 19be 7b40 c03d
00000120: 88e9 303e 1500 0ebe 109e 0a3e 6bb3 cdbd
00000130: 1b7e 2b3e 80db b8bc c99b 0fbd 8c90 bd3c
00000140: 695d 6b3d a066 2cbe 26bc bdbd 8e93 003e
00000150: c92b 373c 25e4 e33d 352b e9bd 3467 04be
00000160: f0cc b53d 44e6 c53d 39bf 123e 58bc 7fbd
00000170: a88a 1abc 2979 acbc 61a6 743d aa34 d8bd
00000180: 9a14 fbbd 20ba 00be 5e8c bcbd 6810 033e
00000190: ef39 92bc 6716 b2bd 3661 263e f03f e7bd
000001a0: d8ce f3bd 8584 febd 522b 04bd ae3a 3b3e
000001b0: 2fd8 473e 4fec de3d a840 ac3d 2c5b 95bd
000001c0: 6dc0 f13c 4e98 01bd f404 8b3d d57e 7f3c
000001d0: d9c5 403e b529 b2bd c1d1 023d 5b60 3a3e
000001e0: cf45 cfbd f5af 8abd f872 1a3e 5b70 b6bc
000001f0: a69d 033b bb28 e6bd 6c85 1b3d 4fce a5bd

att.in_proj_weight f4 [96, 32]
0.17465827 0.0781205 -0.21056816 -0.13048863 0.14666566 -0.1645943 0.16513318 0.11983137
-0.13764864 -0.19186246 0.17249037 -0.049803898 0.031934332 0.180152 -0.21612708 0.19881646
-0.13933732 0.03009215 -0.19488983 -0.1152119 -0.006543087 -0.03675814 0.14061256 0.11470905
0.1046404 0.21134524 -0.2040279 0.0967108 -0.1626092 -0.15088072 -0.15676306 -0.10030886
-0.08898424 -0.21507768 0.07818985 0.0761 -0.046087913 -0.026374385 0.06678422 -0.08896006
0.031364612 0.16065049 -0.092677176 0.038948882 -0.049350657 -0.1754828 -0.09520458 0.20825505
0.053373903 0.108427286 0.19855252 -0.14422023 0.08547943 0.15662052 0.17118493 0.01134919
0.08194765 -0.13534932 -0.17163226 0.04602917 0.00637757 -0.21390836 -0.08588023 -0.10297169
-0.20139885 -0.1292602 -0.19501327 0.053079467 -0.011030183 0.10714096 0.03929971 0.047771677
-0.031592745 0.045047812 -0.09587671 -0.21416113 -0.040406864 0.14765134 -0.11627435 0.047519054
0.07051169 -0.06792859 0.16323306 -0.04880837 -0.12138152 -0.12366308 0.19918069 -0.2067853
0.11224145 0.17747405 0.07958889 0.004495304 0.13216594 -0.17994942 0.031139037 -0.15198344
-0.050783627 0.15215491 0.04301603 0.09009947 0.004808374 0.15926178 0.01897571 -0.036787048
0.07171609 -0.20845848 -0.027292483 -0.03399226 -0.20465487 -0.046864886 -0.1985575 -0.12069788
-0.20979351 0.084160745 0.19512779 -0.19142206 -0.18394779 -0.15755366 0.033447523 -0.109975494
0.14419349 -0.08096007 -0.05327949 -0.051028766 0.06281388 0.14021848 0.09544515 0.09749045
-0.03899875 0.004599394 -0.066669755 -0.03153008 -0.18996286 -0.053880595 0.18015856 -0.124726385
-0.13870573 -0.09445633 0.0822817 0.10869217 0.18700673 -0.12839524 -0.0024294287 -0.111004114
0.05251509 0.17828336 0.18199779 -0.11394421 0.14976715 0.02891118 -0.07208839 0.12356013
-0.01444275 0.14209853 -0.14667146 0.018484838 0.06404719 0.067123845 -0.1818292 0.1313837
-0.00917956 0.18685888 0.057992604 0.14559475 0.17723972 -0.12307917 0.08453018 -0.16734996
0.19984837 -0.21389948 -0.117805295 -0.18825865 -0.06546135 0.0015534263 -0.08206968 -0.21326053
0.14976247 -0.21462888 0.20205449 -0.13543019 -0.0037223848 -0.06979336 -0.12960741 0.035957117
-0.05074819 -0.15266024 -0.11936548 -0.012468654 0.18484585 -0.15837339 0.15866724 -0.07604642
-0.026294658 0.059227925 0.14557202 0.060427062 -0.14225447 -0.02714178 -0.11577878 0.2015629
-0.10360673 0.1346701 -0.07566629 0.11988377 0.0052153138 0.2124466 -0.07232006 0.0866692
0.17728874 -0.121992126 -0.021704478 -0.045670547 -0.16204675 0.21255119 0.09017744 -0.005990917
-0.20880915 -0.025020517 -0.036637817 0.07031138 -0.10945662 -0.05619775 0.2052502 0.17544849
-0.15003948 0.17512506 0.011115019 -0.16177559 -0.10699346 -0.082016945 -0.026315952 -0.12377742
0.0342256 -0.18917263 -0.039300874 0.10930602 0.16881149 0.08208462 0.1393833 0.14141385
-0.027172778 -0.06340007 -0.06989344 -0.00066565454 -0.16344637 -0.094308496 0.053789902 0.08546939
0.146546 -0.08179333 -0.1674087 0.03311316 0.14438006 -0.06489075 0.022674892 0.1189961
00000000: 9ed9 323e a4fd 9f3d 2e9f 57be d09e 05be
00000010: 862f 163e 688b 28be ac18 293e 266a f53d
00000020: c4f3 0cbe 9877 44be 51a1 303e 2cff 4bbd
00000030: 93cd 023d c479 383e 6b50 5dbe 8b96 4b3e
00000040: 71ae 0ebe d083 f63c 3391 47be 37f4 ebbd
00000050: 6467 d6bb b48f 16bd bdfc 0f3e 94ec ea3d
00000060: b54d d63d e36a 583e b1ec 50be 5010 c63d
00000070: 0783 26be 7a80 1abe 7f86 20be bb6e cdbd
00000080: 5f3d b6bd 533d 5cbe 0022 a03d 51da 9b3d
00000090: aec6 3cbd 180f d8bc 2ac6 883d b130 b6bd
000000a0: 2e78 003d 9081 243e 88cd bdbd dd88 1f3d
000000b0: ea23 4abd c3b1 33be 9efa c2bd d040 553e
000000c0: 989e 5a3d 200f de3d 5a51 4b3e 78ae 13be
000000d0: d70f af3d 2161 203e 1a4b 2f3e f4f1 393c
000000e0: 2bd4 a73d 0399 0abe 5ec0 2fbe 1589 3c3d
000000f0: effa d03b cb0a 5bbe f9e1 afbd d2e2 d2bd
00000100: 803b 4ebe c95c 04be 8fb1 47be db69 593d
00000110: f1b7 34bc b86c db3d bcf8 203d 3cac 433d
00000120: 6567 01bd 0e84 383d 025b c4bd 0e4d 5bbe
00000130: ab81 25bd ea31 173e 3f21 eebd 57a3 423d
00000140: 6f68 903d 251e 8bbd 9126 273e 49eb 47bd
00000150: e096 f8bd 1243 fdbd 06f6 4b3e 87bf 53be
00000160: d8de e53d c2bb 353e 80ff a23d 584d 933b
00000170: 8256 073e a944 38be 4b17 ff3c 8ca1 1bbe
00000180: 7e02 50bd 7fce 1b3e 9431 303d 1286 b83d
00000190: 918f 9d3b 8515 233e f372 9b3c 04ae 16bd
000001a0: e3df 923d 2476 55be 7c94 dfbc 783b 0bbd
000001b0: 0c91 51be 65f5 3fbd a852 4bbe 7330 f7bd
000001c0: 1cd4 56be 785c ac3d 94cf 473e 2504 44be
000001d0: cf5c 3cbe bf55 21be 4500 093d d53a e1bd
000001e0: 75a7 133e 65ce a5bd 983b 5abd 8a03 51bd
000001f0: 90a4 803d 6f95 0f3e bf78 c33d 13a9 c73d
00000200: 27bd 1fbd 83b6 963b 278a 88bd af25 01bd
00000210: a085 42be e6b1 5cbd 7c7b 383e 8c70 ffbd
00000220: e008 0ebe 5272 c1bd 4f83 a83d 009a de3d
00000230: b17e 3f3e 0b7a 03be 0d37 1fbb 2056 e3bd
00000240: 101a 573d ea8f 363e a15d 3a3e 955b e9bd
00000250: 8f5c 193e 24d7 ec3c 14a3 93bd 180d fd3d
00000260: 49a1 6cbc 4782 113e 0b31 16be 846d 973c
00000270: 2c2b 833d 3a78 893d 6f31 3abe 7389 063e
00000280: dd65 16bc ef57 3f3e a789 6d3d ca16 153e
00000290: 547e 353e ef10 fcbd 291e ad3d ca5d 2bbe
000002a0: 0da5 4c3e 7708 5bbe e743 f1bd e0c6 40be
000002b0: 9a10 86bd 569c cb3a 2614 a8bd f860 5abe
000002c0: 555b 193e acc7 5bbe 5fe7 4e3e 36ae 0abe
000002d0: 41f3 73bb d2ef 8ebd ceb7 04be c547 133d
000002e0: 56dd 4fbd f752 1cbe e475 f4bd 5349 4cbc
000002f0: 3b48 3d3e a22c 22be aa79 223e 3abe 9bbd
00000300: e567 d7bc fb98 723d d510 153e 5e82 773d
00000310: 28ab 11be 7058 debc 6d1d edbd 8166 4e3e
00000320: c42f d4bd f5e6 093e eef6 9abd 9f85 f53d
00000330: 39e5 aa3b 9a8b 593e 8a1c 94bd 9f7f b13d
00000340: 2e8b 353e 02d7 f9bd 97cd b1bc 0a11 3bbd
00000350: 95ef 25be 05a7 593e f3ae b83d 744f c4bb
00000360: 11d2 55be d4f7 ccbc 8911 16bd 6aff 8f3d
00000370: cb2a e0bd 9d2f 66bd 1c2d 523e c5a8 333e
00000380: f3a3 19be fc53 333e c51b 363c 80a8 25be
00000390: 631f dbbd 80f8 a7bd 8d94 d7bc 047f fdbd
000003a0: 2530 0c3d 78b6 41be f4f9 20bd d6db df3d
000003b0: ebdc 2c3e fb1b a83d 7fba 0e3e cbce 103e
000003c0: 7299 debc e5d7 81bd 4b24 8fbd 527f 2eba
000003d0: 7c5e 27be d024 c1bd cd52 5c3d 930a af3d
000003e0: 2810 163e 4383 a7bd 306d 2bbe aaa1 073d
000003f0: 5ed8 133e 71e5 84bd b2c0 b93c 3ab4 f33d

att.in_proj_bias f4 [96]
0.0 0.0 0.0 0.0 0.0 0.0 0.0 0.0
0.0 0.0 0.0 0.0 0.0 0.0 0.0 0.0
0.0 0.0 0.0 0.0 0.0 0.0 0.0 0.0
0.0 0.0 0.0 0.0 0.0 0.0 0.0 0.0
0.0 0.0 0.0 0.0 0.0 0.0 0.0 0.0
0.0 0.0 0.0 0.0 0.0 0.0 0.0 0.0
0.0 0.0 0.0 0.0 0.0 0.0 0.0 0.0
0.0 0.0 0.0 0.0 0.0 0.0 0.0 0.0
0.0 0.0 0.0 0.0 0.0 0.0 0.0 0.0
0.0 0.0 0.0 0.0 0.0 0.0 0.0 0.0
0.0 0.0 0.0 0.0 0.0 0.0 0.0 0.0
0.0 0.0 0.0 0.0 0.0 0.0 0.0 0.0
00000000: 0000 0000 0000 0000 0000 0000 0000 0000
00000010: 0000 0000 0000 0000 0000 0000 0000 0000
00000020: 0000 0000 0000 0000 0000 0000 0000 0000
00000030: 0000 0000 0000 0000 0000 0000 0000 0000
00000040: 0000 0000 0000 0000 0000 0000 0000 0000
00000050: 0000 0000 0000 0000 0000 0000 0000 0000
00000060: 0000 0000 0000 0000 0000 0000 0000 0000
00000070: 0000 0000 0000 0000 0000 0000 0000 0000
00000080: 0000 0000 0000 0000 0000 0000 0000 0000
00000090: 0000 0000 0000 0000 0000 0000 0000 0000
000000a0: 0000 0000 0000 0000 0000 0000 0000 0000
000000b0: 0000 0000 0000 0000 0000 0000 0000 0000
000000c0: 0000 0000 0000 0000 0000 0000 0000 0000
000000d0: 0000 0000 0000 0000 0000 0000 0000 0000
000000e0: 0000 0000 0000 0000 0000 0000 0000 0000
000000f0: 0000 0000 0000 0000 0000 0000 0000 0000
00000100: 0000 0000 0000 0000 0000 0000 0000 0000
00000110: 0000 0000 0000 0000 0000 0000 0000 0000
00000120: 0000 0000 0000 0000 0000 0000 0000 0000
00000130: 0000 0000 0000 0000 0000 0000 0000 0000
00000140: 0000 0000 0000 0000 0000 0000 0000 0000
00000150: 0000 0000 0000 0000 0000 0000 0000 0000
00000160: 0000 0000 0000 0000 0000 0000 0000 0000
00000170: 0000 0000 0000 0000 0000 0000 0000 0000

att.out_proj.weight f4 [32, 32]
-0.028133443 -0.07106309 -0.1391699 -0.09403 0.017219812 0.06794468 -0.0876635 -0.1308326
0.11626828 -0.054567944 -0.17604616 0.06937807 -0.033517893 0.07031645 0.03615738 -0.000571996
0.11964078 0.16178377 -0.13898364 0.05024728 0.13835843 -0.10502139 0.08369974 0.040124662
-0.11659974 -0.11301903 -0.07631477 0.00812037 -0.046385452 0.09355669 -0.12278692 0.13809983
-0.041770436 -0.14117669 0.15436186 0.03564228 -0.05045806 0.078407675 0.0060302448 -0.0526294
-0.004230258 0.077312574 0.16914476 -0.047943998 0.043882474 -0.023461442 -0.059309907 0.1756276
0.03262575 0.039733563 -0.09464975 0.0803473 -0.026360683 -0.07312695 -0.002416595 0.053634666
0.17324881 0.16195725 -0.12733528 -0.006861823 0.12051411 0.08587399 -0.0082232505 -0.13942675
-0.17396688 0.12722732 0.06539935 -0.16489843 0.08906767 0.13885865 -0.028847283 -0.10759254
-0.1480054 -0.014851579 0.0962021 0.107673034 0.021127941 0.09040358 0.11847466 -0.16250397
0.10277893 0.16704415 -0.10815591 0.1536871 -0.057360724 0.15974034 0.16456053 0.1197577
-0.07121498 0.066601396 0.125355 0.09340612 0.1755567 -0.01009377 0.16640444 0.04260273
-0.066178285 0.075291656 0.13042304 -0.026353791 -0.009989646 -0.12927426 -0.05247959 0.045940403
0.10774968 -0.12107894 -0.07849235 -0.009718073 0.15078108 0.078201875 -0.11528887 -0.11541008
0.16503568 0.07087772 0.028070834 0.16934358 -0.15679474 0.0061895386 0.15085739 -0.019808996
0.06591284 0.014958548 -0.06382156 -0.10694687 0.0836943 -0.04220385 -0.06934474 -0.10771552
0.13886622 0.12654066 0.1073732 0.08925482 -0.12620771 0.1120228 0.14647515 -0.04855612
-0.13377433 -0.028532088 -0.1478324 0.06327414 -0.05419918 -0.080492176 0.10882794 -0.003502972
-0.040355332 0.095249094 -0.13021488 0.13478735 0.022324342 0.042309534 0.11063954 -0.11170554
-0.14698075 -0.13936548 -0.14580688 0.1470188 0.1522015 -0.10354764 0.16243713 -0.15201867
-0.17135376 0.0059035933 0.12385665 0.028586458 -0.0001588304 -0.16086449 0.08052444 0.052312266
0.03966528 0.002869505 -0.12765723 0.07016377 -0.14912736 0.12268639 -0.11246593 0.07516576
-0.11944503 -0.012088854 -0.04310978 0.09757756 -0.032806665 0.068694726 0.14864378 0.084544614
-0.008921202 -0.09060434 -0.07572491 -0.17262879 0.070645705 0.0060944976 -0.16084155 0.13425325
-0.02697885 6.813038e-05 0.10841329 -0.16358717 -0.11823491 -0.053821504 0.0038638334 -0.12949413
-0.17646535 0.03054772 0.064747505 -0.02788309 0.16116042 0.054444097 0.15315317 0.05465083
0.10568684 -0.024786351 -0.15245469 0.16321199 -0.1483179 0.122441016 0.08401211 -0.06698738
-0.08491964 -0.121117905 -0.09277501 -0.041116524 0.08681161 0.009735353 0.14944431 -0.0038234566
-0.094096884 0.025522444 -0.03885971 -0.045472194 0.062203247 -0.09297358 -0.13688909 0.018190263
0.16407031 -0.013393025 0.14528032 -0.06555063 -0.008563544 0.08000873 0.0098876925 0.012129526
-0.100306146 0.042786825 -0.064111486 -0.15268224 -0.17644732 -0.00808798 -0.028462209 -0.081481636
0.15241769 -0.14183524 0.024626952 0.1749383 0.0395258 0.12578541 -0.10790586 -0.053458977
00000000: 1b78 e6bc 8689 91bd 8e82 0ebe cd92 c0bd
00000010: 9010 8d3c 9526 8b3d ec88 b3bd fbf8 05be
00000020: 101e ee3d a382 5fbd 7245 34be 1716 8e3d
00000030: 0f4a 09bd 1202 903d c319 143d 00f2 15ba
00000040: 3a06 f53d a5aa 253e ba51 0ebe 18d0 4d3d
00000050: d5ad 0d3e 7415 d7bd c56a ab3d c259 243d
00000060: d8cb eebd 8576 e7bd eb4a 9cbd 4d0b 053c
00000070: acfe 3dbd a69a bf3d b577 fbbd 0b6a 0d3e
00000080: 7a17 2bbd 9f90 10be 0911 1e3e a4fd 113d
00000090: 1cad 4ebd 3494 a03d 5c99 c53b ed91 57bd
000000a0: fa9d 8abb 0e56 9e3d 4934 2d3e ed60 44bd
000000b0: 1cbe 333d 3632 c0bc f2ee 72bd b9d7 333e
000000c0: 94a2 053d a9bf 223d bad7 c1bd 208d a43d
000000d0: 5cf2 d7bc 95c3 95bd bc5f 1ebb 06b0 5b3d
000000e0: 2368 313e 1fd8 253e 2e64 02be 25d9 e0bb
000000f0: 1ad0 f63d b4de af3d d0ba 06bc e3c5 0ebe
00000100: 6024 32be e147 023e 18f0 853d 22db 28be
00000110: 1c69 b63d f630 0e3e 2351 ecbc 7a59 dcbd
00000120: ba8e 17be 0a54 73bc 9b05 c53d ae83 dc3d
00000130: 8114 ad3c 8325 b93d d8a2 f23d 7167 26be
00000140: c27d d23d 9f0d 2b3e d980 ddbd 2760 1d3e
00000150: 14f3 6abd f992 233e 8e82 283e 8643 f53d
00000160: 29d9 91bd 5066 883d 105d 003e b54b bf3d
00000170: 23c5 333e 5760 25bc ed65 2a3e 3380 2e3d
00000180: 7b88 87bd 8332 9a3d 9e8d 053e e8e3 d7bc
00000190: 9dab 23bc 7960 04be d7f4 56bd 012c 3c3d
000001a0: ddab dc3d 3cf8 f7bd 99c0 a0bd 8d38 1fbc
000001b0: 5b66 1a3e 4e28 a03d 921c ecbd 1f5c ecbd
000001c0: 1dff 283e 5728 913d cef4 e53c 6768 2d3e
000001d0: cd8e 20be 9dd1 ca3b 5c7a 1a3e 7a46 a2bc
000001e0: 50fd 863d b314 753c e1b4 82bd f606 dbbd
000001f0: eb67 ab3d f2dd 2cbd 9d04 8ebd f499 dcbd
00000200: f232 0e3e e093 013e 7be6 db3d 3bcb b63d
00000210: 983c 01be 366c e53d 95fd 153e c8e2 46bd
00000220: 23fc 08be 20bc e9bc 6061 17be df95 813d
00000230: f6ff 5dbd 15d9 a4bd 2fe1 de3d 1e92 65bb
00000240: a24b 25bd f511 c33d 0d57 05be b205 0a3e
00000250: 8ae1 b63c c34c 2d3d fc96 e23d e0c5 e4bd
00000260: 1f82 16be d3b5 0ebe 664e 15be 198c 163e
00000270: b6da 1b3e c910 d4bd eb55 263e c8aa 1bbe
00000280: 5c77 2fbe ee72 c13b 8ea8 fd3d 262e ea3c
00000290: b68b 26b9 a9b9 24be ffe9 a43d 6345 563d
000002a0: 1078 223d 4e0e 3c3b 94b8 02be 06b2 8f3d
000002b0: d8b4 18be 0143 fb3d 8a54 e6bd 82f0 993d
000002c0: 999f f4bd 5410 46bc e193 30bd bed6 c73d
000002d0: 4860 06bd d2af 8c3d 1336 183e ba25 ad3d
000002e0: 3c2a 12bc c58e b9bd a915 9bbd 9ac5 30be
000002f0: b2ae 903d 5ab4 c73b a6b3 24be af79 093e
00000300: c002 ddbc 38e1 8e38 c907 de3d 6583 27be
00000310: 2525 f2bd f073 5cbd 5e38 7d3b 1c9a 04be
00000320: 55b3 34be 363f fa3c 579a 843d 146b e4bc
00000330: 3d07 253e c600 5f3d 2fd4 1c3e 8cd9 5f3d
00000340: 5872 d83d bf0c cbbc 151d 1cbe 0b21 273e
00000350: a6e0 17be 5bc2 fa3d 8b0e ac3d ae30 89bd
00000360: 59ea adbd aa0c f8bd d300 bebd cd69 28bd
00000370: 49ca b13d 0881 1f3c ee07 193e f592 7abb
00000380: deb5 c0bd 7214 d13c 5c2b 1fbd 0d41 3abd
00000390: d5c8 7e3d ef68 bebd a72c 0cbe bf03 953c
000003a0: 0c02 283e 6b6e 5bbc 5dc4 143e 693f 86bd
000003b0: 1b4e 0cbc 9edb a33d fdff 213c ebba 463c
000003c0: 4f6d cdbd 3d41 2f3d e24c 83bd bc58 1cbe
000003d0: 9bae 34be 7283 04bc 9429 e9bc d8df a6bd
000003e0: 6213 1c3e 423d 11be 76be c93c 0723 333e
000003f0: cee5 213d e4cd 003e bffd dcbd cdf7 5abd

att.out_proj.bias f4 [32]
0.0 0.0 0.0 0.0 0.0 0.0 0.0 0.0
0.0 0.0 0.0 0.0 0.0 0.0 0.0 0.0
0.0 0.0 0.0 0.0 0.0 0.0 0.0 0.0
0.0 0.0 0.0 0.0 0.0 0.0 0.0 0.0
00000000: 0000 0000 0000 0000 0000 0000 0000 0000
00000010: 0000 0000 0000 0000 0000 0000 0000 0000
00000020: 0000 0000 0000 0000 0000 0000 0000 0000
00000030: 0000 0000 0000 0000 0000 0000 0000 0000
00000040: 0000 0000 0000 0000 0000 0000 0000 0000
00000050: 0000 0000 0000 0000 0000 0000 0000 0000
00000060: 0000 0000 0000 0000 0000 0000 0000 0000
00000070: 0000 0000 0000 0000 0000 0000 0000 0000
