checkpoints/SingularTrajectory-TEMP/zara2/s_vae_model_best.pth (torch, 98009 bytes, 29 tensors)

V_obs_trunc f4 [16, 8]
-0.03681605 -1.10826534e-07 -0.11470888 4.0022993e-08 -0.221073 2.1997502e-07 -0.30629113 -2.8662905e-07
-0.056128416 0.0051600076 -0.16644202 -0.024887677 -0.2767763 0.053541493 -0.30775538 -0.0761335
-0.049850557 0.018238751 -0.13494456 -0.08484407 -0.17487448 0.17304085 -0.11071398 -0.22823028
-0.032848183 0.04602139 -0.08466978 -0.18481614 -0.096505634 0.30205533 -0.04069969 -0.26675487
-0.09476099 0.03794827 -0.22395445 -0.12787059 -0.18909559 0.15011369 0.035990395 -0.037473712
-0.14031263 0.030092446 -0.2734386 -0.09593001 -0.089765444 0.10050313 0.23591666 -0.007500635
-0.07901915 0.09462428 -0.11953182 -0.25637665 0.0265972 0.16424684 0.13017508 0.15179692
-0.07291897 0.133786 -0.10397511 -0.2763338 0.034172807 0.0184966 0.11112015 0.27168423
-0.19143642 0.07268546 -0.19362664 -0.10899625 0.19043967 -0.052403964 0.14136337 0.09041539
-0.20812479 0.08435246 -0.111276075 -0.11800924 0.24171898 -0.07039869 -0.07012589 0.09071471
-0.09640074 0.21628927 -0.015632398 -0.18436421 0.09411141 -0.2494682 -0.08148416 -0.012989768
-0.13681194 0.21839078 -0.009405598 -0.06885718 0.12614165 -0.2182437 -0.1307209 -0.18811983
-0.2915144 0.10218003 0.09851918 0.0028606202 0.12314944 -0.06582783 -0.24873504 -0.089839414
-0.24293026 0.17960273 0.17112713 0.029159393 -0.057022247 -0.09050002 -0.038775235 -0.15846732
-0.11381296 0.3478336 0.10089682 0.19653517 -0.071300745 0.051654615 0.043438457 -0.079711094
3.4876896e-10 0.5178215 -1.2543182e-07 0.46401358 1.6199664e-07 0.41423663 8.0550086e-07 0.35076544
00000000: 6dcc 16bd 88ff edb3 7dec eabd bfe5 2b33
00000010: f660 62be 4632 6c34 31d2 9cbe ffe1 99b4
00000020: e9e6 65bd 4815 a93b c76f 2abe 3ee1 cbbc
00000030: a0b5 8dbe 534e 5b3d 1d92 9dbe e1eb 9bbd
00000040: 1930 4cbd 6f69 953c e82e 0abe bac2 adbd
00000050: 4c12 33be 9f31 313e 03be e2bd 33b5 69be
00000060: d18b 06bd ed80 3c3d 5a67 adbd 7140 3dbe
00000070: bfa4 c5bd ffa6 9a3e b8b4 26bd 1894 88be
00000080: 0d12 c2bd a56f 1b3d 5154 65be 82f0 02be
00000090: 46a2 41be 67b7 193e aa6a 133d 097e 19bd
000000a0: 1dae 0fbe 6f84 f63c 2500 8cbe f476 c4bd
000000b0: f2d6 b7bd 96d4 cd3d 2394 713e e3c7 f5bb
000000c0: cbd4 a1bd 60ca c13d 19cd f4bd cd43 83be
000000d0: 5fe2 d93c 5330 283e 9e4c 053e a770 1b3e
000000e0: 8a56 95bd 32ff 083e e7f0 d4bd a07b 8dbe
000000f0: c9f8 0b3d 2f86 973c f692 e33d 321a 8b3e
00000100: e907 44be 1ddc 943d 1046 46be 6d39 dfbd
00000110: 9e02 433e 8aa5 56bd 8fc1 103e b42b b93d
00000120: aa1e 55be fcc0 ac3d b6e4 e3bd d4ae f1bd
00000130: 2e85 773e 302d 90bd 2a9e 8fbd a2c8 b93d
00000140: c06d c5bd ef7a 5d3e 840f 80bc f9c9 3cbe
00000150: 7cbd c03d 9874 7fbe 2be1 a6bd 09d3 54bc
00000160: 6e18 0cbe d5a1 5f3e f019 1abc fe04 8dbd
00000170: 472b 013e 477b 5fbe b3db 05be 7ca2 40be
00000180: 6041 95be c343 d13d 6dc4 c93d 3e79 3b3b
00000190: c635 fc3d bed0 86bd 66b4 7ebe bafd b7bd
000001a0: b6c2 78be c7e9 373e f33b 2f3e aedf ee3c
000001b0: 2990 69bd 1358 b9bd c8d2 1ebd 4245 22be
000001c0: c516 e9bd 3f17 b23e fea2 ce3d 8440 493e
000001d0: 2006 92bd ca93 533d 86ec 313d 923f a3bd
000001e0: debc bf2f f38f 043f 70ae 06b4 3093 ed3e
000001f0: 4cf1 2d34 d316 d43e 9939 5835 8797 b33e

conv_layers.0.weight f4 [64, 1, 3]
-0.4510353 0.14883216 0.045665782 0.35526776 -0.32357582 -0.4171243 -0.008159135 -0.13221952
-0.038649768 -0.09514974 -3.7266807e-05 -0.34972122 -0.43148765 0.04581124 0.2982176 0.03297671
-0.39223343 -0.06106141 0.42286837 0.14240709 0.29362524 0.38680962 -0.50845313 -0.09199169
-0.16365844 0.58753085 -0.075883366 0.4262051 -0.47790882 0.36997345 -0.42326906 0.044763256
-0.4765849 -0.37582937 -0.33601233 -0.31295258 0.45941457 0.3376733 -0.53490394 0.45348835
0.17566814 -0.46666145 0.39137617 0.42432997 -0.43474162 -0.19384211 -0.20013419 0.1644237
0.22154449 0.16278386 -0.28358576 0.46217814 0.54107386 0.023931596 -0.12701027 -0.3639095
0.15714175 -0.07852277 -0.10689994 0.26150447 0.12669283 0.1544839 -0.5316698 -0.4599699
-0.37800226 0.32444045 -0.20312569 0.37813583 0.06565156 0.012153227 -0.3728837 0.012680705
-0.0013513534 0.56595284 0.4554754 -0.24661994 -0.046496224 0.32179016 -0.05236125 -0.18106554
0.25334173 -0.35265088 0.5096586 0.61270946 -0.07587374 -0.2149168 -0.6085838 0.12840442
0.2916953 -0.08846792 -0.32050434 0.5551271 -0.17485091 0.18614586 0.4637561 0.4818102
-0.4939811 -0.11947264 0.34947768 0.105358444 0.24404304 0.2939689 -0.4336282 -0.5096421
0.2566109 -0.26828402 -0.065173805 -0.47482774 -0.25212303 -0.276887 -0.054583635 0.028624047
0.2694346 0.42530435 0.4522175 -0.38259596 0.24288096 -0.0857399 0.32240766 0.002964314
0.4554259 -0.3071043 0.45757186 0.350914 0.4230843 0.10442518 -0.42351055 -0.33886138
0.30747285 0.50606817 -0.49922112 -0.17767128 0.10055309 -0.43291706 -0.506921 0.41338527
0.21808043 -0.076759465 -0.13415897 -0.334973 0.51698184 0.26276976 0.4928572 -0.13486038
-0.0671964 0.3981349 0.34791183 -0.26767528 -0.14273578 0.054489627 0.55203605 0.37349895
-0.4726936 0.4726762 -0.30373532 0.53002006 -0.43447232 0.5607892 0.5616569 -0.5355558
-0.09614675 -0.45093763 -0.5266974 0.5395986 0.13483438 -0.13768448 -0.22905837 -0.13653786
0.29624462 -0.11298592 0.06552451 0.36247367 -0.5082529 0.189978 0.46584234 0.57878554
0.18565215 -0.18207519 -0.31635964 0.23438923 0.21422772 0.040775146 0.2571756 0.37656328
0.39251462 0.38135982 -0.2097125 0.47266555 0.0025504867 0.16040865 -0.27078822 -0.1432034
00000000: 19ee e6be 7567 183e 0b0c 3b3d a8e5 b53e
00000010: bbab a5be 5191 d5be e4ad 05bc 8e64 07be
00000020: 384f 1ebd dedd c2bd ee4e 1cb8 a90e b3be
00000030: f3eb dcbe 91a4 3b3d faaf 983e 9612 073d
00000040: d2d2 c8be 871b 7abd 3482 d83e 2ad3 113e
00000050: 0c56 963e e90b c63e fc29 02bf 2466 bcbd
00000060: 1496 27be 6c68 163f bd68 9bbd 8e37 da3e
00000070: 77b0 f4be 296d bd3e b9b6 d8be ad59 373d
00000080: f002 f4be b56c c0be cf09 acbe 523b a0be
00000090: 6338 eb3e 84e3 ac3e 77ef 08bf a02f e83e
000000a0: 59e2 333e 40ee eebe 7562 c83e c741 d93e
000000b0: 7496 debe 8c7e 46be faef 4cbe b05e 283e
000000c0: 8fdc 623e d0b0 263e 2732 91be 9da2 ec3e
000000d0: d183 0a3f 320c c43c fb0e 02be 5952 babe
000000e0: c4e9 203e 8cd0 a0bd 5bee dabd eae3 853e
000000f0: c4bb 013e 0731 1e3e 831b 08bf 2d81 ebbe
00000100: 8389 c1be 0f1d a63e 2e00 50be 059b c13e
00000110: 5374 863d 541e 473c 9dea bebe bbc2 4f3c
00000120: e51f b1ba 49e2 103f 1234 e93e f089 7cbe
00000130: d372 3ebd aec1 a43e c078 56bd 3f69 39be
00000140: 02b6 813e a88e b4be fc78 023f 87da 1c3f
00000150: b163 9bbd 2613 5cbe 26cc 1bbf 737c 033e
00000160: 1659 953e ab2e b5bd 2519 a4be cf1c 0e3f
00000170: 1e0c 33be 059d 3e3e 7171 ed3e d4af f63e
00000180: 17eb fcbe 12ae f4bd bdee b23e 2bc6 d73d
00000190: 6be6 793e 1783 963e 8404 debe e877 02bf
000001a0: 8162 833e 865c 89be d879 85bd 9f1c f3be
000001b0: 4516 81be 22c4 8dbe 1793 5fbd fa7c ea3c
000001c0: 55f3 893e 7ec1 d93e 0d89 e73e 9ee3 c3be
000001d0: c9b5 783e 6798 afbd 9e12 a53e f044 423b
000001e0: 952d e93e c63c 9dbe dc46 ea3e 00ab b33e
000001f0: 819e d83e dedc d53d 60d6 d8be 3d7f adbe
00000200: 156d 9d3e af8d 013f e999 ffbe 76ef 35be
00000210: c7ee cd3d 4ea7 ddbe 93c5 01bf 3ca7 d33e
00000220: 7a50 5f3e 1134 9dbd f860 09be 9581 abbe
00000230: ec58 043f c289 863e c757 fc3e d718 0abe
00000240: 449e 89bd 56d8 cb3e 8021 b23e bc0c 89be
00000250: 5429 12be 8430 5f3d 3c52 0d3f 413b bf3e
00000260: e504 f2be 9d02 f23e 3283 9bbe 65af 073f
00000270: 2873 debe e28f 0f3f bfc8 0f3f 2f1a 09bf
00000280: 96e8 c4bd 4ce1 e6be a4d5 06bf 2223 0a3f
00000290: 0612 0a3e 29fd 0cbe 478e 6abe 95d0 0bbe
000002a0: 60ad 973e 2965 e7bd b731 863d 2696 b93e
000002b0: dd1c 02bf 9889 423e e382 ee3e 4a2b 143f
000002c0: 991b 3e3e eb71 3abe e4f9 a1be bb03 703e
000002d0: 835e 5b3e d703 273d 85ac 833e e7cc c03e
000002e0: adf7 c83e 9841 c33e e0be 56be 3801 f23e
000002f0: 1126 273b 2a42 243e c1a4 8abe e9a3 12be

conv_layers.0.bias f4 [64]
-0.059361633 0.1306584 -0.36666268 -0.35835472 -0.0012791249 0.05475366 0.03872377 0.5488909
0.3698013 -0.534531 0.54641926 0.32719022 0.121915676 0.077078976 -0.33898047 -0.31545302
-0.17765185 -0.32479042 -0.09155487 0.43725744 -0.1226921 0.43230307 -0.51344854 0.56508964
-0.13863246 0.24338418 0.1380749 -0.24566658 -0.3453856 -0.12994616 -0.16957253 -0.51771665
0.59987485 0.19989654 0.6172 0.37844068 0.5288137 -0.0076526413 -0.21174327 0.2696299
-0.083416805 0.17187248 0.42299622 -0.16247825 0.4571112 0.41291675 0.3071892 0.018546512
-0.2549625 -0.21633835 -0.23767255 0.36086076 -0.4446073 0.2011465 -0.18092221 0.5188218
-0.38767427 -0.17465547 0.43406227 -0.12234103 -0.035410248 0.43228692 -0.5301118 -0.22699434
00000000: 2f25 73bd 51cb 053e 36bb bbbe 457a b7be
00000010: 4fa8 a7ba 6045 603d d19c 1e3d 1d84 0c3f
00000020: 9956 bd3e 06d7 08bf 22e2 0b3f 7a85 a73e
00000030: edae f93d 95db 9d3d d98e adbe 0f83 a1be
00000040: 5eea 35be ee4a a6be 1f81 bbbd 35e0 df3e
00000050: ff45 fbbd d456 dd3e 5d71 03bf b7a9 103f
00000060: abf5 0dbe b439 793e 8263 0d3e 0590 7bbe
00000070: 62d6 b0be 9b10 05be 6ca4 2dbe 1489 04bf
00000080: 6691 193f aeb1 4c3e d200 1e3f fac2 c13e
00000090: 5660 073f 02c3 fabb 3ad3 58be ee0c 8a3e
000000a0: 6ed6 aabd 57ff 2f3e f692 d83e b360 26be
000000b0: 7b0a ea3e d369 d33e e747 9d3e dbee 973c
000000c0: 728a 82be cd87 5dbe 6f60 73be bec2 b83e
000000d0: 91a3 e3be 59f9 4d3e ac43 39be 81d1 043f
000000e0: 3e7d c6be e2d8 32be 693d de3e ef8d fabd
000000f0: 560a 11bd b654 dd3e 68b5 07bf 3471 68be

conv_layers.2.weight f4 [32, 64, 3]
-0.020761719 -0.014502887 -0.07171265 0.0639282 0.003630525 -0.06893897 -0.032061096 0.0021209514
-0.0061848117 -0.032890473 0.009548725 -0.009226374 0.042506967 0.038004134 0.055451535 -0.06926987
0.040597375 0.0112808235 -0.06072273 -0.0059753107 0.08514546 0.021808758 0.020068405 0.016870245
0.041177586 0.055096578 -0.051606417 -0.0032966144 -0.007024362 0.073520795 0.02302315 -0.055376187
0.023364417 -0.008072501 0.055550307 -0.075450405 -0.057802014 0.021573124 -0.05233829 0.040083293
0.023666995 0.019326277 0.043704927 -0.06827981 -0.021659896 0.051990386 -0.079539806 -0.021931816
0.051642675 -0.011627261 -0.05218292 -0.0274316 0.08180592 -0.052798603 -0.00061677006 0.031382248
-0.03666105 -0.0038991806 -0.025704322 -0.048513405 0.04880655 0.034316402 0.058626458 0.011837962
0.020878315 -0.01212391 -0.09091599 -0.031395894 -0.05718923 -0.06461613 -0.008227643 0.0050656856
-0.061429717 0.0031441685 -0.03981464 -0.06646911 -0.018107405 -0.06810245 -0.039076988 -0.02871828
0.017830353 -0.048853543 -0.055955667 -0.06544944 -0.020793987 0.042413495 -0.014146071 0.049403388
-0.061480723 0.04609309 -0.0007106274 -0.052049536 0.03719894 -0.0090747345 -0.039681874 -0.01577031
0.03036021 -0.058382142 0.030481718 -0.055924553 0.030702563 0.06566518 -0.046907503 -0.07797324
0.016224153 0.0352616 0.048055157 0.046802 -0.07309644 -0.01230768 0.010318064 -0.028497683
0.011252938 -0.05767059 0.0036200664 -0.057301845 0.006261631 -0.09025818 -0.050349243 -0.027758451
-0.014910525 0.016967239 0.07374941 -0.03744099 -0.04649667 0.043709807 -0.067553565 0.0298039
0.048033636 -0.033727314 -0.047416262 -0.015589148 -0.052771356 0.017436694 0.031991947 0.0017689376
-0.027104635 0.0008625017 0.034010574 0.040950704 -0.03446068 -0.049837764 0.037035298 -0.0021666635
0.062126175 -0.032532964 -0.06303268 -0.01805187 0.05172264 -0.058032505 -0.011471909 -0.025652489
0.059030395 -0.027825061 -0.047858585 -0.007096208 -0.020031873 -0.048734408 0.036317248 0.04507674
0.021487882 0.058033034 0.03059735 -0.013102468 -0.047542416 -0.084059514 -0.051698178 -0.051774822
-0.011923128 -0.06772863 -0.018941738 0.040618084 0.00092084164 0.008843125 -0.06608689 0.026761567
0.06722017 0.027773961 -0.04762399 -0.013558413 0.020728648 0.033498075 0.038848206 0.032848835
-0.04953706 0.012975174 0.0046790238 0.029897863 0.00989273 -0.037778053 0.056078847 0.026850304
0.08175614 -0.0054073995 -0.009013254 -0.004587987 0.019968906 -0.012014196 0.029106779 0.0023072623
-0.055135112 -0.010627721 0.0025339965 0.03710595 0.066499196 0.031385217 -0.0015557065 0.059281558
0.00840472 -0.019205434 0.037762135 0.0135084 0.016498625 -0.046137687 0.004348874 0.021750713
0.031742245 0.018703934 -0.04340612 -0.01796959 -0.036339305 0.032447092 -0.03491862 -0.035936024
-0.05476692 0.024956575 0.085793935 0.08593308 0.044822708 -0.054917317 -0.012776873 -0.012322959
-0.0063553173 -0.061013553 0.026791515 0.0007221265 0.07336097 -0.0024201397 -0.021724686 -0.010942715
0.078594156 0.04140993 0.068821944 0.068554744 -0.034378275 -0.062510006 0.045146182 0.010892256
0.07731466 -0.017572224 -0.05603863 -0.0483082 -0.012487667 -0.029918121 0.04096689 0.07253613
00000000: 7b14 aabc 849d 6dbc 15de 92bd caec 823d
00000010: 1aee 6d3b e02f 8dbd 7f52 03bd a9ff 0a3b
00000020: f6a9 cabb 29b8 06bd 4172 1c3c 382a 17bc
00000030: c91b 2e3d 39aa 1b3d 2621 633d 5ddd 8dbd
00000040: 6f49 263d 34d3 383c 66b8 78bd 8acc c3bb
00000050: be60 ae3d 48a8 b23c 7f66 a43c 7833 8a3c
00000060: d4a9 283d f3ac 613d 4061 53bd 030c 58bb
00000070: 9f2c e6bb 1292 963d 0c9b bc3c 24d2 62bd
00000080: bc66 bf3c 8642 04bc b888 633d be85 9abd
00000090: cec1 6cbd 1fba b03c ad60 56bd 612e 243d
000000a0: 49e1 c13c 2452 9e3c f003 333d 49d6 8bbd
000000b0: 1870 b1bc dff3 543d c4e5 a2bd 5aaa b3bc
000000c0: 4587 533d 4480 3ebc c2bd 55bd 3cb8 e0bc
000000d0: dd89 a73d 5943 58bd bdae 21ba ac8a 003d
000000e0: e629 16bd 6589 7fbb df91 d2bc feb5 46bd
000000f0: 61e9 473d 5b8f 0c3d 4c22 703d 03f4 413c
00000100: 0009 ab3c 5da3 46bc 2a32 babd fb98 00bd
00000110: 413f 6abd 7655 84bd 3ccd 06bc 0dfe a53b
00000120: ba9d 7bbd 650e 4e3b ad14 23bd f520 88bd
00000130: fb55 94bc 4c79 8bbd 310f 20bd 9942 ebbc
00000140: f610 923c a71a 48bd c531 65bd 5b0a 86bd
00000150: 2758 aabc c6b9 2d3d ecc4 67bc 355b 4a3d
00000160: 36d3 7bbd 1ccc 3c3d 6649 3aba e531 55bd
00000170: ea5d 183d 32ae 14bc 7689 22bd bd30 81bc
00000180: fab5 f83c 1d22 6fbd ccb4 f93c 2511 65bd
00000190: f183 fb3c 777b 863d 1522 40bd 6fb0 9fbd
000001a0: 84e8 843c 786e 103d 7cd5 443d 74b3 3f3d
000001b0: 96b3 95bd 27a6 49bc 190d 293c f973 e9bc
000001c0: 3e5e 383c ff37 6cbd a33e 6d3b 57b5 6abd
000001d0: 5e2e cd3b 48d9 b8bd 023b 4ebd b165 e3bc
000001e0: 464b 74bc e1fe 8a3c ee09 973d b95b 19bd
000001f0: 4b73 3ebd 0e09 333d 8659 8abd 4f27 f43c
00000200: ebbe 443d a725 0abd 8e37 42bd a069 7fbc
00000210: c726 58bd 66d7 8e3c fd09 033d b2db e73a
00000220: 8a0a debc 8219 623a ac4e 0b3d edbb 273d
00000230: a426 0dbd af22 4cbd 53b2 173d 95fe 0dbb
00000240: 0478 7e3d 4941 05bd 4717 81bd 84e1 93bc
00000250: 1edb 533d 7eb3 6dbd acf4 3bbc 2b25 d2bc
00000260: dbc9 713d 62f1 e3bc 5d07 44bd 4f87 e8bb
00000270: e219 a4bc bb9d 47bd 65c1 143d 63a2 383d
00000280: 5b07 b03c 0cb4 6d3d 4ba7 fa3c bcab 56bc
00000290: d6bb 42bd 6527 acbd 78c1 53bd d611 54bd
000002a0: 3959 43bc 4fb5 8abd b42b 9bbc 265f 263d
000002b0: a364 713a c1e2 103c 9058 87bd 133b db3c
000002c0: baaa 893d 3886 e33c 5f11 43bd 1b24 5ebc
000002d0: 20cf a93c 4735 093d 4c1f 1f3d 808c 063d
000002e0: 5fe7 4abd d395 543c 7f52 993b 5dec f43c
000002f0: 1e15 223c 29bd 1abd efb2 653d 2bf5 db3c
00000300: c36f a73d 8e30 b1bb 54ac 13bc d356 96bb
00000310: d595 a33c 31d7 44bc 5771 ee3c 7035 173b
00000320: 5bd5 61bd e51f 2ebc 6811 263b 69fc 173d
00000330: bb30 883d c98d 003d d9e8 cbba 38d1 723d
00000340: f3b3 093c b754 9dbc 78ac 1a3d 5652 5d3c
00000350: 2028 873c dffa 3cbd 0081 8e3b 8d2e b23c
00000360: 2804 023d fe38 993c 9eca 31bd f634 93bc
00000370: 86d8 14bd 3ee7 043d d406 0fbd a731 13bd
00000380: 4753 60bd bb71 cc3c bbb4 af3d affd af3d
00000390: 0498 373d fbf0 60bd 1756 51bc 3ce6 49bc
000003a0: 4440 d0bb 59e9 79bd e179 db3c 174d 3d3a
000003b0: 473e 963d 359b 1ebb f8f7 b1bc 1349 33bc
000003c0: f9f5 a03d 759d 293d 85f2 8c3d 6e66 8c3d
000003d0: 3cd0 0cbd 3f05 80bd 34eb 383d 6f75 323c
000003e0: 2657 9e3d a0f3 8fbc c388 65bd d2de 45bd
000003f0: 1299 4cbc d916 f5bc e6cc 273d d38d 943d

conv_layers.2.bias f4 [32]
-0.08037034 0.06368433 -0.0007005698 -0.0065335077 0.08203454 -0.014196323 0.023507826 -0.026423931
-0.043239523 0.011094674 -0.04402401 -0.0012262145 0.073768936 -0.026991509 -0.023553004 0.023655223
-0.0011177711 -0.011298304 0.020284768 0.0055893487 0.06850797 0.0028669538 0.08014325 0.01617877
0.04866023 -0.004641942 0.054934222 -0.03827375 0.053608272 -0.001259784 -0.017309658 0.07336305
00000000: 3499 a4bd ee6c 823d 72a6 37ba 0917 d6bb
00000010: ba01 a83d b297 68bc 7c93 c03c 0077 d8bc
00000020: ed1b 31bd 6fc6 353c 8552 34bd eeb8 a0ba
00000030: 2b14 973d 4c1d ddbc 3bf2 c0bc 99c8 c13c
00000040: 2d82 92ba 861c 39bc 3e2c a63c db26 b73b
00000050: e84d 8c3d 81e3 3b3b 2522 a43d 5789 843c
00000060: f34f 473d 6f1b 98bb b502 613d f0c4 1cbd
00000070: 5994 5b3d 561f a5ba fccc 8dbc 5e3f 963d

lstm.weight_ih_l0 f4 [128, 32]
-0.1404201 0.15534826 -0.13988711 0.030674255 0.061836395 0.169461 -0.15418003 0.0060128253
-0.13054101 -0.041732326 -0.05370622 0.08176316 -0.038495615 0.002298058 0.11781699 -0.052149985
-0.04957724 -0.06783826 0.04579989 0.15712366 -0.07840099 -0.120729096 0.067987755 -0.115116335
-0.06946475 -0.13222137 -0.16966765 0.15339285 -0.11787526 -0.11047086 -0.076220505 -0.01893672
0.0018468574 0.03544708 0.010219927 -0.15913107 0.04379407 0.14551377 -0.104279816 -0.1256955
0.08893852 0.007679962 0.00089132576 -0.100662425 -0.17505638 -0.116182156 -0.10195368 -0.07310683
0.029175103 -0.024329614 0.10713972 0.061139636 0.1784803 0.11759344 -0.034118842 -0.01585852
-0.12501687 0.059560068 -0.081765495 -0.009821049 -0.11703585 0.045368098 -0.13534391 -0.021664184
0.124444745 0.05698961 -0.041597743 0.010154782 0.0845286 0.107558414 0.15907365 0.0077672214
0.008375512 -0.034537613 0.032346305 -0.047562737 0.10092109 -0.020596744 0.0050807237 -0.026591467
0.14322509 0.022648176 0.06873712 -0.092363484 0.025994511 -0.17426658 0.08899855 -0.08397151
0.12922394 -0.15111019 -0.07139777 0.027839713 -0.0041680876 0.07618022 0.13496372 -0.15571006
-0.04123541 -0.15394472 -0.06123441 0.11446807 0.14938535 -0.13087864 0.114738785 -0.0056375456
0.07487481 0.06068875 -0.062805444 -0.13410364 -0.13639125 -0.13900183 -0.06782236 -0.05639982
-0.013484111 0.008935026 0.08042014 0.12760895 0.14975107 -0.0604313 0.09498547 -0.1281662
0.12944803 -0.20056131 -0.08233515 -0.15247093 0.027452406 -0.06464169 0.13676295 0.12141466
0.033148203 -0.11501336 -0.0010784139 0.15495607 -0.03613809 0.17095692 0.113442644 0.078690246
-0.08355253 0.105270594 0.14099707 0.0070247147 -0.14947395 -0.122522295 -0.082533926 0.017884219
0.123382784 0.009213383 0.0495965 0.09122198 0.0035881875 0.11462703 0.00082024856 -0.016224645
0.026587704 -0.101512395 0.041604236 -0.014189448 -0.11674511 -0.10243876 0.18390757 0.10056609
0.13715065 0.087977566 -0.12618075 0.2057465 0.063936554 -0.015884288 0.16895646 -0.025092661
0.06261863 0.17328267 -0.011635211 0.00087658834 0.1843987 -0.028264284 -0.10873919 -0.064824544
0.12374349 0.060813516 0.16748813 0.03624296 0.022960631 -0.07226242 -0.074320704 0.19148095
0.10061213 0.08446302 -0.04851177 -0.09050863 -0.14344835 -0.19845378 -0.06416554 -0.0407225
-0.1289268 0.07330097 0.1595976 0.053333435 -0.05749433 -0.08689662 -0.12124232 -0.098770656
0.07705087 0.085481875 0.08663811 -0.054463863 0.054372042 -0.045861993 0.13311633 0.10772805
-0.075445734 -0.09944353 -0.02856963 -0.12243838 -0.15935838 -0.12661663 0.023340186 0.052095763
-0.0154124955 -0.06529523 0.022651218 -0.09189649 0.095396735 -0.027029647 0.11159516 -0.10527981
0.05748596 0.21926206 -0.0927346 -0.13890374 0.1593131 -0.027349317 -0.14908595 -0.08698372
0.038303144 0.010834311 -0.11858842 -0.051093612 -0.04888844 -0.107570276 0.20052966 -0.01656973
0.1688037 0.07877443 0.106380366 0.14094955 0.13921852 -0.09354444 0.19995727 0.18233946
-0.0053360015 0.17367484 -0.08866079 -0.10587102 -0.025743524 0.17499343 0.09440511 -0.039567675
00000000: 49ca 0fbe 9d13 1f3e 913e 0fbe 9348 fb3c
00000010: 2948 7d3d 2f87 2d3e 5fe1 1dbe 3c07 c53b
00000020: 8bac 05be 84ef 2abd 0efb 5bbd 7273 a73d
00000030: 94ad 1dbd 049b 163b 094a f13d 399b 55bd
00000040: 8111 4bbd c9ee 8abd aa98 3b3d 06e5 203e
00000050: b390 a0bd d140 f7bd 2a3d 8b3d 1dc2 ebbd
00000060: 8943 8ebd 0a65 07be 5bbd 2dbe 0413 1d3e
00000070: 9668 f1bd 8c3e e2bd 7f19 9cbd 2e21 9bbc
00000080: 4012 f23a f530 113d 7b71 273c 41f3 22be
00000090: 6961 333d 9001 153e a890 d5bd 52b6 00be
000000a0: 6625 b63d 31a8 fb3b dca7 693a 1a28 cebd
000000b0: fb41 33be e9f0 edbd 17cd d0bd 09b9 95bd
000000c0: a000 ef3c e64e c7bc 126c db3d 8e6d 7a3d
000000d0: 8ac3 363e d4d4 f03d 33c0 0bbd bae9 81bc
000000e0: 6c04 00be 42f5 733d ab74 a7bd 77e8 20bc
000000f0: 7eb0 efbd e6d3 393d 9897 0abe 1679 b1bc
00000100: e3dc fe3d f06d 693d 6562 2abd 3e60 263c
00000110: 551d ad3d 9647 dc3d 34e4 223e 2d84 fe3b
00000120: 7239 093c 5077 0dbd 8f7d 043d 25d1 42bd
00000130: b7af ce3d 81ba a8bc 337c a63b 59d6 d9bc
00000140: 99a9 123e ab88 b93c 0cc6 8c3d 1129 bdbd
00000150: 71f2 d43c f072 32be df44 b63d 41f9 abbd
00000160: 4853 043e a1bc 1abe fe38 92bd 1c10 e43c
00000170: 7494 88bb 6004 9c3d ee33 0a3e 7572 1fbe
00000180: 76e6 28bd afa3 1dbe efd0 7abd 3c6e ea3d
00000190: 79f8 183e 0d05 06be 2bfc ea3d 29bb b8bb
000001a0: f757 993d c494 783d 24a0 80bd 7752 09be
000001b0: 26aa 0bbe 7f56 0ebe 73e6 8abd 7f03 67bd
000001c0: 76ec 5cbc 3764 123c 50b3 a43d ecab 023e
000001d0: 5858 193e d086 77bd be87 c23d 003e 03be
000001e0: 068e 043e f25f 4dbe 559f a8bd 5721 1cbe
000001f0: dee3 e03c dd62 84bd 960b 0c3e 40a8 f83d
00000200: 69c6 073d 208c ebbd 9159 8dba ceac 1e3e
00000210: 8905 14bd 550f 2f3e 9e54 e83d 5a28 a13d
00000220: 971d abbd 1c98 d73d 8961 103e 942f e63b
00000230: b30f 19be f8ec fabd 8c07 a9bd ed81 923c
00000240: 1db0 fc3d bbf3 163c b325 4b3d 97d2 ba3d
00000250: cc27 6b3b 94c1 ea3d f305 573a 8ce9 84bc
00000260: 75ce d93c bbe5 cfbd 3469 2a3d dc7a 68bc
00000270: 0f18 efbd 6acb d1bd 4452 3c3e 98f5 cd3d
00000280: 3871 0c3e 952d b43d 8735 01be 36af 523e
00000290: 2bf1 823d c41f 82bc ec02 2d3e 208f cdbc
000002a0: 323e 803d 0371 313e 9da1 3ebc d9ca 653a
000002b0: 03d3 3c3e 808a e7bc a7b2 debd bbc2 84bd
000002c0: 3a6d fd3d 9817 793d 0282 2b3e 7f73 143d
000002d0: ef17 bc3c 52fe 93bd 7435 98bd 9513 443e
000002e0: bb0d ce3d f3fa ac3d 47b4 46bd 975c b9bd
000002f0: 20e4 12be 7837 4bbe 3969 83bd a3cc 26bd
00000300: 6305 04be d21e 963d 8e6d 233e 2974 5a3d
00000310: 2d7f 6bbd dbf6 b1bd e54d f8bd 4548 cabd
00000320: d9cc 9d3d 1f11 af3d 526f b13d 8015 5fbd
00000330: 38b5 5e3d c9d9 3bbd a64f 083e 86a0 dc3d
00000340: 4b83 9abd 0da9 cbbd db0a eabc f9c0 fabd
00000350: d82e 23be caa7 01be eb33 bf3c 5e62 553d
00000360: b184 7cbc 81b9 85bd 0c8f b93c 3a34 bcbd
00000370: 5d5f c33d 476d ddbc 018c e43d f19c d7bd
00000380: 6676 6b3d 3c86 603e a3eb bdbd c83c 0ebe
00000390: f922 233e ad0b e0bc fda9 18be 8524 b2bd
000003a0: c2e3 1c3d 6582 313c 7cde f2bd 8947 51bd
000003b0: 3f3f 48bd ce4d dcbd a657 4d3e 3ebd 87bc
000003c0: e1da 2c3e 7d54 a13d f3dd d93d 1455 103e
000003d0: 4d8f 0e3e 3a94 bfbd 99c1 4c3e 32b7 3a3e
000003e0: a0d9 aebb d1d7 313e ca93 b5bd e8d2 d8bd
000003f0: 15e4 d2bc 7a31 333e 7757 c13d b711 22bd

lstm.weight_hh_l0 f4 [128, 32]
-0.16905445 0.08727207 0.06999087 -0.14793222 0.09004677 0.063564986 0.09909959 0.056319106
0.1248744 0.11470804 0.14570227 0.2444028 0.02332574 -0.026941804 0.109727226 -0.062033433
0.07731753 0.0048064096 0.18311894 0.023820719 -0.08242316 0.13023607 0.10981949 0.089167066
-0.018884303 -0.15883473 0.079113714 -0.1278874 -0.16826844 -0.11528529 0.12863372 0.057152
-0.1723491 0.067262754 -0.046993934 0.13689199 0.07383831 0.04460971 0.024277959 -0.14239196
-0.12320234 -0.045556292 -0.11710693 0.035374753 0.1288706 -0.13662192 0.09771393 -0.118914396
0.10796707 0.077340595 0.16879103 -0.144794 0.03434898 0.101829305 -0.14489534 0.11644531
-0.23736434 0.15838483 -0.13952188 0.03248305 -0.033231225 -0.12264039 -0.10433539 0.078644715
0.054238483 0.060258463 0.014534524 -0.0071667545 0.021919694 -0.07368979 -0.009932179 -0.03912301
0.17365207 0.06595413 -0.05196782 0.13249028 0.08244442 -0.18117385 0.17246765 -0.12863217
-0.013392367 0.12540781 0.16577895 0.14395194 -0.06443455 0.11788498 0.046554927 -0.04501163
-0.11180212 0.18741205 0.04956723 -0.1057085 0.13401695 -0.043392472 -0.08289771 -0.1705295
-0.04023035 -0.050720632 0.19316994 0.08391433 -0.17808102 -0.017547851 -0.12971325 -0.14667243
0.035519153 -0.07928284 -0.12674646 -0.007374712 0.17440408 -0.026469417 0.00800151 0.11355862
0.13791528 -0.18107404 -0.1157308 0.12860009 -0.034289163 -0.104886025 0.1833543 -0.10561699
0.14353055 -0.018213086 -0.15508339 -0.07952839 0.1391617 0.13000393 0.0917329 0.10467459
-0.10276573 0.021044567 -0.14730476 0.02431188 -0.026666844 0.034853403 0.1051404 0.03182631
-0.08848441 0.115085445 0.015177374 -0.042474166 0.088918924 -0.012323419 -0.14053266 -0.13612533
0.11306876 -0.0874607 0.0378321 0.13462986 0.087409034 -0.17290287 0.11342979 0.0005216316
0.055924106 -0.02172429 0.11776984 -0.014756101 0.07158123 0.12605543 -0.022977512 0.17184809
0.11202798 0.02976422 -0.06414864 -0.14096332 0.0121839605 -0.13422005 -0.07172878 0.02049308
0.094363876 0.059730284 0.10594479 0.015697887 0.20729741 0.1792171 -0.027789654 -0.17189646
0.08795992 0.010224678 0.0010859101 0.07390307 -0.13185525 -0.122438625 0.10823904 -0.20236498
-0.20342399 -0.059435565 -0.16783005 0.0015503343 -0.15933535 -0.1472047 0.09441366 0.042711973
0.031944353 -0.007516329 -0.030142808 -0.17208956 -0.04457687 0.089158826 0.10064742 0.15487385
-0.180314 0.03224115 0.059448298 0.2166863 -0.13950375 -0.068871364 -0.14269647 -0.036872655
-0.031642564 -0.14119957 0.0029138753 -0.031422675 -0.16773632 -0.09325683 0.15186405 -0.092216656
-0.15662248 -0.16595417 0.07837896 -0.14111876 -0.08892372 -0.0247731 -0.003358549 0.102029346
-0.10429223 -0.16479298 0.07923238 -0.09601228 -0.08856647 -0.17015865 0.05073289 -0.05431706
0.044139534 -0.08005525 -0.13917546 0.10140191 -0.023756718 -0.16063634 0.17062922 0.10394574
-0.12822944 0.09496914 -0.058978714 -0.14042802 0.19668001 0.17724483 -0.054724414 -0.011177228
-0.01203953 0.08621595 -0.0924261 -0.019974517 0.19117959 0.1394394 0.03616537 -0.124928646
00000000: 9c1c 2dbe b3bb b23d 6057 8f3d 8b7b 17be
00000010: 716a b83d 5c2e 823d baf4 ca3d ddae 663d
00000020: 26be ff3d 0dec ea3d fa32 153e ba44 7a3e
00000030: 9f15 bf3c 0fb5 dcbc abb8 e03d c516 7ebd
00000040: a758 9e3d 167f 9d3b 8883 3b3e ab23 c33c
00000050: 79cd a8bd 9b5c 053e 0ae9 e03d 399d b63d
00000060: 41b3 9abc 92a5 22be 5f06 a23d eaf4 02be
00000070: 904e 2cbe b21a ecbd 8fb8 033e 3718 6a3d
00000080: 487c 30be 0ec1 893d b67c 40bd 6a2d 0c3e
00000090: 8a38 973d acb8 363d 92e2 c63c 33cf 11be
000000a0: 8251 fcbd 3c99 3abd c2d5 efbd 1ee5 103d
000000b0: a8f6 033e 9ee6 0bbe 3e1e c83d 6489 f3bd
000000c0: d71d dd3d bf64 9e3d 8ed7 2c3e e144 14be
000000d0: 84b1 0c3d e28b d03d 725f 14be e17a ee3d
000000e0: a30f 73be a22f 223e d3de 0ebe f20c 053d
000000f0: 771d 08bd e32a fbbd cbad d5bd 7b10 a13d
00000100: 2c29 5e3d 94d1 763d 3622 6e3c 18d7 eabb
00000110: ee90 b33c acea 96bd 94ba 22bc 733f 20bd
00000120: d9d1 313e f512 873d 35dc 54bd 88ab 073e
00000130: 9fd8 a83d a385 39be 5c9b 303e 27b8 03be
00000140: a96b 5bbc e86a 003e f5c1 293e 2368 133e
00000150: 43f6 83bd ae6d f13d 61b0 3e3d 1d5e 38bd
00000160: 83f8 e4bd f2e8 3f3e 0207 4b3d b37d d8bd
00000170: bd3b 093e 4ebc 31bd 46c6 a9bd 499f 2ebe
00000180: 94c8 24bd 70c0 4fbd 57ce 453e 47db ab3d
00000190: df5a 36be 83c0 8fbc 8dd3 04be 4c31 16be
000001a0: 887c 113d 0b5f a2bd d3c9 01be 91a7 f1bb
000001b0: fc96 323e 64d6 d8bc c418 033c 6c91 e83d
000001c0: aa39 0d3e 796b 39be 4504 edbd beaf 033e
000001d0: cb72 0cbd 7cce d6bd 3bc1 3b3e b84d d8bd
000001e0: acf9 123e 9c33 95bc 2ece 1ebe c8df a2bd
000001f0: 6880 0e3e c01f 053e 75de bb3d a25f d63d
00000200: d776 d2bd a865 ac3c 0fd7 16be b529 c73c
00000210: 6d74 dabc 71c2 0e3d da53 d73d 4e5c 023d
00000220: 5037 b5bd ebb1 eb3d 85aa 783c 64f9 2dbd
00000230: 201b b63d 2ae8 49bc cbe7 0fbe 7064 0bbe
00000240: 9890 e73d 981e b3bd d5f5 1a3d 69dc 093e
00000250: 8203 b33d 730d 31be e14d e83d 1bbe 083a
00000260: ad10 653d 23f7 b1bc 5031 f13d 93c3 71bc
00000270: 2e99 923d ad14 013e 563b bcbc f2f8 2f3e
00000280: ed6e e53d 18d4 f33c 5d60 83bd b058 10be
00000290: 3c9f 473c fb70 09be 8ae6 92bd 1be1 a73c
000002a0: d941 c13d bea7 743d 95f9 d83d db98 803c
000002b0: c645 543e b084 373e 21a7 e3bc a005 30be
000002c0: 5524 b43d 6885 273c 1955 8e3a 7e5a 973d
000002d0: 1005 07be 1ac1 fabd 6eac dd3d c438 4fbe
000002e0: 614e 50be b572 73bd a4db 2bbe 9634 cb3a
000002f0: ce28 23be d4bc 16be f35b c13d c0f2 2e3d
00000300: 15d8 023d 8a4b f6bb 0dee f6bc 3f38 30be
00000310: 3c96 36bd e798 b63d 3c20 ce3d 4097 1e3e
00000320: 3ca4 38be 4c0f 043d 0f80 733d 03e3 5d3e
00000330: 12da 0ebe 6e0c 8dbd 061f 12be c807 17bd
00000340: a29b 01bd 9f96 10be b7f6 3e3b 10b5 00bd
00000350: 12c3 2bbe 70fd bebd 4082 1b3e 16dc bcbd
00000360: a561 20be e4ef 29be 2685 a03d 7081 10be
00000370: a41d b6bd f5f0 cabc 1a1b 5cbb c3f4 d03d
00000380: 2a97 d5bd 7ebf 28be 9644 a23d 16a2 c4bd
00000390: 5662 b5bd 123e 2ebe 4acd 4f3d 917b 5ebd
000003a0: a8cb 343d 02f4 a3bd 0384 0ebe ceab cf3d
000003b0: 739d c2bc da7d 24be 6db9 2e3e 81e1 d43d
000003c0: 944e 03be 2e7f c23d aa93 71bd 5dcc 0fbe
000003d0: 7c66 493e ab7f 353e b526 60bd b120 37bc
000003e0: 7341 45bc fd91 b03d e549 bdbd 99a1 a3bc
000003f0: 95c4 433e 34c9 0e3e 2422 143d 97da ffbd

lstm.bias_ih_l0 f4 [128]
-0.04496288 0.021710947 0.16493087 0.1521177 -0.03614429 0.119897306 0.045080766 0.019579045
0.012785125 -0.0061890394 -0.12107349 0.020516427 -0.04066817 -0.07199709 -0.10353576 0.086920686
0.11541269 0.14837798 -0.1076428 -0.08487553 -0.06409176 0.020949973 0.045230616 0.17791356
-0.046437703 0.14318839 0.1562283 0.022333382 0.015568903 0.09167021 0.0935351 0.17246753
0.027492188 0.17832808 -0.10023117 0.11650848 -0.00093456 0.018645454 -0.13261124 0.17342496
-0.14813808 -0.041279525 -0.0070579876 0.08883385 0.044309992 0.065124765 -0.06497151 -0.008531868
-0.08379286 -0.085167505 0.029307352 0.05409376 0.071420364 -0.033354588 0.18978865 0.12969625
0.03460522 0.07429214 -0.06341721 0.021489503 -0.06035242 0.039024938 0.09407386 -0.11339526
0.13965365 -0.10456947 0.114344925 -0.12912156 0.089014 0.04158654 -0.16900036 0.15122251
0.10971079 0.14618292 -0.02916934 0.10138889 -0.0110483235 0.02551232 -0.078191996 0.1284976
-0.015468244 -0.13495041 -0.10095998 0.028316949 0.12947167 0.13986228 -0.16693851 0.07077179
0.07227483 0.014087582 -0.07053857 0.0072051617 -0.052338652 -0.053875078 -0.13181952 0.11519309
0.17227586 0.14602889 0.01338973 -0.12018274 -0.10449301 0.12804295 -0.093483016 -0.06253436
0.0109581705 -0.030163407 0.11217271 0.024712978 -0.053026836 0.19242842 0.13953874 0.14547789
0.14122622 0.027583228 0.01773826 -0.14621831 0.10353616 0.04056323 0.10269977 -0.13047507
0.017616104 0.09982949 0.048249792 -0.12029364 0.078112766 0.034871023 -0.0005030134 -0.059102163
00000000: ff2a 38bd 28db b13c a3e3 283e bec4 1b3e
00000010: 090c 14bd b88c f53d 9ca6 383d 3c64 a03c
00000020: b378 513c 6dcd cabb 61f5 f7bd 1112 a83c
00000030: ab93 26bd 3673 93bd 8e0a d4bd 7903 b23d
00000040: 7d5d ec3d 66f0 173e d473 dcbd 39d3 adbd
00000050: 8a42 83bd 479f ab3c bd43 393d f92e 363e
00000060: 7635 3ebd fa9f 123e 50fa 1f3e 7ff4 b63c
00000070: b614 7f3c 97bd bb3d 558f bf3d 549b 303e
00000080: 4c37 e13c a39b 363e 0046 cdbd ff9b ee3d
00000090: 43fd 74ba 5abe 983c 3ecb 07be 5096 313e
000000a0: 82b1 17be b814 29bd b146 e7bb 86ee b53d
000000b0: 657e 353d 2260 853d c80f 85bd 40c9 0bbc
000000c0: 979b abbd 4d6c aebd f915 f03c 6b91 5d3d
000000d0: d744 923d d29e 08bd f557 423e 18cf 043e
000000e0: 34be 0d3d 7a26 983d e2e0 81bd c10a b03c
000000f0: 1934 77bd 9dd8 1f3d cca9 c03d c63b e8bd
00000100: 5e01 0f3e 8528 d6bd ac2d ea3d 7138 04be
00000110: f94c b63d a656 2a3d 6e0e 2dbe 13da 1a3e
00000120: 0db0 e03d fab0 153e 8af4 eebc faa4 cf3d
00000130: 0704 35bc 37ff d03c 2023 a0bd e094 033e
00000140: 856e 7dbc 7130 0abe 1bc4 cebd f2f8 e73c
00000150: 3994 043e 0f38 0f3e eef1 2abe cdf0 903d
00000160: d304 943d 9acf 663c 8776 90bd 4719 ec3b
00000170: 0e61 56bd 1dac 5cbd b2fb 06be 5bea eb3d
00000180: 1569 303e 9988 153e 9960 5b3c 5e22 f6bd
00000190: 6e00 d6bd b11d 033e 0674 bfbd 0412 80bd
000001a0: e689 333c 4019 f7bc ceba e53d df72 ca3c
000001b0: ab32 59bd f50b 453e 3ee3 0e3e 28f8 143e
000001c0: 9b9d 103e 39f6 e13c d44f 913c 41ba 15be
000001d0: c40a d43d a125 263d 4254 d23d 429b 05be
000001e0: a64f 903c 6773 cc3d 93a1 453d 835c f6bd
000001f0: 96f9 9f3d ebd4 0e3d a8dc 03ba 1c15 72bd

lstm.bias_hh_l0 f4 [128]
-0.03841482 0.024044288 0.08003952 0.13189864 -0.06782269 -0.09219084 0.0035692363 -0.12663405
-0.096367575 0.10010815 0.0042506587 0.04874199 -0.07442354 0.04029683 -0.0059054056 0.19445884
0.1585592 -0.00969377 0.15122592 -0.030204624 0.0741889 0.061278623 0.15878473 -0.0100853145
-0.13163537 0.13532764 -0.12889884 -0.0920958 0.19320504 -0.123953655 -0.1358501 -0.037730187
0.033658773 -0.043472074 -0.10244531 0.10892241 0.1091349 0.13933638 0.02258139 -0.043752164
-0.15051648 0.081002 -0.075376324 0.006044461 -0.023111822 -0.027111083 0.013476512 0.014987024
-0.064463675 -0.08760358 -0.051505595 -0.11347862 -0.017024083 -0.10515068 0.10269012 -0.042934638
0.10990407 0.15483204 0.14419888 -0.09509503 -0.043368075 -0.07338521 0.14971472 0.056712594
-0.11821672 0.13629812 -0.032420512 -0.062479824 -0.043796364 0.021553501 0.030723292 0.124035604
0.013156494 -0.09040794 0.14243211 0.006840107 0.081043765 -0.022536451 -0.16197933 -0.07748038
-0.09102881 -0.1373812 -0.06680811 0.04242861 0.06757355 -0.088862464 0.024605114 -0.15197869
-0.078744344 0.045296013 -0.17120497 0.16916543 -0.13323091 0.05353118 -0.05732733 -0.005885335
0.11916313 0.054131854 0.20565748 0.14715545 0.037481997 0.09648786 0.107220635 -0.011889706
-0.15702426 0.10554726 -0.09883911 0.07430906 -0.08538389 -0.103554614 0.03569935 0.10662566
0.18194994 0.11648138 -0.016296854 0.06481017 -0.042658087 0.17564845 -0.092882656 0.09279183
-0.08416007 -0.0049536224 0.08526283 -0.07577571 -0.14952962 0.16093375 0.17799975 -0.013806208
00000000: dc58 1dbd 87f8 c43c c3eb a33d 7010 073e
00000010: 9fe6 8abd 8dce bcbd d9e9 693b 5bac 01be
00000020: 5d5c c5bd 8005 cd3d 1c49 8b3b aea5 473d
00000030: 5e6b 98bd 4a0e 253d 2282 c1bb 3820 473e
00000040: 585d 223e 9ed2 1ebc f8da 1a3e b06f f7bc
00000050: 5af0 973d 4bff 7a3d 7798 223e e03c 25bc
00000060: 6ccb 06be 5493 0a3e 0ffe 03be b99c bcbd
00000070: 8bd7 453e 6adb fdbd 4a1c 0bbe f88a 1abd
00000080: c8dd 093d c60f 32bd d9ce d1bd b612 df3d
00000090: 1e82 df3d 32ae 0e3e 9bfc b83c 7835 33bd
000000a0: fe20 1abe 60e4 a53d e75e 9abd 9d10 c63b
000000b0: 0155 bdbc 1018 debc 97cc 5c3c 228c 753c
000000c0: 8805 84bd 8169 b3bd 88f7 52bd 7b67 e8bd
000000d0: 1776 8bbc 3d59 d7bd 334f d23d 3bdc 2fbd
000000e0: 6315 e13d 4a8c 1e3e dfa8 133e 2fc1 c2bd
000000f0: b9a2 31bd fc4a 96bd d14e 193e 774b 683d
00000100: 9c1b f2bd bc91 0b3e 5fcb 04bd d8ea 7fbd
00000110: d163 33bd f890 b03c 6aaf fb3c 6106 fe3d
00000120: 568e 573c cc27 b9bd b9d9 113e fa22 e03b
00000130: 46fa a53d 5d9e b8bc e9dd 25be 09ae 9ebd
00000140: 506d babd a8ad 0cbe b1d2 88bd 9fc9 2d3d
00000150: 0064 8a3d 86fd b5bd aa90 c93c 4da0 1bbe
00000160: b744 a1bd 5088 393d 5b50 2fbe b439 2d3e
00000170: af6d 08be 8343 5b3d 10d0 6abd c5d9 c0bb
00000180: cd0b f43d 5db9 5d3d e097 523e ebaf 163e
00000190: b986 193d 6d9b c53d 7e96 db3d 0bcd 42bc
000001a0: f8ca 20be 2929 d83d 296c cabd 592f 983d
000001b0: c0dd aebd 7114 d4bd 7b39 123d 8e5e da3d
000001c0: 1651 3a3e ca8d ee3d fb80 85bc 32bb 843d
000001d0: 3fba 2ebd 30dd 333e 4339 bebd a509 be3d
000001e0: 1d5c acbd ff51 a2bb 479e ae3d 4c30 9bbd
000001f0: 4b1e 19be d1cb 243e 9145 363e 6f33 62bc

att.in_proj_weight f4 [96, 32]
0.03187345 0.084680006 -0.19304615 -0.11739551 -0.012268346 -0.074342266 -0.08364398 0.017132416
-0.18865643 0.009044756 0.21005455 0.17910999 -0.07331894 0.06760876 -0.16593185 0.06986611
0.06039586 0.10936649 0.0334755 -0.16715977 0.2008506 0.062061455 0.18932272 -0.19630535
0.15002921 0.14032017 -0.03527381 -0.16094452 0.049724896 0.21622667 0.043684345 0.0060297344
-0.06851999 -0.007858988 -0.029583184 -0.09112233 0.19171385 0.1730696 -0.11818113 0.17244408
-0.07863708 0.13736616 0.0502639 -0.088465676 -0.19293994 -0.082540855 0.01808306 -0.0834837
0.010433982 -0.054840066 0.014551202 0.0586167 0.06736731 0.11202359 -0.13623849 -0.18196422
0.17289132 0.14936346 -0.15472668 -0.030661818 0.12549476 0.046943422 0.054611705 0.13014556
-0.00028800897 -0.17293414 0.16852637 -0.12502377 -0.14822342 0.044645853 -0.21073954 0.06145805
-0.1877776 0.15914536 0.19078459 0.17759918 0.03191681 0.19283004 0.2079865 0.18310621
-0.039966814 0.09712822 -0.052799948 0.046985 -0.14740966 0.119198136 -0.08256948 -0.13515678
0.15601927 -0.12880275 -0.19191757 -0.15309833 0.116691664 0.20283677 -0.06331226 -0.18609639
-0.12120318 0.08446643 -0.02544248 -0.008405299 0.19877432 -0.092196345 -0.12176087 0.0076844115
-0.12852803 -0.15458083 0.045573425 0.17624234 -0.15153284 -0.076725885 0.039349604 -0.13968506
-0.056564018 -0.00031794806 0.14182027 0.21094498 -0.1408377 -0.018018717 0.06312463 0.067247525
0.07549879 -0.18451728 -0.0066901497 -0.12567429 0.06984077 0.13161099 -0.1116198 -0.16586132
-0.003363374 -0.15729555 -0.17567773 0.10196338 -0.12757212 -0.15605423 -0.18486471 -0.090144254
-0.114949286 0.14859018 0.085875094 0.015421449 -0.002864578 0.10105682 0.045219935 -0.09347389
0.14163287 -0.035133068 -0.037430637 -0.05161338 -0.12571357 0.1956458 -0.028992636 0.08302698
-0.029747438 -0.018826015 0.07320605 0.1256664 -0.10367399 0.18645121 0.12529446 -0.10045339
-0.092981316 0.06746115 0.16184008 0.11164956 0.03438725 -0.07866942 0.18020204 -0.123259835
-0.19372796 0.019234426 -0.17149374 0.113314405 -0.1086151 0.05806399 0.11618825 -0.13229927
-0.0101139955 0.19255076 -0.008889512 -0.16123737 0.039434362 0.1569444 -0.0032454499 -0.010022062
-0.09016973 0.14738308 -0.15503523 0.11725506 -0.09347975 -0.006925533 -0.18685082 -0.11558144
-0.0921823 0.050885294 -0.08413981 0.17629942 0.02215558 -0.10594709 -0.02168858 0.022502227
0.054130975 -0.15104711 -0.1116039 -0.04280375 -0.1327381 0.0036347099 -0.17426166 0.17026918
-0.07198838 0.02031195 -0.031956892 0.031698793 -0.09614175 -0.21545729 0.03847319 0.038007945
-0.030626692 0.1862533 -0.08742155 0.13857423 -0.16657595 0.12456394 0.21455362 -0.1782276
0.025154702 0.16787398 0.17933977 0.0940544 0.02543587 -0.021312715 -0.2030488 0.0489791
0.17039286 0.16008483 -0.17851487 0.108266026 0.14024416 -0.16214907 -0.20630966 -0.080951914
-0.06848848 0.14367792 -0.06515205 -0.097485244 0.07441939 -0.12131103 -0.19257262 -0.10060311
-0.09848317 0.0043313876 0.20145643 -0.12638457 0.05967786 0.16849294 0.05215471 -0.115828775
00000000: bc8d 023d b66c ad3d e4ad 45be 0f6d f0bd
00000010: 2c01 49bc c240 98bd 894d abbd 4859 8c3c
00000020: 272f 41be 7530 143c 8a18 573e 9c68 373e
00000030: 3e28 96bd 7676 8a3d 0aea 29be f715 8f3d
00000040: a661 773d 8afb df3d 9b1d 093d ee2b 2bbe
00000050: c8ab 4d3e 2734 7e3d d1dd 413e 4504 49be
00000060: 42a1 193e 17b0 0f3e 457b 10bd a4ce 24be
00000070: 55ac 4b3d 866a 5d3e 5bee 323d 1495 c53b
00000080: 3554 8cbd fcc2 00bc 6f58 f2bc 589e babd
00000090: a350 443e 2839 313e f308 f2bd 2e95 303e
000000a0: 7a0c a1bd b7a9 0c3e 85e1 4d3d 7e2d b5bd
000000b0: 0c92 45be 2e0b a9bd ed22 943c 81f9 aabd
000000c0: 4bf3 2a3c fa9f 60bd 2a68 6e3c 1118 703d
000000d0: dff7 893d a06c e53d 1a82 0bbe d454 3abe
000000e0: 6c0a 313e bcf2 183e ac70 1ebe 7e2e fbbc
000000f0: b381 003e bf47 403d 86b0 5f3d e144 053e
00000100: e9ff 96b9 a615 31be 2d92 2c3e 3b06 00be
00000110: e1c7 17be 92de 363d 1bcc 57be 70bb 7b3d
00000120: c548 40be 00f7 223e 095d 433e 8fdc 353e
00000130: 33bb 023d 3d75 453e 6afa 543e 3280 3b3e
00000140: 3eb4 23bd 29eb c63d c244 58bd 5873 403d
00000150: 8ff2 16be 271e f43d 301a a9bd 8a66 0abe
00000160: 84c3 1f3e dee4 03be 0a86 44be cfc5 1cbe
00000170: 0afc ee3d 71b4 4f3e dca9 81bd 0d90 3ebe
00000180: 5f39 f8bd bcfc ac3d bf6c d0bc 61b6 09bc
00000190: 7f8b 4b3e 70d1 bcbd c35d f9bd 84cd fb3b
000001a0: da9c 03be 704a 1ebe 33ab 3a3d df78 343e
000001b0: 6d2b 1bbe 7622 9dbd 0d2d 213d 9a09 0fbe
000001c0: acaf 67bd 44b2 a6b9 5539 113e f601 583e
000001d0: c237 10be fd9b 93bc 7c47 813d 12b9 893d
000001e0: 1c9f 9a3d 19f2 3cbe 0b39 dbbb c3b0 00be
000001f0: ad08 8f3d 08c5 063e ec98 e4bd 8dd7 29be
00000200: 0d6c 5cbb 1612 21be dde4 33be 2dd2 d03d
00000210: 44a2 02be aecc 1fbe 2d4d 3dbe 8d9d b8bd
00000220: 886a ebbd 0628 183e 48df af3d 3faa 7c3c
00000230: a5bb 3bbb e1f6 ce3d 8a38 393d 3d6f bfbd
00000240: 3508 113e b1e7 0fbd de50 19bd 8d68 53bd
00000250: 0fbb 00be 5f57 483e f781 edbc 0d0a aa3d
00000260: e6b0 f3bc 0439 9abc 0eed 953d b1ae 003e
00000270: 0753 d4bd 11ed 3e3e 314d 003e 82ba cdbd
00000280: fd6c bebd 1229 8a3d 68b9 253e 86a8 e43d
00000290: a5d9 0c3d 6f1d a1bd e286 383e a76f fcbd
000002a0: 9f60 46be 8491 9d3c 0e9c 2fbe 6211 e83d
000002b0: 9871 debd 82d4 6d3d 1bf4 ed3d 7679 07be
000002c0: 2cb5 25bc 072c 453e 51a5 11bc 691b 25be
000002d0: ed85 213d 08b6 203e 9db1 54bb 9333 24bc
000002e0: e8aa b8bd 97eb 163e 8ec1 1ebe 6c23 f03d
000002f0: 5072 bfbd 95ef e2bb d255 3fbe f6b5 ecbd
00000300: 13ca bcbd 196d 503d 7e51 acbd d687 343e
00000310: 9e7f b53c cafa d8bd 40ac b1bc 9756 b83c
00000320: 71b8 5d3d 18ac 1abe 9690 e4bd fc52 2fbd
00000330: 7fec 07be 5034 6e3b a671 32be 0b5b 2e3e
00000340: a56e 93bd 3f65 a63c 3be5 02bd 98d6 013d
00000350: f7e5 c4bd d6a0 5cbe 1096 1d3d 38ae 1b3d
00000360: d4e4 fabc 2fb9 3e3e 120a b3bd 67e6 0d3e
00000370: e392 2abe 611b ff3d f2b3 5b3e 4c81 36be
00000380: 3c11 ce3c 28e7 2b3e d8a4 373e 989f c03d
00000390: e35e d03c 0198 aebc 06ec 4fbe 4f9e 483d
000003a0: 777b 2e3e 47ed 233e 9acc 36be 94ba dd3d
000003b0: 2a9c 0f3e 680a 26be d742 53be 1eca a5bd
000003c0: b043 8cbd 4e20 133e 706e 85bd 58a6 c7bd
000003d0: 3169 983d eb71 f8bd c231 45be 0109 cebd
000003e0: 8bb1 c9bd 50ee 8d3b 984a 4e3e f56a 01be
000003f0: c670 743d 6a89 2c3e 2da0 553d a337 edbd

att.in_proj_bias f4 [96]
0.0 0.0 0.0 0.0 0.0 0.0 0.0 0.0
0.0 0.0 0.0 0.0 0.0 0.0 0.0 0.0
0.0 0.0 0.0 0.0 0.0 0.0 0.0 0.0
0.0 0.0 0.0 0.0 0.0 0.0 0.0 0.0
0.0 0.0 0.0 0.0 0.0 0.0 0.0 0.0
0.0 0.0 0.0 0.0 0.0 0.0 0.0 0.0
0.0 0.0 0.0 0.0 0.0 0.0 0.0 0.0
0.0 0.0 0.0 0.0 0.0 0.0 0.0 0.0
0.0 0.0 0.0 0.0 0.0 0.0 0.0 0.0
0.0 0.0 0.0 0.0 0.0 0.0 0.0 0.0
0.0 0.0 0.0 0.0 0.0 0.0 0.0 0.0
0.0 0.0 0.0 0.0 0.0 0.0 0.0 0.0
00000000: 0000 0000 0000 0000 0000 0000 0000 0000
00000010: 0000 0000 0000 0000 0000 0000 0000 0000
00000020: 0000 0000 0000 0000 0000 0000 0000 0000
00000030: 0000 0000 0000 0000 0000 0000 0000 0000
00000040: 0000 0000 0000 0000 0000 0000 0000 0000
00000050: 0000 0000 0000 0000 0000 0000 0000 0000
00000060: 0000 0000 0000 0000 0000 0000 0000 0000
00000070: 0000 0000 0000 0000 0000 0000 0000 0000
00000080: 0000 0000 0000 0000 0000 0000 0000 0000
00000090: 0000 0000 0000 0000 0000 0000 0000 0000
000000a0: 0000 0000 0000 0000 0000 0000 0000 0000
000000b0: 0000 0000 0000 0000 0000 0000 0000 0000
000000c0: 0000 0000 0000 0000 0000 0000 0000 0000
000000d0: 0000 0000 0000 0000 0000 0000 0000 0000
000000e0: 0000 0000 0000 0000 0000 0000 0000 0000
000000f0: 0000 0000 0000 0000 0000 0000 0000 0000
00000100: 0000 0000 0000 0000 0000 0000 0000 0000
00000110: 0000 0000 0000 0000 0000 0000 0000 0000
00000120: 0000 0000 0000 0000 0000 0000 0000 0000
00000130: 0000 0000 0000 0000 0000 0000 0000 0000
00000140: 0000 0000 0000 0000 0000 0000 0000 0000
00000150: 0000 0000 0000 0000 0000 0000 0000 0000
00000160: 0000 0000 0000 0000 0000 0000 0000 0000
00000170: 0000 0000 0000 0000 0000 0000 0000 0000

att.out_proj.weight f4 [32, 32]
0.013730811 -0.12848157 0.11429254 -0.0026590656 -0.06809749 0.13510315 0.05388841 -0.07706003
-0.145413 0.014280069 -0.075060375 -0.04054489 0.07413902 0.12825236 -0.1455745 -0.09291277
-0.074064426 0.11972659 -0.020158036 -0.019237908 -0.07198768 -0.16828893 -0.09562359 -0.16361046
0.03816313 0.09812553 0.14257474 0.036478076 0.09707553 0.010730461 0.07067078 -0.12344586
0.16178149 -0.045274504 -0.11513604 -0.11995431 0.17530772 0.17631951 -0.093091615 -0.16392656
-0.09578853 0.11712047 0.080583975 -0.12851077 0.080444716 -0.0012644265 0.0020388537 -0.08709433
-0.1737288 0.11619576 -0.14478943 0.14597438 0.13792095 0.090010196 -0.09887073 -0.083694264
-0.027573185 0.14055632 -0.0440447 -0.03338534 -0.106809996 -0.09915859 -0.16023707 0.075574584
-0.0015952581 -0.052210335 -0.06158567 -0.053045664 -0.10169609 0.14065674 0.0027273016 -0.11445257
-0.1378158 0.11329178 -0.046775013 -0.02209696 -0.07998983 0.011402492 -0.010361212 0.064100154
0.0555487 0.07192644 -0.05835115 0.0042013032 -0.01143895 0.072368056 0.0012294025 0.08152741
-0.080074586 -0.15950523 0.028672796 0.050271727 -0.13599654 0.121414386 -0.15604283 0.09032468
0.09474365 0.13857177 -0.06120816 0.019124933 -0.10987519 -0.14103001 0.16186383 -0.12214293
-0.009029646 0.07170515 0.115085006 -0.10308266 -0.16796477 -0.017316116 -0.09531084 -0.13863978
-0.15409718 -0.079357564 -0.036818516 0.01904576 -0.14008667 0.10729536 -0.106045745 -0.11416732
0.078834265 0.15824541 0.06471638 -0.035628647 -0.122317046 0.003974595 0.09648406 0.09627602
0.1655058 0.08110192 0.13485822 0.07618142 -0.059196323 -0.01964199 0.12930083 -0.11472614
0.086965635 0.12278511 -0.042368583 0.14503443 0.10042919 -0.14693406 0.15404427 0.093706116
-0.08781785 -0.07518049 -0.088604346 -0.047258522 -0.16781926 -0.16535632 0.1482875 0.0063660285
-0.14013553 -0.17178425 0.16925405 0.1350282 -0.17099267 0.08147652 -0.041582733 -0.14656067
-0.1346151 0.09580883 0.030438138 0.115684986 -0.019267663 -0.1601936 -0.05839043 0.13741623
0.08909035 -0.06799846 -0.03133696 -0.13786224 0.046502955 0.17665634 0.05876455 -0.099706165
-0.17006713 0.039662693 -0.062359273 -0.04126406 -0.100698724 -0.058530718 -0.089518026 -0.050594658
0.059978735 -0.1518484 0.014088448 -0.07315312 0.06792675 -0.09527904 0.035935625 0.14698933
0.13993981 0.10817682 -0.01676022 0.11694593 0.11193899 0.115082264 -0.13080314 0.114729285
0.14179835 -0.020839361 -0.08310973 0.16713548 0.0567148 -0.1429283 -0.07598506 -0.0256794
0.10141383 0.10263025 -0.015748907 0.1065054 -0.09767827 0.07549986 -0.059572566 0.0957377
-0.1568827 0.040279638 0.018414484 -0.11879268 -0.17259672 0.1013504 0.015109982 -0.14784712
-0.15096332 -0.09017811 0.12277999 -0.0409566 0.027403902 -0.11345401 -0.08996251 -0.11147335
0.033709638 -0.06725077 0.12493765 -0.06918769 -0.104768336 0.030039238 0.027917271 0.12358282
0.15302445 -0.087558605 -0.14926742 0.111135274 -0.04116567 -0.11337285 0.17372599 0.1458398
0.041848216 -0.1621956 0.100942396 -0.022090554 -0.17666201 0.13886994 -0.044473268 -0.07650329
00000000: 32f7 603c ac90 03be 3512 ea3d b843 2ebb
00000010: b276 8bbd 7b58 0a3e 18ba 5c3d a6d1 9dbd
00000020: 25e7 14be f3f6 693c 41b9 99bd 6612 26bd
00000030: 33d6 973d 9654 033e 7b11 15be 0d49 bebd
00000040: 17af 97bd 3733 f53d 7722 a5bc d198 9dbc
00000050: 476e 93bd ef53 2cbe 4dd6 c3bd 8089 27be
00000060: f150 1c3d 0af6 c83d 1dff 113e 096a 153d
00000070: 89cf c63d d1ce 2f3c d8bb 903d 2fd1 fcbd
00000080: 0caa 253e c271 39bd 72cc ebbd 9baa f5bd
00000090: de83 333e 1a8d 343e d1a6 bebd 5ddc 27be
000000a0: c72c c4bd dbdc ef3d 3609 a53d 5498 03be
000000b0: 33c0 a43d 1dbb a5ba 4a9e 053b 835e b2bd
000000c0: f6e5 31be 0bf8 ed3d ae43 14be 4f7a 153e
000000d0: 263b 0d3e 4457 b83d bd7c cabd e667 abbd
000000e0: 29e1 e1bc ffed 0f3e 3768 34bd 11bf 08bd
000000f0: 33bf dabd a913 cbbd 3015 24be d9c6 9a3d
00000100: fb17 d1ba 81da 55bd 4141 7cbd 6946 59bd
00000110: 0a46 d0bd 5208 103e 87bc 323b 1c66 eabd
00000120: 961f 0dbe 8505 e83d 2897 3fbd af04 b5bc
00000130: b5d1 a3bd 85d1 3a3c 13c2 29bc f146 833d
00000140: 0987 633d 2b4e 933d 9e01 6fbd 16ab 893b
00000150: 6f6a 3bbc b435 943d e723 a13a d8f7 a63d
00000160: 25fe a3bd 5755 23be 36e3 ea3c bae9 4d3d
00000170: ad42 0bbe 1ba8 f83d b1c9 1fbe 25fc b83d
00000180: f508 c23d c2e5 0d3e 68b5 7abd e4ab 9c3c
00000190: 3e06 e1bd 2c6a 10be a2bf 253e 1326 fabd
000001a0: 15f1 13bc 26da 923d b0b1 eb3d 001d d3bd
000001b0: f5fe 2bbe 87da 8dbc 5432 c3bd 96f7 0dbe
000001c0: a7cb 1dbe 3886 a2bd 03cf 16bd db05 9c3c
000001d0: e172 0fbe abbd db3d 832e d9bd 8ed0 e9bd
000001e0: dc73 a13d 160b 223e 058a 843d 58ef 11bd
000001f0: 5c81 fabd 523d 823b 6f99 c53d 5d2c c53d
00000200: 5a7a 293e c318 a63d 4618 0a3e 0105 9c3d
00000210: d877 72bd 3de8 a0bc 7067 043e 8af5 eabd
00000220: 0a1b b23d c276 fb3d ae8a 2dbd e883 143e
00000230: d2ad cd3d e275 16be c8bd 1d3e fee8 bf3d
00000240: d8d9 b3bd 3bf8 99bd 3276 b5bd 2792 41bd
00000250: d0d8 2bbe 2b53 29be aed8 173e 1e9a d03b
00000260: b07f 0fbe 36e8 2fbe ef50 2d3e d544 0a3e
00000270: b418 2fbe 29dd a63d a852 2abd 0014 16be
00000280: 8ad8 09be 6b37 c43d 6759 f93c 40ec ec3d
00000290: 38d7 9dbc cb09 24be ce2a 6fbd d7b6 0c3e
000002a0: 0075 b63d c742 8bbd 2f5b 00bd c22b 0dbe
000002b0: e279 3e3d 66e5 343e 19b3 703d bf32 ccbd
000002c0: 1426 2ebe 5975 223d 706c 7fbd 8104 29bd
000002d0: 223b cebd e8bd 6fbd 3a55 b7bd 583c 4fbd
000002e0: 43ac 753d 267e 1bbe 3cd3 663c 4ed1 95bd
000002f0: 2e1d 8b3d a821 c3bd 3c31 133d 5f84 163e
00000300: 624c 0f3e cf8b dd3d bb4c 89bc 5981 ef3d
00000310: 4540 e53d 40b0 eb3d 42f1 05be 30f7 ea3d
00000320: 9633 113e 4fb7 aabc 6f35 aabd 9025 2b3e
00000330: c74d 683d cc5b 12be 0e9e 9bbd 9b5d d2bc
00000340: 0eb2 cf3d cf2f d23d da03 81bc 811f da3d
00000350: 8b0b c8bd ac9f 9a3d 5d02 74bd 2112 c43d
00000360: dca5 20be 43fc 243d f9d9 963c 9449 f3bd
00000370: 32bd 30be cc90 cf3d dc8f 773c 3c65 17be
00000380: 2196 1abe 4daf b8bd 1374 fb3d 1cc2 27bd
00000390: 267e e03c 935a e8bd 443e b8bd 244c e4bd
000003a0: 1e13 0a3d c6ba 89bd 50df ff3d 47b2 8dbd
000003b0: c890 d6bd d914 f63c c3b2 e43c fd18 fd3d
000003c0: 71b2 1c3e ed51 b3bd 8fd9 18be e49a e33d
000003d0: 559d 28bd 0630 e8bd 3ae5 313e 0757 153e
000003e0: 0969 2b3d 9a16 26be e3ba ce3d 40f7 b4bc
000003f0: e3e6 34be ec33 0e3e 9a29 36bd c2ad 9cbd

att.out_proj.bias f4 [32]
0.0 0.0 0.0 0.0 0.0 0.0 0.0 0.0
0.0 0.0 0.0 0.0 0.0 0.0 0.0 0.0
0.0 0.0 0.0 0.0 0.0 0.0 0.0 0.0
0.0 0.0 0.0 0.0 0.0 0.0 0.0 0.0
00000000: 0000 0000 0000 0000 0000 0000 0000 0000
00000010: 0000 0000 0000 0000 0000 0000 0000 0000
00000020: 0000 0000 0000 0000 0000 0000 0000 0000
00000030: 0000 0000 0000 0000 0000 0000 0000 0000
00000040: 0000 0000 0000 0000 0000 0000 0000 0000
00000050: 0000 0000 0000 0000 0000 0000 0000 0000
00000060: 0000 0000 0000 0000 0000 0000 0000 0000
00000070: 0000 0000 0000 0000 0000 0000 0000 0000
