checkpoints/k4_simuSVD/zara2/m_vae_model_best.pth (torch, 77057 bytes, 25 tensors)

V_obs_trunc f4 [16, 4]
0	0xbd2b0a12	-0.04175765
1	0xb387a2cf	-6.316042e-08
2	0xbdfa5dbc	-0.1222491
3	0xb3940d18	-6.894169e-08
4	0xbd7eb023	-0.062179696
5	0x3bc69190	0.006059833
6	0xbe310dfa	-0.17290488
7	0xbcdecc23	-0.02719695
8	0xbd5d7602	-0.05406762
9	0x3cadc5f6	0.02121256
10	0xbe0d18fc	-0.13779062
11	0xbdbb671a	-0.091505244
12	0xbd10dd34	-0.035367206
13	0x3d56290b	0.052285235
14	0xbdaffeeb	-0.085935436
15	0xbe48a417	-0.19593845
16	0xbdce6b7d	-0.100790955
17	0x3d2d4e45	0.04231097
18	0xbe6618ce	-0.224704
19	0xbe08f2d4	-0.13373882
20	0xbe16324e	-0.14667627
21	0x3d08b1c8	0.03337267
22	0xbe8a8239	-0.27052477
23	0xbdcc6bcd	-0.09981499
24	0xbda6c3a6	-0.08142786
25	0x3dd3df8d	0.10345373
26	0xbdee8478	-0.1164636
27	0xbe864166	-0.2622177
28	0xbd998316	-0.07495706
29	0x3e12a8cd	0.14322205
30	0xbdced84b	-0.10099848
31	0xbe8bf4e4	-0.27335274
32	0xbe4747b1	-0.19460942
33	0x3d9c65de	0.07636617
34	0xbe3cef39	-0.18450631
35	0xbdd4f622	-0.103985086
36	0xbe565ca5	-0.20933779
37	0x3db4e721	0.08833147
38	0xbdd03925	-0.101671495
39	0xbde4af53	-0.11166253
40	0xbdc52cb0	-0.09627664
41	0x3e63de54	0.2225278
42	0xbc42226d	-0.011849028
43	0xbe27eb7c	-0.16398424
44	0xbe0bab39	-0.13639535
45	0x3e6211e3	0.22077136
46	0xbb8c7fec	-0.0042877104
47	0xbd4a5f59	-0.049407337
48	0xbe93cb06	-0.28865832
49	0x3dd11488	0.10208994
50	0x3dd92c7a	0.10604186
51	0x3c26935d	0.01016697
52	0xbe7505a0	-0.23927927
53	0x3e36e71b	0.17861597
54	0x3e3317eb	0.17489593
55	0x3d26eacf	0.040751275
56	0xbde50cba	-0.11184068
57	0x3eae9719	0.34099653
58	0x3dd171a7	0.102267556
59	0x3e53290d	0.20621128
60	0x2f930d08	2.6748403e-10
61	0x3f00419c	0.5010011
62	0xb43c3cad	-1.7530938e-07
63	0x3eea937d	0.4581565

conv_layers.0.weight f4 [64, 1, 3]
0	0x3f1569b5	0.5836442
1	0xbea3e174	-0.32007945
2	0xbe9997a9	-0.2999852
3	0x3eff6a65	0.4988586
4	0x3f185d6a	0.5951754
5	0xbee8608b	-0.45386156
6	0x3f19c8a7	0.60071796
7	0x3ec2aefe	0.38024133
8	0x3eb710bf	0.35754964
9	0x3e035d42	0.12828544
10	0x3e9b2e27	0.3030865
11	0xbefb57ad	-0.4909033
12	0xbf084822	-0.53235066
13	0x3ea83af3	0.32857475
14	0xbed41e9a	-0.41429597
15	0x3eb8cc04	0.36093152
16	0xbbbf49c8	-0.005837653
17	0xbec58112	-0.38575035
18	0xbf01a458	-0.50641394
19	0x3ec0402f	0.37548968
20	0x3e65da36	0.22446522
21	0xbde30a0b	-0.110859
22	0x3e671b5a	0.22569028
23	0xbd615811	-0.055015627
24	0x3cc94841	0.024570586
25	0x3eefa745	0.46807304
26	0x3e1986b1	0.14992787
27	0xbcc0c0e5	-0.02352948
28	0x3db82416	0.08991258
29	0x3bd8170b	0.006594544
30	0xbf0c2d11	-0.54756266
31	0xbea611da	-0.32435495
32	0x3ee4c967	0.44684908
33	0x3f027322	0.5095693
34	0x3c7f0fa0	0.01556769
35	0x3ed7196d	0.42011586
36	0x3ec6cd4d	0.38828507
37	0x3f130118	0.57423544
38	0xbe3a4755	-0.18191274
39	0xbe7d665b	-0.24746077
40	0xbd82e0aa	-0.063905075
41	0x3e1abb2a	0.1511046
42	0xbe6261f3	-0.22107677
43	0xbec7b574	-0.39005625
44	0xbf1904d1	-0.59772974
45	0x3ecf160e	0.40446514
46	0xbe5cf87c	-0.21579164
47	0x3ebf21e2	0.37330538
48	0xbeb370cb	-0.35046992
49	0x3cc4347b	0.023950806
50	0xbf12b641	-0.5730935
51	0x3ebcd2d6	0.36879605
52	0xbed429ea	-0.41438228
53	0x3e34a620	0.17641497
54	0x3d8c5307	0.06851774
55	0xbe8b8f89	-0.27257946
56	0xbf03d9d3	-0.5150425
57	0x3ebe496f	0.371654
58	0x3f1511b7	0.58230156
59	0xbeef21d4	-0.46705496
60	0xbe811f93	-0.25219402
61	0xbee12994	-0.43977034
62	0xbd9a6337	-0.07538455
63	0xbe88aed4	-0.26695883
64	0xbe15d871	-0.14633347
65	0xbf2136fa	-0.6297451
66	0xbe915247	-0.28383085
67	0xbf12f5f8	-0.5740657
68	0x3e0e6454	0.1390546
69	0xbefb6d67	-0.49106905
70	0x3e8ca33a	0.27468282
71	0x3de19d39	0.11016316
72	0x3f11226a	0.56693137
73	0x3e53aca0	0.2067132
74	0xbdbe0bf0	-0.09279621
75	0xbe94596a	-0.28974468
76	0xbf0c9027	-0.5490746
77	0x3d13f3db	0.03612123
78	0xbe324c82	-0.17411998
79	0xbea98afb	-0.33113846
80	0xbe194b3e	-0.14970109
81	0xbf1928c5	-0.59827834
82	0xbee609f5	-0.44929472
83	0xbf153763	-0.5828764
84	0x3eb26611	0.34843495
85	0xbe378d6d	-0.17925043
86	0xbe4ec446	-0.2019206
87	0x3f09391e	0.5360278
88	0xbef69650	-0.48161554
89	0x3dc8ab61	0.09798313
90	0xbea72ecd	-0.32652894
91	0xbec8f7be	-0.39251512
92	0x3ed8e09e	0.4235887
93	0xbe03ad6b	-0.12859122
94	0xbeefd74b	-0.46843943
95	0xbdf8a5f1	-0.12141026
96	0x3e371d2b	0.1788222
97	0x3f0c3dc3	0.5478174
98	0xbd633506	-0.05547049
99	0xbec06ada	-0.3758152
100	0xbde7128f	-0.11282837
101	0x3e970d6d	0.2950243
102	0xbed82bfd	-0.4222106
103	0xbf0d744f	-0.552556
104	0x3ecb42e9	0.39699486
105	0xbe1e1e2b	-0.15441196
106	0x3e9db38b	0.30801043
107	0xbebf1eba	-0.3732813
108	0xbe994ab5	-0.2993981
109	0x3e27a7fd	0.16372676
110	0x3e89d1e7	0.26917955
111	0x3eddbdac	0.4330877
112	0x3f02cdef	0.5109548
113	0xbe8a2e58	-0.26988482
114	0x3e17d85f	0.14828633
115	0xbf0a52bc	-0.5403249
116	0x3ebc5fbe	0.36791795
117	0xbdcb01f8	-0.09912485
118	0xbdf551e5	-0.11978511
119	0x3e8e50ac	0.27795923
120	0x3e0faf67	0.14031754
121	0xbba1040b	-0.004913812
122	0x3ea2ac60	0.31772137
123	0xbe0acf45	-0.1355563
124	0xbf1cde30	-0.6127653
125	0x3e588108	0.21142972
126	0x3e59460a	0.21218124
127	0xbe36f67b	-0.17867462
128	0xbd85e68a	-0.065381125
129	0x3c8dc2f7	0.01730488
130	0x3ec491df	0.3839254
131	0xbe40a3a1	-0.1881242
132	0xbf20cb25	-0.62809974
133	0xbf053d6b	-0.5204684
134	0xbe8a2c2e	-0.2698683
135	0x3ef341fc	0.4751128
136	0x3ed613b4	0.41811907
137	0x3e62f381	0.22163202
138	0x3ed3d109	0.4137042
139	0xbeddff58	-0.43358874
140	0xbe106df7	-0.14104448
141	0x3e09c8b7	0.13455473
142	0x3d75725b	0.05992351
143	0x3dbc31ff	0.091892235
144	0xbef7853f	-0.48343846
145	0x3e145463	0.14485316
146	0x3e68cceb	0.2273442
147	0xbe8eab16	-0.27864903
148	0x3ee4c5cd	0.4468216
149	0xbe439b20	-0.19102144
150	0xbe7af798	-0.24508512
151	0x3bed8df7	0.0072495895
152	0x3c718003	0.014739993
153	0x3eff28f9	0.49835947
154	0x3df1cf2c	0.11807093
155	0x3e4d0e98	0.20025098
156	0x3e90c968	0.2827866
157	0xbf0a596b	-0.5404269
158	0x3ef9b79e	0.487729
159	0x3edf489b	0.4361008
160	0x3edb9c07	0.42892477
161	0x3ecf4719	0.4048393
162	0xbed63abf	-0.41841695
163	0x3ef31bb9	0.47482088
164	0x3f0f67cb	0.5601775
165	0xbee778f9	-0.45209482
166	0xbdee8f39	-0.11648411
167	0xbf157391	-0.58379465
168	0xbea0f4e6	-0.31436843
169	0x3d187167	0.037217524
170	0xbe25e2b4	-0.16199762
171	0xbed03425	-0.40664783
172	0xbe72600f	-0.23669456
173	0x3f1238ec	0.57118106
174	0x3cb03bb0	0.021512836
175	0x3ea9accb	0.33139643
176	0x3c1cac44	0.009562556
177	0x3c0a2f6a	0.008434156
178	0xbe7ebfc3	-0.24877839
179	0x3f12bbe4	0.5731795
180	0x3f0402f5	0.5156701
181	0x3dfae0a8	0.12249881
182	0xbed5929c	-0.41713417
183	0xbcbd8708	-0.023135677
184	0xbe8ee506	-0.27909106
185	0x3e8a6191	0.27027562
186	0xbf2dfa84	-0.6796038
187	0xbe772937	-0.24136816
188	0x3f02eabd	0.5113943
189	0x3ee1e350	0.44118738
190	0x3e9e988b	0.30975756
191	0xbead0c2d	-0.33798352

conv_layers.0.bias f4 [64]
0	0xbe47d770	-0.19515777
1	0xbdb43e93	-0.088009976
2	0xbef5ca81	-0.4800606
3	0x3e874c84	0.26425564
4	0x3ea4d9b1	0.32197335
5	0x3ec86c38	0.39145064
6	0xbe9bdab9	-0.3044031
7	0x3f06ae38	0.52609587
8	0xbe703b35	-0.23460086
9	0x3ebbf5f3	0.36711082
10	0xbf064464	-0.52448106
11	0x3e759ad0	0.23984838
12	0xbe6848c7	-0.22684012
13	0x3ec4893a	0.38385946
14	0xbea71604	-0.32633984
15	0xbed65873	-0.41864356
16	0x3e95ea7d	0.29280463
17	0x3ef2a01c	0.4738778
18	0x3f08e7ba	0.53478587
19	0x3f1a3898	0.60242605
20	0x3e33d8e8	0.17563212
21	0x3df2aedc	0.11849758
22	0x3d4e6a05	0.050394077
23	0xbe736d52	-0.23772171
24	0xbe9b95fc	-0.30387866
25	0x3f091461	0.5354672
26	0xbef35542	-0.47525984
27	0x3e61fdb2	0.22069433
28	0xbeb6a2e9	-0.35671166
29	0x3f0949aa	0.5362803
30	0xbda04b13	-0.07826819
31	0x3ee8a351	0.454371
32	0xbe243d12	-0.16038921
33	0x3db3a0df	0.08770918
34	0x3e80de16	0.25169438
35	0xbe6ce5f7	-0.231346
36	0x3ec53bbe	0.38522142
37	0xbef0ff5f	-0.47069833
38	0xbe095ec0	-0.1341505
39	0x3f206558	0.6265464
40	0xbe8f1df3	-0.27952537
41	0xbeadf2c8	-0.3397429
42	0x3ea0cef2	0.31407887
43	0x3e0eb07b	0.1393451
44	0xbed3c5d3	-0.41361865
45	0x3e10497e	0.14090535
46	0xbd51b6e1	-0.051199798
47	0x3f213ccf	0.6298341
48	0xbc103e58	-0.008803926
49	0x3dba017d	0.09082315
50	0x3eb98c64	0.36239922
51	0xbe2d7b0b	-0.16941468
52	0x3e082d56	0.13298544
53	0xbed22cb8	-0.41049743
54	0x3d7ada8d	0.061243583
55	0xbecdcb08	-0.40193963
56	0xbec96c0e	-0.39340252
57	0x3e362341	0.17786886
58	0xbe44f649	-0.19234575
59	0x3e424189	0.18970312
60	0xbea7be14	-0.32762206
61	0xbf0b45bc	-0.5440328
62	0x3e15a00d	0.14611836
63	0x3ea849e0	0.32868862

conv_layers.2.weight f4 [32, 64, 3]
0	0x3d84aa34	0.06477776
1	0x3cf42f64	0.029807754
2	0x3b28f2bb	0.0025779444
3	0x3cea9ac8	0.028638259
4	0x3cb9e865	0.022693822
5	0xbd0a99af	-0.03383797
6	0x3d801aa6	0.06255083
7	0x3de30bfc	0.1108627
8	0xbc7f7011	-0.015590684
9	0x3c63d6d9	0.013906204
10	0x3da2cae5	0.07948855
11	0x3c3214a7	0.010869182
12	0xbd261f07	-0.040556934
13	0xbc2a0a0e	-0.010378374
14	0x3dba17d2	0.090865746
15	0x3e296431	0.16542126
16	0x3e08ec1a	0.13371316
17	0xbc73cba4	-0.014880095
18	0x3d92502a	0.07144196
19	0x3c9721d8	0.018448755
20	0xbd360f80	-0.044448376
21	0x3d30848b	0.043095153
22	0x3d9329bf	0.07185697
23	0x3cb90141	0.022583606
24	0x3d535ee3	0.051604163
25	0xbc555768	-0.013021328
26	0xbca9088e	-0.020633962
27	0x3d996f2c	0.074919075
28	0x3d750158	0.059815735
29	0x3dc58890	0.09645188
30	0xbd792071	-0.060821954
31	0x3d13087a	0.035896756
32	0x3d3cb3c5	0.04606988
33	0xbb369fbc	-0.0027866205
34	0x3d36883e	0.044563524
35	0xbd4a4e92	-0.049391337
36	0x3dcff4ab	0.101540886
37	0xbc203cab	-0.009780089
38	0xbd363d5e	-0.044492118
39	0x3dec2925	0.11531285
40	0x3dae5e86	0.08514123
41	0x3e0ae77f	0.13564871
42	0x3d99edea	0.07516082
43	0x3baceaa9	0.005276997
44	0xbd2db017	-0.04240426
45	0x3d10aad5	0.035319168
46	0x3d8a5b50	0.06755698
47	0xbd72448c	-0.059147403
48	0x3e1a262b	0.15053622
49	0xbb36d4e6	-0.0027897893
50	0x3d355c96	0.04427775
51	0x3ceb674f	0.028735785
52	0x3d720abf	0.05909228
53	0xbcc17353	-0.023614561
54	0x3e1a8c07	0.15092479
55	0x3d5aecea	0.053448595
56	0x3daab8fc	0.08336064
57	0x3d9bfc99	0.076165386
58	0x3cb0bb92	0.021573815
59	0x3d30c60b	0.04315762
60	0x3d644d14	0.05573757
61	0x3da6f5fa	0.08152385
62	0x3858afd2	5.166216e-05
63	0x3deadcc9	0.11467893
64	0xba0e5c8f	-0.00054306624
65	0x3d222e53	0.03959496
66	0x3d31e197	0.04342803
67	0xbd827561	-0.063700445
68	0xbd249107	-0.04017737
69	0x3cf1b3c0	0.029504657
70	0x3d85ea0f	0.06538784
71	0x3d012a6e	0.031534605
72	0x3cd73d6e	0.02627441
73	0x3dbcc7a4	0.09217766
74	0x3caf0905	0.021366606
75	0x3d6101fb	0.05493353
76	0x3cc076a0	0.023494065
77	0x3d48c875	0.049019296
78	0x3d3252c8	0.043535978
79	0xbca11ba6	-0.019666504
80	0xbd00ffe2	-0.03149403
81	0x3dc91826	0.09819059
82	0x3d373638	0.04472944
83	0x3d87aa28	0.066242516
84	0xbe1ac912	-0.15115765
85	0xbd7ee671	-0.062231485
86	0xbda44383	-0.08020689
87	0x3dd93d1c	0.10607359
88	0x3d5db769	0.05412999
89	0xbcc2719a	-0.02373581
90	0x3b9ae2e1	0.004726753
91	0xbd541ed9	-0.05178723
92	0xbcf7af3b	-0.030234924
93	0x3b61e291	0.003446732
94	0x3d8598f0	0.06523311
95	0x3da212d8	0.079137504
96	0x3d85029f	0.064946406
97	0x3d14e5b2	0.036351867
98	0x3c62148a	0.013798842
99	0x3d11a1c2	0.035554655
100	0x3db01d0f	0.085992925
101	0x3e468456	0.1938642
102	0xbcf20730	-0.029544443
103	0x3cb01d7f	0.02149844
104	0x3d3a41db	0.04547296
105	0x3d7d4c69	0.06184045
106	0x3d615900	0.055016518
107	0x3cfabb08	0.030606762
108	0x3dec38ca	0.11534269
109	0x39b88249	0.00035192285
110	0x3c107a7d	0.008818266
111	0x3cd16792	0.025562081
112	0xbcade778	-0.021228537
113	0xbcc3d074	-0.02390311
114	0xbcc6b355	-0.024255434
115	0x3d2205d4	0.03955634
116	0x3c97d0cd	0.018532181
117	0x3db4731a	0.088110164
118	0x3dc15034	0.09439126
119	0xbce68634	-0.028140165
120	0x3da5f5a9	0.081034966
121	0x3a2e3715	0.0006645781
122	0xbbe67664	-0.007033156
123	0xbda50939	-0.080584
124	0xbcf639b8	-0.03005682
125	0xbcf86661	-0.030322256
126	0x3c7e62b1	0.01552646
127	0x3d7a8149	0.061158452
128	0xbbc27d63	-0.0059353574
129	0x3ad1cbde	0.0016006192
130	0xbc8711c7	-0.01648797
131	0xbb7a0eed	-0.003815587
132	0xbcf58045	-0.02996839
133	0xbc12c9ee	-0.008959277
134	0xbd3737d9	-0.044730995
135	0x3da4e0e9	0.08050711
136	0x3ca2f9ec	0.019894563
137	0xbd07b47f	-0.03313112
138	0xbd253bc3	-0.040340196
139	0x3c15c067	0.009140111
140	0x3d71b840	0.059013605
141	0x3dc7db60	0.09758639
142	0x3de49735	0.11161653
143	0xbc2aa0af	-0.0104142865
144	0xbd032dcf	-0.03202611
145	0xbd2bf020	-0.041977048
146	0xbd4494e2	-0.04799355
147	0x3c558571	0.013032303
148	0xbcdd559a	-0.027018357
149	0x3c288543	0.010285678
150	0x3cc28cd9	0.023748802
151	0x3e18232c	0.14857167
152	0x3df51b10	0.119680524
153	0x3db9a173	0.09063997
154	0xbc4b288b	-0.012399803
155	0x3d8c109f	0.06839108
156	0x3d902441	0.07038165
157	0x3d70589e	0.058678262
158	0x3d6822fe	0.056673996
159	0x3d647e78	0.055784672
160	0x3db67ab5	0.08910123
161	0xbd0e8be0	-0.034801364
162	0xbc013f19	-0.007888579
163	0x3cbc0cf3	0.022955393
164	0x3c2bd2d9	0.010487282
165	0x3d08b02b	0.033371132
166	0x3d30b247	0.04313877
167	0x3d7cffa5	0.06176724
168	0x3c2925a8	0.010323919
169	0xbca02c6d	-0.019552434
170	0x3c5f7981	0.013639809
171	0x3c551d35	0.013007452
172	0x3d647200	0.05577278
173	0x3dd6167e	0.10453509
174	0x3d89fbd7	0.06737488
175	0x3d8e2990	0.06941521
176	0xbcc09779	-0.023509728
177	0x3de1b763	0.11021306
178	0xbd438155	-0.047730763
179	0xbb994544	-0.0046774466
180	0x3ca9582d	0.020671928
181	0x3cdab231	0.026696296
182	0xbd8c91b6	-0.0686373
183	0xbd95b4b5	-0.07309858
184	0x3ce33988	0.027737394
185	0x3d0c6594	0.03427656
186	0xbca2393a	-0.019802678
187	0x3d85f5d2	0.06541027
188	0x3e2c7830	0.16842723
189	0x3d5e6f02	0.054305084
190	0x3db90ab2	0.09035243
191	0x3ca08eff	0.019599436
192	0xba40cd77	-0.00073548354
193	0x3cbe0f01	0.023200514
194	0xbd7805d5	-0.060552437
195	0x3d142349	0.036166463
196	0xbd438df3	-0.047742795
197	0xbd1ea0ce	-0.038727574
198	0xbdc34474	-0.09534541
199	0x3d8ca2cc	0.068669885
200	0xbd5c761d	-0.05382358
201	0xbd563895	-0.052300055
202	0xbd6b0ff0	-0.057388246
203	0x3c777ae3	0.015104982
204	0xbd991d58	-0.074763
205	0x3ddedb9a	0.108817294
206	0xbc14d6f4	-0.009084452
207	0xbda9c3fa	-0.08289333
208	0x3ca237e7	0.019802047
209	0xbd520e44	-0.051283136
210	0x3cd96a33	0.026539898
211	0x3a897c68	0.0010489346
212	0xbbb26d75	-0.005445177
213	0xbc48039f	-0.012207895
214	0x3bd49a07	0.006488088
215	0xbca4c03d	-0.020111198
216	0x3d13dbac	0.036098167
217	0xbd33a095	-0.043854315
218	0x3da50993	0.08058467
219	0xbd99b2aa	-0.075047806
220	0x3c788646	0.015168732
221	0x3cf60dba	0.030035842
222	0x3d909942	0.070604816
223	0xbcdaf524	-0.02672822
224	0xbd17b2e3	-0.037035834
225	0xbd173f16	-0.036925398
226	0x3d94865d	0.0725219
227	0x3cc9b2a3	0.024621313
228	0xbd3b06af	-0.04566067
229	0xbd65a920	-0.056069493
230	0x3d320c0c	0.04346852
231	0x3d034d9f	0.032056447
232	0x3d5a2648	0.053259164
233	0x3e03d9f2	0.12876108
234	0x3d64d609	0.055868182
235	0x3d990bfe	0.074729905
236	0xbcd9c252	-0.026581917
237	0xbd42264e	-0.04739981
238	0xbd74f858	-0.05980715
239	0x3d9579e9	0.07298643
240	0xbd2ee235	-0.042696197
241	0xba829e0a	-0.0009965312
242	0xbd1bd996	-0.038049303
243	0x3d971ef0	0.07378948
244	0x3b8975e8	0.0041949637
245	0xbd553069	-0.05204812
246	0xbd89a512	-0.06720938
247	0x3d285151	0.041093174
248	0x3cee4fc4	0.02909077
249	0x3d3affc1	0.045654062
250	0xbd83c4b3	-0.06434002
251	0xbd03e4db	-0.032200675
252	0x3934cad0	0.00017241691
253	0x3d85cb99	0.06532974
254	0x3cb9c9ff	0.022679327
255	0x3d82942b	0.06375917

conv_layers.2.bias f4 [32]
0	0x3dcc2d53	0.099695824
1	0x3ca7ebb9	0.020498144
2	0x3d36fadc	0.044672832
3	0xbceb8c61	-0.028753461
4	0x3d3f06a8	0.046637207
5	0x3dff36c9	0.12461621
6	0xbc504093	-0.012710708
7	0x3dee6815	0.11640946
8	0x3b61bc50	0.0034444518
9	0xbce86f7b	-0.02837347
10	0xbd1b16eb	-0.037863653
11	0x3da0cd6e	0.078516826
12	0x3d7b961a	0.061422445
13	0xbd201281	-0.039080147
14	0x3b0e1ecd	0.002168584
15	0x3d93c556	0.07215373
16	0x3b707eab	0.0036696594
17	0x3dc01eb8	0.09380859
18	0x3b96b3e3	0.004599081
19	0xbd23db4b	-0.040004056
20	0x3bea7e83	0.0071561947
21	0xbd010d93	-0.031507086
22	0xbc9df258	-0.019280598
23	0xbc6b6acb	-0.014368723
24	0xbc71297c	-0.014719363
25	0x3c88da53	0.016705668
26	0xbc63292d	-0.013864798
27	0x3d24d5e7	0.040243056
28	0x3c4856de	0.012227742
29	0x3daa96ed	0.08329568
30	0xbc79cf7e	-0.015247224
31	0xbc5a7941	-0.013334573

lstm.weight_ih_l0 f4 [128, 32]
0	0x3c0b4ead	0.0085026445
1	0x3cb4c9b2	0.022068832
2	0x3e4481ce	0.19190142
3	0x3d93d631	0.07218588
4	0x3e44eec5	0.19231708
5	0x3d5d1ff9	0.05398557
6	0x3e2ced76	0.16887459
7	0xbe1a146d	-0.15046854
8	0x3e54a0be	0.20764443
9	0xbd9992b8	-0.074986875
10	0x3e33336c	0.17500085
11	0xbd7d1ccf	-0.061795052
12	0x3da76c30	0.08174932
13	0x3e3220f9	0.1739539
14	0x3e29812e	0.16553184
15	0xbd114c22	-0.035472997
16	0xbd2b9a81	-0.041895393
17	0x3d80c738	0.06287998
18	0xbc938d74	-0.018011786
19	0xbd956a94	-0.07295719
20	0x3c48a68b	0.012246738
21	0x3dd01ea8	0.10162097
22	0xbdf4cd5b	-0.11953231
23	0xbca157d9	-0.01969521
24	0x3d701aaf	0.058619197
25	0x3e5c06e1	0.21486999
26	0xbdecc896	-0.11561696
27	0xbd8690bd	-0.065705754
28	0x3d4814e4	0.048848048
29	0xbe01c879	-0.1267413
30	0x3d94791b	0.072496615
31	0xbbee8594	-0.0072791073
32	0x3d30d854	0.043175057
33	0x3c968081	0.018371822
34	0x3d8ef8c6	0.069810435
35	0xbcb47ec5	-0.022033105
36	0xbda71dbf	-0.081599705
37	0x3cdce40a	0.026964206
38	0xbe182ec7	-0.14861594
39	0xbe18108e	-0.14850065
40	0xbc8499ee	-0.01618668
41	0x3c8acfb3	0.016944742
42	0xbdb3e2bf	-0.08783483
43	0xbd9e5d66	-0.07732658
44	0x3d1a3b23	0.037654053
45	0x3d996e3a	0.07491727
46	0x3da836b5	0.082135595
47	0x3dfc5a1b	0.12321874
48	0xbe084334	-0.13306886
49	0xbd633b63	-0.055476557
50	0xbe29bef1	-0.16576745
51	0x3e2aef88	0.16692936
52	0x3dc952fa	0.0983028
53	0x3d584e2f	0.052808937
54	0xbbf95e5e	-0.0076101264
55	0x3e225cb3	0.15855674
56	0xbd24299e	-0.04007875
57	0xbd91d8d5	-0.071214356
58	0xbe12046e	-0.14259502
59	0xbcd0dd21	-0.025496067
60	0xbd44d8df	-0.048058387
61	0x3e3c64a0	0.1839776
62	0x3e300008	0.17187512
63	0x3d5bc738	0.053656787
64	0x3da0f3ec	0.078590244
65	0x3dbce826	0.09223966
66	0x3d66ded1	0.056364838
67	0x3dd4918d	0.10379324
68	0x3e122fe5	0.14276083
69	0xbdff2cee	-0.124597415
70	0xbdb164ac	-0.0866178
71	0x3e65462f	0.22390054
72	0xbd86aee0	-0.065763235
73	0x3bb5d4b6	0.0055490388
74	0xbd175cc0	-0.036953688
75	0x3d805402	0.06266023
76	0xbda5a13d	-0.080873944
77	0x3cbf86f4	0.02337978
78	0x3c20808a	0.009796271
79	0x3e08382e	0.13302681
80	0x3c19bc5e	0.009383289
81	0x3d51ed9b	0.05125199
82	0x3e3c7ea2	0.18407682
83	0x3d270c1b	0.04078303
84	0xbd5b1179	-0.05348346
85	0xbb889aa5	-0.0041688257
86	0x3c822595	0.015887061
87	0xbc98603e	-0.01860058
88	0x3bf51c27	0.0074801627
89	0x3d9292cb	0.07156905
90	0xbe1b5448	-0.1516887
91	0x3d84c611	0.06483091
92	0x3c005ca9	0.007834592
93	0xbdaa56cb	-0.08317336
94	0x3d49b787	0.04924729
95	0xbd185468	-0.03718987
96	0xbdefe60b	-0.11713799
97	0xbd744101	-0.059632305
98	0xbaa0021f	-0.0012207663
99	0x3dc0c797	0.09413069
100	0x3e058fe2	0.13043168
101	0x3df20ab4	0.11818448
102	0xbdbbdaac	-0.09172568
103	0xbc375f60	-0.011192173
104	0xbe3c4f51	-0.18389632
105	0x3de16925	0.11006383
106	0xbe355458	-0.17707956
107	0xbd1afedb	-0.037840705
108	0x3d945797	0.07243269
109	0xbe2018c4	-0.15634447
110	0x3c99f142	0.018791799
111	0xbd85ecd6	-0.065393135
112	0x3e124f29	0.1428801
113	0x3e06301d	0.13104291
114	0x3e039366	0.12849197
115	0x3e0fe954	0.14053851
116	0xbd62018d	-0.05517726
117	0x3d714465	0.058903117
118	0x3d4c2109	0.049836192
119	0x3d4897e6	0.048972987
120	0xbe02f48a	-0.12788597
121	0xbe1aaa3e	-0.15104005
122	0xbd996393	-0.074896954
123	0xb9206c83	-0.00015299213
124	0xbd68f8f0	-0.05687803
125	0x3e0e80d3	0.1391633
126	0x3e11d203	0.1424027
127	0x3d98adf6	0.074550554
128	0xbdb1ae2c	-0.08675799
129	0xbd793e04	-0.06085016
130	0x3e3ba38a	0.18324104
131	0xbe149544	-0.14510065
132	0xbdf8db72	-0.12151231
133	0xbdb013a4	-0.08597496
134	0x3d6c9b2d	0.057765175
135	0xbd9e7643	-0.077374004
136	0x3e5299a8	0.20566428
137	0x3ce1c2d6	0.027558725
138	0xbe027297	-0.12739025
139	0x3e0afd7f	0.13573264
140	0x3cc5887c	0.024112932
141	0x3cd575aa	0.026057083
142	0xbdbc83ff	-0.09204864
143	0x3e0bb17e	0.13641927
144	0x3d54214b	0.051789563
145	0x3ca5112f	0.020149795
146	0x3e46f0f1	0.1942785
147	0x3cac09b6	0.021000724
148	0xbd3211dc	-0.043474063
149	0x3d67e750	0.05661708
150	0x3d768e26	0.060194157
151	0xbdca507d	-0.09878633
152	0x3df1e2c6	0.11810832
153	0xbdaab538	-0.08335346
154	0x3d604217	0.05475053
155	0x3d1a096c	0.03760664
156	0x3e18b4a6	0.14912662
157	0xbc4c1f53	-0.01245864
158	0xbe1ca2f5	-0.15296538
159	0x3dd3c111	0.10339559
160	0x3e40160c	0.1875841
161	0x3e3dd51f	0.1853833
162	0x3c300005	0.010742192
163	0x3e5a093f	0.2129259
164	0xbdaa4db8	-0.08315605
165	0x3db1e0d5	0.086854614
166	0x3d1eee91	0.038801733
167	0x3e005d97	0.12535702
168	0xbc2d6d0c	-0.010585081
169	0x3d5c6cfd	0.053814877
170	0x3e3c2d44	0.18376642
171	0x3db7132f	0.08939206
172	0x3dc77e9e	0.09740947
173	0x3cf84d4a	0.030310292
174	0x3e29816b	0.16553275
175	0xbde43371	-0.11142624
176	0x3e343541	0.1759844
177	0xbddf2524	-0.10895756
178	0xbd0b8c70	-0.03406948
179	0x3e38b049	0.18035997
180	0x3e140faa	0.144591
181	0x3e0d6934	0.13809663
182	0xbd68296a	-0.05668012
183	0xbd10bcfa	-0.035336472
184	0xbbec1d15	-0.0072056153
185	0x3dca856e	0.09888731
186	0xbd2b0193	-0.04174955
187	0x3e20fd2f	0.15721582
188	0x3dcadc99	0.09905357
189	0x3d350928	0.044198185
190	0x3dce5693	0.100751065
191	0x3d9c61b7	0.07635825
192	0xbdfd9d03	-0.12383463
193	0x3d9b9f62	0.07598759
194	0xbe1116e2	-0.14168885
195	0x3d6a525c	0.05720745
196	0x3cab3e52	0.02090374
197	0x3e04321f	0.12909745
198	0xbe037f7f	-0.12841605
199	0x3dd39138	0.10330433
200	0x3df56347	0.11981826
201	0xbd143971	-0.036187593
202	0x3e312e31	0.17302777
203	0x3e0c37a7	0.13693105
204	0xbe0de81f	-0.13858078
205	0xbdd0b147	-0.10190063
206	0x3dfb7632	0.12278403
207	0xbb09a681	-0.0021003785
208	0x3e6b1e21	0.22960712
209	0x3d754cc9	0.05988768
210	0xbe26b9e5	-0.1628185
211	0xbd2f4438	-0.042789668
212	0x3e259002	0.16168216
213	0xbd120f86	-0.035659336
214	0x3d727e47	0.05920246
215	0x3da67b76	0.08129017
216	0xbdff3537	-0.12461322
217	0xbd828112	-0.063722745
218	0xbdff0cdb	-0.12453624
219	0xbe0ede2f	-0.13951944
220	0x3ea8db2c	0.32979715
221	0x3ea1d703	0.31609353
222	0xbda88b2c	-0.0822967
223	0xbd903b7f	-0.07042598
224	0x3e1669b3	0.14688759
225	0xbcd5323c	-0.02602493
226	0xbdfd4fa8	-0.12368709
227	0xbd705e06	-0.058683418
228	0x3e31266d	0.17299815
229	0x3d113aa1	0.035456304
230	0x3dfe3085	0.12411598
231	0x3de27023	0.11056545
232	0x3d4b44c7	0.049626138
233	0x3e1b5ac8	0.15171349
234	0x3e0b91cb	0.13629834
235	0xbcf064ca	-0.029344935
236	0xbd04c03b	-0.032409888
237	0x3d27ce1c	0.040968046
238	0x3e451187	0.19244967
239	0xbe3e222d	-0.18567725
240	0x3d7ac66d	0.06122439
241	0x3c503b92	0.012709515
242	0x3dc387b8	0.09547371
243	0x3e049c30	0.12950206
244	0xbcbb08f3	-0.022831416
245	0x3e2cdffc	0.16882318
246	0x3db2d240	0.08731508
247	0x3e13eb2a	0.14445177
248	0xbcee8134	-0.029114343
249	0xbdffc436	-0.12488596
250	0xbcc90beb	-0.024541816
251	0xbdbe39cf	-0.0928837
252	0xbde4d227	-0.11172896
253	0x3dfa8b51	0.12233604
254	0xbd0ed846	-0.034874223
255	0x3d99d665	0.07511596

lstm.weight_hh_l0 f4 [128, 32]
0	0xbd6479a4	-0.055780068
1	0x3ab142ed	0.0013523974
2	0x3d4c7889	0.04991964
3	0x3c5c53c8	0.013447709
4	0xbdbb8609	-0.091564246
5	0xbdd43dd0	-0.10363352
6	0xbd588f80	-0.052871227
7	0xbd2ded1c	-0.042462453
8	0x3d9b484e	0.075821504
9	0xbdf634b8	-0.12021774
10	0x3c8256b2	0.01591048
11	0x3e1b0ee4	0.15142399
12	0xbe20907a	-0.15680113
13	0xbe14f8e5	-0.1454807
14	0x3e018ae0	0.12650633
15	0x3e569d56	0.20958456
16	0xbdb3f73c	-0.087873906
17	0x3e034346	0.12818632
18	0xbe29ff93	-0.166014
19	0x3ca126f9	0.019671904
20	0xbe0b27a2	-0.13589337
21	0x3e3685a2	0.17824414
22	0xbd0dcd2e	-0.034619503
23	0xbe034eab	-0.12822978
24	0x3cfddbe8	0.030988649
25	0xbcc57ca6	-0.024107289
26	0x3df89acf	0.121389024
27	0x3e55a3e8	0.20863307
28	0x3dff983b	0.124802075
29	0xbd3bcdb4	-0.04585047
30	0xbe039bc2	-0.12852386
31	0x3df49f50	0.11944449
32	0x39211173	0.00015360657
33	0x3d681661	0.056661967
34	0xbd600b9f	-0.054698583
35	0x3e52b1c7	0.20575629
36	0xbe20c26c	-0.15699166
37	0xbd27b4ee	-0.040944032
38	0x3e33e4f2	0.17567804
39	0xbc83ce03	-0.016089445
40	0x3e44c858	0.1921705
41	0xbdee34e5	-0.116311826
42	0x3de7c6dd	0.11317227
43	0x3e64f5fb	0.22359459
44	0xbe611982	-0.21982387
45	0xbe0b8085	-0.13623245
46	0x3cd63ad2	0.026151095
47	0xbd25f1e5	-0.04051389
48	0x3cd9a372	0.026567195
49	0x3d88ca2c	0.06679186
50	0x3c0191ae	0.007908268
51	0xbde50335	-0.11182252
52	0xbdb4dedc	-0.088315696
53	0x3dcd22ed	0.10016427
54	0xbe6e6ded	-0.23284121
55	0xbe34378d	-0.17599316
56	0xbe2a6776	-0.1664103
57	0x3d9927e0	0.07478309
58	0x3cc60062	0.024170104
59	0xbd2a5377	-0.041583505
60	0x3e17a1be	0.14807793
61	0x3e7b7b9b	0.2455887
62	0x3e448420	0.19191027
63	0xbc97d448	-0.01853384
64	0x3d994c92	0.07485308
65	0xbdfc2d66	-0.123133466
66	0x3e351c64	0.17686611
67	0x3c324b8d	0.0108822705
68	0xbe49bf65	-0.19701917
69	0x3de918a2	0.113816515
70	0x3d8b0a1a	0.06789036
71	0xbd7480d6	-0.05969318
72	0xbca0b74a	-0.019618649
73	0x3c3a7af7	0.011381856
74	0xbde59ad5	-0.112111725
75	0xbd85cc84	-0.06533149
76	0x3de8290d	0.11335955
77	0x3dfefb2a	0.124502495
78	0x3c7239b3	0.014784264
79	0xbd03661f	-0.032079812
80	0xbdb4eb31	-0.08833922
81	0xbdbd6a7b	-0.09248825
82	0xbd379065	-0.04481544
83	0x3d58e9f3	0.052957486
84	0x3d6dfa40	0.058099985
85	0xbdb130ed	-0.0865191
86	0xbcb89ff9	-0.022537218
87	0xbdf90bfd	-0.1216049
88	0x3dbce03a	0.09222455
89	0x3da01e62	0.07818295
90	0x3bd7dc42	0.006587536
91	0xbe0778a9	-0.13229622
92	0xbe11bda5	-0.142325
93	0xbdfb5342	-0.122717395
94	0x3c49d033	0.012317705
95	0x3dc7754b	0.09739169
96	0x3d10d83d	0.03536247
97	0xbe090ee3	-0.13384585
98	0xbda032da	-0.07822199
99	0xbe1ca3a6	-0.15296802
100	0xbe01adb1	-0.12663914
101	0x3cea4623	0.028597897
102	0xbc293f21	-0.0103299925
103	0xbcee0574	-0.029055335
104	0xbc080306	-0.008301502
105	0x3dbe592a	0.092943504
106	0x3d7f1032	0.062271304
107	0xbd071cbd	-0.03298639
108	0x3de0c69f	0.10975384
109	0xbd5af3a2	-0.053455003
110	0xbe0db838	-0.13839805
111	0x3cc8bf82	0.02450538
112	0x3ce40a9d	0.027837092
113	0xbd774ea0	-0.060377717
114	0xbd56a51a	-0.052403547
115	0xbe0e0490	-0.13868928
116	0x3ddaf787	0.10691743
117	0x3e2f8870	0.1714189
118	0xbdb2545b	-0.08707496
119	0xbe0cc132	-0.13745573
120	0x3c84f0e9	0.016228156
121	0x3ddfe018	0.10931414
122	0xbd719c1f	-0.05898678
123	0x3e32f67c	0.17476839
124	0xbe076248	-0.13221085
125	0xbe2655e5	-0.16243704
126	0xbde71115	-0.11282555
127	0x3d100210	0.035158217
128	0x3e099e5b	0.13439314
129	0xbd11c65a	-0.035589553
130	0xbe426bac	-0.18986386
131	0xbe0d9a67	-0.13828431
132	0xbda33d78	-0.079707086
133	0xbd4afd59	-0.049558017
134	0x3e26acdf	0.16276883
135	0x3de566dd	0.1120126
136	0xbd7ee432	-0.062229343
137	0xbe3d8830	-0.18508983
138	0x3e1e1b43	0.15440087
139	0xbe3b3388	-0.18281376
140	0x3daba995	0.083819546
141	0x3c012845	0.007883136
142	0xbe1bee06	-0.15227517
143	0x3cb44e50	0.022009999
144	0xbd300c06	-0.042980216
145	0x3cbfdd34	0.023420908
146	0xbe55f0aa	-0.20892587
147	0x3db332b1	0.08749903
148	0xbe350208	-0.17676556
149	0x3e87038b	0.2636989
150	0xbdc9df45	-0.098570384
151	0x3e294a43	0.16532235
152	0xbcf3f129	-0.02977808
153	0x3d39c719	0.04535589
154	0x3ce68325	0.028138706
155	0x3daba287	0.08380609
156	0xbdf41bbe	-0.11919354
157	0xbdd19a2a	-0.102344826
158	0xbe3c0eb8	-0.1836499
159	0x3ca09791	0.019603522
160	0x3dc45792	0.09587015
161	0x3d97ce86	0.07412438
162	0xbd8deca8	-0.06929904
163	0xbe146403	-0.14491276
164	0x3d785754	0.060630158
165	0x3d325c46	0.04354503
166	0xbdbead17	-0.09310358
167	0xbdf95d17	-0.121759586
168	0xbdf4da4f	-0.119557016
169	0xbe1e63e8	-0.15467799
170	0x3e5a48b3	0.21316795
171	0xbe1645cb	-0.14675061
172	0xbe123ca2	-0.14280942
173	0xbe332060	-0.17492819
174	0xbd24e2a6	-0.04025521
175	0xbd83eb27	-0.06441336
176	0x3c20245f	0.009774297
177	0x3e25f797	0.1620773
178	0x3e254b02	0.16141894
179	0xbe5e1996	-0.21689448
180	0x3d585926	0.052819394
181	0xbd84cc70	-0.06484306
182	0x3b27b7b9	0.0025591685
183	0xbda839e2	-0.08214165
184	0x3d66c88c	0.0563436
185	0x3d3bf14b	0.04588441
186	0x3e3c9f68	0.18420184
187	0xbe70455b	-0.23463957
188	0xbdda9549	-0.10673005
189	0xbd6960e4	-0.056977168
190	0x3def8961	0.11696125
191	0x3cf04d25	0.02933366
192	0xbd6da777	-0.058021035
193	0xbd5f5d79	-0.0545325
194	0x3a88492a	0.0010397781
195	0x3c61f304	0.01379085
196	0xbdf819e1	-0.12114311
197	0xbd3eee80	-0.04661417
198	0x3e94de43	0.29075822
199	0x3e01ed99	0.12688293
200	0xbdc844ad	-0.09778724
201	0xbe5def45	-0.21673305
202	0x3ca6d753	0.020366346
203	0x3deb1c16	0.11479966
204	0xbdff9837	-0.124802046
205	0xbe3777f6	-0.17916855
206	0xbdaa36e9	-0.083112545
207	0x3e436bfd	0.19084163
208	0x3e2296d3	0.15877847
209	0xbd8ab75a	-0.06773253
210	0xbe4d64d9	-0.20058002
211	0xbda82fdd	-0.08212254
212	0x3cb26b7c	0.021779768
213	0x3dd8e92c	0.10591349
214	0xbd68e901	-0.056862835
215	0xbd1f5ab3	-0.038904857
216	0x3e02c589	0.12770666
217	0x3e415fa9	0.18884148
218	0xbe15ac3b	-0.14616482
219	0x3e64e0fd	0.22351451
220	0x3cfdb2dd	0.030969078
221	0x3df880b5	0.12133924
222	0xbce99dd0	-0.028517634
223	0x3de3437a	0.110968545
224	0xbcf32bec	-0.02968403
225	0x3dae4925	0.08510045
226	0xbe80febc	-0.25194347
227	0xbe14de1a	-0.1453785
228	0xbc97401e	-0.01846319
229	0x3e65aefc	0.22430032
230	0x3e16830c	0.14698428
231	0xbd069f55	-0.032866795
232	0x3dc89278	0.09793562
233	0x3cdc3d49	0.026884692
234	0xbdaa7174	-0.08322421
235	0x3e103c12	0.14085415
236	0xbdbb80f3	-0.091554545
237	0x3dc9b122	0.098482385
238	0xbdb2ce25	-0.08730725
239	0x3e499c0d	0.19688435
240	0x3c8c42df	0.01712173
241	0xbd99c871	-0.07508934
242	0xbdb8af26	-0.09017782
243	0x3dc96af9	0.098348565
244	0x3e5e4caf	0.2170894
245	0xbd249be1	-0.04018772
246	0xbe0a7633	-0.13521652
247	0xbd010613	-0.031499933
248	0xbd491dfd	-0.049100865
249	0xbc8d3e57	-0.01724164
250	0xbdfbc76d	-0.12293897
251	0x3e13eebd	0.1444654
252	0xbdda666c	-0.10664067
253	0xbe33eb59	-0.17570247
254	0xbd93382f	-0.071884505
255	0xbc5dccdf	-0.013537615

lstm.bias_ih_l0 f4 [128]
0	0xbe071d22	-0.13194707
1	0x3e13232a	0.14368883
2	0x3d5c1a97	0.053736296
3	0x3dc5d8ad	0.09660468
4	0x3d3195b5	0.043355662
5	0xbdd40ca5	-0.10353974
6	0x3d891f62	0.06695439
7	0xbd230712	-0.039801665
8	0x3c073043	0.008251253
9	0xbe497956	-0.19675192
10	0x3c5b84f3	0.013398397
11	0xbd8eff13	-0.06982245
12	0xbdbe128a	-0.0928088
13	0xbdc81fcd	-0.097716905
14	0xbe0212ef	-0.12702535
15	0x3e67fd36	0.22655186
16	0x3ce28c47	0.02765478
17	0xbd8a2a95	-0.06746403
18	0x3df85b7e	0.12126826
19	0x3dba6bb3	0.09102573
20	0x3d84170a	0.06449707
21	0x3e084cfd	0.13310619
22	0x3dee2495	0.11628071
23	0x3d9b8280	0.0759325
24	0x3cdd989f	0.027050314
25	0x3e51f19e	0.20502326
26	0xbd676d22	-0.05650056
27	0x3df8c296	0.12146489
28	0x3d95504b	0.07290705
29	0xbcb2d343	-0.021829253
30	0xbe0e57b0	-0.13900638
31	0xbdce20c1	-0.10064841
32	0xbe0de392	-0.13856342
33	0xbc260389	-0.010132679
34	0xbcb4ac0b	-0.022054693
35	0x3bac147a	0.0052514644
36	0x3e5cdfe9	0.2156979
37	0xbd878459	-0.0661704
38	0x3c99cfbd	0.018775815
39	0xbcae99b9	-0.021313535
40	0x3e3448ea	0.1760594
41	0x3e25703c	0.16156095
42	0xbd821d42	-0.06353237
43	0x3d4010b7	0.04689094
44	0x3b5ac829	0.0033383465
45	0xbd547301	-0.05186749
46	0x3d9e4780	0.07728481
47	0x3dd8786e	0.10569845
48	0xbdf46522	-0.11933352
49	0x3c49f9d9	0.012327635
50	0x3e34f607	0.17671977
51	0xbd702ff2	-0.058639474
52	0x3d7e1d78	0.062039822
53	0x3e5610a5	0.20904787
54	0x3d842654	0.06452623
55	0xbe19a5ac	-0.15004605
56	0xbdc7dab0	-0.09758508
57	0xbbbb6c08	-0.0057196654
58	0x3dc229a8	0.094806015
59	0x3c71f8dd	0.014768806
60	0x3d808943	0.062761806
61	0x3e76b7f9	0.24093617
62	0xbda785ac	-0.08179793
63	0x3d986b42	0.07442333
64	0x3e1ced80	0.15324974
65	0x3e1690cf	0.14703678
66	0xbd5f281a	-0.054481603
67	0xbdb6344d	-0.08896694
68	0xbe213a07	-0.15744792
69	0x3c9aba62	0.018887702
70	0xbdf21dc7	-0.11822086
71	0xbe1f2af9	-0.15543737
72	0x3d97489d	0.07386897
73	0x3cd37109	0.025810735
74	0xbcac4b5a	-0.021032024
75	0x3df4dd4e	0.11956273
76	0xbc9304ad	-0.017946566
77	0x3d0ca3a0	0.034335732
78	0x3e52cea0	0.20586634
79	0x3db0fb5b	0.08641692
80	0xbdf5d8c3	-0.12004235
81	0x3d237efa	0.039916016
82	0x3e48ce98	0.1961006
83	0x3e2924ac	0.16517895
84	0xbcbd0b7c	-0.023076765
85	0xbcc05653	-0.023478663
86	0x3dd4f98f	0.10399162
87	0xbdc5a757	-0.09651058
88	0x3ddd7f16	0.10815255
89	0x3d1d7b74	0.038447812
90	0x3d9cac9b	0.076501094
91	0x3cdc97b7	0.026927812
92	0xbdb0e530	-0.08637464
93	0x3d0829ab	0.033242863
94	0xbd2bb4ef	-0.0419206
95	0xbe05c85b	-0.13064711
96	0x3da588ff	0.080827706
97	0x3e0352b8	0.12824523
98	0xbd9a8684	-0.07545188
99	0x3ce6ed06	0.028189193
100	0xbd48a742	-0.048987634
101	0x3dc273b0	0.09494722
102	0x3d94c93e	0.072649464
103	0x3e668021	0.22509815
104	0x3deda6d1	0.11604083
105	0x3d3d005f	0.046142932
106	0xbdb3be6e	-0.08776556
107	0xbd721188	-0.05909875
108	0x3cbdb4f5	0.023157576
109	0x3e452925	0.19253977
110	0xbddade04	-0.10686877
111	0xbdece26c	-0.11566624
112	0xbdd8b30f	-0.10581028
113	0xbe0418ac	-0.12900037
114	0xbd290163	-0.041261088
115	0x3e17b38f	0.1481459
116	0xbd7b366d	-0.0613312
117	0x3cc97dc5	0.024596104
118	0x3d28624c	0.04110937
119	0xbdf87794	-0.12132183
120	0x3e149887	0.1451131
121	0xbd06175a	-0.032737114
122	0x3e3ccc01	0.18437196
123	0x3c1f3179	0.009716385
124	0xbdbe1851	-0.09281982
125	0x3c68fda7	0.014220632
126	0xbe056b5f	-0.1302924
127	0x3c4374aa	0.01192967

lstm.bias_hh_l0 f4 [128]
0	0x3d214598	0.03937301
1	0x3ddbef48	0.10738999
2	0xbd38b96b	-0.045098703
3	0xbda04f3e	-0.07827614
4	0x3cd5a95c	0.026081733
5	0xbe0d7d7a	-0.13817397
6	0xbdcf5b1e	-0.10124801
7	0xbd4ad331	-0.049517814
8	0xbdd2e038	-0.102966726
9	0xbdedd086	-0.11612038
10	0xbdd2a7c5	-0.10285906
11	0x3e2e2ee5	0.17010076
12	0xbd569914	-0.05239208
13	0x3df69992	0.1204101
14	0xbe1816c3	-0.14852433
15	0x3e504532	0.20338896
16	0xbe0eca52	-0.13944367
17	0x3d941f3b	0.07232519
18	0x3dd18eed	0.10232339
19	0xbdeb4bb7	-0.11489051
20	0x3a49e3dd	0.0007701496
21	0x3d12502f	0.035721
22	0x3df783f9	0.12085719
23	0x3e1a9050	0.15094113
24	0x3e394e05	0.18096168
25	0xbb6c730e	-0.003607932
26	0x3cb42bf8	0.021993622
27	0x3d006652	0.03134758
28	0xbd002095	-0.031281073
29	0x3cc843a5	0.024446318
30	0xbe12202c	-0.14270085
31	0x3e289ab5	0.16465266
32	0x3e35f2e9	0.17768444
33	0x3dcd9968	0.100390255
34	0x3d49167e	0.049093716
35	0xbdbc791b	-0.092027865
36	0x3e53fe1d	0.20702405
37	0x3df53607	0.119731955
38	0x3e275c5c	0.16343826
39	0x3e6e0410	0.23243737
40	0x3c498f3f	0.012302219
41	0xbd2c32cd	-0.042040635
42	0xbd660649	-0.056158338
43	0xbe12f940	-0.14352894
44	0x3d977e9e	0.07397197
45	0x3e10876f	0.14114164
46	0x3dd902e6	0.10596256
47	0xbe00684b	-0.12539785
48	0xbd2d4b32	-0.04230804
49	0xbde76732	-0.1129898
50	0x3d5a2d3d	0.0532658
51	0x3d94d52b	0.07267221
52	0x3c1095f0	0.00882481
53	0xbd892b92	-0.066977635
54	0x3e3a97b3	0.18221931
55	0x3dd917bb	0.10600229
56	0xbe0786d3	-0.13235025
57	0xbd9b8347	-0.075933985
58	0x3c93e465	0.018053243
59	0x3e046385	0.12928589
60	0xbc2dc34f	-0.010605647
61	0x3d2fc40e	0.04291158
62	0xbdb60dda	-0.08889361
63	0xbdbbdc09	-0.09172828
64	0x3e10357d	0.14082904
65	0x3e2038ae	0.15646622
66	0x3e1308cd	0.14358826
67	0xbdf2aa3d	-0.118488766
68	0x3e1a164b	0.15047567
69	0x3dc2a204	0.09503558
70	0xbd0fd5ff	-0.035116192
71	0xbcfc6ff8	-0.03081511
72	0x3e0c788c	0.1371786
73	0x3db63ee0	0.08898711
74	0x3e140fd7	0.14459167
75	0xbdf4ffec	-0.11962876
76	0xbdec709a	-0.115449145
77	0x3d657dda	0.056028225
78	0x3c4fd5a8	0.012685217
79	0x3d4b2ca1	0.04960311
80	0x3e17d99f	0.1482911
81	0xbd3c4d01	-0.045971874
82	0xbdf516e2	-0.11967255
83	0x3b2c1ff7	0.002626417
84	0xbdfdaad6	-0.123861
85	0xbda315ec	-0.07963166
86	0x3da20704	0.079114944
87	0x3e191c7b	0.1495227
88	0x3d477498	0.048695177
89	0x3e32bcff	0.17454909
90	0x3e2dd3ff	0.16975401
91	0x3ddf72ff	0.10910606
92	0xbd265669	-0.04060975
93	0xbc9ceef3	-0.019156909
94	0x3d05e687	0.03269055
95	0x3e1f1578	0.15535533
96	0x3dc6e631	0.09711874
97	0x3e35c830	0.17752147
98	0x3d0ee474	0.03488584
99	0xbd77c511	-0.06049067
100	0xbe1c457b	-0.1526088
101	0x3df88c8c	0.12136182
102	0x3dc9e031	0.09857214
103	0x3dd9a196	0.10626523
104	0x3e375e8d	0.17907162
105	0xbd49b99d	-0.04924928
106	0x3e342fc6	0.17596349
107	0xbdce4539	-0.10071797
108	0xbd2e0243	-0.042482626
109	0x3e23e04a	0.16003528
110	0x3dee0369	0.11621744
111	0xbe19cdba	-0.15019885
112	0xbe0755ea	-0.13216367
113	0x3c819134	0.015816309
114	0xbdc0a690	-0.09406769
115	0x3e0a625f	0.13514088
116	0x3dcd3b2b	0.10021051
117	0x3de16426	0.1100543
118	0xbe1228ec	-0.14273423
119	0xbd00edf6	-0.031476937
120	0x3c92cc2f	0.017919628
121	0x3e029d9f	0.1275544
122	0x3d944bb8	0.07241005
123	0x3e1fe79b	0.15615694
124	0x3b482f56	0.0030545793
125	0xbdb11d0d	-0.08648119
126	0xbde9e9bc	-0.114215344
127	0x3e05b242	0.13056281

fc_mu.weight f4 [4, 32]
0	0x3cbc1e02	0.022963528
1	0xbf0357fd	-0.51306134
2	0x3d5b23bc	0.053500876
3	0xbe33db5d	-0.17564149
4	0x3e8d5382	0.27602774
5	0xbdbdfd1f	-0.09276795
6	0x3e31c214	0.17359191
7	0x3d898183	0.067141555
8	0xbebf5f42	-0.37377363
9	0xbd751c35	-0.059841353
10	0x3d53d069	0.051712427
11	0x3e54843d	0.2075357
12	0xbd7afb67	-0.061274912
13	0x3dbdffda	0.092773154
14	0xbca5225c	-0.020157985
15	0xbe03251d	-0.12807126
16	0xbb417225	-0.0029517498
17	0xbe520d6f	-0.20512937
18	0x3e527774	0.2055338
19	0xbdece02d	-0.11566196
20	0xbdc16b93	-0.09444346
21	0x3b831181	0.0039998894
22	0x3e97784e	0.29583973
23	0x3e8f16b5	0.27947012
24	0xbe785174	-0.24249822
25	0xbe4dd9f1	-0.2010267
26	0xbe277f37	-0.16357122
27	0x3dbedc29	0.09319336
28	0xbe79eb59	-0.24406184
29	0xbdee4882	-0.116349235
30	0x3e1e2126	0.15442333
31	0x3e15bfc9	0.14623941
32	0x3ea2a74f	0.3176827
33	0x3ebdfaad	0.37105313
34	0x3d1907ce	0.03736096
35	0x3e145cf6	0.14488587
36	0xbd9e4841	-0.07728625
37	0x3dfc7dac	0.123286575
38	0xbd0b62b9	-0.034029696
39	0x3c8ffe29	0.017577248
40	0x3dc9de6a	0.09856875
41	0xbd6cb7b2	-0.057792373
42	0x3d02a1f1	0.03189272
43	0xbe2603fc	-0.16212457
44	0x3e82aa12	0.25520378
45	0x3e07cce7	0.13261758
46	0xbc79da14	-0.015249748
47	0x3e5b386a	0.21408239
48	0x3e3a879e	0.18215796
49	0x3e6a9a15	0.2291034
50	0xbe0c3466	-0.13691863
51	0x3d04b405	0.032398243
52	0x3b9fd6f1	0.004877918
53	0x3d016e51	0.031599347
54	0xbe865dc8	-0.26243424
55	0xbdedcbb8	-0.11611122
56	0x3ca921e3	0.020646041
57	0x3ea09a49	0.3136771
58	0x3debb4e0	0.115091085
59	0xbe9a20bf	-0.30103108
60	0xbcbb4835	-0.02286158
61	0x3e81d99f	0.25361344
62	0xbe87c9cd	-0.2652115
63	0xbcdb60fc	-0.026779644
64	0x3eae8389	0.34084728
65	0x3e71f11d	0.23627134
66	0x3e4c55d6	0.19954619
67	0x3da6a0c4	0.08136132
68	0xbe59e156	-0.21277365
69	0xbd62b7f6	-0.05535122
70	0xbd2165c8	-0.039403707
71	0xbe5c5773	-0.21517734
72	0xbe32b4b9	-0.17451753
73	0xbdcb29f4	-0.09920111
74	0x3e56bc16	0.20970187
75	0xbe15df0e	-0.1463587
76	0x3e96eabd	0.29475966
77	0x3e1d635a	0.15369931
78	0xbd73c591	-0.059514586
79	0x3e9cfbaa	0.30660754
80	0x3e6d8ffc	0.23199457
81	0x3da346b9	0.07972474
82	0xbe153ca1	-0.1457391
83	0x3e760a19	0.2402729
84	0x3d8cd7b1	0.06877077
85	0x3e39cc83	0.18144421
86	0xbc95e79b	-0.018298915
87	0xbd8a1c2c	-0.067436546
88	0xbd2f0828	-0.042732388
89	0x3e7986f2	0.24367884
90	0x3cf69d9f	0.030104456
91	0x3d997569	0.07493097
92	0x3e61c06c	0.2204606
93	0x3d25d869	0.040489588
94	0xbe84c185	-0.25928894
95	0xbe92cf3c	-0.28673732
96	0xbe056f3b	-0.13030712
97	0xbd370c34	-0.044689372
98	0x3e85579c	0.26043403
99	0x3e264ec9	0.16240992
100	0xbe1fe99b	-0.15616457
101	0x3e8a0ec4	0.2696439
102	0x3f06eacc	0.5270202
103	0xbdf72a01	-0.120685585
104	0x3ec8cc38	0.39218307
105	0xbea95aab	-0.33076987
106	0xbca2f3e6	-0.01989169
107	0xbd4e5e13	-0.050382685
108	0xbe82eced	-0.25571385
109	0x3e38ba90	0.18039918
110	0xbe3e8858	-0.18606699
111	0xbdecd310	-0.115636945
112	0xba639134	-0.0008681
113	0x3e95186d	0.29120198
114	0xbe3debb6	-0.18546948
115	0x3e6c0a74	0.23050863
116	0xbeeed4d6	-0.46646756
117	0x3ea97b4e	0.33101887
118	0x3d7e149c	0.062031373
119	0xbe7ac043	-0.24487405
120	0x3e90e822	0.28302103
121	0x3daf5c75	0.08562557
122	0x3e5db3e1	0.2165065
123	0x3e3e4b8b	0.18583505
124	0x3e06f549	0.13179506
125	0x3dc52889	0.09626872
126	0xbe12e449	-0.14344896
127	0xbeb79f8c	-0.35863912

fc_mu.bias f4 [4]
0	0x3d931911	0.071825154
1	0xbd471a40	-0.04860902
2	0x3db35474	0.087563425
3	0x3d28477f	0.04108381

fc_logvar.weight f4 [4, 32]
0	0xbbbd14a8	-0.0057702847
1	0x3db2eba1	0.08736349
2	0xbdc39d01	-0.095514305
3	0x3b2374e6	0.0024941503
4	0x3e954841	0.29156688
5	0xbe5e0882	-0.21682933
6	0x3c4ac88c	0.012376916
7	0x3eae08e1	0.3399115
8	0xbe3368b1	-0.17520405
9	0x3d9355a8	0.07194072
10	0xbee4e5b0	-0.44706488
11	0xbdd5605a	-0.10418768
12	0xbb8347a6	-0.004006344
13	0x3e6c43c2	0.23072723
14	0xbe333fa7	-0.1750475
15	0xbd84fb62	-0.0649326
16	0xbea225d4	-0.31669486
17	0xbd2825ad	-0.041051555
18	0xbd84910d	-0.06472979
19	0x3e0066dd	0.12539239
20	0x3e0ff0de	0.14056727
21	0x3d4018d5	0.04689868
22	0xbd637c22	-0.055538304
23	0x3e1149af	0.14188264
24	0x3e3b5499	0.1829399
25	0xbdd7d23b	-0.10538145
26	0xbdff342c	-0.12461123
27	0xbdb20f72	-0.08694352
28	0xbe70f570	-0.23531127
29	0xbe73bbfa	-0.23802176
30	0xbdb7d300	-0.08975792
31	0xbdaad2dd	-0.08341
32	0xbe2318a4	-0.15927368
33	0x3e1740e7	0.14770852
34	0xbe2153dd	-0.15754648
35	0xbe7dcc94	-0.24785072
36	0x3c9a01cf	0.01879969
37	0xbda15843	-0.07878163
38	0xbe1acf8a	-0.15118232
39	0x3df97ce6	0.121820256
40	0xbe3af1ea	-0.18256345
41	0x3dbef9bb	0.09324976
42	0xbe49b2ae	-0.19697067
43	0xbe8504e7	-0.25980303
44	0xbd81dd17	-0.06340998
45	0x3e2933d9	0.16523685
46	0xbec678a4	-0.38763916
47	0xbd044d2b	-0.032300156
48	0xbea02749	-0.31279972
49	0xbe4cfc29	-0.20018066
50	0xbb2ebff9	-0.0026664718
51	0x3e05fc05	0.13084419
52	0x3d99f71f	0.07517838
53	0x3e031571	0.12801148
54	0x3daedb9d	0.08537982
55	0x3bf6d81f	0.007533088
56	0x3e84438f	0.25832793
57	0xbe456973	-0.19278507
58	0xbc9c0f31	-0.019050213
59	0xbe3f372e	-0.18673393
60	0xbe5dfb1c	-0.21677822
61	0xbe850717	-0.25981972
62	0xbe037718	-0.128384
63	0xbe4b014f	-0.19824718
64	0xbdd6d930	-0.10490644
65	0x3e6a50f2	0.2288244
66	0xbe39c594	-0.18141776
67	0xbe0227b5	-0.1271046
68	0x3d21de98	0.039518923
69	0xbe829a84	-0.2550851
70	0xbd4d6fe5	-0.05015554
71	0x3ea0993e	0.31366915
72	0xbdb508ec	-0.08839592
73	0x3daab56a	0.08335383
74	0xbedca182	-0.4309197
75	0xbe8f9db8	-0.28050017
76	0xbe36f650	-0.17867398
77	0x3eba49cc	0.36384428
78	0xbe10842a	-0.14112917
79	0xbe805c8f	-0.25070617
80	0xbe771847	-0.24130355
81	0xbe121c0c	-0.14268512
82	0xbdd2dd13	-0.10296073
83	0x3d5ce09a	0.053925134
84	0x3e9ef0b3	0.31043014
85	0x3bb91ced	0.0056492
86	0x3e6fc3a9	0.23414482
87	0x3ddee55e	0.10883592
88	0x3e8c2883	0.27374658
89	0xbe53982d	-0.20663519
90	0x3c1acb1b	0.009447838
91	0x3d035828	0.032066494
92	0xbed2b2fe	-0.41152185
93	0xbea6eeed	-0.3260416
94	0xbe4d9c7c	-0.20079225
95	0x3c1669dd	0.009180513
96	0xbe911f7e	-0.2834434
97	0x3dad0c29	0.08449585
98	0xbe02b7cf	-0.1276543
99	0xbe7cb763	-0.24679331
100	0x3de00efe	0.109403595
101	0xbe90cb02	-0.28279883
102	0xbe931233	-0.28724822
103	0x3e374528	0.17897475
104	0xbea79eb1	-0.3273826
105	0x3dc37c63	0.09545209
106	0xbe805b88	-0.25069833
107	0xbe867561	-0.26261428
108	0xbdea426a	-0.11438449
109	0x3eb3ad02	0.35092932
110	0xbd84452a	-0.064585045
111	0xbe5e3f18	-0.21703756
112	0xbe10b17d	-0.14130206
113	0xbe630a70	-0.2217195
114	0xbe84b3b8	-0.25918365
115	0x3e417b49	0.18894686
116	0x3eda4d07	0.42636892
117	0xbdb7f760	-0.0898273
118	0x3e6a40f1	0.22876336
119	0x3e4126e1	0.18862487
120	0x3e7d296f	0.24722837
121	0xbe3b2fd3	-0.18279962
122	0xbcdc1c05	-0.02686883
123	0xbe446d4d	-0.1918232
124	0xbec797c7	-0.38982984
125	0xbe6b70a4	-0.22992188
126	0xbe85bf36	-0.26122445
127	0x3de6ff42	0.11279155

fc_logvar.bias f4 [4]
0	0xbec31248	-0.38099885
1	0xbe8e7faf	-0.2783179
2	0xbd0ca86a	-0.0343403
3	0xbdbdadaa	-0.092616394

fc3_obs.weight f4 [32, 4]
0	0x3dd47326	0.10373525
1	0x3e148e43	0.14507394
2	0x3f317d20	0.6933155
3	0x3f064ab0	0.52457714
4	0xbe9a2c18	-0.30111766
5	0x3f0f2e8d	0.55930406
6	0xbdbaf678	-0.091290414
7	0x3da72f50	0.08163321
8	0x3f2057cc	0.6263397
9	0xbe83a373	-0.2571064
10	0xbf03a9d4	-0.5143101
11	0xbee2041a	-0.44143754
12	0x3f05ecba	0.5231434
13	0x3e552ce4	0.20817906
14	0xbe8ff137	-0.2811372
15	0xbe4f7ede	-0.2026324
16	0x3f00a625	0.50253516
17	0xbf185b33	-0.5951416
18	0xbf326315	-0.6968244
19	0x3ddccd5f	0.10781359
20	0x3dae4dab	0.08510908
21	0x3dfb7e7e	0.12279986
22	0x3bc07d54	0.0058743153
23	0x3f307d91	0.689416
24	0xbf1d38d3	-0.6141483
25	0xbe44ec67	-0.19230805
26	0x3f33b7e8	0.70202494
27	0x3d9d00c4	0.07666162
28	0x3dc79520	0.0974524
29	0xbeacf29a	-0.3377884
30	0x3f2e84cf	0.681714
31	0x3f15ae8e	0.58469474
32	0x3e81779c	0.25286567
33	0x3e8605a7	0.26176187
34	0x3f01e5b0	0.507411
35	0xbebc4b7c	-0.3677634
36	0xbec54931	-0.38532403
37	0x3e54b2c9	0.20771326
38	0x3e712546	0.23549375
39	0xbee9f197	-0.4569213
40	0x3e464d8f	0.19365524
41	0x3ed13df5	0.40867582
42	0xbc88255d	-0.016619379
43	0x3e8108a1	0.25201896
44	0xbe1196df	-0.14217709
45	0xbc777b2d	-0.015105051
46	0xbd7ca633	-0.061681937
47	0xbca1c916	-0.019749206
48	0xbf14cbf6	-0.5812372
49	0xbe859c42	-0.26095778
50	0x3f08e45d	0.53473455
51	0x3e23dd2d	0.1600234
52	0xbd8d85b6	-0.06910269
53	0xbe6e56ed	-0.23275347
54	0x3ec3e8a6	0.38263434
55	0x3ef78cce	0.48349613
56	0x3d9551ea	0.072910145
57	0x3f11ca85	0.56949645
58	0x3f62ec34	0.8864167
59	0xbeba39e6	-0.36372298
60	0xbed75206	-0.42054766
61	0x3f474876	0.7784494
62	0x3f3989f2	0.7247611
63	0xbe511cbb	-0.20421116
64	0xbd5e9459	-0.054340694
65	0x3c38be8f	0.011275901
66	0x3f494cb8	0.7863269
67	0x3f1b19aa	0.60586035
68	0x3ec676b2	0.38762432
69	0x3b411227	0.0029460283
70	0xbf102884	-0.5631182
71	0xbeaca3c9	-0.33718708
72	0xbdcc48bb	-0.0997481
73	0xbe1bc08b	-0.15210168
74	0x3f20de99	0.6283966
75	0x3f1c0ef2	0.60960305
76	0xbeadc995	-0.33942857
77	0x3e63fb85	0.22263916
78	0x3f3d0a07	0.73843426
79	0xbf55aa71	-0.834632
80	0x3dd2c8d4	0.10292211
81	0x3eda8feb	0.42687926
82	0x3f124f3b	0.57152146
83	0x3efab079	0.48962763
84	0xbf05f51b	-0.52327126
85	0x3eb74cca	0.35800773
86	0x3c6629e7	0.014048076
87	0xbdf6841d	-0.12036917
88	0x3f11bf31	0.5693236
89	0xbf10a111	-0.5649577
90	0xbf0f5420	-0.5598774
91	0xbeda9738	-0.42693496
92	0x3def48bd	0.116837956
93	0x3ea6616b	0.324962
94	0x3f4f9e86	0.8110126
95	0x3e645e3e	0.22301576
96	0x3e95ab6a	0.2923234
97	0x3f06b951	0.5262652
98	0x3df1210d	0.11773882
99	0x3f184a1f	0.594881
100	0x3f06a363	0.5259306
101	0xbcc20eec	-0.023688756
102	0x3ef0d286	0.47035617
103	0x3f2206be	0.6329154
104	0x3ed7c54c	0.42142713
105	0xbe9f284e	-0.31085438
106	0xbf2db618	-0.6785598
107	0xbf0b6bc1	-0.54461294
108	0xbcb3452f	-0.021883575
109	0x3eef5671	0.46745637
110	0x3ef5ed43	0.4803258
111	0xbdeb0076	-0.11474697
112	0xbda034b6	-0.07822554
113	0x3d8e655a	0.06952925
114	0x3f541b69	0.82854325
115	0x3e7a6d49	0.24455751
116	0xbe9c9929	-0.30585602
117	0x3d4319ea	0.047632135
118	0x3f36bcc0	0.7138176
119	0x3ed0cb4a	0.40780097
120	0xbd0014fa	-0.031270005
121	0x3e02a606	0.12758645
122	0xbe42fdd0	-0.19042134
123	0x3ec005a2	0.37504297
124	0x3f40d571	0.75325686
125	0xbf356fb8	-0.70873594
126	0xbe96c364	-0.29445946
127	0xbef6dfad	-0.48217526

fc3_obs.bias f4 [32]
0	0x3eacc210	0.33741808
1	0x3f5ffbb9	0.87493473
2	0x3d4adf7b	0.049529534
3	0xbdc06e56	-0.09396045
4	0x3e6f50f0	0.23370719
5	0x3eb3c53c	0.35111415
6	0xbd209a88	-0.039209872
7	0x3dee3210	0.116306424
8	0x3f0a47bd	0.54015714
9	0xbe0cea76	-0.13761315
10	0x3e34ab67	0.1764351
11	0xbe8d4032	-0.2758804
12	0x3e194d83	0.14970975
13	0x3e1d79c5	0.15378483
14	0x3e1dfb1e	0.15427825
15	0xbd83455d	-0.06409714
16	0x3ef73b93	0.4828764
17	0x3a29a0b5	0.00064707856
18	0x3f1164b7	0.56794304
19	0x3f280a38	0.6564059
20	0xbc1ecd2d	-0.009692472
21	0x3f3609d7	0.71108764
22	0x3d3278b7	0.043572154
23	0x3f23a475	0.63922817
24	0x3ee5095e	0.4473371
25	0x3ed014bc	0.4064082
26	0xbb27e42d	-0.002561818
27	0x3f349385	0.70537597
28	0x3ee1cc4f	0.44101188
29	0x3f04e547	0.5191235
30	0xbdca7962	-0.09886433
31	0x3e10b0e1	0.14129974
