checkpoints/k4_simuSVD/zara2/s_vae_model_best.pth (torch, 77057 bytes, 25 tensors)

V_obs_trunc f4 [16, 4]
-0.03681605 -1.10826534e-07 -0.11470888 4.0022993e-08 -0.056128416 0.0051600076 -0.16644202 -0.024887677
-0.049850557 0.018238751 -0.13494456 -0.08484407 -0.032848183 0.04602139 -0.08466978 -0.18481614
-0.09476099 0.03794827 -0.22395445 -0.12787059 -0.14031263 0.030092446 -0.2734386 -0.09593001
-0.07901915 0.09462428 -0.11953182 -0.25637665 -0.07291897 0.133786 -0.10397511 -0.2763338
-0.19143642 0.07268546 -0.19362664 -0.10899625 -0.20812479 0.08435246 -0.111276075 -0.11800924
-0.09640074 0.21628927 -0.015632398 -0.18436421 -0.13681194 0.21839078 -0.009405598 -0.06885718
-0.2915144 0.10218003 0.09851918 0.0028606202 -0.24293026 0.17960273 0.17112713 0.029159393
-0.11381296 0.3478336 0.10089682 0.19653517 3.4876896e-10 0.5178215 -1.2543182e-07 0.46401358
00000000: 6dcc 16bd 88ff edb3 7dec eabd bfe5 2b33
00000010: e9e6 65bd 4815 a93b c76f 2abe 3ee1 cbbc
00000020: 1930 4cbd 6f69 953c e82e 0abe bac2 adbd
00000030: d18b 06bd ed80 3c3d 5a67 adbd 7140 3dbe
00000040: 0d12 c2bd a56f 1b3d 5154 65be 82f0 02be
00000050: 1dae 0fbe 6f84 f63c 2500 8cbe f476 c4bd
00000060: cbd4 a1bd 60ca c13d 19cd f4bd cd43 83be
00000070: 8a56 95bd 32ff 083e e7f0 d4bd a07b 8dbe
00000080: e907 44be 1ddc 943d 1046 46be 6d39 dfbd
00000090: aa1e 55be fcc0 ac3d b6e4 e3bd d4ae f1bd
000000a0: c06d c5bd ef7a 5d3e 840f 80bc f9c9 3cbe
000000b0: 6e18 0cbe d5a1 5f3e f019 1abc fe04 8dbd
000000c0: 6041 95be c343 d13d 6dc4 c93d 3e79 3b3b
000000d0: b6c2 78be c7e9 373e f33b 2f3e aedf ee3c
000000e0: c516 e9bd 3f17 b23e fea2 ce3d 8440 493e
000000f0: debc bf2f f38f 043f 70ae 06b4 3093 ed3e

conv_layers.0.weight f4 [64, 1, 3]
0.55903643 -0.29245535 0.19927293 0.37422726 -0.24919537 -0.50725096 -0.5831778 -0.15479565
0.05915005 0.4916297 -0.16420215 -0.35251328 0.5616724 -0.041610945 -0.48301566 -0.22997107
-0.3383867 0.36898044 0.6036248 0.0436624 0.006251857 0.34455344 0.01028038 0.25310588
0.43635267 -0.42084387 0.37775984 -0.21862347 0.29377934 -0.36049125 -0.28838885 -0.10716397
0.46493527 -0.37831792 0.49832037 -0.33789393 0.5546533 -0.2008296 0.297795 -0.010787416
0.53345037 -0.47947812 0.21833104 -0.19935994 0.47464263 0.3148182 -0.06905331 -0.64542603
0.15107821 0.2068369 -0.03641974 0.3033237 0.15785995 -0.40394267 -0.4582631 -0.31682858
-0.14172643 0.5287359 -0.3245967 -0.28745154 0.43317762 -0.24821532 -0.12114595 0.27378905
-0.17361183 0.5606745 0.123441346 -0.55395687 -0.12397103 -0.10073741 0.021587912 -0.08900059
0.22714368 0.31677076 -0.10057842 -0.2672087 -0.0014341772 0.3874173 0.53450817 -0.22783747
0.33773595 -0.49031842 -0.24568935 -0.3759842 -0.39752755 -0.24661365 0.42118335 -0.27995443
0.44277835 0.38168794 0.08890948 0.21875769 0.2532216 -0.5009282 0.39365187 0.4163845
0.15614934 0.13782464 -0.09841525 -0.35968193 0.1480908 -0.07540061 0.3457615 -0.43930012
0.5836745 0.33539423 0.1678333 0.46909636 0.11038713 0.32683718 0.51713604 0.3748168
-0.14610244 -0.5590692 -0.1895432 -0.35857508 0.28078973 -0.22019336 0.5221783 0.24452251
0.42829895 -0.15455203 0.113280326 -0.32537135 0.046599414 0.42733175 -0.35361913 -0.39850217
-0.5327779 -0.26262334 -0.11789134 0.5341333 -0.2983496 0.013288117 0.19599995 -0.033688635
-0.36690366 -0.26791432 -0.23668952 -0.5821083 -0.5437016 -0.24462779 0.4612539 -0.15632568
-0.27183142 0.0054969327 -0.5390761 -0.061441418 -0.42818102 0.31511223 0.4342254 0.34449527
0.027779754 0.58281285 -0.2561329 0.4484127 0.025774542 -0.16098244 -0.607313 0.1858326
-0.005139222 0.38282588 -0.118817694 -0.11262489 0.5354412 -0.0058790147 -0.13287663 0.1487683
-0.48121306 -0.26982656 -0.66647226 0.16781865 0.4165714 0.34507802 -0.43848446 -0.46863064
-0.6607 0.26716685 -0.5796614 -0.23999357 -0.2299746 -0.0010941944 0.50367844 0.1522446
-0.26459008 0.370028 0.06932684 0.54506797 0.24422875 -0.068915695 -0.30293795 0.29471338
00000000: 031d 0f3f b5bc 95be 340e 4c3e b79a bf3e
00000010: 122d 7fbe 33db 01bf 244b 15bf c082 1ebe
00000020: 5347 723d e3b6 fb3e 9c24 28be 9f7c b4be
00000030: c3c9 0f3f 3d70 2abd d44d f7be 897d 6bbe
00000040: 0641 adbe 01eb bc3e 2887 1a3f 58d7 323d
00000050: 61dc cc3b 4f69 b03e 0a6f 283c 1897 813e
00000060: 9e69 df3e d978 d7be bd69 c13e d5de 5fbe
00000070: 3f6a 963e 4f92 b8be b4a7 93be c978 dbbd
00000080: ff0b ee3e e3b2 c1be d923 ff3e 6f00 adbe
00000090: c2fd 0d3f 46a6 4dbe 9678 983e b4bd 30bc
000000a0: 3490 083f 287e f5be 2c92 5f3e 0325 4cbe
000000b0: 5c04 f33e da2f a13e d26b 8dbd a43a 25bf
000000c0: 3fb4 1a3e 0dcd 533e de2c 15bd 3e4d 9b3e
000000d0: 0aa6 213e 93d1 cebe 76a1 eabe 5b37 a2be
000000e0: bc20 11be 3c5b 073f 8a31 a6be d92c 93be
000000f0: 75c9 dd3e 282c 7ebe 5e1b f8bd 142e 8c3e
00000100: 4dc7 31be 5d88 0f3f d1ce fc3d 1ed0 0dbf
00000110: 86e4 fdbd 6a4f cebd 22d9 b03c f145 b6bd
00000120: 5a98 683e c72f a23e 0ffc cdbd 94cf 88be
00000130: 00fb bbba 8f5b c63e 87d5 083f 3a4e 69be
00000140: baeb ac3e 040b fbbe fd95 7bbe 0081 c0be
00000150: bb88 cbbe 4a88 7cbe 58a5 d73e 3056 8fbe
00000160: d8b3 e23e 9a6c c33e 2c16 b63d 0402 603e
00000170: 43a6 813e d53c 00bf bd8c c93e 5930 d53e
00000180: 9de5 1f3e e721 0d3e ef8d c9bd 3b28 b8be
00000190: 1da5 173e a36b 9abd a707 b13e f2eb e0be
000001a0: b16b 153f cbb8 ab3e 7edc 2b3e 662d f03e
000001b0: a612 e23d 3457 a73e 0763 043f fde7 bf3e
000001c0: e19b 15be 291f 0fbf 9d17 42be 2797 b7be
000001d0: acc3 8f3e 5e7a 61be 7aad 053f 1c64 7a3e
000001e0: 004a db3e e342 1ebe 84ff e73d 1397 a6be
000001f0: 07df 3e3d 3acb da3e 910d b5be 7a08 ccbe
00000200: 2264 08bf 9176 86be 0471 f1bd f6bc 083f
00000210: 47c1 98be 67b6 593c 36b4 483e 18fd 09bd
00000220: ccda bbbe 112c 89be bd5e 72be 0d05 15bf
00000230: 0730 0bbf b57f 7abe 7929 ec3e d713 20be
00000240: 7d2d 8bbe 9d1f b43b e400 0abf ffa9 7bbd
00000250: 8b3a dbbe 6456 a13e cb52 de3e af61 b03e
00000260: 5e92 e33c 3933 153f da23 83be 5996 e53e
00000270: 2225 d33c 95d8 24be dd78 1bbf e74a 3e3e
00000280: eb66 a8bb c101 c43e b156 f3bd e1a7 e6bd
00000290: ad12 093f c0a4 c0bb d010 08be b856 183e
000002a0: 8f61 f6be b526 8abe ed9d 2abf a7d8 2b3e
000002b0: d948 d53e 11ae b03e 0981 e0be 5bf0 efbe
000002c0: a323 29bf 18ca 883e b164 14bf e0c0 75be
000002d0: 767e 6bbe 126b 8fba 12f1 003f 02e6 1b3e
000002e0: 5a78 87be 4f74 bd3e 3bfb 8d3d 9389 0b3f
000002f0: 1a17 7a3e ac23 8dbd af1a 9bbe ace4 963e

conv_layers.0.bias f4 [64]
0.1077709 -0.062044088 0.59061015 -0.52192277 0.25458306 -0.26365295 0.47306556 -0.2266672
-0.30480698 0.18950349 -0.19631287 0.50815666 -0.38177276 0.35408697 0.34265557 0.14793402
-0.4670297 0.24623139 0.12174795 0.08809177 -0.03616232 0.06037241 0.10444908 0.4350791
-0.25127587 0.5523867 -0.26341745 0.72748876 0.6785682 0.5080536 0.000986113 -0.15601814
-0.34908944 0.5250852 -0.5249744 0.060639556 0.25746393 0.09563155 -0.22995342 -0.45380902
-0.46509776 -0.060959805 -0.13389924 0.39415634 0.41426814 0.35284045 0.058760937 0.27609602
-0.19376546 -0.5378607 0.29246452 -0.33816162 0.27808627 0.5348211 0.5955798 -0.44421706
-0.07874318 -0.05635243 0.57964015 -0.082798235 0.46546745 0.11016885 0.4991639 0.24261476
00000000: fdb6 dc3d f121 7ebd 3a32 173f bb9c 05bf
00000010: b658 823e 85fd 86be a635 f23e 721b 68be
00000020: a90f 9cbe 340d 423e 3e06 49be 8e16 023f
00000030: b877 c3be e34a b53e 8d70 af3e 047c 173e
00000040: 841e efbe 1524 7c3e fd56 f93d 7569 b43d
00000050: f11e 14bd 0f49 773d 66e9 d53d b0c2 de3e
00000060: 3ba7 80be 3769 0d3f a7de 86be b43c 3a3f
00000070: a5b6 2d3f cd0f 023f 7640 813a 38c3 1fbe
00000080: dabb b2be fc6b 063f b964 06bf 2f61 783d
00000090: 50d2 833e 79da c33d e978 6bbe a859 e8be
000000a0: 4b21 eebe fdb0 79bd e21c 09be dcce c93e
000000b0: f41a d43e 81a7 b43e 4faf 703d 755c 8d3e
000000c0: 746a 46be 3db1 09bf e9bd 953e 8523 adbe
000000d0: 5361 8e3e 09ea 083f eb77 183f 6b70 e3be
000000e0: 1b44 a1bd ced1 66bd 4c63 143f 1f92 a9bd
000000f0: c051 ee3e 35a0 e13d 6992 ff3e 0170 783e

conv_layers.2.weight f4 [32, 64, 3]
0.036043283 0.012563089 -0.031030422 0.074435316 -0.15351117 0.08263782 0.016593304 0.11370091
0.107170366 -0.08033757 -0.09169592 0.05669241 0.06488445 -0.08932753 -0.08479001 -0.080942705
-0.026915155 -0.018267982 -0.040392943 0.061370976 -0.037767783 -0.017574789 0.07868428 0.0055761808
0.08905828 -0.0266152 0.015754718 0.031630766 0.014372397 0.07338476 0.049214866 0.0376887
0.043670863 0.031168923 0.08235655 0.07958728 0.052195538 0.004399307 0.03398977 -0.032871667
-0.03307832 0.030827379 0.05290705 0.0428035 0.0037922978 0.07276998 0.0048951637 0.010547479
0.042833436 0.06947627 -0.0028483027 0.01739433 0.05191517 0.06094043 -0.0015106662 -0.017922934
0.05893017 -0.0070269657 -0.084984094 -0.0058795996 -0.032909308 -0.009976905 -0.025965367 0.021620253
-0.023627862 -0.033060864 0.07663745 -0.050230153 0.027175875 -0.030137671 -0.039517958 -0.071014225
0.03513752 -0.04429225 -0.0081065735 -0.0032438345 -0.0071004243 -0.026809333 0.039806724 0.073258266
-0.061736718 0.02120927 0.0220794 0.093010984 -0.03498817 -0.044209022 0.07689612 -0.052077692
0.06959308 0.031623032 -0.002099115 0.05455058 -0.060183555 0.0076025277 -0.032967255 -0.0036477866
0.02435637 0.062143482 0.047716644 -0.09961642 -0.0017918651 -0.0048821936 0.01136804 -0.060690425
-0.047572374 0.06847218 0.07809561 0.030674433 -0.015709786 0.03983261 0.034295212 0.09316927
-0.0130942315 0.1039433 0.036641408 -0.0504481 0.06409158 -0.05623539 -0.018901637 0.0072080735
0.022804532 -0.011610378 0.027833542 -0.003980859 -0.09807694 -0.056530856 0.06970637 -0.01023769
-0.018847113 0.03395159 0.0066307303 0.00055737206 -0.0867682 -0.05752289 -0.06965852 0.0832669
0.046138052 0.08618169 0.09845614 0.04379255 0.04140984 -0.03642176 -0.056121245 0.008775333
-0.018872036 0.06871745 -0.07093388 -0.018717343 0.0007007829 0.049289513 0.0753621 0.048731133
0.002344776 0.0178418 0.065836206 -0.03918414 -0.013884766 0.09197849 0.0005293677 -0.0032834273
0.017463965 0.046835583 0.0039019105 -0.034487803 0.010092277 0.028719552 0.060401127 0.037036043
-0.017334092 0.0596809 0.04080329 0.0865945 -0.013246672 0.006022543 -0.018092388 0.08138349
0.034336776 0.06484724 -0.10867175 0.0037053858 0.028506171 0.03948975 -0.046584833 -0.011243954
-0.005480626 -0.038220584 0.06877292 0.018551579 -0.032019373 -6.425859e-05 0.034766234 0.05286497
0.029636258 -0.06922847 -0.009394281 -0.010260086 -0.053527255 0.03861987 0.036693137 0.05645946
0.10294824 -0.10117261 -0.005792909 0.035952397 0.06873584 0.028183065 0.05550356 0.0056619775
-0.03958138 -0.019708594 0.04450833 0.044117738 -0.006124091 -0.03603966 0.034660496 0.026683087
0.04151036 0.051791683 -0.06525477 -0.00682174 -0.05300969 0.009752667 0.03010286 -0.07721476
-0.020974955 -0.057225175 0.02007003 0.07708938 -0.071401566 -0.031974144 -0.027708389 -0.05480849
0.037478723 -0.037174474 0.0061733047 -0.040219575 -0.019896146 0.07588723 -0.04860134 -0.055607703
-0.019894324 -0.052013997 0.053245407 0.0630671 -0.082733795 0.02167515 0.07198887 -0.01892943
0.07969902 0.07256025 0.022836145 -0.0018707879 -0.030327031 0.05649413 0.030158205 -0.0034037172
00000000: 1fa2 133d 6ad5 4d3c 8333 febc 8b71 983d
00000010: 0832 1dbe 043e a93d aeee 873c 06dc e83d
00000020: 237c db3d 0688 a4bd 12cb bbbd 4d36 683d
00000030: 23e2 843d 5af1 b6bd 62a6 adbd 4ac5 a5bd
00000040: 2c7d dcbc bca6 95bc 1273 25bd 2260 7b3d
00000050: 64b2 1abd 01f9 8fbc 3925 a13d 65b8 b63b
00000060: 3064 b63d 1f08 dabc 0a10 813c 438f 013d
00000070: 347a 6b3c c04a 963d 8795 493d 775f 1a3d
00000080: 38e0 323d f855 ff3c 8daa a83d a8fe a23d
00000090: fdca 553d 1028 903b db38 0b3d 71a4 06bd
000000a0: 227d 07bd b389 fc3c 10b5 583d b952 2f3d
000000b0: 3388 783b 6d08 953d 9c67 a03b 55cf 2c3c
000000c0: 1d72 2f3d 9349 8e3d 97aa 3abb 8e7e 8e3c
000000d0: 00a5 543d ac9c 793d 8c01 c6ba 1ed3 92bc
000000e0: c360 713d 7642 e6bb 240c aebd a8a9 c0bb
000000f0: e9cb 06bd 2c76 23bc 52b5 d4bc f51c b13c
00000100: 388f c1bc d46a 07bd 18f4 9c3d 22be 4dbd
00000110: f19f de3c 47e3 f6bc 95dd 21bd e86f 91bd
00000120: 5cec 0f3d ca6b 35bd 6fd1 04bc 8396 54bb
00000130: adaa e8bb 3f9f dbbc 600c 233d 6e08 963d
00000140: a4df 7cbd 10bf ad3c dcdf b43c 8b7c be3d
00000150: c14f 0fbd 8514 35bd b77b 9d3d 6b4f 55bd
00000160: d186 8e3d 2787 013d 4e91 09bb 6e70 5f3d
00000170: 0883 76bd a01e f93b ac08 07bd b40f 6fbb
00000180: 0387 c73c 2a8a 7e3d 8772 433d b203 ccbd
00000190: 04dd eaba cffa 9fbb 0441 3a3c 8696 78bd
000001a0: 40db 42bd 243b 8c3d 97f0 9f3d f348 fb3c
000001b0: cfb1 80bc 8527 233d 2379 0c3d 88cf be3d
000001c0: 3089 56bc 3ae0 d43d 4d15 163d aba2 4ebd
000001d0: 7242 833d 1557 66bd 9bd7 9abc b431 ec3b
000001e0: 92d0 ba3c 7439 3ebc 2b03 e43c de71 82bb
000001f0: 90dc c8bd e68c 67bd 37c2 8e3d fcbb 27bc
00000200: 4365 9abc d310 0b3d 9946 d93b 9b1c 123a
00000210: 87b3 b1bd 1f9d 6bbd 20a9 8ebd d687 aa3d
00000220: 41fb 3c3d 0780 b03d 5fa3 c93d d15f 333d
00000230: 5d9d 293d fc2e 15bd 64df 65bd 6ac6 0f3c
00000240: 8799 9abc bcbb 8c3d c845 91bd 1d55 99bc
00000250: bfb4 373a cde3 493d 7257 9a3d 4c9a 473d
00000260: d0aa 193b f728 923c 22d5 863d 8c7f 20bd
00000270: ee7c 63bc 385f bc3d 44c5 0a3a c52e 57bb
00000280: 9710 8f3c abd6 3f3d 32b7 7f3b 1543 0dbd
00000290: 145a 253c 4445 eb3c 2c67 773d 1bb3 173d
000002a0: 3a00 8ebc f673 743d 5a21 273d 7558 b13d
000002b0: 9208 59bc c158 c53b 7d36 94bc 63ac a63d
000002c0: b8a4 0c3d a1ce 843d 4b8f debd 0fd6 723b
000002d0: c685 e93c 01c0 213d bdcf 3ebd 9038 38bc
000002e0: d396 b3bb 308d 1cbd d1d8 8c3d 7bf9 973c
000002f0: bf26 03bd 91c2 86b8 0a67 0e3d f088 583d
00000300: bdc7 f23c a8c7 8dbd 78ea 19bc eb19 28bc
00000310: 653f 5bbd de2f 1e3d 8b4b 163d 0942 673d
00000320: 87d6 d23d 9633 cfbd 71d2 bdbb d242 133d
00000330: 60c5 8c3d 2ce0 e63c b357 633d 1c88 b93b
00000340: 1620 22bd eb73 a1bc 5e4e 363d cdb4 343d
00000350: 99ac c8bb 539e 13bd 2af8 0d3d 7d96 da3c
00000360: c406 2a3d 8423 543d 4ba4 85bd e788 dfbb
00000370: b020 59bd a6c9 1f3c 469a f63c c622 9ebd
00000380: abd3 abbc f264 6abd e769 a43c 09e1 9d3d
00000390: fc3a 92bd 52f7 02bd b4fc e2bc de7e 60bd
000003a0: 4a83 193d 4344 18bd 6f49 ca3b 48bd 24bd
000003b0: 3efd a2bc c46a 9b3d 3312 47bd e7c4 63bd
000003c0: 6cf9 a2bc a10c 55bd db17 5a3d 5329 813d
000003d0: 5670 a9bd 1690 b13c e76e 933d e411 9bbc
000003e0: 3d39 a33d 789a 943d de12 bb3c 3a35 f5ba
000003f0: 6570 f8bc 6466 673d 570e f73c e610 5fbb

conv_layers.2.bias f4 [32]
0.023873571 0.028908025 -0.023736099 0.07266956 0.071571775 -0.03821841 -0.06252454 0.041746683
0.024287935 0.05525295 0.008270784 -0.033907745 0.05616407 0.06505827 0.11823997 -0.07080828
0.00077155896 -0.0843318 0.111191116 -0.046952445 -0.023531158 0.115151115 0.06711096 -0.049350247
-0.051196232 0.13402127 -0.032811847 0.059069395 -0.021585457 0.01135184 -0.051160045 0.09107157
00000000: 8292 c33c 86d0 ec3c 3572 c2bc c7d3 943d
00000010: 3994 923d e88a 1cbd de0c 80bd 92fe 2a3d
00000020: 7ef7 c63c eb50 623d 2f82 073c d9e2 0abd
00000030: 4c0c 663d 453d 853d cc27 f23d ee03 91bd
00000040: 7242 4a3a 27b6 acbd 2bb8 e33d 3551 40bd
00000050: 6ac4 c0bc 59d4 eb3d 7971 893d 7c23 4abd
00000060: 24b3 51bd df3c 093e b765 06bd c0f2 713d
00000070: fcd3 b0bc 11fd 393c 328d 51bd bb83 ba3d

lstm.weight_ih_l0 f4 [128, 32]
-0.1119824 -0.098170616 0.12374297 -0.14190528 0.06430719 -0.02767522 -0.0067606657 0.06839938
0.030118998 0.043194685 -0.1936894 0.0916805 0.07734066 -0.045818243 0.15797772 0.074199066
0.05530013 -0.104924425 0.12461669 -0.09409165 -0.098523244 -0.16293287 -0.08026583 0.1496013
-0.105056725 0.061581682 -0.039742757 -0.090278715 0.024585938 -0.029481707 0.04256869 -0.00831527
0.02404643 -0.065263495 -0.12219748 0.08027768 -0.0030881052 -0.07791703 0.16444887 -0.039926954
-0.053523313 0.1390944 0.19374047 0.09151313 -0.049247794 -0.044613894 0.07685987 -0.08577899
0.07016707 0.0015923845 -0.060470864 -0.12970582 0.10604912 -0.10638543 0.19469588 -0.024204243
0.12533557 0.1813117 0.11069933 0.17808913 -0.06927966 0.08624346 0.045334008 -0.00031403673
0.16290271 0.15499632 -0.06454064 -0.11741527 0.09151344 -0.07898242 -0.1462035 -0.09359573
-0.073398 0.0768609 0.08496341 -0.0052492116 -0.16973913 0.07793009 0.01384267 0.031993635
0.020482223 -0.07557668 0.108518206 -0.07302426 0.09746403 0.14211386 0.052611146 0.06064828
-0.0874988 0.19191208 -0.15956953 -0.08176343 -0.08293 0.09730476 0.1510385 0.07549235
0.09412154 -0.018162152 0.07135801 0.15664294 -0.0009549057 -0.05775284 0.09443533 0.1685807
-0.0036765698 -0.0060968506 0.043491542 0.13624915 -0.11407176 0.054415148 -0.13499868 0.0020723282
0.04283338 -0.059532106 -0.10088995 -0.11054647 -0.09008478 0.13299643 0.13922375 -0.133294
-0.12683742 0.0028954723 -0.037569333 0.038454916 0.1325845 -0.0039609657 0.15545289 -0.104918964
-0.053813815 -0.09819569 0.043540195 0.17853834 -0.16824242 -0.02934431 0.14211933 -0.0870851
0.036702927 -0.16633348 0.041983705 0.09404847 -0.13778827 -0.0337126 -0.055721927 0.09412218
-0.112894624 0.15282923 -0.07624741 0.023772256 -0.1677969 -0.06795692 -0.18487467 0.048270177
0.15685715 0.28323916 0.010512789 0.077019356 0.1388235 0.008341058 0.13162957 0.09801773
-0.06414444 0.19594397 -0.12464342 0.028331885 0.0677328 -0.044110063 0.15800235 -0.07416018
-0.05310758 -0.10249341 -0.04575622 0.13433386 0.006023072 -0.16670284 -0.11749923 0.12446086
0.001802869 -0.09100104 0.16464396 -0.117115185 0.14726126 0.0015132735 -0.06923785 0.058898445
-0.063497715 0.0068532615 0.07569227 0.16101135 0.06124304 0.10778389 -0.08566165 -0.046513718
-0.119612455 -0.13746801 0.07693444 -0.07956203 -0.02581989 0.0840747 0.1356597 0.04701775
0.066484086 0.10947808 0.14103325 0.02581915 0.09031547 0.09109448 0.06984379 -0.045757767
0.004830091 0.18666716 0.14561541 0.21051408 0.20033394 0.08927493 -0.021431828 -0.123660386
-0.11047584 -0.022919612 -0.11284917 -0.014791534 0.020657873 0.063256755 -0.07066099 0.16709155
0.20994058 -0.04671329 -0.015068695 0.056668397 -0.03391277 -0.10393734 -0.02862961 0.043508768
0.14550698 -0.13175397 0.13355121 -0.15885982 0.050887134 0.18016352 0.07311672 -0.09322209
0.105028614 -0.044797987 0.06926367 0.19061466 0.18829589 0.03814086 0.040015183 0.09324436
-0.097289495 -0.12787552 -0.004187085 0.18097848 0.19817159 -0.1513113 0.09565327 0.34179795
00000000: 0757 e5bd ad0d c9bd f46c fd3d 9e4f 11be
00000010: 7db3 833d 25b7 e2bc 9388 ddbb f914 8c3d
00000020: 1ebc f63c e9ec 303d 8456 46be fcc2 bb3d
00000030: c864 9e3d e9ab 3bbd e9c4 213e aef5 973d
00000040: 6482 623d 9ee2 d6bd 0937 ff3d 1fb3 c0bd
00000050: 8ec6 c9bd e0d7 26be 6962 a4bd 1531 193e
00000060: fb27 d7bd 133d 7c3d 4dc9 22bd 0ce4 b8bd
00000070: 7368 c93c 9f83 f1bc 825c 2e3d c53c 08bc
00000080: 05fd c43c dea8 85bd ac42 fabd a068 a43d
00000090: cf61 4abb f792 9fbd 4965 283e 728a 23bd
000000a0: 433b 5bbd c36e 0e3e e763 463e 3c6b bb3d
000000b0: 0eb8 49bd 0fbd 36bd b568 9d3d e5ac afbd
000000c0: c1b3 8f3d 8fb7 d03a 4cb0 77bd 9ad1 04be
000000d0: 4830 d93d 9be0 d9bd 5b5e 473e fa47 c6bc
000000e0: f857 003e c6a9 393e 55b6 e23d ff5c 363e
000000f0: 7fe2 8dbd 69a0 b03d 27b0 393d 4ca5 a4b9
00000100: f8cf 263e 5bb7 1e3e e22d 84bd 6b77 f0bd
00000110: 666b bb3d 89c1 a1bd 5fb6 15be 1eaf bfbd
00000120: b151 96bd 3f69 9d3d 4c01 ae3d 9401 acbb
00000130: 18d0 2dbe d099 9f3d 5ecc 623c c20b 033d
00000140: 56ca a73c f2c7 9abd cb3e de3d be8d 95bd
00000150: 399b c73d 4c86 113e c97e 573d 556a 783d
00000160: 9232 b3bd 9a84 443e 3266 23be 9673 a7bd
00000170: 34d7 a9bd b847 c73d d6a9 1a3e bc9b 9a3d
00000180: cbc2 c03d cbc8 94bc 2624 923d 0267 203e
00000190: a352 7aba 3e8e 6cbd 4f67 c13d 6ba0 2c3e
000001a0: 9bf2 70bb 17c8 c7bb 3024 323d e684 0b3e
000001b0: 749e e9bd 6be2 5e3d 183d 0abe e6cf 073b
000001c0: 0e72 2f3d f0d7 73bd 649f cebd 3066 e2bd
000001d0: 5e7e b8bd 3730 083e ac90 0e3e 397e 08be
000001e0: abe1 01be f7c1 3d3b 4de2 19bd e782 1d3d
000001f0: 3bc4 073e fdca 81bb 0b2f 1f3e c1df d6bd
00000200: e06b 5cbd d21a c9bd 3457 323d c1d2 363e
00000210: be47 2cbe 7a63 f0bc bb87 113e ac59 b2bd
00000220: cf55 163d 5353 2abe 1bf7 2b3d 7c9c c03d
00000230: 5e18 0dbe 3916 0abd ad3c 64bd 21c3 c03d
00000240: 4c35 e7bd 447f 1c3e 9a27 9cbd 09be c23c
00000250: f3d2 2bbe ff2c 8bbd c94f 3dbe f3b6 453d
00000260: 299f 203e b904 913e d53d 2c3c 53bc 9d3d
00000270: bf27 0e3e efa8 083c e7c9 063e 85bd c83d
00000280: 295e 83bd 89a5 483e 0d45 ffbd 4518 e83c
00000290: 7fb7 8a3d c1ac 34bd 5ecb 213e 4be1 97bd
000002a0: 5587 59bd 11e8 d1bd e06a 3bbd d18e 093e
000002b0: 315d c53b 26b4 2abe 70a3 f0bd 56e5 fe3d
000002c0: 3f4e ec3a c15e babd 6d98 283e 16da efbd
000002d0: a8cb 163e 0859 c63a 93cc 8dbd 7f3f 713d
000002e0: 170b 82bd 5391 e03b 8d04 9b3d 29e0 243e
000002f0: fbd9 7a3d cdbd dc3d 606f afbd 2b85 3ebd
00000300: 60f7 f4bd 6ac4 0cbe ce8f 9d3d 6bf1 a2bd
00000310: 3c84 d3bc 5b2f ac3d 60ea 0a3e af95 403d
00000320: cf28 883d 0b36 e03d 056b 103e af82 d33c
00000330: 51f7 b83d be8f ba3d 430a 8f3d 7f6c 3bbd
00000340: bd45 9e3b ad25 3f3e 351c 153e 0191 573e
00000350: 5724 4d3e c6d5 b63d cd91 afbc a841 fdbd
00000360: 2841 e2bd e9c1 bbbc 771d e7bd 3158 72bc
00000370: b33a a93c c28c 813d b6b6 90bd 0c1a 2b3e
00000380: aafa 563e 6f56 3fbd b0e2 76bc 1f1d 683d
00000390: 1ee8 0abd 1add d4bd a588 eabc 4036 323d
000003a0: c8ff 143e 83ea 06be a6c1 083e 26ac 22be
000003b0: 076f 503d c97c 383e 38be 953d 39eb bebd
000003c0: 3e19 d73d 187e 37bd 1cda 8d3d 7d30 433e
000003d0: a3d0 403e 9739 1c3d f6e6 233d e6f6 be3d
000003e0: b73f c7bd cdf1 02be d133 89bb 6c52 393e
000003f0: 7eed 4a3e 59f1 1abe dde5 c33d 2400 af3e

lstm.weight_hh_l0 f4 [128, 32]
-0.040187024 0.091953255 0.01714378 0.022440618 0.09446968 0.05952043 -0.099794224 0.1352396
0.010091127 -0.058470335 -0.057428654 0.15584989 0.08302483 0.12773126 0.10679176 0.012368633
-0.17745727 -0.1171706 0.0705 0.16596726 0.12913911 0.16699772 -0.030995503 0.17891133
-0.06923456 -0.021170154 -0.017096762 -0.09322049 0.12308783 -0.013877472 -0.16232651 0.101773724
0.09080736 -0.075431384 -0.15665677 -0.11752315 0.13737488 0.123043954 0.17166288 0.029244846
0.02654653 -0.102360055 0.11960471 -0.11964826 0.17506501 -0.16947767 -0.016784862 -0.16766338
-0.049452446 0.17864704 -0.12805337 0.0769806 0.05072306 -0.1937395 0.22038199 -0.04967324
0.0860259 0.18110438 -0.081025794 -0.16916665 -0.019294426 -0.111443356 -0.04807046 0.08990016
-0.11529935 -0.21908678 0.06129567 0.18310218 0.06085594 -0.10366736 -0.15598886 -0.13343303
0.069136344 -0.16701038 -0.19373463 0.05286987 0.17570065 -0.17009912 -0.07207598 -0.029427769
0.14515573 0.18418941 0.08977482 0.1370844 -0.18310763 0.14690994 0.05141546 -0.11058361
-0.07299084 -0.115075245 -0.11244498 0.07703134 0.07823249 -0.037054814 0.019496823 -0.027628904
-0.082043 0.011260799 0.20360292 -0.29448187 0.06138049 0.11344923 -0.08190629 -0.12615006
0.12007821 -0.039320998 -0.17784724 -0.14340042 0.030580925 0.12369766 -0.23514497 0.03578093
-0.06493048 -0.14901479 -0.13847382 -0.10074676 0.23837893 0.19683848 0.083764054 0.05665292
0.06223502 0.13138074 0.09100358 0.07549077 -0.07333028 -0.061026216 0.21004663 -0.065017074
-0.10676277 0.07983871 -0.1117646 -0.090513475 -0.10770762 0.0861514 0.06328925 -0.18743703
-0.1159195 -0.021881472 -0.03556709 0.11651163 -0.10834022 0.1889479 0.062783234 -0.07583131
0.063614085 0.030754121 -0.14971097 -0.020086339 -0.18130481 0.042009696 -0.17726621 0.0732873
0.050012473 0.094402775 0.086804606 -0.043313194 0.11163299 -0.14792407 0.18925619 -0.08689637
0.11520369 0.038741883 0.12201354 0.034172762 0.10775188 -0.1440772 0.12736315 -0.13677798
-0.09179546 -0.02999206 -0.011060359 -0.08065769 0.040204342 -0.059684075 -0.0066702366 -0.16681547
0.06431738 -0.004801473 -0.078683905 0.09000158 -0.14771429 -0.14416023 -0.04798129 0.116331585
0.013267872 -0.07537326 -0.16055351 -0.17414068 0.08632089 -0.02367759 -0.054577105 -0.057259645
-0.22864377 0.097353175 -0.11994766 0.060131565 0.10182681 -0.04634454 -0.100842744 -0.125704
-0.038696658 -0.099860795 0.17563641 0.16060528 0.05123923 0.016524859 0.0613963 -0.10474792
0.083038285 0.18720385 0.009432655 -0.25079954 0.04239153 0.05403824 0.04134639 0.16564885
0.09125651 0.25169992 0.0010520329 0.040941283 -0.07927779 0.058803968 0.056300223 0.19119045
-0.23056778 -0.11534701 -0.18869568 0.15069556 -0.09310234 -0.1704991 -0.022675375 0.17421281
0.19425808 -0.13878843 0.1926342 0.23395018 0.14558528 -0.12889308 0.232447 -0.2647898
0.04717731 0.17959611 0.09616873 -0.21345174 -0.006453309 -0.14353317 -0.02066325 0.14539821
0.017458307 -0.11033015 -0.038068123 -0.19660854 -0.04651941 -0.05450308 0.07613735 0.12745626
00000000: 269b 24bd fd51 bc3d 1d71 8c3c 63d5 b73c
00000010: 5279 c13d b2cb 733d ea60 ccbd 407c 0a3e
00000020: 4155 253c 977e 6fbd 4f3a 6bbd 1d97 1f3e
00000030: ec08 aa3d fccb 023e a3b5 da3d cfa5 4a3c
00000040: 5cb7 35be 24f7 efbd 4e62 903d 52f3 293e
00000050: 0b3d 043e 7301 2b3e 48ea fdbc 8834 373e
00000060: d9ca 8dbd 086d adbc 820e 8cbc 62ea bebd
00000070: 7915 fc3d 565e 63bc ec38 26be be6e d03d
00000080: 36f9 b93d c57b 9abd a26a 20be faaf f0bd
00000090: 00ac 0c3e 78fe fb3d 65c8 2f3e e392 ef3c
000000a0: 1c78 d93c 26a2 d1bd 50f3 f43d 260a f5bd
000000b0: 3e44 333e 8e8b 2dbe 6880 89bc f3af 2bbe
000000c0: a68e 4abd 40ef 363e 6c20 03be 01a8 9d3d
000000d0: fcc2 4f3d a663 46be d1ab 613e 2b76 4bbd
000000e0: 592e b03d 6d73 393e daf0 a5bd 063a 2dbe
000000f0: 580f 9ebc 6a3c e4bd 88e5 44bd 931d b83d
00000100: 1122 ecbd 4958 60be 2b11 7b3d 237f 3b3e
00000110: 1444 793d 8e4f d4bd 8bbb 1fbe aba2 08be
00000120: 5b97 8d3d c504 2bbe 5f62 46be 148e 583d
00000130: dfea 333e 772e 2ebe 929c 93bd 8112 f1bc
00000140: b4a3 143e 269c 3c3e dcdb b73d da5f 0c3e
00000150: 9180 3bbe 8f6f 163e 0499 523d a979 e2bd
00000160: 397c 95bd 92ac ebbd 8e49 e6bd 9bc2 9d3d
00000170: 5b38 a03d cac6 17bd cdb7 9f3c 0356 e2bc
00000180: 2906 a8bd 377f 383c 497d 503e 54c6 96be
00000190: 1c6a 7b3d 1258 e83d 7cbe a7bd 7b2d 01be
000001a0: 91eb f53d 0e0f 21bd 961d 36be 8fd7 12be
000001b0: d984 fa3c 3355 fd3d d8c9 70be 068f 123d
000001c0: 46fa 84bd 5597 18be 15cc 0dbe 5154 cebd
000001d0: 9b19 743e 0790 493e 7d8c ab3d e40c 683d
000001e0: 26ea 7e3d ac88 063e 1660 ba3d e89a 9a3d
000001f0: 302e 96bd a0f6 79bd 7716 573e ac27 85bd
00000200: 70a6 dabd 7a82 a33d d7e4 e4bd 215f b9bd
00000210: d095 dcbd 2570 b03d cb9d 813d 7eef 3fbe
00000220: 3467 edbd c640 b3bc ccae 11bd a69d ee3d
00000230: 7ae1 ddbd 8f7b 413e 7f94 803d 724d 9bbd
00000240: 1a48 823d 11f0 fb3c d54d 19be 1b8c a4bc
00000250: f8a7 39be 5c12 2c3d 4685 35be a717 963d
00000260: e1d9 4c3d 3e56 c13d 9dc6 b13d 2d69 31bd
00000270: d69f e43d 6879 17be 60cc 413e b9f6 b1bd
00000280: eaef eb3d cfaf 1e3d 3ce2 f93d bdf8 0b3d
00000290: 05ad dc3d f988 13be 7c6b 023e 870f 0cbe
000002a0: 42ff bbbd e9b1 f5bc 8236 35bc dc2f a5bd
000002b0: 4fad 243d 4a77 74bd 0092 dabb add1 2abe
000002c0: d5b8 833d ad55 9dbb 0725 a1bd c052 b83d
000002d0: 6a42 17be bd9e 13be 0788 44bd 413f ee3d
000002e0: 7d61 593c 4c5d 9abd 2468 24be ef51 32be
000002f0: 02c9 b03d 81f7 c1bc 3e8c 5fbd 1789 6abd
00000300: 9821 6abe 1a61 c73d 1ea7 f5bd 844c 763d
00000310: 938a d03d c6d3 3dbd a486 cebd 8db8 00be
00000320: 6380 1ebd d183 ccbd 08da 333e b675 243e
00000330: 3ae0 513d 245f 873c b07a 7b3d 1486 d6bd
00000340: fa0f aa3d 5eb2 3f3e 6c8b 1a3c cc68 80be
00000350: bea2 2d3d 3457 5d3d d55a 293d da9f 293e
00000360: b1e4 ba3d d0de 803e 5ee4 893a 0cb2 273d
00000370: 655c a2bd 6edc 703d 109b 663d 6ec7 433e
00000380: f619 6cbe 0e3b ecbd 7139 41be f04f 1a3e
00000390: 71ac bebd 5197 2ebe b5c1 b9bc d864 323e
000003a0: 97eb 463e 8e1e 0ebe e641 453e a390 6f3e
000003b0: 4f14 153e 8cfc 03be 9606 6e3e 8792 87be
000003c0: ff3c 413d 0be8 373e 1cf4 c43d 1893 5abe
000003d0: 4876 d3bb 5cfa 12be fa45 a9bc 45e3 143e
000003e0: b904 8f3c c6f4 e1bd 52ed 1bbd c053 49be
000003f0: 238b 3ebd 9f3e 5fbd e6ed 9b3d e583 023e

lstm.bias_ih_l0 f4 [128]
-0.0007985236 -0.068255946 0.16590486 -0.14898103 -0.12332231 0.07981451 0.18208836 0.17986432
0.04973508 0.14953831 0.15834764 0.14627945 0.010152467 -0.062443588 0.021249022 -0.21119413
0.11111781 -0.03193857 -0.06537119 0.0838325 -0.063532166 0.18559174 -0.067308605 -0.04002565
-0.07096306 0.010202711 0.16527425 0.031474568 -0.09371586 0.22179928 0.15010232 -0.024262635
0.14813562 -0.14114717 0.19696274 -0.03598058 0.035939932 0.2211643 0.045895636 -0.11405091
-0.033642758 0.081306696 0.022010487 -0.060506366 0.17160004 -0.026002297 0.12709264 0.00635362
-0.1078822 0.09272357 -0.020797046 0.14003685 -0.12418235 0.09102128 -0.09833598 0.08803705
0.09171763 0.13436893 0.15303122 0.010043896 0.16838333 -0.09877607 -0.12168698 -0.011586215
0.13246508 -0.12450518 0.1419445 -0.080566026 -0.09584062 0.056626983 -0.05451815 0.075310335
-0.15110283 -0.010389262 -0.102120735 0.14587225 -0.007683307 -0.028838111 0.09283069 0.0014444755
-0.069282606 -0.12413719 -0.0524774 0.15326034 0.17441982 0.053964406 -0.086845264 0.09812121
-0.14725189 -0.029720698 0.10252332 -0.0038710404 0.038444795 -0.095783874 -0.17468295 0.008027393
-0.08693162 0.050364092 -0.053560197 0.14886804 0.036428835 -0.01469406 0.12632102 0.23655427
-0.13195197 0.1925905 0.21396595 -0.08188867 0.056120854 0.020586574 0.23598388 -0.102403015
-0.127399 0.09063015 -0.08182615 0.008808192 0.15974142 -0.036600966 0.19711986 0.12585609
0.0053387354 0.23082028 -0.049449865 -0.10866664 -0.0018116873 0.16595198 0.098547295 -0.0067426483
00000000: 0354 51ba c6c9 8bbd f7e2 293e 7c8e 18be
00000010: 6890 fcbd ca75 a33d 5f75 3a3e 5a2e 383e
00000020: 03b7 4b3d 9220 193e e225 223e 48ca 153e
00000030: 8856 263c d9c4 7fbd 6e12 ae3c 4643 58be
00000040: bc91 e33d 05d2 02bd 55e1 85bd 60b0 ab3d
00000050: 271d 82bd c30b 3e3e 18d9 89bd f0f1 23bd
00000060: 1555 91bd 4629 273c a73d 293e 7aeb 003d
00000070: 1aee bfbd 5a1f 633e 6cb4 193e 6fc2 c6bc
00000080: ddb0 173e e288 10be 9ab0 493e 5f60 13bd
00000090: c035 133d e578 623e 10fd 3b3d 8693 e9bd
000000a0: fdcc 09bd 2084 a63d 564f b43c 86d5 77bd
000000b0: ecb7 2f3e c502 d5bc 9324 023e 0732 d03b
000000c0: 58f1 dcbd dbe5 bd3d 915e aabc d265 0f3e
000000d0: 5153 febd 5d69 ba3d 6064 c9bd c54c b43d
000000e0: 74d6 bb3d 0298 093e 37b4 1c3e 278f 243c
000000f0: ae6c 2c3e 1c4b cabd 0637 f9bd 1cd4 3dbc
00000100: eda4 073e 92fc febd e659 113e cdff a4bd
00000110: 1648 c4bd b2f1 673d 6c4e 5fbd 4e3c 9a3d
00000120: b3ba 1abe b937 2abc ad24 d1bd 895f 153e
00000130: 40c4 fbbb e73d ecbc 041e be3d 8e54 bd3a
00000140: 0ae4 8dbd a43b febd 8bf2 56bd 47f0 1c3e
00000150: 1c9b 323e c809 5d3d eedb b1bd c6f3 c83d
00000160: 33c9 16be d278 f3bc bff7 d13d 48b1 7dbb
00000170: 4a78 1d3d 562a c4bd 16e0 32be 5485 033c
00000180: 3509 b2bd 944a 4e3d f061 5bbd dd70 183e
00000190: 6736 153d 5bbf 70bc 4c5a 013e 483b 723e
000001a0: 6b1e 07be 7236 453e e419 5b3e 3fb5 a7bd
000001b0: fbde 653d 2da5 a83c c2a5 713e acb8 d1bd
000001c0: e274 02be 4d9c b93d 7894 a7bd 3c50 103c
000001d0: 4193 233e e5ea 15bd cad9 493e 6be0 003e
000001e0: 8ff0 ae3b 275c 6c3e f18b 4abd 9e8c debd
000001f0: 2376 edba 51ef 293e 2ad3 c93d 6ff1 dcbb

lstm.bias_hh_l0 f4 [128]
0.101527885 0.06816539 -0.07363702 0.014606652 -0.092985034 -0.1281308 0.21434993 0.14777274
-0.092749484 -0.039044507 0.1271462 0.0752166 0.040128082 -0.043680627 0.13761595 0.098323345
-0.015094294 -0.099892385 0.01153856 0.03548644 0.11686058 0.054126337 -0.07543614 -0.15694062
-0.12804948 -0.102926396 0.1257786 -0.013896423 0.02087569 0.20840245 0.07608024 -0.0025455307
-0.023486992 -0.0059874225 0.025124643 0.103695095 -0.07402599 0.11474928 0.054166816 -0.06845863
0.18171565 0.11327941 0.16089979 -0.14901872 0.14692432 0.19543636 0.07378716 -0.1590201
0.08684685 0.16906746 0.14289714 0.12041298 -0.08896076 0.1640155 0.045946967 -0.1364982
0.07101673 0.00676444 -0.08451795 0.12848473 0.1727152 -0.12073985 -0.08426136 0.011041908
0.00032026684 0.16802019 0.15803856 0.059614114 0.101600386 -0.16350688 0.20186102 -0.15311554
-0.096647814 -0.099704064 0.0948652 -0.06135497 0.110927045 -0.13910696 -0.14184356 -0.16929501
0.08096852 -0.107819915 0.028979836 -0.06591746 0.19366264 -0.015791878 0.0033775615 0.10294985
0.10593617 -0.0895889 0.13204935 -0.19166398 -0.11849988 0.10457175 0.04937763 0.13157171
0.02395646 0.13593961 0.029274879 -0.12674066 0.08811192 0.14534356 0.121753626 0.0028145632
-0.057439372 -0.09450814 0.0031532433 0.13473687 0.20305476 0.17996748 0.19065462 0.04295906
-0.04570772 -0.18402566 0.19745839 0.25431466 -0.08796653 -0.09180523 0.071969256 -0.06485724
0.096646726 0.06254215 -0.037697982 -0.09379755 -0.032028414 0.1643123 -0.10125511 0.08350493
00000000: daed cf3d 4c9a 8b3d 02cf 96bd bd50 6f3c
00000010: f06e bebd b834 03be 8c7e 5b3e bd51 173e
00000020: 71f3 bdbd 22ed 1fbd 9d32 023e 290b 9a3d
00000030: 585d 243d 75ea 32bd 32eb 0c3e c05d c93d
00000040: 0f4e 77bc 6194 ccbd 3a0c 3d3c 3b5a 113d
00000050: 9a54 ef3d 94b3 5d3d 437e 9abd 0bb5 20be
00000060: 671f 03be 13cb d2bd 1bcc 003e d3ad 63bc
00000070: 7f03 ab3c 7467 553e f5cf 9b3d ebd2 26bb
00000080: cb67 c0bc 2432 c4bb 32d2 cd3c 185e d43d
00000090: f09a 97bd ac01 eb3d 06de 5d3d 0a34 8cbd
000000a0: ab13 3a3e 09ff e73d eac2 243e 5d98 18be
000000b0: 5473 163e 7820 483e b91d 973d 2ad6 22be
000000c0: c3dc b13d 0520 2d3e a153 123e 159b f63d
000000d0: 0f31 b6bd aef3 273e e332 3c3d 2fc6 0bbe
000000e0: 3871 913d 3ca8 dd3b bf17 adbd 8091 033e
000000f0: 41dc 303e 7446 f7bd 3891 acbd 1ee9 343c
00000100: 7de9 a739 7c0d 2c3e dcd4 213e ee2d 743d
00000110: dd13 d03d 596e 27be a8b4 4e3e 52ca 1cbe
00000120: 4aef c5bd a531 ccbd b048 c23d 594f 7bbd
00000130: b82d e33d 0e72 0ebe 703f 11be ac5b 2dbe
00000140: d3d2 a53d b0d0 dcbd 1f67 ed3c bcff 86bd
00000150: 804f 463e f85d 81bc 145a 5d3b 5fd7 d23d
00000160: 10f5 d83d 637a b7bd f237 073e 9043 44be
00000170: 11b0 f2bd b729 d63d 3340 4a3d bcba 063e
00000180: 5740 c43c c133 0b3e dfd1 ef3c 4ec8 01be
00000190: 0674 b43d f1d4 143e f759 f93d 8974 383b
000001a0: 8c45 6bbd 7c8d c1bd a5a6 4e3b 76f8 093e
000001b0: 96ed 4f3e 6549 383e f73a 433e d7f5 2f3d
000001c0: 0538 3bbd 3971 3cbe 8832 4a3e 8835 823e
000001d0: cc27 b4bd 6104 bcbd 9e64 933d dfd3 84bd
000001e0: b8ee c53d 1916 803d 3369 1abd ee18 c0bd
000001f0: 3a30 03bd 7c41 283e d75e cfbd a204 ab3d

fc_mu.weight f4 [4, 32]
0.37510756 -0.3248021 0.12983154 -0.20782076 0.15713507 0.22227234 -0.04413761 -0.25669158
0.053336173 0.3267841 -0.31358802 0.32942224 0.4941545 0.0769339 0.055925366 -0.28668636
0.107998036 0.41466662 -0.07479066 0.107851915 0.13605896 -0.051819764 0.34944552 -0.22436298
0.07542265 -0.18172854 -0.52032363 -0.0181355 0.2727508 0.1734028 0.11530809 0.14064887
0.33051598 -0.1803734 -0.08863264 0.29013503 0.15987122 0.20783488 0.25605136 0.18322808
0.11145062 0.25827482 -0.012462565 0.17412843 0.34312811 -0.21651767 0.22401857 -0.29089993
-0.19543679 0.12384518 -0.032999333 -0.05678124 -0.2591323 -0.28847855 -0.26766357 0.1211591
0.1455426 -0.085968636 -0.034202993 -0.27428603 0.12223929 0.40073174 0.32217556 -0.19081794
0.23580691 -0.17919523 -0.20725618 0.07170233 0.0037278845 0.24644704 0.09593328 0.15122163
0.074136816 0.21400511 -0.2830262 0.13448839 -0.10505671 -0.13096564 0.057028774 0.11197948
-0.11630793 0.17462613 -0.32914782 -0.21969646 0.25264668 -0.11377751 -0.03567217 0.3181537
-0.02299822 -0.1837438 -0.26570693 -0.07881471 0.123081066 -0.31344092 0.26870206 -0.25698465
-0.20337744 0.13162811 0.14776798 -0.21080121 0.0031669824 -0.22495462 -0.099700846 -0.1188525
-0.18615718 -0.01604794 0.14749716 -0.2502733 0.19466357 0.27381822 -0.016378375 0.2433168
0.13842168 0.016887993 0.00787635 0.0324421 0.2374977 0.011921836 0.37593615 -0.06242894
-0.2397742 0.16415045 -0.07903969 0.26579472 -0.15099062 -0.15714575 -0.17447938 0.21985966
00000000: 190e c03e 764c a6be 8ff2 043e f7ce 54be
00000010: 04e8 203e 5c9b 633e a3c9 34bd 146d 83be
00000020: 0877 5a3d 3f50 a73e 9c8e a0be 08aa a83e
00000030: d201 fd3e 858f 9d3d ff11 653d 8ec8 92be
00000040: 132e dd3d 2f4f d43e d82b 99bd 77e1 dc3d
00000050: 0a53 0b3e f640 54bd 86ea b23e 69bf 65be
00000060: 3177 9a3d 0c17 3abe ee33 05bf e690 94bc
00000070: fea5 8b3e 8190 313e a626 ec3d 4206 103e
00000080: 6439 a93e ceb3 38be 0885 b5bd 948c 943e
00000090: 48b5 233e abd2 543e 2a19 833e 24a0 3b3e
000000a0: 3940 e43d 993c 843e c92f 4cbc b94e 323e
000000b0: 7dae af3e cfb6 5dbe 2065 653e d6f0 94be
000000c0: 9520 48be 8ba2 fd3d 4f2a 07bd 7293 68bd
000000d0: fdac 84be 76b3 93be 330b 89be 4322 f83d
000000e0: 1f09 153e 5310 b0bd 7018 0cbd 386f 8cbe
000000f0: 9858 fa3d b62c cd3e 32f4 a43e c765 43be
00000100: 5e77 713e f47e 37be f73a 54be acd8 923d
00000110: 864f 743b 9d5c 7c3e ab78 c43d d8d9 1a3e
00000120: 0bd5 973d 2824 5b3e cfe8 90be 53b7 093e
00000130: f927 d7bd db1b 06be 0197 693d 7f55 e53d
00000140: da32 eebd 31d1 323e 1086 a8be 1cf8 60be
00000150: e85a 813e 2f04 e9bd fb1c 12bd 0be5 a23e
00000160: c366 bcbc 5627 3cbe bd0a 88be 9b69 a1bd
00000170: ed11 fc3d 547b a0be 5193 893e 7e93 83be
00000180: 2d42 50be 85c9 063e 7d50 173e 46dc 57be
00000190: 268d 4f3b 815a 66be f52f ccbd f168 f3bd
000001a0: fd9f 3ebe f876 83bc 7f09 173e d223 80be
000001b0: e355 473e e731 8c3e f12b 86bc 0a28 793e
000001c0: 6abe 0d3e b058 8a3c ce0b 013c 02e2 043d
000001d0: 9932 733e ce53 433c b47a c03e 7db5 7fbd
000001e0: 5e87 75be 0e17 283e 90df a1bd 3f16 883e
000001f0: 499d 1abe d1ea 20be b9aa 32be e422 613e

fc_mu.bias f4 [4]
-0.068093516 -0.016503595 0.06539636 -0.21718766
00000000: 9d74 8bbd 8c32 87bc 87ee 853d 7166 5ebe

fc_logvar.weight f4 [4, 32]
0.059286688 0.002662416 0.12532477 -0.06045942 -0.12718002 0.00884569 -0.36048684 -0.10185864
-0.1501522 0.31234157 -0.2945438 -0.06199669 -0.008211475 0.3429521 -0.10510823 0.07931868
-0.08947074 -0.16827135 -0.24423628 0.07965038 -0.15156285 0.2853303 -0.17966358 -0.16308746
-0.38727358 -0.26658988 0.29742897 0.27771008 -0.0063482737 -0.14282902 0.0142718 0.09434211
-0.13583982 0.20151441 0.31071886 -0.06670691 -0.3865099 0.29615813 -0.28480566 -0.04525921
-0.39826095 0.27478358 -0.043019183 -0.17411384 0.14078937 0.24035452 -0.085958645 0.022456823
-0.043837287 -0.042986453 -0.2930765 0.34901324 -0.033043377 0.20292738 -0.23170264 -0.015068513
-0.4610564 -0.2729065 0.13703631 0.34628922 0.15549813 -0.023138825 0.10747503 0.12192524
0.032470386 0.22803012 0.362022 -0.20899738 -0.28644758 -0.10509702 -0.046877816 0.3238573
-0.26601693 0.014776965 -0.10864472 0.08921917 0.5659596 0.36349916 -0.1874161 0.121100545
0.14696449 -0.04902687 -0.22336295 0.04449199 -0.475431 0.0940677 -0.018516792 -0.1800864
-0.060151134 -0.13495556 0.34797543 0.02689693 0.2442645 -0.46366045 -0.0034348897 0.03519398
0.006699812 0.097643405 0.19455469 0.02101969 -0.39245108 0.22879283 -0.32170826 0.09825557
-0.18469879 0.27370384 0.024727354 -0.07447199 0.29793298 0.35228646 -0.36845392 0.102693714
0.19594942 -0.0799561 -0.1564955 0.3577646 -0.053571906 0.07517093 -0.22668663 -0.21903563
-0.223935 -0.20154859 0.09492453 0.22201137 0.35125002 -0.27512982 0.01329074 -0.038942356
00000000: 99d6 723d ee7b 2e3b 2355 003e 4ca4 77bd
00000010: 7b3b 02be 83ed 103c bb91 b8be 439b d0bd
00000020: 80c1 19be 3ceb 9f3e 72ce 96be 3ef0 7dbd
00000030: 6c89 06bc 6b97 af3e fc42 d7bd d571 a23d
00000040: 6f3c b7bd 534f 2cbe 1319 7abe bd1f a33d
00000050: 4b33 1bbe d016 923e bbf9 37be 6600 27be
00000060: b948 c6be 787e 88be 9c48 983e 0430 8e3e
00000070: 2e05 d0bb c541 12be 45d4 693c 7036 c13d
00000080: 9819 0bbe cb59 4e3e 8b16 9f3e a29d 88bd
00000090: a0e4 c5be 0aa2 973e 0cd2 91be b961 39bd
000000a0: dce8 cbbe 6fb0 8c3e e234 30bd e64a 32be
000000b0: 172b 103e 7f1f 763e 160b b0bd 5ff7 b73c
000000c0: ba8e 33bd 9012 30bd 1f0e 96be ddb1 b23e
000000d0: 7e58 07bd 32cc 4f3e 7543 6dbe ede1 76bc
000000e0: 960f ecbe 67ba 8bbe 3f53 0c3e d24c b13e
000000f0: e73a 1f3e a28d bdbc de1b dc3d f1b3 f93d
00000100: abff 043d ba80 693e f35a b93e 6903 56be
00000110: 42a9 92be 1b3d d7bd f402 40bd a0d0 a53e
00000120: 5f33 88be 151b 723c 1f81 debd 8ab8 b63d
00000130: bae2 103f 901c ba3e 02ea 3fbe 9003 f83d
00000140: dc7d 163e 66d0 48bd 42b9 64be 3c3d 363d
00000150: b16b f3be 91a6 c03d 87b0 97bc 9268 38be
00000160: 0961 76bd ca31 0abe d629 b23e f356 dc3c
00000170: 7920 7a3e e764 edbe e31b 61bb 9027 103d
00000180: 198a db3b 44f9 c73d 5839 473e 7c31 ac3c
00000190: 59ef c8be ab48 6a3e f2b6 a4be 373a c93d
000001a0: ae21 3dbe e922 8c3e 0591 ca3c c584 98bd
000001b0: ac8a 983e e45e b43e fea5 bcbe 1551 d23d
000001c0: f7a6 483e 06c0 a3bd 5b40 20be ec2c b73e
000001d0: 376e 5bbd 37f3 993d 8a20 68be e04a 60be
000001e0: 374f 65be c162 4ebe cb67 c23d f356 633e
000001f0: 0bd7 b33e d1dd 8cbe 67c1 593c 0582 1fbd

fc_logvar.bias f4 [4]
-0.35780913 -0.17145157 -0.051158193 0.008420872
00000000: c232 b7be 0091 2fbe 418b 51bd b2f7 093c

fc3_obs.weight f4 [32, 4]
0.25554857 -0.814367 -0.6551752 0.03642101 0.26827505 0.67903036 -0.3122549 -0.70606345
-0.670294 0.40328664 -0.026061805 -0.73223484 -0.18159837 -0.36559078 -0.3473766 -0.056122344
0.25882015 -0.88453174 -0.5174638 0.7869408 0.29590976 0.2182988 0.46769574 -0.3252265
0.406487 -0.12846613 0.70476735 -0.49570218 -0.060006652 0.04074547 -0.26949635 0.56811845
-0.39860055 -0.043368984 -0.57939637 -0.49768084 0.32211486 -0.05916295 0.56991524 -0.3526273
-0.122010894 0.53348047 0.3126364 -0.47741568 0.5204735 0.03814658 0.7943099 -0.06180257
-0.58625484 -0.78324294 -0.6908972 0.5594497 -0.28498295 0.18598281 -0.01569079 -0.7077832
-0.3777783 0.598652 0.21457955 -0.05929157 0.38760045 0.541595 0.31049296 -0.0894859
0.4387955 0.23702611 0.6847019 0.15715422 0.1565229 -0.6860499 -0.29152286 0.74093854
0.44323593 0.2344274 0.37356263 -0.33922458 0.5682582 -0.027453192 0.35314703 0.085236676
-0.5072792 0.45615268 0.62165046 -0.45595664 -0.019047441 -0.6603532 0.078635104 0.5463061
0.27859783 0.46851063 0.17279877 -0.39607084 -0.080378346 -0.020965897 0.11976925 -0.5732021
-0.465914 0.4843785 0.5476165 -0.32087854 -0.3406954 0.73664415 0.1568008 -0.25625435
0.41584644 0.49291253 0.6027085 0.15548427 -0.4647043 0.25282845 -0.5861214 -0.5551582
0.5127848 -0.052909248 0.57436407 -0.6410296 0.3351529 0.36627313 0.5787645 -0.20606236
0.29928568 0.22282319 0.042003144 -0.16990289 0.18155542 0.25676262 0.17861493 -0.13014705
00000000: 43d7 823e 5b7a 50bf 90b9 27bf 322e 153d
00000010: 595b 893e efd4 2d3f e0df 9fbe 93c0 34bf
00000020: 6398 2bbf 967b ce3e 917f d5bc be73 3bbf
00000030: ecf4 39be b72e bbbe 59db b1be 8be0 65bd
00000040: 1384 843e ac70 62bf 8278 04bf f474 493f
00000050: 7c81 973e b889 5f3e d175 ef3e 1684 a6be
00000060: 101f d03e a08c 03be a26b 343f adcc fdbe
00000070: 89c9 75bd b9e4 263d 6dfb 89be 3670 113f
00000080: 5f15 ccbe ada3 31bd 5253 14bf 06d0 febe
00000090: 3dec a43e d954 72bd f7e5 113f 918b b4be
000000a0: d9e0 f9bd 2d92 083f e111 a03e d46f f4be
000000b0: c03d 053f 973f 1c3d e557 4b3f b124 7dbd
000000c0: cc14 16bf 9c82 48bf a4de 30bf 1838 0f3f
000000d0: 49e9 91be 4772 3e3e f989 80bc 4831 35bf
000000e0: 286c c1be 4241 193f beba 5b3e b8db 72bd
000000f0: 9173 c63e f8a5 0a3f eff8 9e3e 6244 b7bd
00000100: cea9 e03e f9b6 723e a048 2f3f 09ed 203e
00000110: 8a47 203e f7a0 2fbf 7c42 95be 26ae 3d3f
00000120: d2ef e23e bd0d 703e 9a43 bf3e d8ae adbe
00000130: 5f79 113f 84e5 e0bc b0cf b43e 9190 ae3d
00000140: 0ddd 01bf d88c e93e 7c24 1f3f 2673 e9be
00000150: 6109 9cbc e80c 29bf 710b a13d b7da 0b3f
00000160: 60a4 8e3e a0e0 ef3e 29f2 303e ccc9 cabe
00000170: 679d a4bd acc0 abbc 9549 f53d 5fbd 12bf
00000180: 488c eebe 7500 f83e 9830 0c3f 314a a4be
00000190: a16f aebe b694 3c3f 6490 203e c533 83be
000001a0: d3e9 d43e 085f fc3e 1b4b 1a3f 4537 1f3e
000001b0: b9ed edbe bb72 813e 0d0c 16bf d91e 0ebf
000001c0: dd45 033f 5eb7 58bd 8609 133f 841a 24bf
000001d0: 2999 ab3e 2788 bb3e e929 143f 0302 53be
000001e0: f93b 993e c32b 643e 7d0b 2c3d 06fb 2dbe
000001f0: aae9 393e 6476 833e d5e6 363e 4545 05be

fc3_obs.bias f4 [32]
0.009005718 0.49316445 0.06808453 0.49112397 -0.0054720375 0.5871844 0.3969567 -0.15303575
-0.08011294 0.7581799 0.52505785 0.1452035 0.3794429 0.54084265 0.56829774 0.69948465
0.8081915 0.448284 0.6073118 -0.39291257 0.13110758 -0.002800541 -0.07917487 0.741794
0.3002033 0.15207009 -0.23273315 0.36553696 0.30788618 0.80301225 0.601921 0.84428066
00000000: b88c 133c 0d80 fc3e e76f 8b3d 9a74 fb3e
00000010: c74e b3bb b851 163f e93d cb3e 67b5 1cbe
00000020: 4112 a4bd 1418 423f 316a 063f 3ab0 143e
00000030: 5746 c23e aa74 0a3f f67b 113f 6d11 333f
00000040: a3e5 4e3f 7b85 e53e c978 1b3f d62b c9be
00000050: 1141 063e 4889 37bb 6f26 a2bd 36e6 3d3f
00000060: 3fb4 993e 43b8 1b3e 9951 6ebe a927 bb3e
00000070: 42a3 9d3e 3692 4d3f 7f17 1a3f c722 583f

fc4_obs.weight f4 [16, 32]
0.035777148 0.34434283 0.5745533 0.26170954 -0.27277848 0.067167506 -0.16660245 -0.053844318
0.37642545 -0.055153307 0.40137818 -0.085897304 0.2664706 0.6062152 0.36199635 0.17454399
-0.06813093 -0.042611763 0.0031174624 -0.40349182 0.18895143 -0.21064785 0.003771168 0.3135426
0.3921248 0.4287416 0.032968335 0.5660097 -0.124371156 -0.023032881 0.05796201 0.22166556
-0.07131049 0.25860643 0.3279529 0.19902068 -0.060584076 0.18902528 -0.12089279 0.17511979
0.35915872 0.21544127 0.26766655 -0.020822292 0.06481217 0.32444406 0.24285515 0.12717947
0.14950341 -0.09061334 0.09916126 -0.20674908 0.06323239 -0.18651554 0.20411918 0.3364911
0.2645229 0.28569245 0.16071059 0.43746683 -0.071984105 0.075881034 0.16802768 0.032203935
0.015213704 0.12566687 0.07355002 0.082884885 -0.008467823 0.2040165 0.54985803 -0.13567524
-0.21037048 0.38735756 0.31824 0.44827676 -0.2661434 0.18927689 0.28039053 0.34804815
0.42076167 0.044445302 0.28466672 -0.018399525 0.19932191 -0.15896103 -0.01054598 0.18853821
0.060478345 0.13455816 0.066213325 -0.25587112 0.11340056 0.4191776 0.41589016 0.24163412
-0.14319539 0.099515535 0.004355524 0.011994773 -0.07436704 0.1464149 -0.16590266 -0.15103155
0.066262916 0.051510688 -0.048587218 0.07405223 0.13484652 0.117969595 0.08816099 0.1059121
-0.034291353 -0.005589984 -0.0920648 0.090557866 -0.15509748 0.03699225 -0.14460938 -0.068310335
-0.10809128 -0.12973899 0.1303121 0.06513801 -0.19930471 0.012827916 -0.08949121 -0.006782277
0.011025944 0.21455061 0.11206071 -0.02473368 -0.03684058 0.30119893 0.2715402 -0.07601152
-0.14709383 0.09569471 0.26089576 0.43815583 -0.13194005 0.11544229 0.16492105 0.34465647
0.26718387 0.16860053 0.31451008 -0.18521741 0.28464055 0.11056967 0.3558523 0.086702526
0.20535983 0.04433009 0.12155828 -0.13232924 0.34379888 0.33385354 0.3868192 0.1930863
0.10826494 0.2185667 0.3069285 0.10707348 0.02809409 0.18701896 0.5154101 0.13575225
-0.1998046 0.3602118 0.056500085 0.4532184 -0.3226381 0.4381288 0.08133726 0.063529745
0.25685188 0.024883268 0.13517895 -0.26164675 0.3440423 -0.1452961 0.16048189 0.30391207
0.1512086 0.14611068 0.2760979 -0.19649738 0.4140628 0.4084096 0.1887764 0.40907553
0.3692027 -0.025403408 0.023532374 0.10983427 0.42761913 -0.021585122 0.014828632 0.24215718
-0.08038078 0.020128952 0.077953584 -0.051633473 0.3095768 -0.11158098 -0.19685975 0.08592038
-0.12001618 0.30720028 0.10017747 0.12695375 -0.15268293 0.3977242 0.10628617 -0.13514294
-0.068035625 0.014815119 -0.045377273 -0.22359198 0.14753644 -0.10510383 0.008098672 0.003880606
0.10279884 0.27516934 0.5480325 -0.070162885 -0.1144027 0.27583522 -0.15171947 -0.027582753
0.20268078 0.2503056 0.25795484 -0.10804117 0.01580143 0.19020587 0.32822153 0.031886153
-0.05353988 -0.0050983937 0.1602963 -0.258853 0.35570633 -0.038942598 0.2352727 0.22807507
0.35010535 0.09077512 0.23097378 0.44025117 0.1639238 0.13713112 0.20196427 0.24098
00000000: 0f8b 123d b44d b03e ed15 133f cbfe 853e
00000010: 9fa9 8bbe 1e8f 893d d599 2abe dc8b 5cbd
00000020: d6ba c03e 6fe8 61bd 7181 cd3e edea afbd
00000030: d66e 883e eb30 1b3f 9657 b93e a9bb 323e
00000040: 3b88 8bbd ac89 2ebd 574e 4c3b 7b96 cebe
00000050: 7c7c 413e 12b4 57be b325 773b a888 a03e
00000060: 95c4 c83e 0584 db3e ce09 073d 03e6 103f
00000070: 4eb6 febd 74af bcbc 9369 6d3d 4cfc 623e
00000080: 3c0b 92bd 1068 843e 71e9 a73e 14cc 4b3e
00000090: 0227 78bd d88f 413e a496 f7bd 9a52 333e
000000a0: a7e3 b73e a39c 5c3e 970b 893e 8393 aabc
000000b0: 3ebc 843d 881d a63e 05af 783e 563b 023e
000000c0: 6c17 193e 7d93 b9bd 0f15 cb3d 08b6 53be
000000d0: fc7f 813d eefd 3ebe 9e04 513e 9048 ac3e
000000e0: 8c6f 873e 4846 923e 5191 243e a7fb df3e
000000f0: 676c 93bd 8467 9b3d 730f 2c3e 46e8 033d
00000100: e642 793c d1ae 003e 65a1 963d 8dbf a93d
00000110: a0bc 0abc b4e9 503e 7fc3 0c3f 73ee 0abe
00000120: 5c6b 57be bb53 c63e 5af0 a23e 8884 e53e
00000130: f343 88be cdd1 413e 598f 8f3e 5e33 b23e
00000140: 136e d73e 470c 363d d6bf 913e 9aba 96bc
00000150: 0b1b 4c3e aec6 22be 0cc9 2cbc 2910 413e
00000160: 24b8 773d 9dc9 093e da9a 873d 8a01 83be
00000170: 8e3e e83d 729e d63e 8eef d43e ef6e 773e
00000180: d0a1 12be cdce cb3d c9b8 8e3b b985 443c
00000190: bf4d 98bd caed 153e 63e2 29be 04a8 1abe
000001a0: dab4 873d dffc 523d 6403 47bd b2a8 973d
000001b0: 3515 0a3e 0b9a f13d c08d b43d 71e8 d83d
000001c0: 1775 0cbd 2f2c b7bb 788c bcbd 6776 b93d
000001d0: e0d1 1ebe 2f85 173d 7b14 14be 4ae6 8bbd
000001e0: f65e ddbd 4cda 04be 8970 053e 1467 853d
000001f0: 8916 4cbe 2e2c 523c 2b47 b7bd dd3d debb
00000200: 29a6 343c 28b3 5b3e 1680 e53d 499e cabc
00000210: 26e6 16bd bf36 9a3e 5107 8b3e eeab 9bbd
00000220: c49f 16be 97fb c33d 2194 853e f655 e03e
00000230: 4b1b 07be 026d ec3d 10e1 283e d076 b03e
00000240: 53cc 883e 9ea5 2c3e 7707 a13e a2a9 3dbe
00000250: 68bc 913e 5a72 e23d 4632 b63e 1891 b13d
00000260: d949 523e 7893 353d 8cf3 f83d 5181 07be
00000270: 6806 b03e daee aa3e 2b0d c63e 6ab8 453e
00000280: 02ba dd3d f3cf 5f3e bb25 9d3e 5749 db3d
00000290: 9425 e63c e681 3f3e ebf1 033f a302 0b3e
000002a0: 9499 4cbe ae6d b83e a26c 673d 3e0c e83e
000002b0: d230 a5be 6b52 e03e 2694 a63d e21b 823d
000002c0: 1782 833e ffd7 cb3c 5a6c 0a3e 90f6 85be
000002d0: 5026 b03e 80c8 14be 5d55 243e 5d9a 9b3e
000002e0: 6dd6 1a3e 0a9e 153e b45c 8d3e 9c36 49be
000002f0: 0a00 d43e 101b d13e 9a4e 413e 5972 d13e
00000300: 2308 bd3e cf1a d0bc f7c6 c03c caf0 e03d
00000310: e5f0 da3e 48d3 b0bc caf3 723c 0df8 773e
00000320: ae9e a4bd 79e5 a43c 21a6 9f3d 9f7d 53bd
00000330: da80 9e3e 9284 e4bd 9a95 49be 06f7 af3d
00000340: 0bcb f5bd 5b49 9d3e d829 cd3d 2a00 023e
00000350: ea58 1cbe 82a2 cb3e 90ac d93d e962 0abe
00000360: 4356 8bbd 1dbb 723c 85dd 39bd 4cf5 64be
00000370: cb13 173e ad40 d7bd 4bb0 043c c451 7e3b
00000380: 3388 d23d ffe2 8c3e dc4b 0c3f 8fb1 8fbd
00000390: f64b eabd 463a 8d3e 595c 1bbe 3af5 e1bc
000003a0: 8d8b 4f3e 0e28 803e a812 843e b044 ddbd
000003b0: 0072 813c 54c5 423e a70c a83e 0e9b 023d
000003c0: a24c 5bbd 6d10 a7bb b724 243e 6188 84be
000003d0: 241f b63e 4682 1fbd 54eb 703e 838c 693e
000003e0: 0241 b33e 4ee8 b93d 6484 6c3e 9a68 e13e
000003f0: a4db 273e 1a6c 0c3e b9cf 4e3e 76c3 763e

fc4_obs.bias f4 [16]
0.3828882 0.06393069 0.19072899 0.020538965 0.13439317 0.13498183 0.0017434064 0.28204304
0.27981445 0.08924667 0.0022655546 0.25225186 0.18498187 0.27109647 -0.08751 0.034604646
00000000: ec09 c43e 18ee 823d 764e 433e 5541 a83c
00000010: 5d9e 093e ad38 0a3e 0383 e43a f267 903e
00000020: d743 8f3e f5c6 b63d b379 143b 2827 813e
00000030: e36b 3d3e 28cd 8a3e 7138 b3bd 9abd 0d3d
