checkpoints/ vae /zara1/m_vae_model_best.pth (torch, 75829 bytes, 24 tensors)

conv_layers.0.weight f4 [64, 1, 3]
0.26753598 0.11899165 0.20609327 0.4636556 0.426584 0.46847257 0.59627604 0.078038596
-0.09675544 0.5219861 0.5423373 0.45455 -0.26058307 -0.10091518 0.030568644 -0.515832
-0.09462663 0.42901957 0.2800176 -0.26410297 -0.31363904 0.4544128 0.33089864 0.17195472
-0.27326417 -0.23795125 0.029604323 0.4670506 -0.3943149 0.13783517 -0.17059742 0.28167665
-0.56099254 0.1835941 -0.22482613 0.4817565 -0.001791996 -0.5304549 -0.32580858 -0.55828744
-0.5448083 -0.2670354 0.06258882 -0.39470735 0.3009883 -0.25983468 -0.22943121 -0.34258142
-0.38805634 0.2520898 -0.42246953 0.48384663 -0.40192702 0.41402104 0.18703681 0.42218587
0.5042933 -0.26001263 -0.18477812 0.22972691 -0.10864546 0.18576132 -0.42372838 0.53475314
-0.27686623 0.45077527 0.27511698 -0.09956654 0.5280391 -0.4316356 -0.3629569 0.4789451
0.5780185 -0.47591338 0.5515291 0.3885328 0.3869481 0.10277386 0.31291944 -0.5046464
-0.5898447 0.26303604 -0.43150133 0.32558066 -0.095218495 -0.39938343 -0.5791649 0.37346983
0.20234695 -0.14467402 0.23623753 -0.051225357 -0.0011598623 0.461477 0.14751573 -0.10327449
0.0020331454 -0.050337207 -0.5257969 -0.32559088 0.43290457 0.5130704 0.018612362 0.4274611
0.37547827 0.56839085 -0.18233715 -0.18504636 -0.039059825 0.13788237 -0.0134254 -0.290839
-0.39495474 0.38812667 -0.24043274 0.364916 -0.231799 0.020057691 -0.4322426 0.31612858
-0.40534553 0.20934561 -0.01970494 -0.22231095 -0.42177853 0.35349995 0.5973059 -0.4430229
-0.14832613 -0.3613964 0.05391693 -0.20055172 -0.1185214 -0.5417331 -0.23969899 -0.505805
0.17783101 -0.5323439 0.3169324 0.12091561 0.5593789 0.2072049 -0.081691585 -0.25770897
-0.50193334 0.09880986 -0.17114207 -0.19736321 -0.08019671 -0.5622792 -0.38165396 -0.52528614
0.26381457 -0.25489184 -0.20510054 0.4650568 -0.57685995 0.04378122 -0.3432503 -0.3149922
0.46982765 -0.084210224 -0.42350945 -0.052938927 0.12537837 0.5442985 -0.03666549 -0.25194934
-0.06108132 0.31683177 -0.36414185 -0.5047119 0.42369238 -0.30348137 0.24026996 -0.35071257
-0.336566 0.14130114 0.24288982 0.40378344 0.5104759 -0.26905823 0.18180877 -0.5296253
0.36503863 -0.100864746 -0.1347422 0.28795218 0.16579998 0.01385472 0.34961617 -0.118571945
00000000: 7afa 883e e5b1 f33d 1d0a 533e 4464 ed3e
00000010: 3869 da3e a3db ef3e 8ca5 183f b3d2 9f3d
00000020: b727 c6bd e2a0 053f 9ed6 0a3f c7ba e83e
00000030: 256b 85be 9eac cebd 186b fa3c 910d 04bf
00000040: 9bcb c1bd 74a8 db3e 785e 8f3e 8138 87be
00000050: 4c95 a0be cba8 e83e 8c6b a93e e614 303e
00000060: 48e9 8bbe 7ea9 73be c484 f23c 4221 ef3e
00000070: a4e3 c9be aa24 0d3e 17b1 2ebe ec37 903e
00000080: 359d 0fbf 1700 3c3e d238 66be caa8 f63e
00000090: 68e1 eaba e4cb 07bf 62d0 a6be edeb 0ebf
000000a0: 8f78 0bbf ddb8 88be 912e 803d 1517 cabe
000000b0: 231b 9a3e 0d09 85be 04f0 6abe d566 afbe
000000c0: 52af c6be ea11 813e ed4d d8be bfba f73e
000000d0: 61c9 cdbe 91fa d33e 9486 3f3e bf28 d83e
000000e0: 5e19 013f 6020 85be 7a36 3dbe 883d 6b3e
000000f0: 8381 debd 3738 3e3e edf2 d8be 95e5 083f
00000100: 69c1 8dbe 04cc e63e 22dc 8c3e 8be9 cbbd
00000110: 922d 073f 57ff dcbe 7dd5 b9be 4b38 f53e
00000120: 05f9 133f ebaa f3be 0331 0d3f c5ed c63e
00000130: 101e c63e 1a7b d23d fa36 a03e 8230 01bf
00000140: 1000 17bf a9ac 863e beed dcbe 82b2 a63e
00000150: ea01 c3bd fc7b ccbe 2744 14bf 7037 bf3e
00000160: 0a34 4f3e 6d25 14be 40e8 713e aed1 51bd
00000170: 8506 98ba b746 ec3e 5d0e 173e 9381 d3bd
00000180: 853e 053b 632e 4ebd a09a 06bf d9b3 a6be
00000190: aba5 dd3e 9558 033f f478 983c 2edc da3e
000001a0: b03e c03e 1082 113f 97b6 3abe cb7c 3dbe
000001b0: 32fd 1fbd 0931 0d3e 35f6 5bbc d9e8 94be
000001c0: 8237 cabe 8ab8 c63e 0034 76be 45d6 ba3e
000001d0: b85c 6dbe 0750 a43c e74e ddbe 9bdb a13e
000001e0: 7389 cfbe b25e 563e 416c a1bc 7ba5 63be
000001f0: 5bf3 d7be f2fd b43e 0ae9 183f e6d3 e2be
00000200: cee2 17be f308 b9be 00d8 5c3d 6e5d 4dbe
00000210: 59bb f2bd 05af 0abf a773 75be 707c 01bf
00000220: 5519 363e b147 08bf f744 a23e 9aa2 f73d
00000230: 7533 0f3f 852d 543e eb4d a7bd 6ef2 83be
00000240: b47e 00bf d35c ca3d de3f 2fbe 9519 4abe
00000250: 2c3e a4bd 88f1 0fbf 2668 c3be 2779 06bf
00000260: b412 873e 2f81 82be e005 52be ed1b ee3e
00000270: 18ad 13bf f053 333d 81be afbe a846 a1be
00000280: 408d f03e 6976 acbd 3bd6 d8be 7dd6 58bd
00000290: 3063 003e 2657 0b3f 8e2e 16bd 81ff 80be
000002a0: 6830 7abd c637 a23e cd70 babe cd34 01bf
000002b0: 35ee d83e e961 9bbe 5409 763e 9990 b3be
000002c0: 6152 acbe 3fb1 103e 1cb8 783e b4bc ce3e
000002d0: 8cae 023f 00c2 89be 142c 3a3e 8695 07bf
000002e0: 58e6 ba3e 2d92 cebd dcf9 09be 786e 933e
000002f0: 78c7 293e e8fe 623c e400 b33e d9d5 f2bd

conv_layers.0.bias f4 [64]
-0.5244354 0.23867542 0.20508364 -0.20125636 -0.055810962 0.040649083 0.395287 -0.19457775
-0.4427438 -0.43666902 -0.063507706 0.4774081 0.4197897 0.22685309 0.3739599 -0.44023025
-0.12647846 0.124560945 0.048484758 0.11663676 -0.4507013 0.15554221 0.2515049 -0.31847602
0.39793548 -0.17907031 -0.17077827 0.014362768 0.06603948 0.49697754 0.12745956 0.21058816
0.32955125 -0.54438055 0.5040679 0.433146 0.43040225 0.39889145 -0.41056606 0.45223114
0.58607364 -0.28939673 -0.0721024 -0.41248676 -0.17472228 0.10811893 -0.06739039 -0.41263154
-0.26011777 0.56880146 0.030089267 0.28796154 0.025669944 0.01672516 -0.27426785 0.5734926
0.5357116 0.1304749 -0.37209824 -0.023203118 -0.24785696 0.25888097 -0.5255025 -0.21320923
00000000: 6641 06bf 5467 743e 7201 523e 2616 4ebe
00000010: 099a 64bd a77f 263d 0f63 ca3e 643f 47be
00000020: 51af e2be 1593 dfbe 5410 82bd d66e f43e
00000030: adee d63e 2d4c 683e ac77 bf3e dc65 e1be
00000040: 9283 01be cf19 ff3d f497 463d 41df ee3d
00000050: 52c2 e6be 7546 1f3e 40c5 803e 4a0f a3be
00000060: 33be cb3e 355e 37be 80e0 2ebe d151 6b3c
00000070: b53f 873d d773 fe3e c284 023e 6ca4 573e
00000080: f1ba a83e 865c 0bbf 980a 013f 50c5 dd3e
00000090: af5d dc3e 803b cc3e b735 d2be d78a e73e
000000a0: ec08 163f cf2b 94be 6caa 93bd 7731 d3be
000000b0: 66ea 32be 756d dd3d f903 8abd 7144 d3be
000000c0: 282e 85be f99c 113f c47d f63c b26f 933e
000000d0: c649 d23c 3403 893c d66c 8cbe 69d0 123f
000000e0: 6524 093f 369b 053e a983 bebe 7714 bebc
000000f0: 37ce 7dbe 0c8c 843e 5587 06bf 8553 5abe

conv_layers.2.weight f4 [32, 64, 3]
0.08896903 0.07607636 0.04217255 -0.01702043 -0.014008167 -0.0060024555 -0.035565957 0.058307182
0.034140304 0.0694286 -0.017787158 0.06818602 -0.05627081 0.011227918 -0.09294024 0.011701646
-0.041844476 0.017412035 -0.08367769 -0.024000123 0.03636474 0.0817321 0.06515274 0.07912907
-0.014643598 -0.023494575 -0.031994127 -0.004276606 -0.019820563 0.04751047 -0.058435787 0.04885101
-0.038238082 0.08511111 0.003896336 0.042835582 -0.046121534 -0.03205982 0.0047059637 -0.067730404
0.02464284 -0.08717049 0.0092267925 0.08205365 -0.039035656 -0.06779114 0.013649488 -0.006274159
-0.061294902 0.04144276 -0.0036892968 0.098795384 0.017722689 0.0057224985 0.06648436 -0.004681681
0.0189682 -0.076765016 -0.0042015146 -0.09170266 -0.06452455 0.050395876 -0.024088057 0.046558134
-0.023425102 -0.06314298 0.032705933 0.055430014 0.06905976 -0.019081807 0.05157239 -0.04070586
0.0021723292 -0.020811642 0.020845769 0.093237944 0.006330126 -0.031225966 0.01931295 0.008242167
-0.07279211 -0.040656038 0.024587756 -0.05772178 0.021513592 -0.07150146 0.021064583 0.04262757
-0.012248962 -0.0066875224 0.046969548 0.000106102896 0.010265527 -0.028460545 -0.019158868 0.033529233
-0.03738015 0.0146785155 -0.06843349 0.037127994 0.04268405 -0.04328998 0.024274843 -0.035765477
0.059424058 -0.028248675 -0.02037846 0.06579296 0.051038846 0.086442105 0.054170936 0.024771165
-0.061656065 -0.02543644 0.054087576 -0.03070186 0.079736486 -0.030582618 -0.041251596 -0.009786787
0.03343503 -0.014257304 0.07963717 -0.026708988 -0.025307808 -0.001994933 -4.4423097e-05 0.06134375
0.032725416 0.029313607 -0.06401207 0.035631552 -0.026204417 -0.038271684 0.03807011 -0.087878376
-0.059817903 -0.00029177044 0.09077712 0.04987137 -0.015727526 0.026279967 0.05541874 0.05472591
-0.03705363 -0.016641108 0.04467174 -0.028107045 -0.0303835 0.014636439 -0.001809909 -0.014115901
-0.06684816 -0.025985891 0.048063464 0.06992181 -0.017094182 -0.052423805 0.00014605674 -0.026318144
0.0054598846 -0.022051528 -0.01674613 0.008801878 -0.00085567485 0.019372823 0.028931215 0.0022807526
0.068928406 0.10396656 -0.020920008 0.023604933 0.038443696 0.06478102 0.030363135 0.0060367365
0.057475977 -0.0044652587 0.004968409 -0.016621849 -0.039442886 -0.00294865 -0.028519252 0.060288202
0.027895093 0.049795046 0.10027544 -0.0501765 0.04565593 -0.007499362 0.02460124 -0.027023472
-0.038638294 -0.052442655 -0.034302518 0.00937367 0.003237187 -0.04704792 -0.058632605 -0.009659372
-0.040391494 -0.0070130094 -0.053494513 0.036631335 -0.019858351 -0.029525906 -0.03534656 -0.01996475
0.08925073 0.066957064 0.086637646 -0.016381303 -0.014989662 -0.057393145 -0.024504256 -0.016999897
-0.045939047 -0.014449152 -0.02471356 0.05402826 0.017661054 0.06210876 -0.050910108 0.08288891
0.057474207 0.05067631 0.06628917 0.033405233 0.0633831 -0.025290474 -0.029504515 0.00628616
0.0088511845 0.017922789 0.07736337 0.046184998 0.0230539 0.032557968 0.02698348 -0.009306895
0.0077322996 0.055770084 0.03676506 0.035492025 -0.03499289 0.091072954 -0.056857586 -0.006228244
-0.028746111 0.007400553 -0.03665632 -0.023643577 0.042193264 0.040619463 -0.047530163 0.020943074
00000000: 6535 b63d eccd 9b3d 20bd 2c3d 6e6e 8bbc
00000010: 8382 65bc 3fb0 c4bb 9cad 11bd 83d3 6e3d
00000020: b4d6 0b3d 9530 8e3d 60b6 91bc 1da5 8b3d
00000030: 397c 66bd 4df5 373c 7457 bebd 43b8 3f3c
00000040: 1d65 2bbd afa3 8e3c 355f abbd e89b c4bc
00000050: 32f3 143d 2963 a73d cd6e 853d 6c0e a23d
00000060: b4eb 6fbc b277 c0bc 460c 03bd c522 8cbb
00000070: bc5e a2bc 579a 423d 5d5a 6fbd ff17 483d
00000080: 899f 1cbd bc4e ae3d ac59 7f3b 5d74 2f3d
00000090: efe9 3cbd 2851 03bd 7c34 9a3b 3db6 8abd
000000a0: c8df c93c 7186 b2bd f92b 173c be0b a83d
000000b0: dae3 1fbd 15d6 8abd 1aa2 5f3c 7697 cdbb
000000c0: 5d10 7bbd e2bf 293d 21c8 71bb 3c55 ca3d
000000d0: 2c2f 913c cc83 bb3b f428 883d c968 99bb
000000e0: 3363 9b3c fa36 9dbd dcac 89bb 9bce bbbd
000000f0: 7325 84bd e86b 4e3d 5154 c5bc beb3 3e3d
00000100: 00e6 bfbc 1b51 81bd a8f6 053d 950a 633d
00000110: 346f 8d3d 7351 9cbc 923d 533d 30bb 26bd
00000120: a35d 0e3b 2d7d aabc bfc4 aa3c 89f3 be3d
00000130: f26c cf3b 99cd ffbc 3136 9e3c 270a 073c
00000140: 0814 95bd f286 26bd 436c c93c ac6d 6cbd
00000150: 463d b03c 5c6f 92bd a28f ac3c 3f9a 2e3d
00000160: dfaf 48bc 0123 dbbb 2463 403d 8f83 de38
00000170: be30 283c 1726 e9bc 0ff3 9cbc f355 093d
00000180: ee1b 19bd 287e 703c dc26 8cbd 8613 183d
00000190: 78d5 2e3d d650 31bd 09dc c63c d27e 12bd
000001a0: a466 733d c469 e7bc baf0 a6bc 76be 863d
000001b0: 1c0e 513d 8f08 b13d 58e2 5d3d e6ec ca3c
000001c0: 128b 7cbd 1560 d0bc ef8a 5d3d 7882 fbbc
000001d0: e24c a33d 6688 fabc 6ff7 28bd c358 20bc
000001e0: 2cf3 083d 7897 69bc d018 a33d cfcc dabc
000001f0: 5252 cfbc 6cbd 02bb f052 3ab8 9643 7b3d
00000200: 160b 063d 1723 f03c c318 83bd 64f2 113d
00000210: a5aa d6bc c5c2 1cbd 67ef 1b3d 94f9 b3bd
00000220: 9e03 75bd c4f8 98b9 5be9 b93d ec45 4c3d
00000230: 03d7 80bc 1649 d73c c3fe 623d 4728 603d
00000240: 8cc5 17bd ef52 88bc b7f9 363d bf40 e6bc
00000250: d1e6 f8bc adcd 6f3c 783a edba 6146 67bc
00000260: b0e7 88bd 5de0 d4bc 32de 443d 2a33 8f3d
00000270: 1909 8cbc 58ba 56bd cf26 1939 2699 d7bc
00000280: d5e8 b23b 68a5 b4bc 2e2f 89bc c135 103c
00000290: 5e4f 60ba c1b3 9e3c 2801 ed3c ae78 153b
000002a0: 562a 8d3d 6bec d43d 7060 abbc 225f c13c
000002b0: 2377 1d3d e9ab 843d 1cbc f83c d1cf c53b
000002c0: ee6b 6b3d 4e51 92bb 09ce a23b 8b2a 88bc
000002d0: dd8e 21bd 233e 41bb 35a1 e9bc c3f0 763d
000002e0: 4084 e43c e4f5 4b3d 365d cd3d e085 4dbd
000002f0: b601 3b3d 35bd f5bb 8a88 c93c 5460 ddbc
00000300: 3043 1ebd 1cce 56bd cc80 0cbd 0694 193c
00000310: fc26 543b 52b5 40bd be28 70bd 5842 1ebc
00000320: 8d71 25bd 63cd e5bb 101d 5bbd bd0a 163d
00000330: fbad a2bc 50e0 f1bc 8ec7 10bd 1e8d a3bc
00000340: 16c9 b63d c920 893d 146f b13d 1532 86bc
00000350: 3397 75bc 1315 6bbd 26bd c8bc 5e43 8bbc
00000360: 952a 3cbd 23bc 6cbc 1774 cabc bd4c 5d3d
00000370: eaad 903c c165 7e3d 1e87 50bd a9c1 a93d
00000380: 136a 6b3d f691 4f3d 9ec2 873d edd3 083d
00000390: 00cf 813d f82d cfbc 74b3 f1bc 22fc cd3b
000003a0: 8f04 113c d0d2 923c b070 9e3d 7b2c 3d3d
000003b0: 88db bc3c 815b 053d 760c dd3c f27b 18bc
000003c0: 3b5f fd3b 2c6f 643d f696 163d 1660 113d
000003d0: b454 0fbd 7584 ba3d 80e3 68bd 4c16 ccbb
000003e0: f77c ebbc 5780 f23b f024 16bd 2db0 c1bc
000003f0: d8d2 2c3d 9860 263d fdae 42bd cf90 ab3c

conv_layers.2.bias f4 [32]
0.057750624 0.11729579 -0.0360545 0.070430085 -0.030385822 -0.01706358 -0.021851106 0.04700224
0.06261288 0.0012097912 -0.043277316 -0.033579167 0.017095529 0.09205272 -0.027363094 0.0404756
-0.025291895 0.088129535 0.009919333 0.038489148 -0.055348206 0.044746596 -0.06282914 0.039015397
-0.0666234 -0.010682196 0.049127206 -0.045121633 0.07005752 0.10676875 -0.037963875 -0.025206143
00000000: eb8b 6c3d c638 f03d e2ad 13bd a63d 903d
00000010: b0eb f8bc ecc8 8bbc 1701 b3bc 6c85 403d
00000020: 2e3b 803d db91 9e3a 8e43 31bd 4f8a 09bd
00000030: ec0b 8c3c 2386 bc3d 9128 e0bc bec9 253d
00000040: f330 cfbc 427d b43d b384 223c cca6 1d3d
00000050: cdb4 62bd 3548 373d 90ac 80bd 9cce 1f3d
00000060: d971 88bd 6104 2fbc 9c39 493d 76d1 38bd
00000070: 517a 8f3d 93a9 da3d 0280 1bbd 1d7d cebc

lstm.weight_ih_l0 f4 [128, 32]
-0.042108357 -0.16334943 -0.021876935 -0.056926332 -0.004882845 -0.047731895 -0.04453619 0.0364023
-0.040299267 0.12599377 0.12923144 -0.1451347 0.080738954 0.10599754 -0.09948319 -0.040676847
-0.19602047 0.017186617 -0.09986768 -0.01708703 -0.12051835 0.08883584 0.08469145 0.12146582
-0.14553635 0.0015634081 -0.099256255 -0.10805413 -0.07957622 0.14919706 0.16088471 -0.008308945
0.18061613 -0.09476501 -0.09525451 0.12907602 0.10169594 0.031151716 0.041092683 -0.07767556
0.05133607 0.1537407 -0.022844218 0.10187253 0.060478862 -0.08022786 -0.15976827 0.19204858
0.12560697 -0.11119825 -0.06766701 0.14246544 0.0350056 0.20679326 0.031072756 -0.10600476
0.018075801 -0.028500663 -0.12865444 -0.065022156 -0.04356005 -0.025223255 -0.09887779 -0.0037806751
-0.16457023 0.17787324 -0.09032202 0.00077937916 -0.028011145 -0.09174318 0.15762144 0.05225954
0.15344387 0.004408746 0.14720343 -0.1467885 0.1779156 -0.12659997 0.13467488 -0.09908031
0.034148417 0.15660654 0.072918594 -0.08607647 -0.084883444 0.032121792 -0.051993374 -0.10362325
-0.03355501 0.11503852 -0.15955126 -0.056925062 0.026348246 0.16985519 -0.16704307 -0.07026717
0.08270638 -0.21051458 0.006961676 -0.041754384 -0.03076682 -0.09128064 0.06016884 -0.1120425
-0.08808547 -0.017195612 -0.16687487 -0.16614665 0.06418635 0.013748537 -0.12584949 -0.094379984
-0.0005520179 0.054127987 0.047526736 0.039848763 -0.11661702 -0.06555069 -0.160499 0.14709884
0.053173702 0.07739603 -0.00094411895 0.1464576 -0.04363517 -0.08011023 -0.112434015 -0.025462588
-0.006129353 0.18895638 0.15158325 0.0064813164 0.010078285 0.13986671 0.008705395 0.106413424
0.098915994 -0.17618158 -0.09827165 0.16246198 -0.0639817 -0.012285113 -0.05410283 0.058974013
-0.10530936 -0.023456529 0.03134791 0.12681638 0.0076429383 0.011709459 0.16086353 0.018723516
-0.09028546 -0.016433258 -0.01517224 -0.06998522 -0.02215859 0.053133115 -0.17315345 -0.024627313
0.020022867 -0.08146063 0.037651915 0.004821402 -0.13722278 -0.0364565 0.008528344 -0.043097626
0.14190862 -0.026491191 -0.111183606 0.0031699613 -0.124453664 0.11885602 -0.17648932 -0.019965898
0.08677297 -0.14073122 -0.08355209 -0.094887085 0.15310897 0.133686 0.11238953 0.15107161
-0.072241694 0.080240496 0.059716016 0.046542615 -0.12198345 -0.12850279 -0.09071518 -0.0017579856
-0.10218596 0.087137915 0.13148509 0.0459699 -0.14482306 -0.09849717 0.16498314 -0.12330946
-0.15631628 -0.14221735 0.064243756 -0.10851935 0.19614625 0.0010249505 -0.14469543 0.10846154
0.0016987623 0.0044915825 -0.08945653 0.14491111 -0.007145659 0.0005511307 0.1603674 0.005825849
-0.08042028 0.07914116 0.03637337 -0.1186766 0.09885495 -0.10154727 0.020912848 -0.009782966
0.022752121 -0.103007235 -0.1616317 0.10722875 0.13651018 0.14771588 -0.0032117092 0.17615764
-0.108450025 0.0053386227 0.021695606 0.1433482 -0.00689402 0.03432649 0.15312453 0.0785517
0.07748632 0.019063782 0.13705666 -0.1593824 0.18029599 -0.11721373 -0.04220342 0.1613669
0.11896999 0.1688187 -0.060219727 -0.054108974 -0.020618029 0.100499064 -0.029906398 0.1859319
00000000: d079 2cbd 1345 27be 4237 b3bc 962b 69bd
00000010: 4600 a0bb 8582 43bd 946b 36bd 941a 153d
00000020: d810 25bd 8304 013e 3f55 043e 319e 14be
00000030: 775a a53d 3d15 d93d d8bd cbbd c49c 26bd
00000040: 97b9 48be f3ca 8c3c 6d87 ccbd 19fa 8bbc
00000050: 53d2 f6bd 91ef b53d b672 ad3d 12c3 f83d
00000060: 7b07 15be 45eb cc3a dd46 cbbd 7c4b ddbd
00000070: dbf8 a2bd 1dc7 183e f6be 243e 3e22 08bc
00000080: 6ff3 383e 2814 c2bd cc14 c3bd 812c 043e
00000090: f645 d03d e231 ff3c cd50 283d 5d14 9fbd
000000a0: c545 523d 346e 1d3e cc23 bbbc 8ca2 d03d
000000b0: afb8 773d 814e a4bd 4b9a 23be 62a8 443e
000000c0: 1d9f 003e e8bb e3bd 0095 8abd 76e2 113e
000000d0: 0862 0f3d 9dc1 533e 4b8c fe3c 0619 d9bd
000000e0: b413 943c 397a e9bc fdbd 03be 562a 85bd
000000f0: 066c 32bd 00a1 cebc 7080 cabd 34c5 77bb
00000100: 1985 28be 6724 363e c0fa b8bd 404f 4c3a
00000110: a177 e5bc d9e3 bbbd 8467 213e 190e 563d
00000120: 6420 1d3e 3e77 903b 7fbc 163e b94f 16be
00000130: 822f 363e 6ca3 01be 36e8 093e 9eea cabd
00000140: 36df 0b3d 775d 203e 5856 953d dc48 b0bd
00000150: 5fd7 adbd 2492 033d 01f7 54bd 6d38 d4bd
00000160: fa70 09bd 5199 eb3d 6861 23be 412a 69bd
00000170: 47d8 d73c 85ee 2d3e 570d 2bbe 3ce8 8fbd
00000180: f661 a93d 2291 57be c51e e43b a506 2bbd
00000190: b30a fcbc 58f1 babd 9a73 763d 8a76 e5bd
000001a0: 2866 b4bd d0dd 8cbc 3fe1 2abe 5922 2abe
000001b0: 2274 833d 8b41 613c b0de 00be 4b4a c1bd
000001c0: 4bb5 10ba 4fb5 5d3d 65ab 423d 7538 233d
000001d0: e7d4 eebd 713f 86bd da59 24be 14a1 163e
000001e0: abcc 593d cf81 9e3d c07e 77ba fbf8 153e
000001f0: cbba 32bd d510 a4bd ce43 e6bd eb96 d0bc
00000200: bdd8 c8bb c87d 413e a438 1b3e 3961 d43b
00000210: 641f 253c 3839 0f3e 13a1 0e3c 48ef d93d
00000220: 7894 ca3d f268 34be a642 c9bd 6f5c 263e
00000230: d608 83bd 8047 49bc ee9a 5dbd bc8e 713d
00000240: 6fac d7bd e827 c0bc ab66 003d 27dc 013e
00000250: 9d71 fa3b 08d9 3f3c 69b9 243e 0f62 993c
00000260: 95e7 b8bd 0a9f 86bc fd94 78bc 6954 8fbd
00000270: ee85 b5bc 1ca2 593d 234f 31be 38bf c9bc
00000280: ff06 a43c d5d4 a6bd e538 1a3d dafc 9d3b
00000290: 2184 0cbe 6953 15bd 78ba 0b3c 2387 30bd
000002a0: 7e50 113e 0e04 d9bc 3bb4 e3bd 20bf 4f3b
000002b0: 90e1 febd c96a f33d 9eb9 34be 868f a3bc
000002c0: 07b6 b13d d81b 10be 5c1d abbd 2954 c2bd
000002d0: 99c8 1c3e fce4 083e 7b2c e63d 84b2 1a3e
000002e0: 74f3 93bd 2155 a43d c898 743d 78a3 3e3d
000002f0: 76d2 f9bd 3c96 03be e1c8 b9bd 356c e6ba
00000300: df46 d1bd 5d75 b23d 07a4 063e ef4a 3c3d
00000310: 7f4c 14be e2b8 c9bd 57f1 283e ac89 fcbd
00000320: 6011 20be 6da1 11be 3b92 833d 653f debd
00000330: 90da 483e a257 863a 0a2b 14be 1521 de3d
00000340: 01a9 de3a 202e 933b fc34 b7bd 9463 143e
00000350: 2226 eabb c179 103a 5a37 243e c3e6 be3b
00000360: 63b3 a4bd c314 a23d 3efc 143d b80c f3bd
00000370: 7774 ca3d 04f8 cfbd 6c51 ab3c bc48 20bc
00000380: a862 ba3c 75f5 d2bd c882 25be bf9a db3d
00000390: 53c9 0b3e d542 173e 8a7b 52bb ab62 343e
000003a0: 0c1b debd 9def ae3b fcba b13c dfc9 123e
000003b0: 3be7 e1bb ef99 0c3d adcc 1c3e b7df a03d
000003c0: 26b1 9e3d a62b 9c3c 9558 0c3e 2435 23be
000003d0: 839f 383e c10d f0bd 7edd 2cbd 5d3d 253e
000003e0: 8aa6 f33d cfde 2c3e f6a8 76bd 5fa1 5dbd
000003f0: 24e7 a8bc 74d2 cd3d 43fe f4bc ef64 3e3e

lstm.weight_hh_l0 f4 [128, 32]
0.15021732 -0.16350426 0.042335723 -0.17393838 0.11583103 0.015014758 0.12948911 0.036286477
0.06843998 -0.077881575 -0.13704798 -0.102901556 -0.0831821 0.10646856 0.11997683 -0.035903
0.035014834 -0.18851484 -0.013271353 -0.029484935 0.002211888 0.13961866 -0.11275027 0.1130341
-0.055357948 -0.033568334 -0.010856508 0.052674565 0.0719264 0.09707281 0.012027942 -0.18083413
-0.013836719 0.10292338 0.10765328 -0.13404442 -0.14039516 -0.18044357 -0.14832515 -0.060175728
-0.093190975 0.18412119 -0.15461755 -0.197118 0.14823101 -0.054302227 0.003354022 0.1928223
-0.04608826 -0.053975835 -0.09901572 0.08255033 -0.017709836 0.14778194 0.05314622 -0.08768834
0.13113825 -0.046631303 0.053524166 0.005491817 0.06857582 -0.077148736 -0.17162898 -0.07059365
0.17053233 0.16694199 0.04330632 -0.17665868 -0.025851002 0.0505973 0.005403544 -0.008536338
-0.044087965 -0.12687835 -0.06727868 -0.06765288 0.052434072 -0.02977356 -0.013962903 0.1288315
-0.10827727 -0.11287638 0.12609997 0.18143645 -0.08662738 0.12008744 -0.1237473 0.0015170485
-0.14825349 0.09532501 0.026235279 -0.08745251 0.046679392 -0.039896205 0.1088845 0.098498814
0.0986852 -0.08368595 -0.0814949 0.100422196 -0.06252476 0.021337625 -0.15659331 0.13745248
-0.047897678 -0.12658313 0.11640766 0.022070311 0.1317175 -0.0691469 -0.014787049 0.18672144
-0.13458891 -0.037413187 -0.17467897 -0.10589627 -0.041285113 -0.02634246 -0.0049777245 -0.10297129
-0.01988065 0.02988055 -0.118260406 -0.12178391 -0.00629711 -0.040399686 -0.0339795 -0.0810011
0.10731247 0.17145328 0.12606399 -0.1368597 0.0050505195 -0.1025512 0.16212252 -0.018794177
-0.1708515 0.15413399 0.14896367 -0.059447806 -0.049845785 0.050336353 -0.08084968 -0.042292725
0.0031546992 0.09227437 0.01013277 -0.04670494 -0.08606686 -0.14102171 -0.023097923 -0.0019335091
0.022146223 -0.13468342 -0.037793823 -0.0745187 0.05995895 -0.0055795214 -0.041697305 -0.10374436
-0.14782037 -0.13796315 0.08558331 0.097028635 0.030064834 -0.09238473 -0.079033576 -0.16128203
-0.124973536 0.020625005 -0.020386083 -0.050983623 0.0065090056 0.13916047 0.05691319 -0.034328453
0.1076123 -0.07517568 -0.1373405 0.046260223 0.058444843 -0.058166992 -0.04189122 -0.16149305
0.06860455 0.13809298 -0.029009325 -0.15598397 0.07094858 0.10856164 -0.039302766 0.042865552
-0.13486575 -0.15359677 -0.10747158 0.008880149 0.10200292 0.050455593 -0.18279816 -0.14633964
-0.05969598 -0.044216894 0.13003135 0.017887117 -0.05159429 -0.08544971 0.15310428 -0.12826759
-0.06770527 -0.046002038 -0.13759042 0.06616292 -0.011008833 0.021462351 -0.12785594 0.005591664
-0.16228467 0.15811703 -0.08629297 0.13195007 -0.097602695 -0.023870777 0.0124007035 -0.10850286
-0.10339891 -0.15532897 -0.09452896 0.09776208 0.07669253 0.06855084 -0.13263302 -0.1569458
0.13507393 0.0035169432 -0.1192126 -0.124752395 -0.14526674 -0.16813536 0.14380808 -0.11549839
-0.13115734 -0.13682254 -0.15046856 -0.052144717 -0.0045462325 0.12325846 0.14121543 -0.1661366
0.08078628 -0.08277937 0.061035316 -0.066463165 0.107519254 -0.008923121 0.12946112 -0.14306629
00000000: 92d2 193e a96d 27be 3968 2d3d e71c 32be
00000010: d238 ed3d 7600 763c cb98 043e 21a1 143d
00000020: 432a 8c3d 6080 9fbd 4e56 0cbe 0dbe d2bd
00000030: 605b aabd 300c da3d 6ab6 f53d 060f 13bd
00000040: b76b 0f3d 090a 41be 1770 59bc 648a f1bc
00000050: 53f5 103b 32f8 0e3e 9de9 e6bd 6c7e e73d
00000060: 04bf 62bd f37e 09bd 7fdf 31bc 49c1 573d
00000070: 264e 933d 1cce c63d d810 453c 952c 39be
00000080: 68b3 62bc 7ec9 d23d 5379 dc3d f142 09be
00000090: c0c3 0fbe 33c6 38be 8ce2 17be d37a 76bd
000000a0: e9da bebd 448a 3c3e 1054 1ebe 4dd9 49be
000000b0: dfc9 173e 036c 5ebd 27cf 5b3b 3673 453e
000000c0: 0bc7 3cbd c415 5dbd c1c8 cabd 2610 a93d
000000d0: 3814 91bc 2654 173e daaf 593d f295 b3bd
000000e0: 1b49 063e 7700 3fbd 283c 5b3d b3f4 b33b
000000f0: 7b71 8c3d 2800 9ebd 82bf 2fbe 6793 90bd
00000100: 07a0 2e3e d7f2 2a3e f861 313d 03e6 34be
00000110: 7bc5 d3bc 1d3f 4f3d 3610 b13b ffdb 0bbc
00000120: 9595 34bd 66ec 01be 68c9 89bd 988d 8abd
00000130: 1cc5 563d aee7 f3bc a9c4 64bc 68ec 033e
00000140: 79c0 ddbd bb2b e7bd 5a20 013e 7aca 393e
00000150: b269 b1bd 67f0 f53d 396f fdbd b3d7 c63a
00000160: c3cf 17be c239 c33d 5eeb d63c 4d1a b3bd
00000170: e432 3f3d 346a 23bd d6fe de3d bfb9 c93d
00000180: 771b ca3d 8a63 abbd cce6 a6bd 27aa cd3d
00000190: fb0c 80bd 3ecc ae3c ff59 20be 58c0 0c3e
000001a0: 5b30 44bd 029f 01be 2467 ee3d cccc b43c
000001b0: f4e0 063e e49c 8dbd 6145 72bc e833 3f3e
000001c0: add1 09be 923e 19bd 0bdf 32be 25e0 d8bd
000001d0: 941a 29bd 25cc d7bc 2e1c a3bb 9de2 d2bd
000001e0: bfdc a2bc 0ec8 f43c 8332 f2bd d869 f9bd
000001f0: fd57 cebb 247a 25bd 172e 0bbd e8e3 a5bd
00000200: a4c6 db3d 7391 2f3e eb16 013e f324 0cbe
00000210: d47e a53b 5d06 d2bd 7203 263e 3ff6 99bc
00000220: b2f3 2ebe 4dd5 1d3e ef89 183e 8b7f 73bd
00000230: 182b 4cbd 7e2d 4e3d 8494 a5bd 233b 2dbd
00000240: 12bf 4e3b 58fa bc3d eb03 263c ae4d 3fbd
00000250: d243 b0bd ff67 10be db37 bdbc cd6d fdba
00000260: ff6b b53c 73ea 09be b2cd 1abd 439d 98bd
00000270: 8497 753d 6bd4 b6bb cbca 2abd ec77 d4bd
00000280: 395e 17be 3646 0dbe 4d46 af3d f3b6 c63d
00000290: 874a f63c 3534 bdbd 5bdc a1bd 1e27 25be
000002a0: 20f2 ffbd c5f5 a83c b700 a7bc 34d4 50bd
000002b0: 7f49 d53b 1580 0e3e ce1d 693d fe9b 0cbd
000002c0: d663 dc3d b5f5 99bd fda2 0cbe 5c7b 3d3d
000002d0: dc63 6f3d 8340 6ebd 2196 2bbd 6f5e 25be
000002e0: 8b80 8c3d 3f68 0d3e f7a4 edbc 43ba 1fbe
000002f0: 7d4d 913d 9155 de3d f0fb 20bd ca93 2f3d
00000300: 3f1a 0abe 7948 1dbe 0f1a dcbd 0b7e 113c
00000310: e8e6 d03d 86aa 4e3d 712f 3bbe 0fda 15be
00000320: c683 74bd c61c 35bd f026 053e 0188 923c
00000330: 8954 53bd 4200 afbd 5ec7 1c3e 9458 03be
00000340: 10a9 8abd a26c 3cbd 81e4 0cbe 6d80 873d
00000350: 645e 34bc d0d1 af3c abec 02be 473a b73b
00000360: f42d 26be 6ee9 213e 5eba b0bd eb1d 073e
00000370: ece3 c7bd a68c c3bc 522c 4b3c bf36 debd
00000380: cfc2 d3bd 8f0e 1fbe 6698 c1bd 7c37 c83d
00000390: f910 9d3d 6264 8c3d f3d0 07be 66b6 20be
000003a0: d250 0a3e 847c 663b bc25 f4bd 2f7e ffbd
000003b0: cec0 14be ad2b 2cbe 6d42 133e 6b8a ecbd
000003c0: 1c4e 06be 351b 0cbe 6e14 1abe b395 55bd
000003d0: 90f8 94bb ee6e fc3d c79a 103e b61f 2abe
000003e0: 4773 a53d 3b88 a9bd 2b00 7a3d d71d 88bd
000003f0: 0e33 dc3d 4832 12bc 7591 043e f87f 12be

lstm.bias_ih_l0 f4 [128]
0.15207432 0.1171196 0.018645193 0.11717549 -0.06058757 0.080725186 0.012763687 0.12629929
-0.0045310725 0.031701595 0.15116099 0.12589249 -0.048139166 0.16763103 0.12751128 0.07125203
-0.008897935 0.16723013 -0.14164998 0.056543555 0.079117924 0.0780648 0.04066616 0.147197
0.14116016 0.04346257 0.066329576 0.060525313 0.13046584 -0.14936833 -0.066279925 0.15910314
0.09279147 0.20122612 0.0986465 0.02707313 0.033803478 0.01564647 -0.12280159 -0.078379564
0.15604535 0.008126969 -0.06175837 -0.16603017 0.12555727 0.055824555 0.14865537 -0.0098498305
0.11007548 0.0077727567 -0.09223403 0.031295866 0.15217309 0.15126638 -0.08080986 -0.06449657
0.15982938 0.10685085 -0.08152063 0.14511809 0.05839592 0.078567155 -0.06325337 -0.08631132
-0.09062813 0.17371757 0.13889687 -0.1195924 -0.19544268 0.08946176 0.026776325 0.11261434
0.03794968 -0.13085726 0.07912786 -0.035873096 -0.058255598 -0.1619468 0.0010798251 -0.117385775
-0.122732535 -0.104872935 -0.1449983 0.17079984 0.044772286 -0.08480258 0.13602117 0.10316019
0.049790263 0.13760166 0.10632329 0.06364837 -0.008319952 0.16051593 -0.051148042 0.06929305
0.08555053 0.0406378 -0.14381336 -0.10234783 -0.14942047 -0.025698343 -0.02433746 0.0366722
0.18062599 -0.08754229 0.023972906 -0.053039733 0.14045157 0.17833869 -0.040115397 0.056737173
0.047868263 -0.026157847 0.09506553 0.09086661 -0.13091835 -0.022391208 0.190452 -0.06457996
0.051594045 0.19383162 0.07376813 -0.121009186 -0.08105905 -0.02807133 0.14304206 0.06718766
00000000: 5fb9 1b3e 67dc ef3d cebd 983c b4f9 ef3d
00000010: ac2a 78bd 3f53 a53d c91e 513c 9a54 013e
00000020: 6479 94bb 88d9 013d f2c9 1a3e f6e9 003e
00000030: 932d 45bd 78a7 2b3e 5192 023e 96ec 913d
00000040: a5c8 11bc 603e 2b3e b10c 11be 379a 673d
00000050: 9408 a23d 70e0 9f3d 8f91 263d cfba 163e
00000060: 4a8c 103e cf05 323d cdd7 873d 64e9 773d
00000070: d698 053e 03f4 18be c5bd 87bd efeb 223e
00000080: 7409 be3d 380e 4e3e 2d07 ca3d 78c8 dd3c
00000090: 8475 0a3d 072d 803c 667f fbbd 7785 a0bd
000000a0: 5aca 1f3e fb26 053c 58f6 7cbd d003 2abe
000000b0: 1692 003e 4aa8 643d 1d39 183e 2f61 21bc
000000c0: 416f e13d 9cb2 fe3b 32e5 bcbd 1830 003d
000000d0: 43d3 1b3e 93e5 1a3e a47f a5bd c716 84bd
000000e0: 50aa 233e 9ed4 da3d 4af4 a6bd d699 143e
000000f0: 8f30 6f3d d1e7 a03d fc8a 81bd fdc3 b0bd
00000100: 3e9b b9bd 05e3 313e fb3a 0e3e dcec f4bd
00000110: 2022 48be ba37 b73d 065a db3c 59a2 e63d
00000120: 2071 1b3d 72ff 05be ca0d a23d abef 12bd
00000130: 6c9d 6ebd 62d5 25be eb88 8d3a f467 f0bd
00000140: 325b fbbd 9fc7 d6bd 6f7a 14be 27e6 2e3e
00000150: 2563 373d faac adbd 2249 0b3e a645 d33d
00000160: e0f0 4b3d 73e7 0c3e 06c0 d93d 145a 823d
00000170: 6850 08bc 4a5e 243e 9c80 51bd 84e9 8d3d
00000180: 1e35 af3d d273 263d cf43 13be bd9b d1bd
00000190: ae01 19be 5585 d2bc 5a5f c7bc 9735 163d
000001a0: 05f6 383e 5f49 b3bd d462 c43c 3140 59bd
000001b0: 89d2 0f3e 6b9e 363e 0b50 24bd 3d65 683d
000001c0: 8311 443d fb48 d6bc b7b1 c23d 4618 ba3d
000001d0: 760f 06be c46d b7bc d905 433e 8042 84bd
000001e0: 4754 533d cc7b 463e bf13 973d aad3 f7bd
000001f0: 4a02 a6bd d9f5 e5bc 9e79 123e af99 893d

lstm.bias_hh_l0 f4 [128]
0.035562426 0.19911486 -0.0770001 0.07271564 0.14007425 0.15775608 -0.056906942 -0.07657756
-0.12420706 0.012768476 -0.07172139 -0.13879153 0.05720315 0.02537274 0.021067994 0.08855851
0.006828905 0.036224533 0.18736902 0.12512885 -0.13087146 -0.025724791 0.20155872 0.16994037
-0.037822027 -0.038648717 0.11229821 -0.0661452 0.115847014 0.024516128 0.0350204 0.07667841
-0.076770484 0.07367982 -0.026874589 -0.12257168 0.0712968 0.084166266 -0.07471391 0.0015673195
-0.021457814 0.027596796 0.060046636 0.1801262 0.055644985 0.009585114 -0.076752886 -0.10014342
0.0013195869 0.15721287 -0.11545491 -0.10547827 -0.13189037 -0.12013961 -0.07536548 0.108897544
-0.1140559 -0.009394239 0.046918638 -0.09939172 0.07837995 -0.05350109 0.19730599 0.0019872487
-0.13513948 -0.027072342 -0.16035712 -0.063061975 -0.024123566 0.0531634 -0.072058454 -0.062266625
0.020675844 -0.16549167 -0.08907471 -0.045589253 -0.16947298 -0.08131541 -0.115177184 0.12253731
-0.082315564 0.11325447 -0.16649728 0.14763694 -0.12232614 0.05498665 0.11707621 -0.10275605
-0.013936399 0.040216453 0.11089976 0.138657 0.14559045 -0.0481151 0.027346134 -0.020824287
-0.018637925 0.08691363 -0.14750783 0.1629532 0.1668274 0.08482454 0.04681101 -0.060607478
0.17195214 0.098360166 0.16863498 0.20071189 -0.023305826 -0.025262978 -0.032741427 -0.1336836
0.118501924 0.1668515 0.123743236 -0.14022937 -0.053893276 -0.14770883 0.06699803 0.06673122
-0.0016209953 -0.08219361 0.19146203 0.13503906 -0.115824185 -0.09828517 0.066289596 0.18170524
00000000: e8a9 113d c4e4 4b3e 3ab2 9dbd f0eb 943d
00000010: a06f 0f3e cf8a 213e 4117 69bd b2d4 9cbd
00000020: 4560 febd df32 513c aae2 92bd 5e1f 0ebe
00000030: da4d 6a3d 7eda cf3c c996 ac3c 2a5e b53d
00000040: 02c5 df3b 2d60 143d aadd 3f3e c721 003e
00000050: 2b03 06be ccbc d2bc 6965 4e3e d904 2e3e
00000060: 45eb 1abd 1e4e 1ebd 9bfc e53d 2277 87bd
00000070: 3341 ed3d 0cd6 c83c 8d71 0f3d 9209 9d3d
00000080: d839 9dbd 72e5 963d 1928 dcbc dc06 fbbd
00000090: 0f04 923d 5d5f ac3d 9b03 99bd 846e cd3a
000000a0: 4cc8 afbc ad12 e23c 76f3 753d 0173 383e
000000b0: ffeb 633d e20a 1d3c 9e30 9dbd fe17 cdbd
000000c0: fdf5 ac3a 69fc 203e a073 ecbd fe04 d8bd
000000d0: 450e 07be c10b f6bd 3759 9abd ad05 df3d
000000e0: 2496 e9bd 4bea 19bc c22d 403d e38d cbbd
000000f0: ab85 a03d f523 5bbd 950a 4a3e 803c 023b
00000100: 0162 0abe d1c6 ddbc a834 24be a326 81bd
00000110: c99e c5bc dec1 593d 6293 93bd 4a0b 7fbd
00000120: 6360 a93c a676 29be cd6c b6bd ccbb 3abd
00000130: 538a 2dbe b288 a6bd 04e2 ebbd d7f4 fa3d
00000140: 1095 a8bd f6f1 e73d 437e 2abe 232e 173e
00000150: 2186 fabd ae39 613d a7c5 ef3d c471 d2bd
00000160: 7e55 64bc 02ba 243d 6a1f e33d 1afc 0d3e
00000170: aa15 153e 5714 45bd 0005 e03c b297 aabc
00000180: 90ae 98bc c6ff b13d 4b0c 17be 34dd 263e
00000190: cdd4 2a3e 7db8 ad3d e7bc 3f3d 8c3f 78bd
000001a0: 3914 303e 0e71 c93d a6ae 2c3e 6b87 4d3e
000001b0: dceb bebc 4ef4 cebc e01b 06bd 5be4 08be
000001c0: 23b1 f23d 1fdb 2a3e 186d fd3d 4a98 0fbe
000001d0: 32bf 5cbd fc40 17be 4336 893d 61aa 883d
000001e0: 9477 d4ba 2055 a8bd 9f0e 443e ae47 0a3e
000001f0: 3b35 edbd bc49 c9bd d7c2 873d f010 3a3e

fc_mu.weight f4 [4, 32]
-0.117856935 -0.09400315 -0.16481145 -0.044408355 0.20138873 0.21934696 0.18946081 -0.18550596
0.083762586 0.033765167 0.059795186 0.038083375 0.12639327 0.021822352 0.2359785 -0.22461616
-0.16092648 0.14025734 0.044351164 0.011361265 0.06756337 -0.079633944 -0.21401668 0.061197158
-0.08826776 -0.023843756 0.018971318 0.22748458 -0.016237888 0.21257891 0.16310556 0.23046026
-0.080347896 -0.08206455 -0.022948131 0.21329743 0.148314 0.18813758 0.092042476 -0.17027527
-0.23565951 -0.0034863525 0.12923332 0.11825727 0.11613948 -0.13258344 0.23950076 -0.23073967
-0.14190422 0.19080053 0.1572414 -0.23281549 -0.23530847 0.0591718 -0.22281928 0.15524045
0.1021602 0.11993543 -0.2136 0.037033524 -0.13689925 0.17083906 0.077390514 0.1945795
-0.08537909 -0.21972506 -0.21678936 0.13622637 0.15358491 -0.07227514 0.2189569 -0.14800704
0.08520327 -0.084268875 0.22909458 0.077104665 -0.15864849 -0.12893714 0.18353218 -0.0036112715
-0.051540073 0.18940355 0.050103515 -0.079846434 0.023025978 -0.10960562 0.016768552 0.08136521
-0.027066333 0.06825181 0.10353361 0.23866126 -0.19589697 0.01689898 -0.008245975 -0.060809113
-0.121806346 0.077679135 0.11039418 -0.051042914 0.024076475 0.067374535 -0.14135689 0.11349771
0.13316497 0.12499817 -0.036755465 0.0014114637 0.08776856 0.025214994 -0.0954673 0.05260709
0.13706125 -0.018554688 -0.1164625 0.13730937 0.15734363 0.14841671 0.035297245 -0.17379561
-0.13123822 -0.07724085 -0.050573584 -0.09327444 -0.03509407 0.07435406 -0.009786411 -0.123658575
00000000: fa5e f1bd b984 c0bd 55c4 28be 89e5 35bd
00000010: d938 4e3e 7d9c 603e 0402 423e 46f5 3dbe
00000020: b88b ab3d 584d 0a3d cceb 743d 50fd 1b3d
00000030: 3d6d 013e cac4 b23c 59a4 713e c701 66be
00000040: e9c9 24be 9f9f 0f3e 91a9 353d 9924 3a3c
00000050: aa5e 8a3d 1f17 a3bd 3027 5bbe dfa9 7a3d
00000060: bac5 b4bd fb53 c3bc bd69 9b3c b8f1 683e
00000070: 5205 85bc 49ae 593e 2505 273e c6fd 6b3e
00000080: 708d a4bd 7511 a8bd b8fd bbbc a46a 5a3e
00000090: a0df 173e 23a7 403e c480 bc3d a45c 2ebe
000000a0: ba50 71be 4a7b 64bb bd55 043e de30 f23d
000000b0: 89da ed3d f4c3 07be b03f 753e 0547 6cbe
000000c0: 574f 11be 3761 433e e403 213e 2f67 6ebe
000000d0: b4f4 70be 215e 723d bd2a 64be 5af7 1e3e
000000e0: 5e39 d13d b5a0 f53d f5b9 5abe 77b0 173d
000000f0: 512f 0cbe 6ff0 2e3e eb7e 9e3d d93f 473e
00000100: 3bdb aebd 9bff 60be 08fe 5dbe ed7e 0b3e
00000110: 5d45 1d3e fd04 94bd 3d36 603e 288f 17be
00000120: 0d7f ae3d 2995 acbd c597 6a3e 0de9 9d3d
00000130: c074 22be 1908 04be dcef 3b3e 15ab 6cbb
00000140: af1b 53bd 01f3 413e 5839 4d3d 8786 a3bd
00000150: faa0 bc3c e978 e0bd 345e 893c cea2 a63d
00000160: 37ba ddbc 9bc7 8b3d 6e09 d43d 9e63 743e
00000170: 3799 48be bb6f 8a3c 201a 07bc fa12 79bd
00000180: 9b75 f9bd 3d16 9f3d 5816 e23d 6012 51bd
00000190: 073c c53c a9fb 893d dcbf 10be 7d71 e83d
000001a0: 665c 083e 0aff ff3d e68c 16bd dd00 b93a
000001b0: 01c0 b33d ad8f ce3c 5c84 c3bd 887a 573d
000001c0: c959 0c3e 0000 98bc e483 eebd d49a 0c3e
000001d0: b01e 213e 8dfa 173e d893 103d 7af7 31be
000001e0: 5063 06be 7330 9ebd 3f26 4fbd ab06 bfbd
000001f0: cdbe 0fbd f146 983d 2f57 20bc b540 fdbd

fc_mu.bias f4 [4]
-0.15260588 0.077671155 -0.18684098 0.13171029
00000000: b744 1cbe 0e12 9f3d 3e53 3fbe 10df 063e

fc_logvar.weight f4 [4, 32]
0.13941899 0.24297489 0.16238819 -0.0982072 -0.15866938 -0.21858548 -0.1111155 -0.07059456
-0.097305045 0.034417134 0.034193642 -0.08015053 0.080080286 0.25050464 -0.11421004 0.2232025
0.1763422 -0.09195541 -0.09970607 0.17370191 0.16382012 0.05997341 0.19455513 -0.037270583
-0.24345672 -0.010577459 0.0100932075 0.025585085 0.21117707 -0.16844822 -0.17493351 -0.25414777
0.03571544 -0.024847005 0.19987252 0.0073364004 -0.095237784 0.028664699 0.070567265 -0.0023798442
0.1798197 -0.08229844 -0.16368076 0.021622468 -0.1241865 0.17806533 -0.16079894 -0.09879918
-0.06940764 0.094928876 -0.046721745 0.13101172 -0.10387838 0.082259744 0.19852205 -0.14257672
0.10105921 -0.03685034 0.109212615 0.048044167 0.10810386 -0.07380322 -0.10178215 -0.22433157
0.19208588 -0.06841712 0.047794383 -0.11682007 0.050310582 -0.06694687 0.05447224 0.21921389
0.19932476 -0.075148016 0.011606251 0.043622863 -0.062982276 0.13242124 -0.22813235 0.16042265
0.2315885 -0.105157316 -0.006831793 0.13371979 -0.035603236 0.14448124 0.14706977 -0.10192768
-0.13684021 -0.12532926 -0.12900183 -0.049005833 0.0108853 -0.032545187 -0.05921289 -0.16852471
0.09680621 0.06636834 0.13049476 -0.07095743 -0.16247064 -0.086022295 -0.09077681 -0.07256181
0.005980159 0.0791996 -0.09690281 -0.2086314 -0.085975796 0.14135301 -0.014444584 -0.03997061
0.09697747 -0.23688309 -0.11780546 0.14757228 -0.037223134 -0.06126938 0.19020753 -0.05628287
-0.25012392 -0.0047152084 0.061000228 -0.16796342 0.15832625 -0.1721016 0.02117929 -0.22172742
00000000: dac3 0e3e 69ce 783e 1749 263e db20 c9bd
00000010: 3a7a 22be dfd4 5fbe 8690 e3bd e193 90bd
00000020: de47 c7bd fbf8 0c3d a20e 0c3d f625 a4bd
00000030: 2201 a43d 2542 803e f4e6 e9bd 328f 643e
00000040: 0d93 343e 1e53 bcbd b232 ccbd eade 313e
00000050: 76c0 273e aea6 753d 7639 473e 0aa9 18bd
00000060: b84c 79be 144d 2dbc fb5d 253c d097 d13c
00000070: cd3e 583e b17d 2cbe c521 33be a81f 82be
00000080: 5a4a 123d f28b cbbc 62ab 4c3e 3066 f03b
00000090: 070c c3bd 3bd2 ea3c 9285 903d 29f7 1bbb
000000a0: a822 383e 168c a8bd ee9b 27be 9a21 b13c
000000b0: 7e55 febd c256 363e 7aa8 24be 3957 cabd
000000c0: 9825 8ebd 126a c23d 4d5f 3fbd f027 063e
000000d0: 30be d4bd cc77 a83d 5d49 4b3e a2ff 11be
000000e0: 22f8 ce3d 62f0 16bd ddaa df3d f6c9 443d
000000f0: 8e65 dd3d 2526 97bd 2973 d0bd 2db7 65be
00000100: 29b2 443e 461e 8cbd 0bc4 433d 5c3f efbd
00000110: 7812 4e3d 711b 89bd 491e 5f3d 9b79 603e
00000120: ca1b 4c3e 34e7 99bd 2528 3e3c e3ad 323d
00000130: dafc 80bd 6f99 073e 879b 69be d645 243e
00000140: 8925 6d3e b85c d7bd 3cdd dfbb d7ed 083e
00000150: b3d4 11bd e4f2 133e 7599 163e 76bf d0bd
00000160: d71f 0cbe 5056 00be 0e19 04be 57ba 48bd
00000170: 4258 323c 1a4e 05bd 3789 72bd be91 2cbe
00000180: 5642 c63d 20ec 873d 6ba0 053e 2152 91bd
00000190: b45e 26be 752c b0bd 31e9 b9bd 499b 94bd
000001a0: 36f5 c33b 6633 a23d fb74 c6bd 78a3 55be
000001b0: 1414 b0bd d8be 103e faa8 6cbc 39b8 23bd
000001c0: 209c c63d 7b91 72be fd43 f1bd 301d 173e
000001d0: 4977 18bd 9af5 7abd c3c5 423e de88 66bd
000001e0: 3e10 80be 0982 9abb 60db 793d 9afe 2bbe
000001f0: 4720 223e 673b 30be 3180 ad3c 830c 63be

fc_logvar.bias f4 [4]
0.10252969 -0.04732148 0.021748647 -0.112649634
00000000: 16fb d13d 2bd4 41bd 382a b23c dab4 e6bd

fc3_obs.weight f4 [32, 4]
0.16218482 0.2519421 0.08290312 0.28462 -0.5716099 -0.40780953 0.41265026 0.31082445
0.16377732 -0.048668258 -0.45171052 -0.36988252 -0.32245758 0.39040607 -0.023519753 -0.20696646
0.014318925 0.10062126 -0.23645353 -0.21302338 0.22588706 -0.004662804 0.14738435 -0.3586592
0.15486328 0.11816338 0.46094805 0.3160195 -0.42267329 -0.23414408 -0.22069064 0.039242595
-0.3795572 -0.45910057 0.22912998 -0.119923 -0.1832286 -0.08520201 -0.5037973 -0.27261674
-0.37091097 -0.22581267 0.052362554 -0.17150594 0.2451343 0.12028999 0.27448735 -0.22242081
0.45642486 0.07198199 -0.5082602 0.25448152 0.35714814 -0.112329945 0.23325184 -0.06686891
0.03654093 0.03592031 0.2697641 -0.13929738 -0.28899062 0.0062001213 -0.2985682 0.31967312
-0.5504848 -0.3108755 0.41072297 0.4914111 0.07843328 0.009084109 0.3866887 0.37414944
-0.12912749 0.31529394 -0.43482026 0.055797182 0.36375228 0.10544216 -0.31382647 -0.2915734
0.3920279 0.30165815 -0.14875853 -0.1236976 0.18443277 -0.2441393 -0.4812054 0.17480616
0.027040437 -0.06599371 -0.3212515 0.4904956 -0.4737435 -0.54291135 0.26873615 0.036732726
-0.0050653024 -0.49651554 0.28125557 0.30956823 0.4959159 -0.16910313 0.11789328 -0.23568892
-0.18461964 -0.13785039 -0.042521194 -0.25936425 0.13706405 0.3123296 -0.29514736 -0.030467143
-0.23088934 -0.063849054 -0.16316347 0.010700038 -0.5092589 -0.55886465 0.14742024 0.115130015
0.08071564 -0.5517319 -0.08809516 0.16193958 0.44204366 0.17286402 0.49504313 -0.42657456
00000000: c713 263e 8efe 803e 1cc9 a93d b6b9 913e
00000010: 0755 12bf 69cc d0be e546 d33e 6224 9f3e
00000020: 3eb5 273e 5e58 47bd 9a46 e7be 3e61 bdbe
00000030: 2919 a5be 4ee3 c73e 7fac c0bc 04ef 53be
00000040: ed99 6a3c 8512 ce3d e020 72be cd22 5abe
00000050: f04e 673e 6fca 98bb eceb 163e 2ea2 b7be
00000060: 7b94 1e3e a4ff f13d 6201 ec3e 4fcd a13e
00000070: a268 d8be 77c3 6fbe bafc 61be d8bc 203d
00000080: 5255 c2be 3b0f ebbe 0da1 6a3e 319a f5bd
00000090: 47a0 3bbe 647e aebd dcf8 00bf 6c94 8bbe
000000a0: 0be8 bdbe 703b 67be 1e7a 563d 419f 2fbe
000000b0: 7c04 7b3e 995a f63d 9b89 8c3e 48c2 63be
000000c0: 85b0 e93e 4b6b 933d 571d 02bf 674b 823e
000000d0: 1fdc b63e 3e0d e6bd 92d9 6e3e 91f2 88bd
000000e0: f1ab 153d 2d21 133d 851e 8a3e f9a3 0ebe
000000f0: 94f6 93be 632a cb3b eedd 98be 32ac a33e
00000100: 92ec 0cbf 132b 9fbe 484a d23e 3c9a fb3e
00000110: a1a1 a03d 84d5 143c 10fc c53e 8490 bf3e
00000120: ff39 04be 356e a13e c3a0 debe 968b 643d
00000130: bd3d ba3e 0ff2 d73d ddad a0be 1c49 95be
00000140: e2b7 c83e f072 9a3e 2854 18be 2b55 fdbd
00000150: f2db 3c3e a7ff 79be 8e60 f6be 6300 333e
00000160: e883 dd3c b627 87bd 147b a4be 3d22 fb3e
00000170: 828e f2be 3dfc 0abf c997 893e 0e75 163d
00000180: d6fa a5bb 4937 febe bb00 903e ba7f 9e3e
00000190: b0e8 fd3e 5f29 2dbe 0872 f13d 7058 71be
000001a0: ee0c 3dbe a728 0dbe b42a 2ebd 64cb 84be
000001b0: 855a 0c3e aae9 9f3e 8e1d 97be 3b96 f9bc
000001c0: 416e 6cbe 4bc3 82bd 5314 27be 364f 2f3c
000001d0: cb5e 02bf c111 0fbf 55f5 163e 49c9 eb3d
000001e0: 3e4e a53d 4d3e 0dbf 3c6b b4bd 7dd3 253e
000001f0: 8c53 e23e 4403 313e 4b76 fd3e fb67 dabe

fc3_obs.bias f4 [32]
-0.05705186 0.5187161 0.36233705 -0.16786523 -0.06401054 -0.07518174 0.51281023 0.4580939
0.27223235 0.16464148 -0.34095812 -0.35761648 -0.03382431 -0.24609418 0.3077908 0.50169086
0.1798407 -0.25783205 0.39947882 -0.50042444 0.15804853 0.2750027 0.3158777 0.38676023
-0.3352179 0.25470814 -0.16486484 0.06146248 0.12079131 -0.08260362 -0.22077985 -0.07638639
00000000: 36af 69bd 94ca 043f 3e84 b93e dde4 2bbe
00000010: f517 83bd e2f8 99bd 8847 033f 498b ea3e
00000020: 0a62 8b3e c797 283e 1092 aebe 8219 b7be
00000030: 5c8b 0abd 1d00 7cbe c196 9d3e d06e 003f
00000040: 2928 383e 9002 84be 7d88 cc3e d11b 00bf
00000050: 79d7 213e 27cd 8c3e b9ba a13e 7005 c63e
00000060: aea1 abbe 1b69 823e 54d2 28be 15c0 7b3d
00000070: 6f61 f73d 162c a9bd 1d14 62be 7870 9cbd

fc4_obs.weight f4 [16, 32]
0.13906531 0.094951876 0.21803923 0.11724575 0.15795413 0.20070003 -0.03711274 0.1936186
0.22989915 -0.007981655 0.120044544 0.15723689 0.11944071 0.074764684 -0.12126363 -0.09878448
0.08366081 0.15471199 0.1045669 0.0033328945 0.07358677 -0.0035943065 0.20498419 0.11379047
-0.034106858 0.01030915 0.22605269 0.14385131 0.046871554 0.08764963 -0.050672665 0.061227508
0.2078277 -0.03433093 0.07786956 0.01608004 0.05877244 0.22290216 0.03533392 0.020797072
0.084877245 0.059434585 -0.0882025 -0.07041167 0.16532873 -0.06624957 -0.027703697 -0.016825518
-0.018560475 0.014164412 -0.07785633 -0.11091212 0.09389214 0.064407505 0.143593 0.18994078
-0.04396299 0.22504753 0.02107316 0.12909114 0.10102203 0.06600048 0.03694457 0.18632247
0.012563916 0.12668473 -0.09274687 0.015930656 0.0012765428 0.21153249 0.11347893 0.21302071
0.11487275 0.06627311 0.15343235 0.09311943 0.20307563 0.11145584 -0.06465231 0.20014164
0.0982525 -0.08704658 -0.00394795 0.22319481 0.026763504 -0.101027966 0.17630033 0.21991189
0.07926883 -0.095331416 -0.061759185 0.1349337 -0.11590954 0.034596432 0.07454184 0.049139783
0.106573634 0.0026848777 0.031683143 0.109342195 0.2505249 0.15980944 -0.043356854 0.10541695
0.12179966 -0.0012911396 0.13283858 -0.036145132 0.10595806 0.19070849 0.004035955 0.038947992
0.1627777 0.07158158 -0.02614809 -0.09590606 0.23714757 0.06735253 0.015568156 -0.07079929
0.16827708 0.16706334 -0.03671127 -0.07784841 0.1421937 0.18959759 0.2104338 0.19748561
-0.088704064 -0.017696174 0.114085786 -0.06985155 0.06372123 -0.059409495 0.02170557 -0.10727578
-0.07014871 0.094344005 0.11653966 0.13501328 0.12038677 -0.05574622 0.1404405 -0.14521025
-0.012292249 0.013799221 0.030654958 -0.09388133 -0.15330859 -0.10258258 0.08767658 0.058534462
0.0070314906 -0.13868546 -0.049351674 0.13240424 -0.16724306 0.046542678 -0.15456678 0.04100165
0.034593172 0.050917916 0.20818485 0.050697718 -0.05626448 0.045317672 0.0027504885 -0.008245263
0.20669012 -0.064370304 0.2138931 0.16274752 0.20471148 -0.005227541 0.08905278 -0.025471838
-0.06819158 0.12867588 -0.03602856 0.0745414 -0.014623744 0.17058632 -0.09224695 0.11578694
0.03130393 0.21739373 0.23026957 -0.047570333 0.18147385 0.15696482 -0.04045688 -0.12913655
0.0041753636 0.14606652 -0.16115741 -0.121055774 0.048749067 -0.13397755 0.14762367 -0.068846226
-0.1464094 0.012826435 -0.067292504 0.04219943 -0.03657749 -0.14824346 0.0155512 -0.1928189
0.14137018 0.017611261 -0.056243815 0.11378861 0.100360945 -0.17928408 -0.13773403 -0.12962352
0.11087048 -0.026795724 -0.16317397 0.0035067766 0.0003657459 0.061079662 0.011175826 -0.017709933
-0.10535621 0.010269545 0.14724998 -0.053448245 0.1383956 0.038467728 -0.010974935 0.028296959
-0.12816028 -0.088997096 -0.2035921 -0.15791114 -0.0032237938 -0.083516814 -0.18747298 -0.13547114
-0.02764666 0.07601888 0.07000073 -0.03851782 0.038266677 0.12391869 0.023342025 -0.116733894
0.018165868 -0.050536044 -0.20676193 0.14466806 0.05952561 0.08305512 0.04803335 -0.16129044
00000000: 2367 0e3e 2176 c23d ad45 5f3e 8a1e f03d
00000010: babe 213e 4f84 4d3e 8703 18bd f443 463e
00000020: af6a 6b3e 7dc5 02bc ead9 f53d b502 213e
00000030: 559d f43d 3a1e 993d 1159 f8bd 844f cabd
00000040: 5c56 ab3d d26c 1e3e 2c27 d63d b16c 5a3b
00000050: a9b4 963d 758e 6bbb 60e7 513e fa0a e93d
00000060: a2b3 0bbd b6e7 283c 5b7a 673e c24d 133e
00000070: 63fc 3f3d a681 b33d 248e 4fbd b2c9 7a3d
00000080: c9d0 543e 979e 0cbd 137a 9f3d 4aba 833c
00000090: 5fbb 703d 7740 643e 4dba 103d 9f5e aa3c
000000a0: 1fd4 ad3d ae71 733d 83a3 b4bd fe33 90bd
000000b0: ef4b 293e dbad 87bd ddf2 e2bc abd5 89bc
000000c0: 230c 98bc da11 683c 2473 9fbd e525 e3bd
000000d0: 864a c03d 15e8 833d 0b0a 133e d67f 423e
000000e0: 8912 34bd dc72 663e 9fa1 ac3c 7830 043e
000000f0: a3e4 ce3d 422b 873d 3053 173d 51cb 3e3e
00000100: e2d8 4d3c a4b9 013e 12f2 bdbd 0281 823c
00000110: ab51 a73a f99b 583e a467 e83d 1a22 5a3e
00000120: 6842 eb3d 32ba 873d 5f1d 1d3e 66b5 be3d
00000130: 0ff3 4f3e f642 e43d 6e68 84bd eef1 4c3e
00000140: 9b38 c93d 7a45 b2bd ce5d 81bb 2e8d 643e
00000150: 233f db3c c0e7 cebd 1388 343e 9530 613e
00000160: b257 a23d 1e3d c3bd 33f7 7cbd 0f2c 0a3e
00000170: fb61 edbd fdb4 0d3d 64a9 983d cc46 493d
00000180: 4743 da3d c6f4 2f3b 2fc6 013d cdee df3d
00000190: cd44 803e 16a5 233e f596 31bd d8e4 d73d
000001a0: 1a72 f93d 753b a9ba d606 083e eb0c 14bd
000001b0: 8a00 d93d 1649 433e 0b40 843b ee87 1f3d
000001c0: 33af 263e 5d99 923d 8534 d6bc 656a c4bd
000001d0: d0d6 723e 20f0 893d 9411 7f3c 38ff 90bd
000001e0: d450 2c3e a712 2b3e 8f5e 16bd fd6e 9fbd
000001f0: 3a9b 113e df25 423e f57b 573e ab39 4a3e
00000200: 7aaa b5bd 91f7 90bc cfa5 e93d 540e 8fbd
00000210: 4780 823d 5f57 73bd e1cf b13c 67b3 dbbd
00000220: 20aa 8fbd 6e37 c13d 58ac ee3d ec40 0a3e
00000230: 578d f63d 2656 64bd a2cf 0f3e ffb1 14be
00000240: 6e65 49bc 2116 623c 1b20 fb3c db44 c0bd
00000250: edfc 1cbe d116 d2bd c78f b33d d5c1 6f3d
00000260: 6b68 e63b 9003 0ebe fb24 4abd fa94 073e
00000270: c441 2bbe 89a3 3e3d c146 1ebe 59f1 273d
00000280: 92b1 0d3d 4e8f 503d 692e 553e 69a8 4f3d
00000290: 9575 66bd 069f 393d 8a41 343b 2417 07bc
000002a0: 93a6 533e 94d4 83bd cb06 5b3e 49a7 263e
000002b0: e39f 513e cb4b abbb 4e61 b63d 51aa d0bc
000002c0: 07a8 8bbd 9cc3 033e af92 13bd 29a9 983d
000002d0: 6e98 6fbc 2eae 2e3e f8eb bcbd b421 ed3d
000002e0: 8d38 003d 769c 5e3e c9cb 6b3e 1cd9 42bd
000002f0: 48d4 393e 63bb 203e 1db6 25bd 5f3c 04be
00000300: 7dd1 883b 7692 153e 7306 25be 17ec f7bd
00000310: 1aad 473d 6931 09be a92a 173e 40ff 8cbd
00000320: 59ec 15be f825 523c a7d0 89bd 4fd9 2c3d
00000330: 47d2 15bd 22cd 17be 76ca 7e3c 5172 45be
00000340: 58c3 103e 7e45 903c ea5f 66bd 010a e93d
00000350: 0a8a cd3d 3f96 37be 260a 0dbe 07bc 04be
00000360: 1010 e33d b582 dbbc 1417 27be f3d1 653b
00000370: 95c1 bf39 ab2e 7a3d d01a 373c 6c14 91bc
00000380: ffc4 d7bd 9841 283c b3c8 163e 8cec 5abd
00000390: 93b7 0d3e 5690 1d3d 37d0 33bc 06cf e73c
000003a0: 733c 03be 1c44 b6bd 737a 50be 75b3 21be
000003b0: 4946 53bb dd0a abbd ebf8 3fbe f2b8 0abe
000003c0: 407b e2bc c9af 9b3d 8b5c 8f3d ddc4 1dbd
000003d0: 85bd 1c3d 15c9 fd3d c637 bf3c 2e12 efbd
000003e0: 96d0 943c e2fe 4ebd 66b9 53be dd23 143e
000003f0: 20d1 733d ce18 aa3d 9ebe 443d 5229 25be

fc4_obs.bias f4 [16]
0.19603941 0.11909527 0.08875851 0.033441816 0.11237854 -0.011554708 -0.036854204 -0.1630323
0.05163115 0.16143496 -0.14806725 0.124353975 0.13162898 -0.0002899703 0.10062061 0.14914198
00000000: 8ebe 483e 39e8 f33d 06c7 b53d 49fa 083d
00000010: b826 e63d f54f 3dbc 6ff4 16bd f0f1 26be
00000020: 2f7b 533d 354f 253e f19e 17be 4cad fe3d
00000030: bfc9 063e 2807 98b9 2e12 ce3d adb8 183e
