checkpoints/ vae /zara1/model_best.pth (torch, 75691 bytes, 24 tensors)

conv_layers.0.weight f4 [64, 1, 3]
0	0xbe181acb	-0.1485397
1	0x3eedbd7d	0.4643363
2	0x3e75643e	0.2396402
3	0xbf0c6c73	-0.5485298
4	0x3e6788d6	0.22610793
5	0x3dbbf18c	0.09176931
6	0xbd0fcacb	-0.035105508
7	0xbeb053f7	-0.3443906
8	0xbe36bcaf	-0.17845415
9	0xbd0b1a67	-0.033960726
10	0xbf301dcf	-0.68795484
11	0xbf2ab213	-0.6667797
12	0x3e59554e	0.21223947
13	0xbd86d4a1	-0.065835245
14	0xbe9403b6	-0.2890908
15	0x3f18151e	0.5940722
16	0x3eee88e7	0.46588823
17	0x3d980f07	0.07424741
18	0xbeee4f02	-0.46544653
19	0x3f075f21	0.5287953
20	0x3d93dce2	0.072198644
21	0xbe9eba9b	-0.31001744
22	0x3e92f52c	0.28702676
23	0x3ea99e7c	0.33128726
24	0x3ee39502	0.4444962
25	0xbec16b1d	-0.37777033
26	0xbd311acc	-0.043238446
27	0x3ea41dd0	0.32053995
28	0xbddd496c	-0.1080502
29	0x3d8dcfce	0.06924401
30	0xbee37ab2	-0.44429547
31	0xbe93f243	-0.2889577
32	0xbe20cd78	-0.1570338
33	0xbf0392c1	-0.51395804
34	0xbe50dc76	-0.20396599
35	0xbf10298d	-0.563134
36	0xbef47f7d	-0.47753516
37	0xbdc3718f	-0.09543144
38	0xbe429427	-0.19001828
39	0xbef0655a	-0.46952325
40	0x3ebdab27	0.3704464
41	0x3e821df7	0.25413486
42	0xbdb27482	-0.08713628
43	0x3f05e0e4	0.5229628
44	0xbe8f631d	-0.28005305
45	0x3f1be0e3	0.60890025
46	0x3e8e393a	0.27778035
47	0x3be5417f	0.006996333
48	0xbeea99dd	-0.45820513
49	0x3f10ab7d	0.5651167
50	0x3f0fa84a	0.56116164
51	0x3e8a4e83	0.27013025
52	0xbe054cc6	-0.13017568
53	0xbeb6a182	-0.35670096
54	0xbf08c395	-0.53423434
55	0x3f0fd425	0.5618308
56	0xbdc1c859	-0.094620414
57	0x3e1da8f6	0.15396485
58	0xbee449bd	-0.44587508
59	0x3f0989f4	0.53726125
60	0x3e88f484	0.2674905
61	0xbc174ec5	-0.009235089
62	0x3e850e8f	0.2598767
63	0xbe4d808c	-0.20068568
64	0xbf3203e1	-0.6953717
65	0xbf13580d	-0.5755623
66	0x3eef34bf	0.4671993
67	0x3e014e88	0.12627614
68	0xbef7cb4c	-0.4839729
69	0xbedf5193	-0.43616924
70	0xbf00d28e	-0.5032128
71	0x3ef2f48b	0.47452196
72	0x3e9958af	0.29950473
73	0xbe7717e1	-0.24130203
74	0x3e2e0543	0.16994195
75	0xbde12f53	-0.109953545
76	0x3eb0d98c	0.34540975
77	0x3f1072b3	0.5642502
78	0x3de7302d	0.11288486
79	0xbdb73527	-0.08945685
80	0xbe308da4	-0.17241532
81	0x3dba7d25	0.09105901
82	0x3e9f8621	0.3115702
83	0xbe33f7cc	-0.17574996
84	0xbec9b8b6	-0.39398736
85	0xbe0ff0e1	-0.14056732
86	0x3eaff3ac	0.34365594
87	0x3edc092e	0.42975754
88	0xbd9cbc61	-0.07653118
89	0xbf30dc18	-0.69085836
90	0x3dd685f4	0.10474768
91	0x3f1bb71f	0.60826296
92	0x3ef36de2	0.4754477
93	0xbe31911d	-0.17340513
94	0x3eef6bf8	0.4676206
95	0xbef0f490	-0.47061586
96	0xbe909e46	-0.28245753
97	0x3ec47932	0.38373715
98	0xbe19083b	-0.14944546
99	0x3d8ce02f	0.06878697
100	0x3e87c97a	0.26520902
101	0x3ef9d693	0.4879652
102	0x3f16ec36	0.5895418
103	0x3e0d2081	0.1378193
104	0x3e456b4d	0.19279213
105	0x3e746fe8	0.23870814
106	0xbde30055	-0.11084048
107	0xbdbae017	-0.09124773
108	0xbe762567	-0.24037705
109	0xbf33116c	-0.6994846
110	0xbebbd87b	-0.366886
111	0x3e611f2b	0.21984546
112	0x3e542517	0.20717274
113	0x3f031e2b	0.5121791
114	0x3f1865c6	0.59530294
115	0xbd93729f	-0.071995966
116	0x3ea02a79	0.31282404
117	0x3ee26df9	0.44224527
118	0x3ebca40c	0.36843908
119	0x3e04b0fa	0.12958136
120	0xbd9ab1b4	-0.075534254
121	0x3e75e509	0.24013151
122	0xbebe30ff	-0.37146756
123	0xbdeedd29	-0.11663277
124	0x3e495f7e	0.19665334
125	0xbefcd26d	-0.49379292
126	0xbd654fca	-0.055984296
127	0x3cf1d2a6	0.02951939
128	0xbf12b1bb	-0.57302445
129	0xbe4b3cbe	-0.1984739
130	0x3ef83bb7	0.4848306
131	0xbe9adac0	-0.30245018
132	0xbd037dd0	-0.032102406
133	0x3f19c52f	0.60066503
134	0x3eacfa77	0.3378484
135	0xbe6ba496	-0.23012003
136	0x3ef40b06	0.4766466
137	0xbe90a2c4	-0.2824918
138	0xbdfab0b4	-0.12240735
139	0xbf26f4fe	-0.6521758
140	0xbf1f2756	-0.62169397
141	0xbe88991c	-0.26679313
142	0xbea2c12b	-0.31788
143	0x3f09b0fa	0.5378567
144	0xbeedff06	-0.4648363
145	0x3dbede4d	0.09319744
146	0x3ef8f6a3	0.4862567
147	0xbe01218b	-0.12610452
148	0xbf1e3d6c	-0.6181247
149	0xbe49566b	-0.19661872
150	0xbe3ca9a8	-0.18424094
151	0x3ea3993c	0.31952846
152	0x3ea2cddd	0.31797686
153	0xbe79fb25	-0.2441221
154	0xbebf817d	-0.3740348
155	0x3f0fbc58	0.56146765
156	0xbe53c89b	-0.20681994
157	0x3f07198f	0.52773374
158	0xbe0a8671	-0.13527848
159	0xbe09b88a	-0.13449302
160	0x3de50dac	0.11184248
161	0x3f09e6aa	0.5386759
162	0x3d21635c	0.039401397
163	0x3edd6f40	0.4324894
164	0xbdf63da3	-0.12023475
165	0xbe51ba02	-0.20481113
166	0xbe8d8236	-0.27638406
167	0x3f1b2ca2	0.6061498
168	0x3e94a677	0.29033253
169	0xbe91c0ba	-0.2846735
170	0x3f093d8b	0.5360953
171	0x3ec98a53	0.39363346
172	0x3e219e66	0.1578308
173	0xbebe6adb	-0.371909
174	0x3e462c2a	0.19352785
175	0x3ebdc3d0	0.37063456
176	0x3deabba1	0.114615686
177	0xbf107391	-0.5642634
178	0xbea8d063	-0.32971486
179	0xbeb2b801	-0.3490601
180	0x3e65fd0c	0.22459811
181	0x3e96604e	0.2937035
182	0xbecf5bc2	-0.40499693
183	0xbc89426a	-0.016755302
184	0x3e86a2a9	0.26295975
185	0x3e07403f	0.13208102
186	0xbebedd5f	-0.37278268
187	0xbea4949d	-0.32144633
188	0xbea84952	-0.3286844
189	0xbf25e3f1	-0.64800936
190	0xbee9336c	-0.45547044
191	0xbdec3c8b	-0.11534985

conv_layers.0.bias f4 [64]
0	0x3edf62c9	0.43630055
1	0x3e6bdfb8	0.2303456
2	0x3e67d699	0.22640456
3	0x3e6ea0be	0.23303506
4	0x3f2b35eb	0.6687915
5	0x3da2a963	0.07942464
6	0xbe889402	-0.2667542
7	0x3ce5df78	0.02806066
8	0xbe954164	-0.29151452
9	0x3ea109c9	0.31452778
10	0xbecbf747	-0.39837095
11	0xbedbce8e	-0.42931026
12	0x3db05590	0.0861007
13	0x3ec51124	0.3848964
14	0x3f1e734c	0.6189468
15	0x3e22e722	0.15908483
16	0x3e61b03b	0.22039883
17	0x3f085557	0.5325522
18	0xbd4f3d2b	-0.050595444
19	0xbef2e6fe	-0.47441858
20	0xbe9a85ff	-0.30180356
21	0x3f0bb818	0.5457778
22	0x3e224e2a	0.1585013
23	0x3e89905c	0.2686795
24	0x3e04694a	0.1293079
25	0x3f00f6f8	0.50376844
26	0x3ee7a660	0.45244122
27	0x3ed859be	0.42255968
28	0xbe017fcc	-0.12646407
29	0x3e25b814	0.16183501
30	0x3dd5ac42	0.10433246
31	0x3e3823c3	0.17982392
32	0xbe7b29af	-0.2452762
33	0xbdc8c19d	-0.09802554
34	0x3d502407	0.05081561
35	0xbe301bf5	-0.17198165
36	0xbd2aaa55	-0.041666348
37	0x3ec2820c	0.37989843
38	0x3bbd2659	0.0057723937
39	0xbeaccb7a	-0.3374899
40	0x3e7923a3	0.2433
41	0x3eb667e3	0.35626134
42	0x3ebfa915	0.37433687
43	0xbeb9c273	-0.36281165
44	0x3e6f246b	0.23353736
45	0xbde933b4	-0.11386815
46	0x3e7d7041	0.24749853
47	0xbe316cdc	-0.17326683
48	0xbed3a02c	-0.4133314
49	0x3ec219c5	0.37910286
50	0x3ee6953a	0.45035726
51	0x3f0bbca3	0.5458471
52	0xbe88ca1e	-0.26716703
53	0x3c7e10ea	0.015506962
54	0x3dee835a	0.11646147
55	0xbe834ef7	-0.25646183
56	0xbdb00383	-0.0859442
57	0xbec71edd	-0.38890734
58	0x3f0b7da3	0.5448858
59	0xbe86e4a0	-0.26346302
60	0xbeab5513	-0.33463344
61	0xbe384091	-0.1799338
62	0x3efd1fdc	0.4943837
63	0xbead44a9	-0.33841446

conv_layers.2.weight f4 [32, 64, 3]
0	0xbc2e52ae	-0.01063983
1	0xbc3a8f82	-0.011386754
2	0x3d8e3b99	0.06944961
3	0x3de387a6	0.11109857
4	0x3ced1a7b	0.028943291
5	0x3cc9dbe6	0.024640989
6	0x3872a0bc	5.784699e-05
7	0xbcdefff8	-0.027221665
8	0xbcdaddf7	-0.02671717
9	0x3ca6b750	0.020351082
10	0x3d2c0501	0.04199696
11	0xbd87d366	-0.06632118
12	0xbe107e3d	-0.14110656
13	0xbd7de2c6	-0.061983846
14	0xbd5e164c	-0.054220483
15	0x3d9b8992	0.07594599
16	0x3d310bfc	0.04322432
17	0xbd1840de	-0.037171237
18	0x3ba05c45	0.004893812
19	0x3c971c15	0.018446008
20	0x3d5fe6d8	0.05466351
21	0x3c4c7555	0.012479146
22	0xbcbd7fff	-0.023132322
23	0x3cb30ce2	0.021856729
24	0xbd21d215	-0.03950699
25	0x3b8ffa3b	0.0043938435
26	0x3d61a4bd	0.055088747
27	0x3d64c784	0.055854335
28	0xbd1786a1	-0.036993627
29	0xbd69b517	-0.057057466
30	0x3ccd0ee0	0.025031507
31	0x3d092d46	0.03349044
32	0x3d4a29da	0.04935632
33	0x3ca96056	0.02067582
34	0xbd1f22ed	-0.038851667
35	0x3d1507b0	0.036384284
36	0x3cff126c	0.031136714
37	0xbc44aa28	-0.012003459
38	0xbb1e82da	-0.002418688
39	0x3d150ad9	0.0363873
40	0xbd547496	-0.051868998
41	0xbd046ad4	-0.03232844
42	0xbd34ac17	-0.04410943
43	0x3d4541b5	0.048158366
44	0xbd70aa07	-0.0587559
45	0x3d8de6b8	0.06928772
46	0x3d8de238	0.069279134
47	0x3d8ba590	0.06818688
48	0x3d85318a	0.065035895
49	0x3d30d5e8	0.043172747
50	0x3d9b98b6	0.07597487
51	0xbd9a74a4	-0.07541779
52	0xbccbf227	-0.02489574
53	0xbdb84ae3	-0.089986585
54	0xbb235c50	-0.0024926849
55	0x3da4fb13	0.08055701
56	0xbc937097	-0.017998023
57	0xbcc20ed0	-0.023688704
58	0x3d594f2c	0.05305402
59	0xbb0fed87	-0.0021961646
60	0x3cf000b4	0.02929721
61	0xbd2ec2ba	-0.042666174
62	0x3cea9c90	0.028639108
63	0x3d9c4068	0.07629472
64	0xbc448ba4	-0.011996184
65	0xbdc063dc	-0.09394047
66	0x3d89dfb4	0.06732121
67	0x3d2397f3	0.039939832
68	0x3d0ac215	0.033876497
69	0xbcae79bc	-0.021298282
70	0xbd082d5e	-0.03324639
71	0x3d5660ff	0.052338596
72	0x3d6cc5dd	0.057805885
73	0x3d8bfba7	0.06835108
74	0x3cea394d	0.028591776
75	0x3c38467e	0.011247275
76	0x3d76ec32	0.060283847
77	0xbd6151d0	-0.055009663
78	0xbd7d5e70	-0.06185764
79	0xbe38cd2b	-0.18047015
80	0xbe60218f	-0.21887802
81	0x3c340eb9	0.010989838
82	0xbbd26d3d	-0.0064217136
83	0xbd05ed17	-0.03269681
84	0x3aadd311	0.0013261755
85	0xbcce45b0	-0.025179714
86	0x3d566618	0.052343458
87	0xbcd69f37	-0.026198966
88	0x3d28c23e	0.04120087
89	0xbd9dcee1	-0.07705475
90	0xbc58f7b4	-0.013242651
91	0x3c009590	0.0078481585
92	0x3c497d14	0.012297887
93	0x3b8d8b32	0.004319572
94	0x3d8ae0f6	0.06781189
95	0x3cd46953	0.025929129
96	0xbcedc45e	-0.0290243
97	0x3da3d5bb	0.0799975
98	0xbd47952f	-0.048726257
99	0x3dab4e2a	0.08364518
100	0x3b49a6d6	0.0030769608
101	0xbc5495a8	-0.012975134
102	0xbc8c499d	-0.017124945
103	0x3d729e87	0.059233215
104	0x3cff41be	0.031159278
105	0x3da52cef	0.08065211
106	0xbc4183b0	-0.011811182
107	0x3c8f9fac	0.017532192
108	0xbb55e94f	-0.0032640283
109	0xbc912a23	-0.017720288
110	0xbdfb99f1	-0.12285221
111	0xbbe37c73	-0.0069423257
112	0x3cb5c26a	0.02218743
113	0xbd23c25c	-0.039980277
114	0x3da47e5f	0.08031916
115	0xbd1121b5	-0.035432536
116	0xbd5044c4	-0.05084683
117	0xbd3c98b7	-0.046044078
118	0x3d8a4cbd	0.06752918
119	0xbd62f7a7	-0.05541196
120	0xbd353301	-0.044238094
121	0xbd37e9f1	-0.04490084
122	0x3da51934	0.08061448
123	0xbc0583cc	-0.008149099
124	0xbd88685d	-0.06660531
125	0x3d36eb54	0.04465802
126	0x3d1907c8	0.037360936
127	0xbc27fd3b	-0.010253246
128	0x3c91a7c8	0.0177802
129	0x3da16b01	0.078817375
130	0x3da34333	0.079718016
131	0xbd31a753	-0.043372463
132	0x3d49f776	0.049308263
133	0x3d77d95b	0.06051002
134	0x3be27476	0.006910856
135	0xbcfcfbc3	-0.030881768
136	0x3d61e716	0.05515202
137	0x3d180f79	0.03712413
138	0x3d767bd1	0.060176674
139	0xbcc6705f	-0.024223505
140	0xbd5fa58c	-0.054601237
141	0x3d49b982	0.04924918
142	0xbc965237	-0.01834975
143	0x3d0a4227	0.033754494
144	0x3d644142	0.055726297
145	0x3a146100	0.0005660206
146	0x3d16f966	0.03685894
147	0x3dc22d3f	0.09481286
148	0xbce06d0f	-0.027395753
149	0xbcc3d665	-0.023905942
150	0x3d61c1ff	0.05511665
151	0xbc89378d	-0.016750121
152	0x3d08c161	0.033387545
153	0xbc6e3a57	-0.0145402765
154	0xbcc45889	-0.023967998
155	0xbd42a950	-0.04752475
156	0xbce5b566	-0.0280406
157	0xb98fe529	-0.00027445823
158	0xbc3f7ce5	-0.011687492
159	0x3d9f38e9	0.077745266
160	0x3c25976f	0.010106905
161	0x3cb4ee1b	0.022086194
162	0x3d3a0fa3	0.04542507
163	0x3d8a37c6	0.06748919
164	0xbd72bc0b	-0.059261363
165	0x3ce2bcaf	0.027677862
166	0xbb3797b2	-0.0028014001
167	0x3d160af1	0.03663153
168	0xbb65e912	-0.0035081548
169	0x3c8c4093	0.017120635
170	0xbcc4956a	-0.023997027
171	0xbd25937a	-0.040423848
172	0x3cc4a2ea	0.024003465
173	0x3d56a7cd	0.05240612
174	0x3cc93a2f	0.024563877
175	0xbd2f182d	-0.042747665
176	0x3c4b5607	0.012410647
177	0x3ddac01d	0.10681174
178	0x3d8b3d1c	0.06798765
179	0x3a153b3b	0.0005692725
180	0x3d803b11	0.06261266
181	0xbd0eb74d	-0.034842778
182	0x3d3f7bcf	0.046748932
183	0xbd198313	-0.037478518
184	0xbd4d38b2	-0.050102897
185	0xbd103bf4	-0.035213426
186	0x3cdd7453	0.027033007
187	0xbaee7c90	-0.0018195082
188	0xbbd11b23	-0.006381409
189	0x3daabbab	0.08336576
190	0x3d75e2d4	0.060030773
191	0x3cc303ac	0.023805462
192	0xbb8fecef	-0.0043922584
193	0xbc5ebd4f	-0.013594939
194	0x3d639a8e	0.055567317
195	0x3c506a55	0.012720664
196	0x3d38da19	0.04512987
197	0x3d232858	0.039833397
198	0x3d2f7d81	0.0428443
199	0x3dab5375	0.083655275
200	0xbdacbc18	-0.084343135
201	0x3ced63f1	0.02897832
202	0x3d5e1e26	0.05422797
203	0xbd470dd3	-0.04859717
204	0x3c2d706a	0.010585884
205	0xbd181f64	-0.03713931
206	0x3cdb8ac1	0.026799561
207	0x3bb37913	0.0054770797
208	0xbd1f4ec3	-0.038893472
209	0x3a9cd597	0.001196551
210	0x3d7f522c	0.062334225
211	0x3d509ec7	0.050932672
212	0xb901a2b3	-0.00012363009
213	0xbc45846d	-0.012055499
214	0x3d8a5a96	0.06755559
215	0xbd37ae3f	-0.04484391
216	0xbdff2f7b	-0.12460228
217	0xbd19cfae	-0.037551574
218	0xbd0aecc3	-0.0339172
219	0xbd33d2ab	-0.04390208
220	0x3c6ff5d1	0.01464601
221	0x3b8a2d26	0.004216808
222	0xbd8eae3a	-0.06966825
223	0x3b8957df	0.0041913833
224	0xbd0c69dd	-0.034280647
225	0x3d1005e3	0.035161864
226	0x3d8297e1	0.06376625
227	0x3d8cd9ad	0.06877456
228	0x3cae0a27	0.021245075
229	0xbcb3fa74	-0.021970011
230	0x3d691a30	0.05690974
231	0x3cd270bf	0.025688527
232	0x3cb6423b	0.022248378
233	0x3d2f1d99	0.042752836
234	0x3ce114de	0.02747577
235	0x3cc750b4	0.024330474
236	0x3d6aff4d	0.05737238
237	0xbd8757dd	-0.066085555
238	0xbd2e6e5b	-0.042585712
239	0xbcf1aa8f	-0.029500274
240	0x3cb0502f	0.02152261
241	0x3d10e9c9	0.035379205
242	0xbcfc9a88	-0.030835405
243	0x3deb58cf	0.11491548
244	0xbd05d222	-0.0326711
245	0xbce6d223	-0.028176373
246	0x3cbd237d	0.023088211
247	0x3dd47aac	0.1037496
248	0x3d74abb0	0.059734046
249	0xbdd6ad30	-0.10482252
250	0xbd344aa0	-0.04401648
251	0x3c7342a5	0.014847432
252	0x3d0776e6	0.033072375
253	0xb8febaa7	-0.000121464305
254	0xbd14eecf	-0.036360558
255	0xbd23b668	-0.039968878

conv_layers.2.bias f4 [32]
0	0x3da546c8	0.08070141
1	0x3c92080f	0.017826108
2	0xbc2020ff	-0.009773492
3	0xbd08d237	-0.0334036
4	0xbc2d6367	-0.010582781
5	0x3da78213	0.081791066
6	0xbb136e5e	-0.0022496204
7	0x3b5313b6	0.0032207794
8	0x3dc2afa9	0.09506161
9	0x3d2c4fe3	0.042068373
10	0xbd17475b	-0.036933284
11	0x3da48bc5	0.080344714
12	0x3d85611a	0.06512661
13	0xbd2fa9cd	-0.042886544
14	0xbc5893e5	-0.013218855
15	0x3ca3129e	0.019906338
16	0x3dabe67d	0.083935715
17	0x3cb49c1b	0.022047093
18	0x3d3ca36c	0.04605429
19	0xbc17d9f5	-0.009268274
20	0x3dc8e1df	0.098087065
21	0xbd87a404	-0.066230804
22	0x3d3389e5	0.04383268
23	0x3dc09fc3	0.09405472
24	0x3c87c6ce	0.01657429
25	0x3b54cb73	0.0032469898
26	0x3dff72de	0.12473081
27	0xbc993551	-0.018702181
28	0x3ba5deea	0.005061974
29	0x3de834d2	0.113382
30	0x3cd34a86	0.025792371
31	0x3b6d65f3	0.0036224097

lstm.weight_ih_l0 f4 [128, 32]
0	0x3e265730	0.16244197
1	0x3e05f57f	0.1308193
2	0xbdf01c98	-0.11724204
3	0x3dbe31fd	0.09286878
4	0xbd4fbc93	-0.050716948
5	0x3dd45757	0.10368221
6	0x3d83b916	0.06431787
7	0x3dbe1031	0.09280432
8	0x3e0bbff6	0.13647446
9	0x3d4fdcc8	0.050747663
10	0xbe1e3e3f	-0.15453433
11	0xbe349f1d	-0.17638822
12	0xbdb664bc	-0.08905932
13	0x3d5e2219	0.054231737
14	0xbd06fcfb	-0.032956105
15	0xbcd476cb	-0.025935551
16	0x3e0696db	0.13143484
17	0x3d742bf5	0.059612233
18	0x3d38f59d	0.04515611
19	0xbd3df37f	-0.046374794
20	0x3d839902	0.06425668
21	0xbdd7e56f	-0.10541808
22	0x3dfb54ca	0.122720316
23	0x3db3cecc	0.08779678
24	0x3d7bc45f	0.06146657
25	0xbddf49b9	-0.10902733
26	0xbdd41886	-0.1035624
27	0xbbfcaa87	-0.007710758
28	0x3d4209f9	0.047372792
29	0xbda1c15c	-0.078982085
30	0x3ddced70	0.10787475
31	0xbba4774e	-0.005019105
32	0xbbb2cd65	-0.005456614
33	0x3dc5721b	0.096409045
34	0x3e2a79d2	0.16648033
35	0x3ca11c65	0.01966686
36	0xbda53b3f	-0.08067941
37	0x3e0ca6b1	0.13735463
38	0x3bd5a8e0	0.0065203756
39	0x3d928a24	0.071552545
40	0xbde9250e	-0.11384021
41	0xbddf82ff	-0.109136574
42	0xbd494a15	-0.049142916
43	0xbe107e6e	-0.14110729
44	0x3e2ac4ab	0.16676585
45	0x3df460ef	0.11932551
46	0xbd8e60fe	-0.069520935
47	0x3d4e9799	0.050437544
48	0x3e3b0904	0.18265158
49	0xbd869462	-0.065712705
50	0xbd7e24c2	-0.062046774
51	0x3c7f3d2e	0.015578551
52	0x3dd12955	0.102129616
53	0x3e20bd07	0.15697108
54	0x3c093b9c	0.008376028
55	0xbd7f8041	-0.06237817
56	0xbe1e98d5	-0.15487988
57	0xbde9f9bd	-0.11424587
58	0x3e093095	0.13397439
59	0x3e1758f3	0.14780025
60	0x3e1764a0	0.14784479
61	0x3da18c79	0.07888121
62	0x3df15433	0.11783638
63	0x3d54bcfb	0.05193804
64	0x3e2ea36d	0.1705453
65	0x3c86c3cc	0.016450785
66	0xbdcf07f0	-0.10108936
67	0xbdd59320	-0.104284525
68	0x3e4fb6b4	0.2028454
69	0xbdd1b07a	-0.10238738
70	0xbd6730b0	-0.056442916
71	0x3dfff4c4	0.12497857
72	0x3e1890ad	0.1489894
73	0x3d2b2ac9	0.04178885
74	0xbb9c352f	-0.004767082
75	0x390bf91e	0.00013348876
76	0x3d2e94a9	0.042622242
77	0xbdbf1af0	-0.0933131
78	0xbc5a579c	-0.013326552
79	0xbd8139cf	-0.06309854
80	0xbcb22f64	-0.021751113
81	0x3dfa88ed	0.12233148
82	0x3e224cad	0.15849562
83	0x3ca61221	0.020272316
84	0xbd6484ce	-0.055790715
85	0x3dbea497	0.09308737
86	0xbe0bacb6	-0.13640103
87	0xbd846c9a	-0.064660266
88	0xbdb133b9	-0.086524434
89	0xbe2443ed	-0.16041537
90	0x3cb3c938	0.021946535
91	0x3e1855e5	0.14876516
92	0xbd80fbf8	-0.06298059
93	0x3d81c636	0.06336634
94	0x3dd90f84	0.105986625
95	0xbd67cd6c	-0.05659239
96	0xbda9ef6e	-0.08297621
97	0x3da31d28	0.079645455
98	0x3e1419d3	0.14462976
99	0x3ddddb4d	0.10832844
100	0xbd3b70e8	-0.045761973
101	0x3e783268	0.24237978
102	0x3e25db8f	0.16197036
103	0x3d5d4a80	0.054026127
104	0xbd78a624	-0.06070532
105	0x3c318e0c	0.010837089
106	0xbdbb8ffb	-0.091583215
107	0xbda44d04	-0.08022502
108	0x3d9566a0	0.07294965
109	0xbdb53a1b	-0.08848973
110	0xbe2fd579	-0.17171277
111	0x3e003353	0.12519579
112	0x3e1d5624	0.15364891
113	0x3d926b85	0.07149414
114	0x3db2a5a6	0.08723001
115	0xbc53e8fd	-0.012933967
116	0x3e42ccdd	0.19023462
117	0xbdfcbaa2	-0.12340285
118	0x3d002bc9	0.031291757
119	0x3cb4ab3d	0.022054309
120	0xbdedf2fb	-0.116186105
121	0xbd4844c3	-0.0488937
122	0x3a65c53e	0.0008765048
123	0xbdf0210e	-0.11725055
124	0xbd8a4f5d	-0.067534186
125	0xbe374d5a	-0.17900601
126	0x3e079c57	0.13243233
127	0xbe01724c	-0.12641257
128	0xbda2d7b7	-0.079513006
129	0x3de6490f	0.112444036
130	0x3ddc0511	0.10743154
131	0xbcd927c8	-0.026508227
132	0x3a788caa	0.000948141
133	0x3d4242bc	0.047426924
134	0x3e18928e	0.14899656
135	0x3dfcca4a	0.12343271
136	0x3d9f0e06	0.07766347
137	0x3e28d9c3	0.1648932
138	0x3e1dc8d1	0.15408637
139	0x3d92cd7d	0.071681
140	0xbd3de97b	-0.046365242
141	0x3d505f0b	0.05087189
142	0x3e3bfc6d	0.18358012
143	0xbd2d58a9	-0.04232088
144	0xbde40fef	-0.111358516
145	0xbd05b705	-0.032645244
146	0xbe0e8843	-0.13919167
147	0x3d9e0fbc	0.07717845
148	0xbcadadc6	-0.021201026
149	0xbdd13fb5	-0.10217229
150	0x3e026877	0.12735163
151	0x3daa62b7	0.083196096
152	0xbd037129	-0.03209034
153	0xbe431dc7	-0.19054328
154	0xbd3a32d9	-0.04545865
155	0x3dc6c5f4	0.09705725
156	0x3da4563f	0.08024263
157	0x3e633db0	0.221915
158	0x3ebcc204	0.36866772
159	0x3d2987e9	0.04138938
160	0xbd48a780	-0.048987865
161	0x3e0b6585	0.13612945
162	0xbdea8970	-0.114519954
163	0xbd9fbbab	-0.07799467
164	0x3e582bf4	0.21110517
165	0xbd5fe2c7	-0.05465963
166	0xbdb6242a	-0.088936165
167	0x3db43264	0.08798674
168	0x3d9f177e	0.07768153
169	0x3e36f2ef	0.1786611
170	0xbd83d86c	-0.064377636
171	0x3e51f545	0.20503719
172	0xbc13670b	-0.008996735
173	0xbe14edb9	-0.14543809
174	0xbe212311	-0.15736033
175	0x3d956c68	0.072960675
176	0x3e4936f3	0.19649868
177	0xbce5e97d	-0.028065437
178	0xbe1ffa78	-0.1562289
179	0xbdb4bc34	-0.088249594
180	0xbe4b70e9	-0.1986729
181	0x3db8f791	0.090315945
182	0xbcca684c	-0.024707936
183	0xbd8088a4	-0.06276062
184	0x3d2427c2	0.04007698
185	0xbe436ddc	-0.19084877
186	0xbd356479	-0.04428527
187	0x3c421561	0.011845917
188	0x3df78851	0.12086547
189	0xbe24a2f4	-0.16077787
190	0x3e4eac93	0.2018302
191	0x3d4f4041	0.050598387
192	0xbc4de8d4	-0.012567718
193	0xbe323c41	-0.17405798
194	0x3c849fa6	0.016189408
195	0xbaf84eec	-0.0018944419
196	0x3e37e29d	0.1795754
197	0xbe12a921	-0.1432233
198	0x3d4378bc	0.047722563
199	0xbd20daf2	-0.039271303
200	0x3e0d6af3	0.13810329
201	0xbd9b9f88	-0.075987875
202	0x3de17dd3	0.11010327
203	0xbd88f0c5	-0.06686548
204	0xbd7602e8	-0.060061365
205	0xbd32d525	-0.0436603
206	0x3e1b6e13	0.15178709
207	0x3e3eb5f2	0.18624094
208	0xbe010227	-0.12598477
209	0xb943a783	-0.00018659052
210	0x3e3c224e	0.18372461
211	0xbddeffdb	-0.10888644
212	0xbd95ca3e	-0.07313965
213	0x3d6edb24	0.058314458
214	0x3daba46b	0.083809696
215	0x3e2121e7	0.15735589
216	0xbdbbbec2	-0.091672435
217	0x3de96006	0.11395268
218	0x3df9f91d	0.12205718
219	0xbdffa34f	-0.124823205
220	0x3d8deaf7	0.069295816
221	0xbdbdeee9	-0.09274084
222	0x3bfbcc8b	0.0076842955
223	0xbccd9267	-0.025094224
224	0xbc7b17ba	-0.015325481
225	0xbe26a9db	-0.16275732
226	0x3e3f89a0	0.18704844
227	0xbc209299	-0.009800577
228	0xbdf583f9	-0.119880624
229	0x3da22a9c	0.07918283
230	0xbd136256	-0.035982452
231	0xbda586c6	-0.080823466
232	0xbd078a93	-0.03309114
233	0xbda91482	-0.08255865
234	0xbcba6747	-0.022754325
235	0x3e595930	0.21225429
236	0xbe023c19	-0.12718238
237	0xbde3d0dc	-0.11123821
238	0x3dc349dc	0.09535572
239	0xbde91b1c	-0.11382124
240	0xbdfef3c7	-0.124488406
241	0xbcb61333	-0.022225952
242	0xbdc12597	-0.09430998
243	0xbe061f92	-0.1309798
244	0xbd0f5e91	-0.035002295
245	0x3caae4da	0.020861078
246	0xbcef3ba9	-0.029203253
247	0xbd1bb3bc	-0.038013205
248	0x3ce972cf	0.028497128
249	0x3e444ce6	0.1916996
250	0xbd8daf2b	-0.06918176
251	0x3e48ab83	0.19596677
252	0xbd545e4b	-0.051847737
253	0x3af4dfad	0.0018682383
254	0x3aff86c9	0.0019495125
255	0x3e37e543	0.1795855

lstm.weight_hh_l0 f4 [128, 32]
0	0x3e1319d1	0.14365317
1	0x3cfceb29	0.030873852
2	0xbe132a61	-0.14371635
3	0xbe53e878	-0.20694149
4	0x3d99e83d	0.07514999
5	0x3e5eed71	0.21770264
6	0xbdf6bf0c	-0.12048158
7	0xbd8f341f	-0.06992363
8	0x3e44076a	0.19143453
9	0xbd81fd34	-0.06347123
10	0xbd7584d7	-0.05994114
11	0x3de762f2	0.11298169
12	0x3d92fe6e	0.07177435
13	0xbcdecc23	-0.02719695
14	0xbdc06655	-0.09394518
15	0xbe230b62	-0.15922311
16	0xbe63baaa	-0.22239175
17	0xbd0e6603	-0.034765255
18	0xbe0ed724	-0.13949257
19	0x3e51e950	0.20499158
20	0x3e6e0ad1	0.23246314
21	0xbdf7fb3f	-0.12108468
22	0xbd826273	-0.06366434
23	0xbde7d8e1	-0.11320663
24	0xbe209854	-0.15683109
25	0xbe629e6b	-0.22130744
26	0xbdf2b13e	-0.118502125
27	0x3d03eba1	0.032207135
28	0xbdc41527	-0.09574347
29	0xbd31c633	-0.043401908
30	0x3d9e143a	0.07718702
31	0xbe0c97fc	-0.13729852
32	0xbe29db59	-0.1658758
33	0xbd58b43d	-0.052906264
34	0xbde3a43f	-0.11115312
35	0xbe0b992e	-0.13632652
36	0x3e094823	0.13406424
37	0x3d52ede0	0.051496387
38	0x3c955a06	0.018231403
39	0x3dfeb90b	0.12437638
40	0xbd50fde9	-0.051023398
41	0xbdda8737	-0.106703214
42	0xbd26239d	-0.040561307
43	0x3e079f15	0.13244279
44	0x3e3e950d	0.18611546
45	0xbd0e17b7	-0.034690585
46	0xbc466173	-0.012108195
47	0x3e04b63c	0.12960142
48	0xbc7cae22	-0.015422376
49	0x3dd62444	0.10456136
50	0x3db3aeb1	0.08773554
51	0x3d93e5f0	0.072215915
52	0x3df89698	0.121380985
53	0xbd5ee86b	-0.05442087
54	0x3e21e67d	0.1581058
55	0x3df0b760	0.11753726
56	0xbde4a94f	-0.111651056
57	0xbbac5d39	-0.0052601364
58	0xbdb254d3	-0.08707585
59	0x3dd94a0e	0.10609828
60	0x3cbe831f	0.023255883
61	0xbdbf638a	-0.093451574
62	0x3cf2455d	0.02957409
63	0x3c066ace	0.008204175
64	0xbe2b6830	-0.16738963
65	0xbda9eca1	-0.082970865
66	0xbd50cbce	-0.050975613
67	0xbe144105	-0.14477928
68	0x3e00f1bc	0.12592214
69	0x3dbf13a4	0.09329918
70	0x3e0b775b	0.13619749
71	0x3df32c5e	0.11873697
72	0x3e007ed9	0.12548389
73	0xbd078852	-0.03308899
74	0xbd855265	-0.06509856
75	0x3e421208	0.18952191
76	0xbbf40ef7	-0.007448073
77	0xbda2d22d	-0.07950244
78	0xbe2529fa	-0.16129294
79	0xbd8c507e	-0.0685129
80	0xbd3721f9	-0.044710133
81	0xbdb219d1	-0.0869633
82	0x3d833b41	0.06407786
83	0x3c18ab1d	0.00931814
84	0xbc5e946d	-0.013585192
85	0x3d1445fe	0.036199562
86	0x3e02c5df	0.12770794
87	0xbdb5f47f	-0.088845246
88	0x3d4c3875	0.04985853
89	0x3d9a86a7	0.07545214
90	0x3d5465b8	0.05185482
91	0xbdb4da4a	-0.08830698
92	0xbe036e9f	-0.12835167
93	0xbe055b5d	-0.13023134
94	0xbd529db3	-0.051419925
95	0x3de7d897	0.11320608
96	0xbd9047f5	-0.07044975
97	0xbe0c5fcc	-0.13708419
98	0xbd958f3b	-0.0730271
99	0xbd8f6a76	-0.07002728
100	0x3e03ca71	0.12870194
101	0xbda036bd	-0.078229405
102	0xbd762258	-0.060091347
103	0xbdcc68cf	-0.09980928
104	0xbca9aee2	-0.020713273
105	0xbd7e4817	-0.06208047
106	0x3da263a3	0.079291604
107	0xbd94545d	-0.072426535
108	0x3d74523d	0.05964874
109	0x3df4db25	0.11955861
110	0x3d363d17	0.044491854
111	0xbc42f25d	-0.011898604
112	0xbe3eaf27	-0.18621503
113	0xbcc82699	-0.024432467
114	0x3e1dc1b1	0.15405919
115	0xbdf93fc3	-0.12170365
116	0x3cb52422	0.022111956
117	0xbd31e172	-0.043427892
118	0xbe026753	-0.12734728
119	0x3de1c853	0.11024537
120	0xbddede3b	-0.10882231
121	0xbd480ace	-0.04883843
122	0xbabffcad	-0.0014647447
123	0xbe30fbee	-0.17283604
124	0xbd8fbef2	-0.07018842
125	0x3b847128	0.0040418096
126	0x3b138045	0.0022506875
127	0xbc8b49ea	-0.017003018
128	0x3de56f2e	0.112028465
129	0x3e503756	0.20333609
130	0xbc128890	-0.008943692
131	0xbcb8f6f0	-0.022578686
132	0x3dabb6a4	0.08384445
133	0x3e561df5	0.20909865
134	0x3ddfae9e	0.109219775
135	0x3dc1c253	0.094608925
136	0xbd2debdd	-0.042461265
137	0xbda2cb78	-0.07948965
138	0xbe006faf	-0.12542604
139	0x3d7f1c72	0.062282987
140	0xbd43a527	-0.047764923
141	0x3d96a199	0.07355041
142	0xbdd5c23c	-0.10437438
143	0xbe30fa12	-0.17282894
144	0x3ce64cc6	0.02811278
145	0x3e278cc2	0.16362289
146	0xbde2e8e4	-0.110795766
147	0x3dfa4397	0.12219923
148	0x3e5a48ce	0.21316835
149	0xbe7693eb	-0.24079864
150	0xbda8f3b5	-0.082496084
151	0x3e65339c	0.22382969
152	0x3cba28ce	0.022724535
153	0x3dccfae4	0.10008791
154	0x3d00488c	0.031319186
155	0x3cff4f08	0.031165615
156	0x3d8a6965	0.06758384
157	0xbe464517	-0.19362293
158	0x3e1a27ac	0.15054196
159	0xbd6d1e21	-0.05789006
160	0x3d3e66d5	0.046484787
161	0xbe3e0e0d	-0.18560047
162	0x3e276718	0.16347921
163	0xbd5cf5a6	-0.053945206
164	0x3d14edcc	0.036359593
165	0xbe11f5a5	-0.14253862
166	0x3e9734eb	0.2953256
167	0x3e07f5ef	0.1327741
168	0x3e313728	0.17306197
169	0xbd81c098	-0.063355625
170	0x3db9b0b6	0.09066908
171	0x3e94e34f	0.29079673
172	0xbd85088c	-0.06495771
173	0x3c2f8fc0	0.010715425
174	0xbe077944	-0.13229853
175	0xbe9a96dc	-0.30193222
176	0x3e471b3b	0.19443981
177	0xbc7213f9	-0.01477527
178	0xbc996263	-0.018723672
179	0x3e93a68c	0.28838003
180	0x3d5c6d4d	0.053815175
181	0x3dd6e2ce	0.10492478
182	0x3e004b34	0.12528688
183	0x3dedc1c6	0.11609225
184	0xbe7ae4cc	-0.24501342
185	0xbd4ae834	-0.049537852
186	0x3b859e51	0.0040777107
187	0x3e6d412c	0.23169392
188	0x3e0341eb	0.12818114
189	0x3e955afc	0.29170978
190	0xbd8e6117	-0.06952112
191	0x3e74e6f1	0.23916222
192	0xbdc984a6	-0.09839754
193	0xbdf08c98	-0.11745566
194	0x3e44ab82	0.1920605
195	0xbe120ca8	-0.1426264
196	0x3de9af58	0.11410397
197	0xbdddbfc8	-0.10827595
198	0x3cb172de	0.021661218
199	0xbdf022dc	-0.11725399
200	0xbd92b2b1	-0.07162989
201	0x3de672d8	0.112523735
202	0xbe2e9e39	-0.17052545
203	0xbddf5fa0	-0.10906911
204	0xbdc7357e	-0.09727
205	0x3d7d113c	0.061784014
206	0xbd4bb3d7	-0.049732056
207	0xbe00aac1	-0.12565137
208	0xbe1a166a	-0.15047613
209	0x3c7612dc	0.015019145
210	0x3d4edc8b	0.050503295
211	0xbdf84081	-0.12121678
212	0x3db523f6	0.0884475
213	0xbe30ba3b	-0.17258541
214	0xbdab1505	-0.083536185
215	0x3e0d44d4	0.13795787
216	0xbda1d8e2	-0.07902695
217	0x3dcf6ce8	0.10128194
218	0x3df45a4c	0.11931285
219	0x3e1880c7	0.14892875
220	0x3db98b38	0.09059757
221	0x3de7515c	0.11294815
222	0x3d17122d	0.03688257
223	0xbd25cdcf	-0.040479477
224	0x3e17084e	0.14749262
225	0x3e0cb219	0.13739814
226	0xbdb9288c	-0.09040937
227	0xbde5b2c1	-0.11215735
228	0x3dc21713	0.09477057
229	0xbe03c6e3	-0.12868838
230	0xbd96bbb3	-0.073600195
231	0x3d16e249	0.036836896
232	0x3d46d140	0.0485394
233	0xbe452c99	-0.19255294
234	0x3d88ad22	0.066736475
235	0xbd5461c5	-0.051851053
236	0x3ca6b437	0.020349605
237	0x3deff57e	0.11716746
238	0x3ca9f81a	0.020748187
239	0x3e1b0188	0.15137303
240	0x3e006cc7	0.12541495
241	0x3e08acae	0.13347122
242	0xbe3fc8d6	-0.18728957
243	0x3d01d53f	0.031697508
244	0xbdf597b9	-0.119918294
245	0xbe698357	-0.22804008
246	0x3d86e9cd	0.06587563
247	0x3e42f56c	0.19038934
248	0x3d71f990	0.059075892
249	0x3d5fe5a7	0.054662373
250	0x3dccefb0	0.10006654
251	0xbdbc9e2c	-0.092098564
252	0x3d38a2b0	0.045077026
253	0x3d7327a1	0.059363965
254	0xbd813d6e	-0.06310545
255	0x3e21dc85	0.15806778

lstm.bias_ih_l0 f4 [128]
0	0xbe119faf	-0.1422107
1	0xbe1ba9bc	-0.15201467
2	0xbd45fa6b	-0.04833452
3	0xbdb6b0f6	-0.08920471
4	0x3d7c0fde	0.06153857
5	0x3d7cd3fc	0.0617256
6	0x3cb44b6b	0.022008618
7	0x3df0e973	0.11763277
8	0xbdd93225	-0.106052674
9	0xbdac8db4	-0.08425465
10	0xbd8f7ffc	-0.07006833
11	0x3c867ed8	0.016417906
12	0xbd1660a0	-0.036713243
13	0x3e0895df	0.13338421
14	0xbd853370	-0.065039515
15	0x3e285935	0.1644028
16	0x3d874919	0.06605739
17	0x3dec12ea	0.11527045
18	0xbdbcd247	-0.09219795
19	0x3e48f305	0.19623955
20	0x3e21790b	0.1576883
21	0x3e1964ad	0.14979811
22	0x3e04dff3	0.12976055
23	0x3cbda6a4	0.02315075
24	0x3d33e776	0.04392191
25	0x3d516c7a	0.051128842
26	0x3d4ea59a	0.0504509
27	0x3d9f731e	0.07785629
28	0x3e056dd6	0.1303018
29	0xbce739a1	-0.028225722
30	0x3d913ea5	0.070920266
31	0xbd842709	-0.06452758
32	0xbde009e1	-0.10939384
33	0xbe25a1b0	-0.1617496
34	0x3e30fe67	0.17284547
35	0x3e201ffd	0.15637203
36	0x3ddd79f7	0.108142786
37	0x3db1d53c	0.08683249
38	0x3dfbce51	0.12295211
39	0x3e1b6c07	0.15177928
40	0xbd936004	-0.07196048
41	0x3bcfb471	0.006338649
42	0x3df5202a	0.119690254
43	0xbda3c2db	-0.0799615
44	0xbbeeab21	-0.0072835837
45	0x3d9740fc	0.07385442
46	0x3d99141a	0.07474537
47	0x3dc12a4f	0.09431898
48	0xbc9f7de0	-0.019469202
49	0xbd2f0313	-0.04272754
50	0x3e256365	0.16151197
51	0xbe0ade05	-0.13561256
52	0x3bfa896e	0.0076457774
53	0x3d516548	0.05112198
54	0x3e5c9ecd	0.21544953
55	0x3db51686	0.08842187
56	0xbe03412c	-0.1281783
57	0x3d9155cf	0.07096445
58	0x3e3433f7	0.17597948
59	0x3df76b1e	0.12080978
60	0x3e17bd6c	0.14818352
61	0x3d4dd423	0.050251137
62	0x3d700ebd	0.058607806
63	0x3d5be424	0.05368437
64	0xba869e68	-0.0010270597
65	0xbe293fa2	-0.1652818
66	0xbe2e9eef	-0.17052816
67	0xbd66a143	-0.056306135
68	0xbd96b4dc	-0.07358715
69	0x3c750881	0.014955641
70	0xbdfe5eb4	-0.12420407
71	0x3dcdec78	0.100548685
72	0xbe1ac60f	-0.15114616
73	0x3e3cb473	0.18428211
74	0x3e196316	0.14979205
75	0xbb625910	-0.0034537949
76	0xbdf72c87	-0.1206904
77	0x3dd4df5a	0.103941634
78	0xbd0e2d17	-0.03471097
79	0x3c9d5eed	0.019210303
80	0xb86c3a9a	-5.632136e-05
81	0x3e2147cb	0.15750043
82	0xbe21fb6a	-0.15818563
83	0xbe1d6091	-0.15368868
84	0x3cebfad6	0.028806131
85	0x3d8f1432	0.06986274
86	0xbd2d2ca9	-0.04227892
87	0x3dbb6584	0.09150222
88	0x3e34bbc8	0.17649758
89	0x3d8fda57	0.07024067
90	0x3d9c3857	0.076279335
91	0x3dd36961	0.10322834
92	0xbd1fbe39	-0.03899977
93	0x3d0b11ec	0.03395264
94	0xbdb5a587	-0.088694625
95	0x3e0920e5	0.13391455
96	0xbdcb2645	-0.09919409
97	0x3d56afcf	0.052413758
98	0xbd0b7d34	-0.03405495
99	0xbd433f59	-0.047667835
100	0xbdcc264e	-0.099682435
101	0xbd5b3508	-0.05351737
102	0x3e073b12	0.13206127
103	0x3d6552d5	0.055987198
104	0xbe068c57	-0.13139473
105	0x3d6c4bbf	0.057689425
106	0xbcbd8896	-0.023136418
107	0x3d42e76d	0.047583986
108	0xbbfda6ba	-0.0077408226
109	0x3df2aad8	0.11848992
110	0x3caf33aa	0.02138694
111	0xbb3e1553	-0.002900441
112	0x3cbf336c	0.02333995
113	0x3e05336b	0.13007896
114	0x3c83a4e8	0.016069844
115	0xbda554e5	-0.08072833
116	0x3e213c9c	0.15745777
117	0xbdceb0e0	-0.1009233
118	0x3e279b8a	0.16367927
119	0x3e3c5d15	0.18394883
120	0xbc702768	-0.014657833
121	0xbd8f2aa9	-0.06990559
122	0x3d20c294	0.039248064
123	0x3e36f794	0.17867881
124	0x3d8338ef	0.064073436
125	0x3db6139b	0.08890458
126	0x3de4d314	0.111730725
127	0xbd3edc64	-0.0465969

lstm.bias_hh_l0 f4 [128]
0	0x3e0298fd	0.12753673
1	0x3db5711d	0.08859465
2	0x3e38c084	0.18042189
3	0xbe3c1498	-0.18367231
4	0x3d39159e	0.04518663
5	0xbddcddee	-0.10784517
6	0xbd0bc149	-0.034119878
7	0x3e1f36ca	0.15548244
8	0x3e28c8d4	0.1648286
9	0x3e41b7e7	0.1891781
10	0x3dfea87d	0.1243448
11	0xbd580617	-0.052740183
12	0x3de192e3	0.110143445
13	0x3d295eda	0.041350223
14	0x3db983e5	0.0905836
15	0xbd855a37	-0.06511348
16	0x3e5563e9	0.20838894
17	0xbd3fcca5	-0.046826024
18	0x3decd801	0.11564637
19	0x3d152de5	0.03642072
20	0x3daa02ed	0.08301339
21	0x3dac11b5	0.08401815
22	0xbe155e86	-0.14586839
23	0x3dd955b2	0.10612048
24	0xbe001c9e	-0.12510917
25	0x3e1d5f3b	0.15368359
26	0xbe1e090f	-0.15433143
27	0xbe0e0c40	-0.1387186
28	0x3bcb4a34	0.006203914
29	0x3de80915	0.11329857
30	0xbd8f7d46	-0.07006316
31	0xbd4854c5	-0.048908968
32	0x3e102427	0.14076291
33	0xbdc15f49	-0.09442002
34	0x3c9b7e40	0.0189811
35	0x3c20ccf3	0.009814489
36	0xbd64acab	-0.05582873
37	0xbceb3709	-0.028712766
38	0x3dc365fc	0.09540936
39	0x3ddc4c08	0.10756689
40	0x3e5fae65	0.2184387
41	0x3e38ed53	0.18059282
42	0xbdbf7d1d	-0.09350035
43	0x3dd62250	0.10455763
44	0x3e152a3c	0.14566892
45	0x3d878df6	0.06618874
46	0x3e6514d1	0.22371222
47	0xbcdf82bd	-0.02728402
48	0x3e1aafd0	0.1510613
49	0x3c774275	0.015091528
50	0x3c2c4192	0.01051368
51	0x3e1949e8	0.14969599
52	0xbdf22294	-0.118230015
53	0x3bd071e5	0.0063612335
54	0x3e439295	0.19098885
55	0xbde18e2a	-0.11013444
56	0x3c73241d	0.014840153
57	0xbc9bfeab	-0.019042334
58	0xbddea160	-0.108706236
59	0x3def71c4	0.11691621
60	0xbdca329b	-0.098729335
61	0x3d903584	0.07041457
62	0x3e217cd2	0.15770271
63	0xbd33085e	-0.04370915
64	0xbe030ef3	-0.12798671
65	0x3da1952f	0.07889783
66	0x3e264051	0.16235472
67	0xbd8af6c6	-0.067853495
68	0x3c142961	0.009043069
69	0x3d9ad9a3	0.07561042
70	0x3a02fc8b	0.0004996738
71	0xbde2d9f0	-0.110767245
72	0x3e453712	0.19259289
73	0xbd81495b	-0.063128196
74	0x3d273103	0.040818226
75	0x3daba2d4	0.083806664
76	0x3de67ed7	0.112546615
77	0x3e02c021	0.12768604
78	0x3e3e0e2b	0.18560092
79	0xbe1d263c	-0.15346617
80	0xbd2aeedf	-0.04173171
81	0x3e269f04	0.16271597
82	0xbe25dc9c	-0.16197437
83	0xbdb5c904	-0.08876231
84	0xbc8489df	-0.016179023
85	0x3e21713c	0.15765852
86	0x3dc0e426	0.09418516
87	0xbde07eb3	-0.10961666
88	0xbd5e7d6c	-0.05431883
89	0xbe14e562	-0.14540628
90	0x3df208bc	0.11818072
91	0xbdbebe36	-0.093136236
92	0xbe1aa897	-0.15103374
93	0x3bd40935	0.006470824
94	0x3d45dd12	0.048306532
95	0xbe0c61f7	-0.13709246
96	0x3e5858ce	0.21127626
97	0xbcbf7446	-0.023370873
98	0x3e370988	0.1787473
99	0x3d18b828	0.037285
100	0x3e3272c2	0.17426589
101	0xbd7e0d07	-0.062024143
102	0x3dfb7fec	0.122802585
103	0x3e468f52	0.1939061
104	0x3df9990e	0.12187396
105	0x3d613453	0.05498154
106	0x3e0bcba2	0.13651899
107	0x3dfef1d8	0.12448472
108	0x3dc49fa2	0.0960076
109	0x3e5511cf	0.20807575
110	0x3e2077d6	0.15670714
111	0xbdd163b1	-0.10224093
112	0xbddd5dff	-0.10808944
113	0xbdc19ca0	-0.09453702
114	0x3ddb5b89	0.10710818
115	0xbdd35bb1	-0.10320223
116	0x3e4e9a28	0.20175993
117	0x3e06904b	0.13140981
118	0x3e2595ea	0.16170469
119	0xbe0967d6	-0.13418517
120	0xbd9f3a70	-0.07774818
121	0xbdbe891f	-0.093034975
122	0x3c3b2e0e	0.0114245545
123	0x3e47afcb	0.19500653
124	0x3defda9f	0.117116205
125	0x3c92d26b	0.0179226
126	0xbd3edd64	-0.046597853
127	0x3d268b19	0.040659998

fc_mu.weight f4 [4, 32]
0	0xbc9412cf	-0.018075375
1	0x3e55c25c	0.20874923
2	0xbdff7b7d	-0.124747254
3	0xbac9c8d1	-0.0015394931
4	0x3e943c9a	0.28952485
5	0x3edec2a1	0.43507865
6	0x3da3e414	0.08002487
7	0xbe1478da	-0.14499226
8	0x3dcd3ec9	0.10021741
9	0x3eb13b53	0.34615573
10	0xbd7781c8	-0.060426503
11	0xbe39de8a	-0.18151298
12	0x3e7249d2	0.23660973
13	0xbdc8c509	-0.098032065
14	0xbd54f04f	-0.05198699
15	0xbe4a44f8	-0.19752872
16	0xbe1ddcc0	-0.1541624
17	0xbe4ecc4b	-0.20195119
18	0xbdd48737	-0.10377353
19	0x3df17833	0.11790504
20	0xbe3099eb	-0.17246215
21	0x3c475a7c	0.012167569
22	0xbe8232b5	-0.2542931
23	0xbde14ef6	-0.11001389
24	0x3e472e3c	0.19451231
25	0x3e88d135	0.26722112
26	0x3df02d44	0.11727384
27	0xbdeed47e	-0.116616234
28	0xbeefe4d7	-0.46854278
29	0xbed1585d	-0.40887728
30	0xbeca5c7e	-0.3952369
31	0xbe99fcfa	-0.30075818
32	0xbdc57444	-0.096413165
33	0x3e5fd239	0.21857537
34	0xbe3516b8	-0.17684448
35	0x3e2827b2	0.16421393
36	0x3d4c33f4	0.049854234
37	0xbe0a004a	-0.13476673
38	0xbe873a29	-0.2641156
39	0xbe8b9e70	-0.27269316
40	0x3e458531	0.1928909
41	0x3db2fcc2	0.08739616
42	0xbe0c921d	-0.13727613
43	0xbe52aad8	-0.20572984
44	0x3e4d50ca	0.2005035
45	0xbde4e904	-0.11177257
46	0x3de64230	0.11243093
47	0xbdeae466	-0.11469345
48	0xbe1b5415	-0.15168793
49	0xbe41338b	-0.18867318
50	0x3e886c0b	0.2664493
51	0x3e471c3e	0.19444367
52	0x3ea41f7a	0.32055265
53	0x3e2b085e	0.1670241
54	0xbd1242e2	-0.035708316
55	0xbe947139	-0.28992632
56	0x3dd1e0b9	0.102479406
57	0x3d69d44a	0.05708722
58	0x3e253d4c	0.16136664
59	0xbdc049c4	-0.0938907
60	0x3d5d581d	0.05403911
61	0x3d193fb1	0.037414256
62	0x3dc45b99	0.09587783
63	0xbe593e64	-0.21215206
64	0x3e196742	0.14980796
65	0xbe95d2e0	-0.29262447
66	0x3e6b62db	0.22986929
67	0xbd3eeff4	-0.046615556
68	0xbea229b9	-0.31672457
69	0xbe570d7e	-0.2100124
70	0x3e1b638a	0.1517469
71	0xbc60ffac	-0.013732832
72	0xbe99758f	-0.29972503
73	0xbe533675	-0.20626242
74	0x3e26a8c1	0.16275312
75	0x3db596b9	0.08866639
76	0xbd9a3bf3	-0.07530966
77	0x3d098112	0.033570357
78	0xbd3f499a	-0.04670105
79	0xbdb7a9c1	-0.08967925
80	0xbce0be91	-0.02743462
81	0x3e8eaa8d	0.27864495
82	0xbdefc131	-0.1170677
83	0xbe183052	-0.14862183
84	0xbe274847	-0.16336165
85	0xbe3f9ef8	-0.18712986
86	0x3c67d4e2	0.014149876
87	0x3e9e462b	0.3091291
88	0xbea6b5fb	-0.32560715
89	0xbe709c14	-0.23497039
90	0x3bd2a5ff	0.0064284797
91	0x3d433729	0.047660027
92	0x3ee157d0	0.44012308
93	0x3eb3c73d	0.35112944
94	0x3ecb104f	0.3966088
95	0x3e688460	0.22706747
96	0xbe8edc1f	-0.27902314
97	0x3d147666	0.036245726
98	0xbe945acb	-0.2897552
99	0x3e96b82b	0.29437384
100	0x3e76bf81	0.2409649
101	0x3e0cfdc4	0.13768679
102	0xbeacea47	-0.3377249
103	0xbe47e164	-0.19519573
104	0x3e79e8e7	0.24405251
105	0x3e60f945	0.21970089
106	0x3d0b3cd7	0.03399357
107	0xbdb8064c	-0.08985576
108	0x3e42b9d5	0.19016202
109	0xbd04482b	-0.032295387
110	0x3ec46d1a	0.38364488
111	0xbcf85728	-0.030314997
112	0xbe21dc69	-0.15806736
113	0xbcd8c018	-0.026458785
114	0x3d880c3f	0.06642961
115	0x3e5c9007	0.21539317
116	0x3ef5741e	0.47940153
117	0x3eb07510	0.34464312
118	0xbe5dd59e	-0.2166352
119	0xbe89290c	-0.2678913
120	0x3d2246c2	0.03961826
121	0x3e6b0f6d	0.22955103
122	0x3ea0fb16	0.31441563
123	0xbe2ce97e	-0.16885945
124	0x3d17fe88	0.037107974
125	0x3e19d9fa	0.15024558
126	0x3c9df78d	0.01928308
127	0xbe5c8434	-0.21534806

fc_mu.bias f4 [4]
0	0xbe0b242c	-0.13588017
1	0xbd06e693	-0.032934736
2	0x3dd6809f	0.10473751
3	0x3cc4bf66	0.024017047

fc_logvar.weight f4 [4, 32]
0	0xbe688404	-0.2270661
1	0x3e9a66fb	0.30156693
2	0xbe3ad5c5	-0.18245609
3	0xbc8e9651	-0.01740566
4	0xbe22bd65	-0.15892561
5	0x3e21665a	0.157617
6	0xbca76ffb	-0.020439139
7	0xbe7735ff	-0.24141692
8	0xbeba7008	-0.36413598
9	0xbe021410	-0.12702966
10	0x3ecf295f	0.4046125
11	0xbdf0df09	-0.117612906
12	0x3da982a6	0.08276872
13	0xbe5397c3	-0.20663361
14	0x3db26a09	0.08711631
15	0x3eb80048	0.35937715
16	0xbdd171d4	-0.10226789
17	0xbdf051a5	-0.117343225
18	0x3d65cc0b	0.056102794
19	0xbe0e1136	-0.13873753
20	0xbdc75774	-0.09733477
21	0x3e607431	0.21919324
22	0xbe2e44f5	-0.17018493
23	0xbb4ecaa3	-0.0031553886
24	0x3d91c54f	0.07117712
25	0xbd12c691	-0.0358339
26	0x3e725010	0.23663354
27	0xbdc428e6	-0.09578113
28	0x3b23a9b7	0.0024972984
29	0x3b8867e9	0.0041627777
30	0x3e4d30e5	0.20038183
31	0x3e23b395	0.15986474
32	0xbe936de8	-0.2879479
33	0x3d756672	0.059912153
34	0xbe6fb121	-0.23407413
35	0x3c4dee7d	0.012569067
36	0xbddff109	-0.10934646
37	0xbdcef8b4	-0.1010603
38	0xbe6787cc	-0.22610396
39	0xbe8e19eb	-0.2775415
40	0xbdfa6a11	-0.12227262
41	0xbe1e08d7	-0.1543306
42	0x3e9bedff	0.30455014
43	0xbe6934f1	-0.22774102
44	0x3e77eb48	0.24210846
45	0xbe0b29c5	-0.13590153
46	0x3da3fe80	0.080075264
47	0x3e439cd2	0.19102791
48	0xbd5b16f1	-0.053488676
49	0x3c8b923b	0.017037502
50	0x3e3c20d9	0.18371905
51	0xbe862361	-0.26198867
52	0x3e0075e7	0.12544976
53	0x3e2584ec	0.16163987
54	0xbeb00de2	-0.34385592
55	0xbcff96fb	-0.031199923
56	0x3e89b6f2	0.2689739
57	0x3d2bd6d1	0.04195291
58	0x3e9f2d4f	0.31089255
59	0xbec4e37c	-0.38454807
60	0xbdb26dd9	-0.08712358
61	0x3d6cedf4	0.057844117
62	0x3e1af23c	0.15131468
63	0xbd7c071c	-0.061530218
64	0xbe3e6770	-0.18594146
65	0x3e01a05b	0.12658827
66	0xbe3606bd	-0.17776008
67	0x3e6d2d82	0.23161891
68	0xbcd0c654	-0.025485195
69	0x3d9b3647	0.07578712
70	0x3dab5d40	0.083673954
71	0xbc59b60e	-0.013288034
72	0xbe780067	-0.24218903
73	0xbe491248	-0.1963588
74	0x3e03a0f1	0.12854363
75	0xbe12f0ba	-0.14349642
76	0x3d5eb646	0.05437305
77	0xbe049a11	-0.12949397
78	0xbda467a0	-0.080275774
79	0x3ec9be8d	0.3940319
80	0x3c2127cb	0.009836148
81	0x3d89024a	0.0668989
82	0x3e73e0dd	0.23816247
83	0xbe84e464	-0.25955498
84	0x393ab923	0.00017807311
85	0x3d7ed96d	0.062219072
86	0xbdddf901	-0.10838509
87	0xbe52fd7b	-0.20604508
88	0xbb83e214	-0.0040247533
89	0x3e2581c9	0.1616279
90	0x3e79079e	0.24319312
91	0xbdc81ab1	-0.09770716
92	0xbc15ace6	-0.0091354605
93	0xbe59cb33	-0.2126892
94	0x3e85f885	0.26166168
95	0x3d71eda5	0.059064526
96	0xbec6b7b0	-0.38812017
97	0x3e342c7e	0.17595097
98	0xbd6df410	-0.058094084
99	0x3eab9bbe	0.3351726
100	0x3bfc783e	0.0077047637
101	0x3e1d4ba3	0.15360884
102	0xbe2a7655	-0.16646703
103	0xbe62f765	-0.22164686
104	0xbe959121	-0.29212287
105	0xbe927afb	-0.28609452
106	0x3eb2cc54	0.34921515
107	0xbe30ed97	-0.17278133
108	0x3e3c0079	0.18359555
109	0xbec576b7	-0.38567135
110	0x3dcbb6b4	0.09946957
111	0x3f120fc5	0.5705531
112	0xbda7787c	-0.081772774
113	0xbd8e5498	-0.06949729
114	0x3e58ac48	0.2115947
115	0xbe41d0bd	-0.18927284
116	0x3e44e874	0.19229299
117	0x3e3d3d6d	0.18480463
118	0xbeb4f167	-0.35340425
119	0xbd76ce33	-0.06025524
120	0x3dd10fe0	0.10208106
121	0x3e88d185	0.2672235
122	0x3e2010e5	0.15631445
123	0xbec4e38b	-0.38454852
124	0xbdc95f3b	-0.09832617
125	0xbcf3c7a0	-0.029758275
126	0x3d05265e	0.032507293
127	0x3d0fd81a	0.0351182

fc_logvar.bias f4 [4]
0	0xbe6e0cf5	-0.2324713
1	0xbe609e68	-0.21935427
2	0xbe6de475	-0.2323168
3	0xbd939235	-0.07205621

fc3_obs.weight f4 [32, 4]
0	0x3e424115	0.1897014
1	0xbf33e61c	-0.70272994
2	0x3e765df9	0.24059285
3	0xbf1a1753	-0.6019184
4	0x3f14b71b	0.58091897
5	0x3e06a596	0.13149104
6	0xbf24662d	-0.6421841
7	0x3f49a107	0.78761333
8	0xbf106677	-0.5640635
9	0xbec966e5	-0.39336315
10	0xbe262a6e	-0.16227123
11	0xbe46675b	-0.19375364
12	0xbe6acc47	-0.22929488
13	0xbed62ec3	-0.4183255
14	0x3e75e53c	0.24013227
15	0xbe09c784	-0.13455015
16	0x3edb23f4	0.42800868
17	0x3c973f51	0.018462809
18	0xbedd9172	-0.43275028
19	0xbf492682	-0.78574383
20	0xbf055f04	-0.5209811
21	0xbf2ee798	-0.68322134
22	0x3f0f05bc	0.55868125
23	0xbc2819be	-0.010260044
24	0x3eefc34a	0.4682868
25	0xbe9c580f	-0.30535933
26	0xbdb8bad3	-0.09020009
27	0xbeac268f	-0.33623168
28	0xbeb24deb	-0.34825072
29	0x3ed6e45a	0.41971093
30	0xbf14d410	-0.5813608
31	0xbe448cee	-0.19194385
32	0x3e75765d	0.23970933
33	0x3e021a44	0.12705332
34	0x3ca418f9	0.02003144
35	0xbf2bee78	-0.6716075
36	0x3eedded5	0.4645907
37	0xbe2322b9	-0.15931214
38	0x3e0d632c	0.13807362
39	0xbf2783d9	-0.6543556
40	0x3f34f592	0.7068721
41	0x3f206af0	0.62663174
42	0xbf3a55e0	-0.72787285
43	0x3f060239	0.5234714
44	0x3e572902	0.21011737
45	0x3dd4e79d	0.10395739
46	0x3efa7e59	0.4892452
47	0xbed4e277	-0.4157903
48	0xbe826285	-0.2546579
49	0xbd465f37	-0.048430648
50	0x3e807bff	0.25094602
51	0xbf0b2ac1	-0.5436211
52	0x3e5638ec	0.20920151
53	0x3ea47b61	0.3212538
54	0x3d44d019	0.04805002
55	0x3ed63513	0.41837367
56	0xbdd4322e	-0.103611335
57	0xbec79031	-0.38977197
58	0xbcec954f	-0.02887979
59	0xbe80a85b	-0.25128445
60	0xbe27ea2f	-0.16397928
61	0xbee67a79	-0.45015314
62	0xbba0d54c	-0.0049082395
63	0xbeaff82b	-0.34369025
64	0x3e173cc3	0.14769273
65	0xbf4581f7	-0.77151436
66	0xbe312f65	-0.17303236
67	0xbe80fa0d	-0.25190774
68	0x3ed2af2e	0.41149276
69	0x3ec753bd	0.38931075
70	0xbe446feb	-0.19183318
71	0x3eb4633c	0.3523196
72	0x3ef76dc5	0.48325935
73	0xbd3a44f0	-0.0454759
74	0xbeb98cab	-0.36240134
75	0x3ebe163d	0.3712634
76	0xbea40ff3	-0.32043418
77	0xbeadf47a	-0.33975583
78	0x3ed46805	0.4148561
79	0x3dad27bb	0.084548436
80	0x3d664c89	0.056225333
81	0xbec68946	-0.38776606
82	0x3e7ea8fa	0.24869147
83	0xbf2301e5	-0.63674766
84	0x3dd084a2	0.10181548
85	0x3e86a416	0.26297063
86	0x3f135631	0.5755339
87	0xbf017d3f	-0.50581735
88	0xbf0c8751	-0.54893976
89	0xbe17cdef	-0.14824651
90	0x3f1b44fe	0.6065215
91	0xbd9be50b	-0.07612046
92	0xbf1bfc7c	-0.60932136
93	0x3cf4b1e4	0.029869981
94	0x3ee73f7c	0.45165622
95	0xbbd42672	-0.0064743096
96	0xbf1ed761	-0.6204739
97	0xbf0e3a9d	-0.55558187
98	0x3e879b9e	0.26485914
99	0xbe964851	-0.29352048
100	0xbf3506f3	-0.7071373
101	0xbe0b5def	-0.13610052
102	0x3de3f841	0.11131335
103	0x3d446eff	0.047957417
104	0xbf1e9dc5	-0.6195949
105	0xbe8bd698	-0.2731216
106	0xbe29bb8f	-0.16575454
107	0xbde7be2e	-0.11315571
108	0x3f412e2f	0.75461096
109	0x3e452920	0.19253969
110	0xbf2e6e14	-0.68136716
111	0x3efb567b	0.49089417
112	0xbed9cedd	-0.42540637
113	0xbe99204b	-0.2990745
114	0x3f15a02b	0.5844752
115	0xbe0a7094	-0.13519508
116	0xbe8df420	-0.27725315
117	0xbcad42e7	-0.021150066
118	0xbe9015d2	-0.28141648
119	0xbefb07ce	-0.49029392
120	0x3a7e5eb1	0.0009703441
121	0x3ed3d3d4	0.4137255
122	0xbec9a3a2	-0.39382654
123	0x3ebd3ebc	0.36961925
124	0xbeae534e	-0.3404793
125	0xbf136511	-0.5757609
126	0xbe119c3b	-0.14219753
127	0xbeb4210a	-0.35181457

fc3_obs.bias f4 [32]
0	0x3e673b5f	0.22581242
1	0x3e89949a	0.26871186
2	0x3dfcf16d	0.12350736
3	0x3e367c00	0.1782074
4	0x3edb7186	0.4286005
5	0xbe594910	-0.21219277
6	0x3edca6ab	0.43095908
7	0xbea3e498	-0.3201034
8	0x3efbe4e5	0.4919807
9	0xbdc4ae49	-0.09603555
10	0x3e2eb142	0.17059806
11	0x3e6e383d	0.2326364
12	0x3f2a5518	0.6653609
13	0x3b0e322c	0.0021697385
14	0x3ee950b0	0.45569372
15	0xbe8b44a5	-0.2720081
16	0xbdb6767a	-0.08909316
17	0x3e688692	0.22707585
18	0xbe7cc6d2	-0.24685219
19	0xbd0713a2	-0.032977708
20	0xbe58da22	-0.21176961
21	0x3d802f90	0.06259072
22	0xbe842dc0	-0.25816154
23	0xbc5163d3	-0.012780148
24	0x3f23cf99	0.63988644
25	0x3ec4e381	0.38454822
26	0xbdadebc9	-0.08492238
27	0x3ee0f821	0.43939307
28	0x3d90b1c7	0.07065158
29	0x3e01973f	0.12655352
30	0xbd81ed06	-0.06344037
31	0x3e29b845	0.165742
