checkpoints/with_easyAtt/zara2/m_vae_model_best.pth (torch, 98009 bytes, 29 tensors)

V_obs_trunc f4 [16, 8]
000000 12 0a 2b bd cf a2 87 b3 bc 5d fa bd 18 0d 94 b3
       -0.04175765 -6.316042e-08 -0.1222491 -6.894169e-08
000010 4f 48 63 3e a2 5d c0 b3 31 ec 9a be a3 31 0b b5
       0.22195552 -8.9577284e-08 -0.30258325 -5.1853766e-07
000020 23 b0 7e bd 90 91 c6 3b fa 0d 31 be 23 cc de bc
       -0.062179696 0.006059833 -0.17290488 -0.02719695
000030 9b ac 8b 3e 7b 14 66 3d 22 e6 9a be 6e d2 a8 bd
       0.27280125 0.056171875 -0.30253702 -0.08243261
000040 02 76 5d bd f6 c5 ad 3c fc 18 0d be 1a 67 bb bd
       -0.05406762 0.02121256 -0.13779062 -0.091505244
000050 4f 0b 30 3e 7e 37 37 3e f4 04 e1 bd 9f eb 73 be
       0.17191814 0.17892262 -0.10987273 -0.23820351
000060 34 dd 10 bd 0b 29 56 3d eb fe af bd 17 a4 48 be
       -0.035367206 0.052285235 -0.085935436 -0.19593845
000070 8d 18 c2 3d 04 29 9b 3e 77 21 24 bd da 13 81 be
       0.09477339 0.3030473 -0.040070977 -0.25210458
000080 7d 6b ce bd 45 4e 2d 3d ce 18 66 be d4 f2 08 be
       -0.100790955 0.04231097 -0.224704 -0.13373882
000090 55 92 3d 3e b1 22 14 3e 2f 78 1c 3d 0a 3b b2 bc
       0.18512852 0.14466359 0.038200554 -0.021756668
0000a0 4e 32 16 be c8 b1 08 3d 39 82 8a be cd 6b cc bd
       -0.14667627 0.03337267 -0.27052477 -0.09981499
0000b0 83 c9 ab 3d 9c da c3 3d 7f 0d 76 3e 28 67 52 3b
       0.08388045 0.09563181 0.24028586 0.0032104943
0000c0 a6 c3 a6 bd 8d df d3 3d 78 84 ee bd 66 41 86 be
       -0.08142786 0.10345373 -0.1164636 -0.2622177
0000d0 80 51 fa bc 4f 3e 14 3e 71 58 06 3e d3 dd 2d 3e
       -0.03055644 0.14476894 0.13119675 0.1697915
0000e0 16 83 99 bd cd a8 12 3e 4b d8 ce bd e4 f4 8b be
       -0.07495706 0.14322205 -0.10099848 -0.27335274
0000f0 f8 c1 1a bd 9a 12 e0 bb cd d7 e4 3d 8d 04 89 3e
       -0.03778264 -0.006838155 0.11173973 0.26761284
000100 b1 47 47 be de 65 9c 3d 39 ef 3c be 22 f6 d4 bd
       -0.19460942 0.07636617 -0.18450631 -0.103985086
000110 49 6c 4b be 20 04 7c bd cf 01 0e 3e d6 bb a5 3d
       -0.19865526 -0.06152737 0.13867877 0.080924675
000120 a5 5c 56 be 21 e7 b4 3d 25 39 d0 bd 53 af e4 bd
       -0.20933779 0.08833147 -0.101671495 -0.11166253
000130 86 b9 7b be 85 a5 a3 bd 7a f3 8f bd de bb a1 3d
       -0.2458249 -0.07990555 -0.07028861 0.07897161
000140 b0 2c c5 bd 54 de 63 3e 6d 22 42 bc 7c eb 27 be
       -0.09627664 0.2225278 -0.011849028 -0.16398424
000150 92 26 c1 bd f2 3f 83 be d7 70 a5 bd 62 1a 1c bd
       -0.09431185 -0.25634724 -0.08078163 -0.038111098
000160 39 ab 0b be e3 11 62 3e ec 7f 8c bb 59 5f 4a bd
       -0.13639535 0.22077136 -0.0042877104 -0.049407337
000170 66 dd 00 be 33 fe 5a be e6 a2 04 be d6 4a 47 be
       -0.12584457 -0.21386032 -0.12952766 -0.19462141
000180 06 cb 93 be 88 14 d1 3d 7a 2c d9 3d 5d 93 26 3c
       -0.28865832 0.10208994 0.10604186 0.01016697
000190 1d 71 f3 bd fd 11 7c bd df 16 80 be 0d 22 b4 bd
       -0.11886809 -0.061540592 -0.2501745 -0.08795557
0001a0 a0 05 75 be 1b e7 36 3e eb 17 33 3e cf ea 26 3d
       -0.23927927 0.17861597 0.17489593 0.040751275
0001b0 30 ab 75 3d ed d3 a6 bd aa 5f 31 bd 79 79 1b be
       0.05997771 -0.081458904 -0.043304123 -0.15183057
0001c0 ba 0c e5 bd 19 97 ae 3e a7 71 d1 3d 0d 29 53 3e
       -0.11184068 0.34099653 0.102267556 0.20621128
0001d0 f3 0a 94 3d 9e a1 89 3d 5d 24 31 3d 9e 8d 8d bd
       0.07228651 0.06720279 0.04324757 -0.06911777
0001e0 08 0d 93 2f 9c 41 00 3f ad 3c 3c b4 7d 93 ea 3e
       2.6748403e-10 0.5010011 -1.7530938e-07 0.4581565
0001f0 10 e0 75 34 4d 8e d7 3e a4 97 d1 b3 86 e3 b6 3e
       2.2898917e-07 0.42100754 -9.759904e-08 0.35720462

conv_layers.0.weight f4 [64, 1, 3]
000000 9a 39 b8 3e ff 79 ee 3e 4a 83 2e be fa 46 16 3f
       0.35981447 0.4657745 -0.1704227 0.5870205
000010 bd 8a 93 3e e8 b2 ac 3e 53 de 41 3e ac 92 60 3d
       0.28816786 0.33730245 0.18932466 0.054827377
000020 37 d4 36 bd 91 9f e4 3e 2b 54 fc 3e 8b 1a 30 be
       -0.044635978 0.4465299 0.49282965 -0.17197625
000030 af c5 d3 be 11 41 06 3f f0 e6 08 3f 7e 91 04 3f
       -0.41361758 0.52443033 0.5347738 0.51784503
000040 0e be a7 3e e0 2e e2 3d fe 20 b9 3e 46 e4 9d 3e
       0.32762188 0.11044097 0.36157984 0.3083822
000050 a8 a1 f8 3e 68 4c 2c bd d9 ab b3 bd f0 cc 14 3f
       0.48560834 -0.042065054 -0.08773012 0.5812521
000060 0e 3f da be 3d cf db be 5a 8c 14 bf b7 44 e8 bb
       -0.42626232 -0.42931548 -0.5802666 -0.0070882696
000070 f8 2a 07 3e 0c 88 7a 3d 5c 1b 14 bd 14 90 b7 bd
       0.13199985 0.0611649 -0.036158904 -0.089630276
000080 e1 89 90 be 41 51 c7 3e 1c ed cc 3e 91 ea 1c be
       -0.28230193 0.3892918 0.4002465 -0.15323855
000090 2c 1c 3f bd f1 82 81 3e a4 e1 3c be 9a 49 9e 3d
       -0.046657726 0.25295213 -0.1844545 0.07728882
0000a0 db 5e 03 3f 73 a4 1d be a4 37 52 be ac 3a 02 be
       0.5131661 -0.15394764 -0.20529038 -0.12717694
0000b0 44 9f 9a be 99 ad 06 bf e8 49 08 3f a1 38 83 3d
       -0.30199635 -0.5260864 0.5323777 0.064072855
0000c0 2b aa 35 3d a6 24 a5 be 22 63 e1 3a 37 b6 a5 be
       0.044351738 -0.32254523 0.0017195682 -0.3236558
0000d0 eb 09 eb 3e 68 db 01 bf f4 51 af be 2a c4 8a 3e
       0.45906004 -0.5072541 -0.34242213 0.27102786
0000e0 bf 0d 3e bd 2b bb 63 3e ac a8 0c bf 16 cc a9 3e
       -0.046399828 0.22239368 -0.5494487 0.33163518
0000f0 c9 c5 65 3e 35 f9 be 3e 40 53 06 3f ff f2 8c 3e
       0.2243873 0.37299505 0.5247078 0.2752914
000100 0d 98 c1 3e 1e 54 b3 be 1f f3 16 be 95 4b 17 bf
       0.37811318 -0.35025114 -0.14741181 -0.59099704
000110 24 a6 b1 3e 6a 31 bc 3e e4 b4 0a 3f c3 4d d1 be
       0.34697068 0.3675645 0.5418227 -0.4087964
000120 ab a8 09 bf c3 c7 fc 3e b5 48 f1 be 9b 58 a1 3e
       -0.5377299 0.49371156 -0.47125784 0.31512913
000130 66 64 94 3e 10 ee 0b bf 2f 87 fa 3d e4 fb f9 3c
       0.28982848 -0.5466013 0.122328155 0.030515619
000140 cd ed 13 bd b2 f1 c4 3e 86 36 69 bd f3 77 8d be
       -0.036115456 0.3846565 -0.056936763 -0.27630576
000150 9d ca 6f 3e 85 2a ca be 63 40 a7 be 80 b8 cc bd
       0.23417135 -0.39485565 -0.3266631 -0.09996128
000160 95 cd f2 3c 3d 8d a8 be 2f 6e 32 bd 8c 0d 5b 3e
       0.029639045 -0.32920256 -0.04356211 0.21391886
000170 f2 4a 07 bf d6 94 bb 3e d8 49 0e bf bc 99 e0 bb
       -0.5284873 0.3663699 -0.55581427 -0.006854264
000180 f7 ae 45 3e 4d 0d 0f 3e 85 2e 0a bf 16 bf 99 3c
       0.19305025 0.13969918 -0.53977233 0.018767875
000190 b3 d5 6e be b7 6c 14 be 39 7c 81 bd 38 8f 80 3b
       -0.23323707 -0.14494596 -0.06322522 0.003923323
0001a0 c0 61 75 3e 34 75 98 be 06 ca 9b 3e 23 c5 c3 be
       0.2396307 -0.2977692 0.3042757 -0.3823634
0001b0 b5 13 3b bd 9e f7 ab 3e b8 a5 27 be c3 bd 2d 3e
       -0.04567309 0.33587354 -0.1637181 0.1696692
0001c0 2c 86 ff be e5 68 9c bd 7e a8 bd be 3e 47 eb 3e
       -0.49907053 -0.076371945 -0.37042612 0.4595279
0001d0 d4 72 92 3e c8 28 86 be 85 aa 4d 3b f6 a9 07 bf
       0.28603232 -0.2620299 0.0031382155 -0.52993715
0001e0 e8 5e 0f be 48 32 8e 3e 52 3b d7 bd 86 5e 0b bf
       -0.14001048 0.27772737 -0.10509361 -0.54441106
0001f0 33 68 af 3e 79 02 e4 3e 79 99 04 3f fc 90 c8 be
       0.34259185 0.44533136 0.5179668 -0.39173114
000200 de 1d d6 be f8 db 91 3e db bb d8 be 0b fa 57 3e
       -0.41819662 0.28488135 -0.42330822 0.21091478
000210 84 b5 c9 be 0b 15 14 bf ec 7e 0d 3f 74 c6 17 bf
       -0.39396298 -0.5784461 0.5527179 -0.5928719
000220 ed 81 00 bf 4b 19 6d 3e 3f 47 1b 3f 93 1e 5c be
       -0.5019825 0.2315418 0.6065559 -0.21496038
000230 db cf 9c be cd cf d6 3e 90 df 38 bd 03 2f 50 be
       -0.3062733 0.41955414 -0.04513508 -0.20330434
000240 fd 76 f0 bd db f0 b2 3e 05 a6 95 3e d1 3d 6a 3e
       -0.11741445 0.34949383 0.29228225 0.22875144
000250 d0 82 84 3e 96 f7 d4 3e 3e 5f 92 3e 6e d5 e7 3e
       0.25881052 0.41595143 0.2858829 0.4528002
000260 b0 43 89 3e ca 2d f5 bd e7 f4 02 bf 61 79 ae be
       0.26809454 -0.11971624 -0.5115494 -0.3407698
000270 a8 89 e8 3d d0 cf 0d bf 62 78 c5 3d bd 31 16 bf
       0.11354381 -0.5539522 0.09642102 -0.58669645
000280 71 2f f4 be 42 8e f1 be 1e 92 f3 3e 0b 1c ef 3e
       -0.47692445 -0.47178847 0.47572416 0.46701083
000290 f9 82 05 bf de fe 8e be f3 b2 af bd 2e 77 12 3e
       -0.52152973 -0.27928823 -0.08579054 0.14303276
0002a0 bb 18 96 3e c9 08 a3 be fd 56 17 3f 95 ba 00 bf
       0.29315743 -0.3184264 0.5911711 -0.502847
0002b0 1e 4b 92 be e3 5e 84 3e 8e 1f bb be fc 50 73 3e
       -0.28572935 0.25853643 -0.36547512 0.23761362
0002c0 17 23 05 be 56 eb 93 3e 73 0d bf bd 05 8d 30 3e
       -0.13001667 0.28890485 -0.09328737 0.17241295
0002d0 49 54 86 3e 8c 6b d3 be 01 71 47 be 87 f5 c7 3e
       0.2623618 -0.4129299 -0.19476701 0.3905451
0002e0 a8 b3 06 3f 1c 50 d6 3d a0 d1 36 be 56 fa b8 3e
       0.52617884 0.104644984 -0.17853403 0.3612849
0002f0 6a 22 c2 be d1 d2 c9 be 54 16 1e bf f1 4f 06 3e
       -0.3791688 -0.39418653 -0.6175282 0.13116433

conv_layers.0.bias f4 [64]
000000 50 c6 65 be 7f 6b 0c be 00 0c 4a 3e ce ea d0 be
       -0.22438931 -0.13712882 0.1973114 -0.40804142
000010 c9 03 1a be cb 88 07 bf 66 f8 a9 be 2e 98 8b 3e
       -0.15040506 -0.52943105 -0.33197325 0.2726454
000020 6f c0 a8 be 1c 1b 22 be 3b 7c f8 be 1b 2f f9 be
       -0.32959315 -0.15830654 -0.4853228 -0.4866875
000030 38 78 e9 3e 73 59 14 3e 7e 34 20 3f 98 a9 07 bf
       0.45599532 0.14487247 0.62580097 -0.52993155
000040 a2 c0 af be 17 18 17 3e 41 23 40 3e 93 46 08 3f
       -0.34326655 0.14755283 0.18763448 0.5323269
000050 09 7e af 3e 00 0b 05 3e 5a 6c 6a 3d 25 f6 a0 be
       0.34275845 0.12992477 0.05723224 -0.31437793
000060 93 e6 45 3d d8 64 03 3d 22 ac e7 be 77 6a b6 be
       0.048315596 0.032078594 -0.45248514 -0.356281
000070 c7 42 69 bb 3f bb e4 be 27 4a c7 3e 63 56 00 bf
       -0.003559278 -0.44674107 0.3892376 -0.50131816
000080 42 0c ed be 82 1a 87 be c2 ad 14 bf 9c 12 85 bd
       -0.46298414 -0.2638741 -0.58077633 -0.0649769
000090 b3 83 8e be fa e5 cd 3e 22 85 e3 be e4 77 e9 bb
       -0.27834854 0.4021452 -0.4443751 -0.007124888
0000a0 05 7a 15 3f cd c9 7c be 51 9e 88 3e 4e 19 e3 be
       0.5838931 -0.24686356 0.26683286 -0.44355243
0000b0 ac 96 e1 3e 55 19 a2 3d a4 fe 96 3e 06 98 a0 be
       0.44060266 0.07914988 0.2949115 -0.31365985
0000c0 aa 8b 58 3e 6c 60 0c bf f4 eb 83 3e be 17 8a be
       0.21147028 -0.5483463 0.25765955 -0.2697124
0000d0 0f a0 55 be 8b 05 6c be 35 02 0c 3f d1 28 b0 3d
       -0.20861839 -0.2304899 0.5469087 0.08601535
0000e0 d1 eb c8 3e ad 53 e7 3e ed ed d7 bd fc 7b 3d be
       0.39242414 0.45181027 -0.105434276 -0.18504328
0000f0 4b 0a 07 3f 16 af bb 3e 1b 25 dc 3e 4a a4 58 3e
       0.5275008 0.36657017 0.4299706 0.21156421

conv_layers.2.weight f4 [32, 64, 3]
000000 9f 0a 87 3d fb 4c cc bb 24 f3 1c 3d 70 e4 38 3b
       0.06593823 -0.0062347627 0.038317814 0.0028212331
000010 a4 ad f2 3c 24 b0 d1 bc 8b 3e fc 3c d9 09 31 bd
       0.029623814 -0.025596686 0.030791542 -0.043222282
000020 c7 ef a7 3c 83 75 0a bd 3a c8 9a 3d f6 65 84 3c
       0.020500077 -0.033803474 0.075577214 0.0161619
000030 b5 37 80 bd d7 62 47 3c cd 1f ab 3b 87 9c a6 bb
       -0.06260625 0.012169561 0.005222297 -0.0050845775
000040 86 62 96 3d 51 be d0 bc 49 9b 22 bd 2d 30 1f bd
       0.073430106 -0.025481375 -0.039698873 -0.038864303
000050 f9 69 1b 3c 6a 5b 1f 3c 3d 2a 4f 3d f8 d7 15 bc
       0.009485715 0.009726385 0.05057739 -0.009145729
000060 8e df 18 bd cb 9e df bc 3e 6a ba bc d4 62 3f 3d
       -0.037322573 -0.027297398 -0.022755738 0.04672511
000070 43 8c 99 3d 69 7f 68 3d 74 24 d3 bd a1 d4 2a 3d
       0.07497456 0.056762133 -0.10309687 0.041706685
000080 c2 92 2d 3c 04 f3 c4 bc a2 30 24 3d 14 82 52 bb
       0.010594072 -0.02404166 0.040085442 -0.003212099
000090 70 ab 7b 3d 0c d2 21 bd 10 61 cb bb fb 29 56 bd
       0.061442792 -0.039506957 -0.006206639 -0.05228613
0000a0 c7 81 b8 3c a5 9e 74 bb 5d ce 23 3d fc ff 8d 3d
       0.02252282 -0.0037326005 0.039991725 0.06933591
0000b0 9d 4f 7b 3d ed 46 ff 3b 7a a6 d4 3c 67 ca 78 3d
       0.061355222 0.0077904374 0.025958288 0.0607399
0000c0 80 6f 4d 3c 50 c9 2b bc ab 24 62 bd 4e a4 7d bd
       0.012538791 -0.010485008 -0.05521075 -0.06192427
0000d0 58 59 d3 bc bf 32 38 3d 0d 11 e1 bc 13 7b 24 3d
       -0.025799438 0.04497027 -0.02747395 0.040156435
0000e0 67 d9 7b 3d b7 e9 4c 3d 68 78 96 3c 18 ad 57 3d
       0.061486628 0.050027575 0.018367961 0.05265531
0000f0 ba c7 99 bc 01 3a 18 3d d4 65 a2 3c ec eb 38 bd
       -0.018771995 0.03716469 0.019823946 -0.045146868
000100 00 cd 9b 3c 90 ad cb 3c bc 83 a9 3d 73 81 19 bd
       0.01901865 0.024863034 0.082770795 -0.037476968
000110 8b 1c 46 3d bc 63 8b 3c f6 2a 45 bd d0 40 0c 3d
       0.048367064 0.01701533 -0.048136674 0.034241498
000120 fd 03 59 3d 2b 5c 5f bd ed be 84 3d a6 05 71 3d
       0.05298232 -0.054531258 0.06481729 0.058843277
000130 91 8e 45 bc 5b 66 6c bd 0a 2f 1a bc 75 6c e7 bb
       -0.012057916 -0.0577148 -0.009410629 -0.0070624896
000140 d4 87 37 3c 5d 05 25 3c b7 32 56 bd 31 06 ba bc
       0.011201818 0.0100720795 -0.05229446 -0.02270803
000150 fc 5d 1a bd f5 6f 81 bd 48 7f c4 3d 00 9f 80 3c
       -0.037687287 -0.06320182 0.095945895 0.015700817
000160 ca 63 08 bd ce 7b b0 3c 08 56 81 bd 23 75 9e bd
       -0.03329829 0.02154341 -0.06315237 -0.07737186
000170 7f ed 70 3d 17 d4 0d 3d 1c 33 2f 3d e4 db c8 bc
       0.058820244 0.034626093 0.04277335 -0.024518915
000180 43 8c 09 bd 26 3c 77 bd 8a 43 2e bc 72 d9 46 bd
       -0.03358103 -0.060360096 -0.01063622 -0.048547216
000190 1c 41 40 bd 4e ee 68 bc 43 3a b1 3c f6 86 a0 3d
       -0.046937093 -0.0142169725 0.021634227 0.07838242
0001a0 c6 72 ae 3d 43 40 40 3c ac 9f 88 3d f7 de fb bc
       0.08517985 0.011734071 0.0667108 -0.030745966
0001b0 67 54 88 bc e2 1e 83 3c 29 6c a6 3d bb 6d 5e 3c
       -0.016641809 0.016005937 0.08126099 0.0135759665
0001c0 0b fc c2 bb fe 99 85 3d af c5 1b bc 53 c1 5a 3d
       -0.005950456 0.06523512 -0.009507581 0.053407025
0001d0 53 be 56 bd d1 8c 0f 3d 19 fd 83 bc 0f 01 07 3d
       -0.0524276 0.035046402 -0.016111897 0.032959994
0001e0 71 a9 3d bd ef 9f ab 3c 07 dc 82 3d e5 08 70 3d
       -0.04630417 0.020950286 0.06389623 0.058602232
0001f0 af 5d b7 3d 16 0b ea 3c d6 ae a0 bd 13 2c a6 3c
       0.089534156 0.02856974 -0.07845847 0.020284688
000200 56 34 92 3c 23 ee 84 3c 38 e6 10 3d 49 2b 4e 3d
       0.017847221 0.016226834 0.035375804 0.05033425
000210 f5 11 1a 3d a5 4a 00 3c ec cf dc 3c cd 1f 83 3d
       0.03761478 0.007830297 0.026954614 0.0640255
000220 1c ee 08 bd e8 4d ea 3c 51 28 37 bd 83 4f 8e 3d
       -0.033430204 0.028601602 -0.044716183 0.069487594
000230 4e 2e 5e bd cf 1d 8e 3c 7e 61 84 3d 04 1a 27 3d
       -0.05424338 0.017348198 0.06463908 0.040796295
000240 56 4a 6c 3d 6c ef 5e 3c 50 a5 f6 bc b0 03 41 3c
       0.05768808 0.013606887 -0.030108124 0.011780664
000250 07 6e 5a bd a5 4f 50 bc c4 23 11 bd c9 4c 10 3d
       -0.053327587 -0.012714301 -0.0354345 0.035229478
000260 62 c1 a2 3d e4 5e 2f 3d 2a 0e 29 bd 91 a9 fa bb
       0.07947041 0.042815104 -0.041273274 -0.0076496084
000270 1d 32 63 bd 2a a0 22 3d 9d 6e 89 bd 62 ff 12 3d
       -0.055467714 0.039703526 -0.06710551 0.035888083
000280 38 3e f9 b9 be 52 0f 3d bf dd 44 bd 0d 9d 12 3d
       -0.00047539338 0.03499102 -0.048063036 0.035794307
000290 e7 35 00 bd 5d 15 91 3d 46 3b 07 3e 7d 06 0b 3d
       -0.031301405 0.07084153 0.13206205 0.033941735
0002a0 6f eb 38 3d d3 f5 50 3d a3 56 da bc e0 54 74 3d
       0.045146402 0.051015686 -0.02665264 0.059651256
0002b0 a8 13 da bc d9 d7 9d 3b 03 e0 9e bc a1 e9 ba 3b
       -0.026620701 0.004816991 -0.019393926 0.0057041203
0002c0 32 1e 54 3d ca 28 8b bc 19 f3 4a bd 31 03 20 3d
       0.05178661 -0.016987223 -0.049548242 0.039065544
0002d0 35 2e 28 bd ad 6c 78 3d 9a c1 cf 3c 17 c5 92 3c
       -0.04105969 0.060650516 0.025360871 0.017916245
0002e0 46 8a 65 3a 3c b8 12 bd f5 0a 4d bd a2 d9 bd bc
       0.0008756261 -0.03582023 -0.050059278 -0.023175064
0002f0 ce 08 33 bd 56 89 82 3d 43 e0 ed 3c a7 d6 60 3c
       -0.04370957 0.06373851 0.0290376 0.013723052
000300 d7 af e4 bc ee 5c b9 bc c4 6d 2d 3d 4b 8d c4 3c
       -0.027915878 -0.02262732 0.04234101 0.023993155
000310 e1 cf f8 3c af 09 45 3c 0f e6 a5 3d bd 91 03 3d
       0.030372562 0.0120262345 0.08100521 0.03212141
000320 77 ec 5a 3d de e5 5d 3d 12 3e f6 bc e9 f8 3e bd
       0.053448167 0.054174297 -0.030058894 -0.046624098
000330 27 66 3a bd b0 01 9d 3c 90 73 07 3d 20 61 07 bd
       -0.045507576 0.019165844 0.033069193 -0.03305161
000340 44 f2 ab 3d 3a 7d 1f 3d 80 13 24 3d 2d 7b 6d 3c
       0.08395818 0.038937785 0.04005766 0.014494699
000350 f4 a5 21 bc 71 80 17 3d 82 18 81 bd 40 59 ce 3c
       -0.009866226 0.036987726 -0.063035026 0.025189042
000360 5c bc a0 3c 01 b8 ea 3c 5a a0 03 3c 92 e5 04 bd
       0.019621067 0.028652193 0.008033836 -0.032445498
000370 0e 02 39 bd 81 3c 40 bd f1 bf d9 3c 63 ce c3 bd
       -0.045167975 -0.0469327 0.026580783 -0.095608495
000380 a8 62 62 bd ca cc ce 3c 39 2b 13 bd 16 d4 93 bd
       -0.055269867 0.025244135 -0.035929892 -0.072181866
000390 53 e6 46 bd f7 ac d0 3c 22 7f 52 3d a6 99 a6 3d
       -0.048559498 0.025473101 0.051390775 0.08134775
0003a0 60 1b a4 3d 04 86 83 bd 22 ab b0 3d 3b 24 47 3d
       0.08013034 -0.06422046 0.08626391 0.048618536
0003b0 b0 a3 78 bc a7 bf 55 bc ab 93 5c bd 30 bd 07 3d
       -0.015175745 -0.013046182 -0.053851765 0.033139408
0003c0 f4 a8 ab bc 40 29 97 bd 5e 57 17 bd f6 b8 b7 3b
       -0.020954587 -0.07380915 -0.036948554 0.005606766
0003d0 7e 6c 96 bc 35 4b 92 bc 36 c3 26 3d 5f a1 54 3d
       -0.01836228 -0.017858127 0.04071351 0.051911708
0003e0 cb 00 fa 3c 97 e6 a2 3d c8 db 7d 3d 4b 6b fd 3c
       0.030517956 0.07954138 0.061977178 0.03093495
0003f0 53 a0 b5 3c 2d d6 73 3d 49 f6 69 bd 3e 9a 3c 3d
       0.022171175 0.059530426 -0.05711964 0.046045534

conv_layers.2.bias f4 [32]
000000 b9 51 ac 3c f5 01 7d bd 09 fa 34 3d e1 d7 35 3d
       0.021035062 -0.061769444 0.044183765 0.04439533
000010 bd f8 44 3d af fe 86 3d 01 8a f3 bc 9f 02 cc 3d
       0.048088778 0.06591546 -0.029728891 0.099614374
000020 e6 0a 83 3d 2b 74 a0 3c a1 11 99 3d f5 f4 9a bc
       0.06398563 0.019586643 0.074740656 -0.018915633
000030 42 cf 49 3d 1e 32 bd 3d 52 aa cc 3d 0e 4f 00 bd
       0.049269922 0.09238075 0.099934235 -0.031325392
000040 4c 2f ba bc 72 e7 3e bd 76 39 a6 bd d3 f1 a1 3d
       -0.022727631 -0.046607442 -0.081164286 0.079074524
000050 a9 0d 91 bc 5e 4c 0a 3c 14 be 7c ba f7 3e 82 3d
       -0.017706709 0.008441059 -0.0009641361 0.06359666
000060 81 9e 59 3d 0c 0e 39 bc e0 dc 4b 3d 58 04 da bc
       0.053129677 -0.011294853 0.04977119 -0.0266134
000070 a3 ac 9f 3d 4f ef c9 3d 5e d2 17 3d 55 4a 43 3d
       0.077966 0.098600976 0.037065856 0.04767831

lstm.weight_ih_l0 f4 [128, 32]
000000 2f f0 0b 3e 73 b7 af 3d 8c 57 52 bd 6a 6e d7 bd
       0.13665842 0.08579912 -0.051353022 -0.10519107
000010 57 94 80 3e 3c 8e 12 3b 5a 3d cd 3b 58 b0 18 3e
       0.25113174 0.002236261 0.006263417 0.1491102
000020 9a 4e be 3c c2 d6 94 3c c5 2e 17 3e 40 1e e2 3c
       0.02323084 0.01816881 0.14763935 0.027602315
000030 83 00 9f 3d e7 0c ba bd 0a a8 3e 3e b1 5e 85 3d
       0.077637695 -0.09084492 0.1861879 0.065122016
000040 8f 8f 23 bd 07 cc b0 bd 6b 94 47 3c 73 69 da 3d
       -0.03993183 -0.08632665 0.012181382 0.10664644
000050 3f e5 40 3e 2c 37 22 be 01 59 00 3e 92 a7 ab bb
       0.1883745 -0.15841359 0.12533952 -0.005238482
000060 c4 cf 8a 3c ec b4 fc 3d ba 4e c2 3d 94 02 08 3e
       0.016944773 0.123391956 0.09487672 0.13282233
000070 ef c9 a3 bd ca 8e 29 3e 96 f5 02 3d 18 f8 25 3e
       -0.079975 0.16558376 0.03197249 0.16207922
000080 bf 30 cc bd f0 a0 fb bc 5a 65 3a 3c ed 8a 43 3e
       -0.09970235 -0.03071639 0.011376703 0.19095965
000090 f3 f2 84 bd 88 d8 4b bd 03 9c f6 3d 22 39 87 bd
       -0.064916514 -0.049767047 0.120414756 -0.06602694
0000a0 c6 18 b4 3d 17 bb 09 3e f9 24 6e 3d ff 11 ff 3d
       0.08793788 0.13450275 0.05814073 0.12454604
0000b0 b0 ef 07 bd 2c 2d 9a bd 78 3d 14 be 4c 2c 5a bd
       -0.03318757 -0.07528147 -0.14476573 -0.0532649
0000c0 11 6f 32 be 47 53 2d be b7 5e 0c 3c de 5b fe 3d
       -0.17425181 -0.16926299 0.008567504 0.12419866
0000d0 6b 7c 1b 3e 7e a0 1b 3e 6a b3 d7 3d 3b ba e6 bc
       0.1518418 0.15197942 0.105322674 -0.028164973
0000e0 a8 4a 9c 3c 75 bb 16 3c 96 c6 c6 bd c8 5b 85 3d
       0.019078568 0.009199967 -0.09705846 0.065116465
0000f0 ad a8 06 3e 67 94 67 3c 4e 8b 17 3e d5 a3 a7 bd
       0.13150282 0.014134503 0.14799234 -0.08185545
000100 1e 67 c3 3c b9 5e de bd f4 77 cc bd 15 ae 39 be
       0.023852881 -0.10857911 -0.09983817 -0.18132813
000110 2e fc 9a 3d c4 d2 85 3d 0a 07 82 3c 79 7f 01 3e
       0.07567631 0.06534341 0.015872497 0.12646283
000120 12 c8 d2 3d 4c 82 22 3e 0f 88 13 3e 88 ae dc bc
       0.10292067 0.15870017 0.14407371 -0.026938692
000130 fb 29 2d 3e 8b e6 99 bd 9b 48 ac 3c 89 6f 76 3e
       0.16910546 -0.07514676 0.021030715 0.24065985
000140 2a e7 e5 3b 43 93 81 3d d0 9d 9e bd 30 44 49 3e
       0.0070160823 0.06326916 -0.07744944 0.19654918
000150 2a 44 ab bd 38 fc 9f bc a6 8c 0f 3c d7 df 84 bd
       -0.08362611 -0.019529447 0.008761561 -0.064880066
000160 33 74 1b be 80 05 12 be 7f 72 0e bd 49 36 f3 3d
       -0.15181045 -0.1425991 -0.03477716 0.118755884
000170 12 83 17 3e 56 0f b5 3d 3e 31 98 bd 52 b5 ba 3d
       0.14796093 0.08840816 -0.07431267 0.09116615
000180 df f5 9a bd 82 3b 32 bc 2c 40 e0 3d d4 56 23 3e
       -0.075664274 -0.010878446 0.1094974 0.15951091
000190 51 52 88 3d d9 70 8a bd 43 0f 44 3e 09 ec 3f bd
       0.066563256 -0.06759805 0.19146447 -0.04685596
0001a0 38 1b 0a 3d b9 4f 81 3c 16 42 fb 3d 6a 7e aa bc
       0.033717364 0.015785085 0.12268464 -0.020812232
0001b0 83 b7 49 3e e8 ee 59 3e f0 e2 ff 3c 9b 85 0b be
       0.1969891 0.21282542 0.031236142 -0.13625185
0001c0 5c cd df 3c a4 72 a4 bd c5 da 49 3d 14 34 95 bd
       0.027319603 -0.080296785 0.0492809 -0.07285324
0001d0 8d 07 04 3e 06 aa b4 3d f1 68 29 3e c6 52 3f 3e
       0.12893505 0.08821492 0.16543938 0.1868392
0001e0 8d 46 d4 bd 38 5e 04 3e b3 df ab 3c 9b ff 5a 3c
       -0.10365019 0.12926567 0.020980692 0.013366605
0001f0 55 2b e6 bd 1a 51 64 bd 9e 93 42 3e c3 50 99 bc
       -0.11238734 -0.055741407 0.19001624 -0.018715268
000200 0f 99 1e 3e e9 6b a8 3d d6 88 0b be 38 97 84 be
       0.15488075 0.08223707 -0.13626418 -0.2589662
000210 5d c6 c9 3c 08 4d 30 3d dc 1e 6d bd d8 41 d8 bb
       0.02463072 0.043042213 -0.057890758 -0.006599646
000220 c6 93 5e bd 70 e2 23 be 93 10 3d 3e f6 5f 10 be
       -0.054340146 -0.16004348 0.18463354 -0.14099106
000230 03 90 aa 3c 35 39 87 3c c8 e6 14 3e 38 e1 df bd
       0.020820623 0.01650677 0.14541161 -0.10931629
000240 a9 7c 92 bd e1 a9 08 3e 44 e6 51 3e 8e 0a dd bc
       -0.07152683 0.13346054 0.20497996 -0.026982572
000250 35 ec 2a 3d d4 f2 60 bd ae 3b 21 be b8 7e d9 bd
       0.04172917 -0.05491908 -0.15745422 -0.10619873
000260 5a 70 33 3d 81 67 6d bd 55 2c 5a 3d 0b a7 ed bd
       0.04380832 -0.057960037 0.053264935 -0.116041265
000270 a6 f2 7f 3d 33 68 c0 3d c0 84 eb bd 58 d3 0d bd
       0.062487267 0.093948744 -0.114999294 -0.03462538
000280 9c 94 27 3c d4 66 e5 3d 4f 22 a1 bc 8a bc 02 3e
       0.010228302 0.112012535 -0.01966968 0.12767234
000290 e1 5e 31 3d a9 34 92 3d 58 a0 72 bd 3d 24 12 3e
       0.043303374 0.071389504 -0.059234947 0.14271636
0002a0 bf 4a 15 3e 98 3b c9 3d 12 ea 9d 3d b9 bc 1e 3d
       0.14579295 0.0982582 0.07710661 0.0387542
0002b0 a4 3a b5 3d 1f 3d 61 3c 09 4d 15 be 54 b8 a6 bc
       0.088490754 0.013747483 -0.14580168 -0.020351566
0002c0 3d e0 f1 bc 74 5a 1e be ee 66 9f 3c 60 23 18 3e
       -0.02952587 -0.15464193 0.01945826 0.14857244
0002d0 1b d2 29 bd 0c 0b 86 3d 4d 4f f8 3d 5b 01 75 bc
       -0.041460138 0.06545076 0.121245004 -0.014953936
0002e0 9b 9b 01 be e5 1e af 3d 6e 77 22 be 36 fb 05 be
       -0.12657015 0.085508145 -0.15865871 -0.1308411
0002f0 be a3 df 3d e0 6a e3 bc bf 29 1b 3d 94 29 e0 bd
       0.10919903 -0.027760923 0.03788161 -0.109454304
000300 6d 87 cd 3d 6b 4c 2d be b3 bd 9e bd e2 7a fd 3d
       0.10035596 -0.16923682 -0.07751026 0.12376954
000310 e3 55 18 bd 2e 89 dc bd 27 0a 1f 3e bd 5e 0f bd
       -0.037191283 -0.107683524 0.15531217 -0.03500246
000320 cf cc 4d 3e 97 5e 23 be 60 12 1e 3e 14 6b 0e be
       0.2009766 -0.15954052 0.15436697 -0.13908035
000330 c4 ef 38 3e 9f 39 78 bd 79 97 0f ba 13 d1 bf 3d
       0.18060213 -0.060601827 -0.0005477588 0.093660496
000340 de 80 ee bd 53 87 97 bd 3b e0 70 3d a5 c9 d0 bc
       -0.11645673 -0.07398858 0.058807593 -0.025486777
000350 5d 3a 8a 3d ba 02 2a 3d ac 88 e2 3d 2c 35 4c 3e
       0.06749413 0.041506507 0.11061224 0.19942158
000360 56 12 69 bc d4 31 28 3e e9 6c 23 bd 6e 69 a4 3d
       -0.014225563 0.16425258 -0.039898787 0.080279216
000370 38 b2 ae 3c 97 4e 2d bd 7d b0 c6 bd 8b 08 03 be
       0.021325216 -0.042311277 -0.09701631 -0.12796228
000380 64 1d 44 3e 8d 9e f0 3c a2 ac a7 bd 4a 8e eb bd
       0.19151837 0.029372478 -0.08187224 -0.11501749
000390 6d 25 80 bd bb db 5c 3e 36 b0 bc 3d 8e a3 f1 3d
       -0.062571384 0.21568196 0.09213297 0.11798774
0003a0 d4 db db 3d 10 3f f7 bb 87 96 9e 3d c1 7b 0f 3e
       0.10735288 -0.0075453594 0.077435546 0.14012052
0003b0 be 75 35 3d 5d 7a 09 3d 7c 55 ef 3d 14 ed ab 3c
       0.04430174 0.03356396 0.11686227 0.020987071
0003c0 2c 29 4d 3d 79 a3 06 be 0d 68 3e 3e 42 21 3f 3b
       0.050088093 -0.13148297 0.1859438 0.002916411
0003d0 f4 52 ba 3d ee 62 84 3c 3a 3c 21 be 2f 55 75 3d
       0.09097853 0.016160455 -0.15745631 0.05989569
0003e0 45 f2 26 3d 06 f4 b5 3d bd 17 38 3d 34 50 00 3d
       0.04075839 0.088844344 0.044944514 0.031326488
0003f0 bd 38 9e bc ad c3 5c 3e 00 1e 56 3e 99 c3 31 3e
       -0.019314164 0.2155902 0.20909882 0.17359771

lstm.weight_hh_l0 f4 [128, 32]
000000 9d 19 70 3d d4 60 2f be 39 47 09 3d 3f 1c 57 be
       0.058618177 -0.17126781 0.03351519 -0.21006869
000010 03 37 2a 3e 78 cc 09 be 2a ce c3 3c a2 04 7d 3c
       0.16622548 -0.13456905 0.023902018 0.015442999
000020 0f ab 19 3e 69 e0 fe 3d 50 9a f8 bd 87 46 1a 3e
       0.1500666 0.124451466 -0.12138808 0.15065967
000030 93 ba 04 3e 8a df 9d 3d e2 e5 3c be 4c bd 6b bd
       0.12961797 0.07708652 -0.18447068 -0.057553574
000040 07 b6 f2 bd e8 fe 1e be 4d 10 02 3e e6 d5 ef bd
       -0.11851125 -0.15526927 0.12701531 -0.1171072
000050 53 70 4a be a4 ba e6 bd fb 58 e3 bd fd 4e cd 3d
       -0.19769411 -0.112660676 -0.11100956 0.100248314
000060 e6 b4 1c bc 68 86 d9 bd 80 36 2e be 51 a0 9b bd
       -0.009564614 -0.10621339 -0.17012978 -0.07598937
000070 e8 d5 3a 3d c7 54 f1 3d a1 c7 9e 3c 36 51 ed 3d
       0.045614153 0.11783748 0.0193823 0.115877554
000080 6a 18 08 be 40 98 28 3e a6 20 c8 3d 23 a2 20 be
       -0.13290563 0.16464329 0.09771852 -0.1568685
000090 31 48 66 3d 59 18 0a 3d 25 1e 12 bd 3d f8 d0 3b
       0.05622119 0.033714626 -0.03567328 0.0063772486
0000a0 9f 8e 86 bd 64 9a 37 3e c3 13 07 be 5d a1 f0 bd
       -0.065701716 0.17929989 -0.13191132 -0.117495276
0000b0 e6 4a 35 be dd 41 b3 bd 62 84 e9 3d fd c1 03 3d
       -0.17704353 -0.08752797 0.11402203 0.032167424
0000c0 35 a6 19 bd 19 73 19 3e 94 d8 13 be 41 4a b0 bd
       -0.037512023 0.14985313 -0.14438087 -0.08607913
0000d0 09 d6 6d bd 30 33 eb bd 77 e1 b2 3d 39 f8 c0 bc
       -0.058065448 -0.114843726 0.0873441 -0.023555862
0000e0 1d 37 c0 3d 0d 1a e6 bc e7 40 a7 3d dc 7d 62 3d
       0.09385512 -0.028088594 0.08166676 0.05529581
0000f0 33 0a ca bd ed 1c a5 3d 08 ba e7 bb 8b 89 cc b9
       -0.098652266 0.08062158 -0.007071737 -0.0003901239
000100 15 89 aa 3d e6 31 f0 3d 53 cb 0a bd 9c ae 56 be
       0.083269276 0.11728267 -0.03388531 -0.20965046
000110 2d 58 23 3c 5f d1 64 bd bd a5 81 3d ec 15 5e bc
       0.009969753 -0.055863734 0.0633044 -0.013555031
000120 f8 ed b1 bc 65 4a 34 bd d0 68 cb 3d ab 9f b0 3d
       -0.021719918 -0.04401626 0.09932101 0.08624204
000130 b0 ba cc 3c 11 f6 be 3e c1 4a a9 3c c0 80 b6 3d
       0.024991363 0.3729711 0.020665528 0.08911276
000140 1e 70 12 be e7 c1 47 be c9 87 f9 3b 45 d6 cd bd
       -0.14300582 -0.19507562 0.007615064 -0.10050634
000150 84 bf 3f be 4b c9 11 be 05 06 f0 bc 0a 12 b2 3d
       -0.18725401 -0.14236943 -0.029299745 0.08694847
000160 38 32 d7 bd b6 82 62 3a ef 3e a1 3d ec 61 39 3e
       -0.10507625 0.0008640693 0.07873332 0.1810376
000170 24 ef 13 bd fe 2f a7 3c b8 43 9c bd 48 e1 2c 3e
       -0.036116734 0.020408627 -0.07630104 0.16882813
000180 fe 3a 61 3d 37 bb 14 3e 61 a4 2a 3e a6 a2 24 3d
       0.0549879 0.14524542 0.16664268 0.040194176
000190 f8 87 97 bd f3 f8 11 3d 9a 7c 35 3d 3e c9 2c 3e
       -0.07398981 0.035637807 0.044308282 0.16873643
0001a0 39 8b 18 3e e6 0f 71 bd 96 d8 42 3e 11 57 47 be
       0.14896859 -0.058853053 0.19027933 -0.19466807
0001b0 17 7b 62 3d b0 27 2d 3d b5 42 b2 3d 7c 47 51 3d
       0.05529317 0.042274177 0.087041296 0.051093563
0001c0 37 b9 4a 3d 7a 23 56 3e 94 85 9f bd b5 d6 00 be
       0.04949304 0.2091197 -0.0778915 -0.12581904
0001d0 ee 4a 90 bd 3c 2b 0b be 35 9c e5 bd 5c 3b a2 bd
       -0.07045542 -0.13590711 -0.11211435 -0.07921478
0001e0 4c 3d f1 3d 80 d1 b6 3c db af 08 be b1 5d 1e 3b
       0.117792696 0.022316694 -0.13348334 0.002416473
0001f0 1f fb a2 3d 35 c3 9e 3d 94 a4 63 3d eb df cc 3d
       0.07958054 0.077520765 0.055576876 0.100036465
000200 ed 45 5e 3d 98 2a df bd 33 57 a3 bd da 0e c3 bc
       0.054265905 -0.10896796 -0.07975616 -0.023810793
000210 52 a4 2b be 6f 3b 95 bd 1b b1 32 be d2 06 fc bd
       -0.16761902 -0.07286727 -0.17450373 -0.12305988
000220 68 24 05 3e 78 8a 1d 3e 1b 74 e1 3d 5b 4b 9d 3d
       0.13002169 0.15384853 0.110084735 0.076803885
000230 29 0c ea bd f7 2b 1c 3e 6d e5 0a 3e 85 24 18 3d
       -0.114281006 0.15251146 0.13564081 0.037144203
000240 83 56 12 3e 3c 46 2e be 2e 45 3c bd 24 79 11 3d
       0.14290814 -0.1701898 -0.045964412 0.03551592
000250 f3 20 96 3d 1c 0c 26 be 06 57 a5 3d 8f a0 12 be
       0.07330503 -0.16215557 0.08073239 -0.1431906
000260 fa fc 0e be 6e 79 a6 3d 07 bf 23 3d ff dc 22 3e
       -0.1396369 0.081286296 0.0399771 0.15904616
000270 5c 61 bb bd 1d 4b 42 bd b7 e8 07 be 8f ee 84 bb
       -0.09149429 -0.047434915 -0.13272367 -0.0040567587
000280 92 64 04 be 9e 59 3a 3e cc 88 b2 3c b4 ed fc bd
       -0.1292899 0.18198249 0.021793745 -0.12350026
000290 ce 8e 00 be 31 11 46 bd 03 6a 06 3e 33 32 78 3b
       -0.12554476 -0.04835624 0.13126378 0.0037871718
0002a0 e7 3e 06 3e ef 57 18 bd 2d fe 23 bd de 78 df 3d
       0.13109933 -0.037193235 -0.040037323 0.109117255
0002b0 8d fa eb 3d ea 20 43 3e ce e0 20 3e 1a a5 3a 3c
       0.11522398 0.19055524 0.15710756 0.011391902
0002c0 79 1f e0 bd c6 f4 0b 3d 66 44 b2 bd be 77 37 3e
       -0.10943503 0.03416898 -0.08704452 0.17916772
0002d0 73 f8 01 3e 3a e0 f9 3d a8 5b eb bd 9f ed 8c bd
       0.12692432 0.12200971 -0.114920914 -0.0688126
0002e0 fd 7e 62 bd 4d 33 8a 3d b6 ee 18 3d 82 62 bf 3c
       -0.055296887 0.06748066 0.037337027 0.023362402
0002f0 6c 17 1e bd d6 a1 39 be 5a d4 4f be 0e 36 2e be
       -0.038596556 -0.18128142 -0.2029585 -0.17012808
000300 91 19 9f bd 5b 31 9b bd 22 a1 44 3e 79 8b 56 be
       -0.07768548 -0.07577773 0.19202092 -0.20951642
000310 c4 97 81 bd f7 88 1a bc e8 f7 90 3d fd 12 7b bc
       -0.06327775 -0.009432069 0.07078534 -0.015324351
000320 18 50 09 3e c1 9e 00 bc 23 e5 7b bd b8 5d 90 3d
       0.1340946 -0.00785035 -0.06149782 0.070491254
000330 8e 67 7c 3d 07 57 95 3c 09 7d f2 3a eb 64 27 3e
       0.061622195 0.018229974 0.0018500398 0.16347091
000340 f9 5b 2c be 54 76 ea bd 7b da 7e 3d b3 64 9e bd
       -0.1683196 -0.114483505 0.062220078 -0.077340506
000350 b3 50 d7 bd 64 12 0e be 22 b7 b6 3d 22 ff c5 bd
       -0.10513439 -0.13874203 0.089216486 -0.09667803
000360 00 be 22 3e 53 be e1 3d 86 4c f9 3d 77 51 50 3d
       0.15892792 0.110226296 0.12172799 0.05085894
000370 bb 74 b8 3d 17 b7 1e 3c 4e d2 97 bc 51 2d 24 be
       0.090066396 0.009687207 -0.018532898 -0.16032912
000380 42 bb c4 3d f0 af d4 3d 90 05 12 be 36 4b 90 3c
       0.09606029 0.1038512 -0.14259934 0.017613988
000390 0e 12 9e bd 6c 94 4f 3d 4e 47 a6 bd d1 9d 3e 3e
       -0.077182874 0.050678656 -0.08119069 0.1861489
0003a0 67 d6 cd bd 05 c8 4a 3e cf 47 6c 3b b7 18 a3 3c
       -0.100506596 0.19802864 0.0036053543 0.019909246
0003b0 11 5f 37 be e9 e0 ce bb c7 76 4c 3c 28 37 c5 bc
       -0.17907359 -0.0063134325 0.012479491 -0.024074152
0003c0 90 ba 84 3d 42 b1 ea bd b7 7e 9b 3d b7 e8 24 3e
       0.064808965 -0.114595905 0.07592528 0.16104399
0003d0 c8 34 0e 3e b7 c0 6c 3c a0 74 17 bd 32 9b 67 3e
       0.13887322 0.014450244 -0.036976457 0.22617796
0003e0 e5 87 85 3e 85 d4 13 3d 97 e4 9b 3b 9e b9 89 bd
       0.26080242 0.036091346 0.0047574746 -0.06724857
0003f0 d5 5c af bd 51 a4 c6 3d f1 92 0c 3e 20 5f b9 bd
       -0.08562628 0.096993096 0.13727929 -0.09051347

lstm.bias_ih_l0 f4 [128]
000000 62 36 84 bd 00 c1 79 bd 5c 81 da 3d d7 2b 21 3e
       -0.06455685 -0.060975075 0.106692046 0.1573938
000010 a7 70 2f bd 81 dd 08 3e a2 fb 19 bd bf f0 61 3e
       -0.042832043 0.13365747 -0.03759349 0.22064494
000020 22 56 9f 3d 30 c3 d1 3d 84 24 21 3e f8 57 22 3d
       0.077801004 0.10242307 0.15736586 0.039634675
000030 0a c2 0d 3e 3c 91 06 3e ef 61 60 3e e6 e6 e5 bd
       0.13843551 0.1314134 0.21912359 -0.11225681
000040 4b ce 82 bc 67 7a c6 bb 3e 20 e8 3d 3a 47 92 bd
       -0.015967509 -0.006057072 0.11334275 -0.07142492
000050 0a bd 4c 3e 2a 5c c3 3d b6 f3 02 be 4d ca 70 ba
       0.19993988 0.09539063 -0.12788281 -0.00091854186
000060 88 a7 f7 bd 74 5e 9d 3d 1b 6b 88 3c 5a ed ec 3d
       -0.12092501 0.07684031 0.016652634 0.11568709
000070 3e a7 11 3b 41 99 a5 bd 2b b9 b1 3d ab dd 61 3d
       0.0022224928 -0.080858715 0.08677896 0.05514304
000080 49 94 1c 3e c1 2a 10 be 6b b7 49 3e 1a 96 5c bd
       0.15290941 -0.1407881 0.19698875 -0.053854086
000090 76 79 a5 3d 90 9f d5 3d ca 97 ea 3b 4e 7b c2 bc
       0.080798075 0.10430825 0.007159208 -0.023740437
0000a0 a0 e2 b5 3d 2c 56 97 bc 7a 6e e8 3d e6 1c d8 bb
       0.08881116 -0.018473707 0.11349197 -0.006595242
0000b0 c1 55 09 3d 70 a6 82 bd 4a 6b d4 bd f8 c8 10 bd
       0.033529047 -0.06379402 -0.10372026 -0.03534791
0000c0 25 12 24 3e 31 57 87 3c 6e fa 4c bd 4c 36 26 3e
       0.16022547 0.016521068 -0.050043516 0.1623165
0000d0 53 25 e1 3d 4a 7e 3c bc 4b 3f 7e 3e 9c f0 1b bd
       0.10993447 -0.011504719 0.24828832 -0.03807126
0000e0 12 c3 a1 3d ea e0 e2 bd 65 d3 a9 3d 2b 88 96 bc
       0.07898535 -0.11078055 0.082922734 -0.018375477
0000f0 77 68 58 3d 0d fe 0d be 1e 26 41 bd ea 61 03 bd
       0.052834 -0.13866444 -0.047155492 -0.0320758
000100 16 2b c4 3d b4 ff d7 3d e4 64 08 3e 17 f8 a3 bd
       0.095785305 0.105468184 0.13319737 -0.08006304
000110 27 a1 e2 3d 62 2b 5f bc a3 ee 1d 3c b2 cb 08 3a
       0.110658936 -0.013621183 0.009639415 0.0005218341
000120 db 84 e5 bd 03 2e 16 3d 12 07 0e 3d 1d 40 56 bd
       -0.11206981 0.036664974 0.03467471 -0.052307237
000130 f1 c7 50 bb 53 ee 46 bc f7 38 b6 3d 7a 2f 0c bd
       -0.0031857456 -0.012141782 0.08897584 -0.034224965
000140 f7 a0 ab 3c 0d 75 4c 3e 73 18 0a bc dd 79 98 bd
       0.020950777 0.19966526 -0.008428681 -0.074451186
000150 2a e4 8e 3d 6f 85 7d bd 26 4b 56 3c da 00 4e bc
       0.069771126 -0.06189483 0.01307944 -0.012573445
000160 04 73 33 3a b4 0b 09 bd ff 40 16 3e 55 c4 5d 3c
       0.0006845447 -0.033458427 0.14673232 0.013535579
000170 b7 7e b7 bd f4 eb 2d be d5 ca df 3d d0 30 bf bd
       -0.08959716 -0.1698454 0.10927359 -0.09335482
000180 7f 69 e3 3c 00 3d 99 bd 9a 41 de 3d ee 42 83 bc
       0.027760265 -0.07482338 0.10852356 -0.016023125
000190 3e 84 24 3e 28 63 1d 3d eb 4b d1 3c b6 94 6e 3d
       0.16066071 0.03842464 0.025548896 0.05824729
0001a0 a3 9b 10 be e7 d7 c0 3d e5 b1 3a 3e c0 48 bf bd
       -0.1412187 0.0941618 0.18231924 -0.09340048
0001b0 d3 0b da bd 9d 98 fe 3d 8c 1a 60 3e c0 d3 0c be
       -0.106467865 0.124314524 0.21885127 -0.13752651
0001c0 b4 5e f3 bd f5 38 d6 3d 1f f0 07 3e 3e 32 3b 3d
       -0.118832976 0.104600824 0.13275193 0.04570221
0001d0 0e fa 2a 3e 45 82 16 be e8 b1 b7 bd b1 92 89 3d
       0.16696951 -0.14698131 -0.0896948 0.06717432
0001e0 28 2b c2 bd e4 4a 4a 3d 8b 0d 94 3d 05 f3 22 3e
       -0.09480888 0.049387828 0.072291456 0.15913017
0001f0 b0 b7 d0 3d 45 d4 09 be 7e 09 64 3d 30 73 f4 bc
       0.101912856 -0.1345988 0.055673115 -0.029840082

lstm.bias_hh_l0 f4 [128]
000000 50 03 a6 3c 8a cb 1d be 07 88 9f bb d9 cf 50 3e
       0.020265251 -0.15409675 -0.0048685106 0.20391788
000010 d2 15 11 be fd df ba bd 1c cf f5 3c f2 06 ab bd
       -0.1416848 -0.091247536 0.030005984 -0.08350934
000020 f1 be 80 3d cd 35 20 be 95 ee 14 bc 55 e7 65 bd
       0.06286419 -0.15645523 -0.0090900855 -0.05612882
000030 c4 6f a3 bb b8 9a 94 bd cb a2 b4 3c a1 de 67 bb
       -0.0049876887 -0.07256073 0.022050282 -0.00353805
000040 8a cd 08 3e 54 84 ad bd 39 2d 0e be d5 e1 3f 3e
       0.13359657 -0.08472505 -0.13884439 0.18738492
000050 a0 01 0b bd e8 06 d5 3d 20 23 31 3c 53 9a 95 bd
       -0.033937097 0.10401708 0.010811597 -0.07304826
000060 bb a1 06 bc 4e c1 88 3e 25 2a 73 3d cd f4 84 3d
       -0.0082172705 0.2670998 0.059366364 0.064920045
000070 82 43 47 bc b8 52 b8 bd 52 3f 2c 3c 62 6b 03 3e
       -0.012162091 -0.09000152 0.010513144 0.12833932
000080 0e 9e d0 bd 99 4f 46 3e 95 2d 3b bd c0 b9 d9 bd
       -0.101863965 0.19366302 -0.045697767 -0.10631132
000090 67 8d a8 bd f3 88 0a be ab 67 37 3e eb 4b 5b 3e
       -0.08230095 -0.13528804 0.1791064 0.21415679
0000a0 ce 75 41 bd 54 2b 22 3e 94 43 ad bd ff b8 78 bd
       -0.047231488 0.15836841 -0.08460155 -0.0607233
0000b0 60 a6 5a bd 82 1c aa bd 7f 9d 6f bc 9a 34 34 3e
       -0.053381324 -0.08306219 -0.014624952 0.17598191
0000c0 96 3b 9b 3d 71 13 99 3d 83 a5 11 bc 3e 97 10 be
       0.075797245 0.07474411 -0.008889559 -0.14120194
0000d0 5a b8 d9 3d cf 5a 4c bd 3d d2 b9 3d 5b 2a d1 bc
       0.106308654 -0.04989129 0.09073303 -0.025532892
0000e0 50 f5 a6 3d 1d a8 4a bc a1 0e 22 be 38 a4 9f bd
       0.081522584 -0.012369183 -0.15825893 -0.07794994
0000f0 38 7f f9 3d f8 7a 5d 3d f5 3f 50 3e 8b 26 2f 3e
       0.12182468 0.05407235 0.20336898 0.17104547
000100 4b 14 cf 3d 5b a9 0a bd 6d 26 1e bd a8 19 90 3d
       0.101112925 -0.033852916 -0.038610864 0.070361435
000110 35 3d 49 be b8 e1 88 3d a9 61 1d be 73 0b 25 3e
       -0.19652255 0.066836774 -0.15369286 0.16117649
000120 d9 8b 4b 3e f9 99 01 be 55 f0 ef 3d 20 bd b7 bd
       0.19877566 -0.12656392 0.117157616 -0.089716196
000130 44 3f ac 3d 04 90 22 bc 41 3a f4 bc 5e ff 88 3c
       0.084105045 -0.009922031 -0.029812934 0.016723331
000140 c7 80 af 3d 4c de 02 be 1a 7b a1 bd 76 ea 03 3e
       0.08569484 -0.12780112 -0.07884808 0.12882408
000150 39 12 2c 3d 1d 2e d7 3d ae 00 04 be 7b dd d1 bd
       0.042009566 0.10506842 -0.12890884 -0.10247322
000160 3e 71 0f 3e b7 eb f4 3d 01 52 03 3e 9c f6 76 bd
       0.14008042 0.119590215 0.12824251 -0.06029378
000170 78 b1 ad 3c 8b d7 df bc f6 02 94 3d 75 3f 16 be
       0.021202788 -0.027324459 0.07227127 -0.14672644
000180 16 e1 a7 bd c1 1b ba bd 53 1c 69 bd b7 df 13 3e
       -0.081972286 -0.09087325 -0.056911778 0.14440809
000190 e0 22 b0 bb 9b 95 e1 bd 92 e3 31 3e be cb d6 bd
       -0.005375251 -0.11014863 0.17371967 -0.104880795
0001a0 e7 49 05 be 44 0f 0c be ad 5c 40 bb af 8f 39 3e
       -0.13016473 -0.13677698 -0.0029352114 0.18121217
0001b0 7c 13 43 3e ed 54 2c 3e e0 f7 c0 3d d0 59 6c bd
       0.19050401 0.16829272 0.094222784 -0.05770284
0001c0 6d 8b f5 3c 57 58 b1 3b 48 18 96 3d 87 b7 f1 3c
       0.02997371 0.0054121423 0.0732885 0.029506458
0001d0 53 d1 6d 3e 71 37 d5 bd d6 f0 31 3d 00 6f 4c 3e
       0.23224382 -0.10410965 0.04344257 0.19964218
0001e0 fb c5 8c bd d9 d8 3a bd 3d 79 09 3e 7d 4f f7 bc
       -0.06873699 -0.04561696 0.13425155 -0.03018927
0001f0 37 f6 59 3d d8 ba d2 bd 67 49 35 3d e6 25 b0 bd
       0.053213324 -0.10289544 0.044259455 -0.086009786

att.in_proj_weight f4 [96, 32]
000000 cc 67 14 3e dc b4 bc 3d 78 a9 3c be fd b6 50 be
       0.1449272 0.09214184 -0.18424022 -0.20382304
000010 5b 08 59 3e 61 65 7e be bc eb 6c 3e 60 36 9b 3d
       0.21194594 -0.2484336 0.231368 0.075787306
000020 28 a6 92 bd 2a c6 1d be 0f 49 9e 3d 14 4a 8d bc
       -0.07160598 -0.15407625 0.077287786 -0.017247237
000030 ba b2 86 3d 8f f2 7c 3e 57 60 9e be ca 62 02 3e
       0.06577058 0.24701904 -0.30932876 0.12732998
000040 36 25 5d be 72 28 c9 3d fe e6 39 be 3f 2b e1 bc
       -0.21596226 0.098221675 -0.18154523 -0.027486442
000050 f6 6a 82 bd 57 bf ac bd 3c ac 64 3e 64 de 3e 3e
       -0.063680574 -0.08434933 0.22331327 0.18639523
000060 93 fd 59 3e 9d b8 47 3e 92 36 8d be f3 b0 e8 3c
       0.21288137 0.19504018 -0.27580696 0.028404688
000070 3e 36 f5 bd 45 9f d1 bd dd 82 05 be 50 c7 4b be
       -0.119732365 -0.102354564 -0.13038202 -0.1990025
000080 78 0a fc bc 7a 2a 3f be cf 41 b8 3d b9 ab 34 3e
       -0.03076671 -0.18668547 0.08996927 0.17643632
000090 e1 98 e1 bd 10 7a 95 3c 26 f4 15 3c 7d 39 2a bd
       -0.110154875 0.01824668 0.009152448 -0.04155873
0000a0 8f f9 26 bd e5 fd 41 3e a0 c1 ae bd 17 56 c0 bc
       -0.04076534 0.1894451 -0.08533025 -0.02347855
0000b0 ff 28 cd bd 73 41 80 be 3a a1 7b bd 75 b7 59 3e
       -0.10017585 -0.25049934 -0.061433055 0.2126139
0000c0 8a ae e7 3d 7b 88 c6 3d 82 3f 56 3e 4b 89 48 be
       0.113125876 0.09694 0.20922664 -0.19583623
0000d0 0f 31 b5 3d 10 12 45 3e af b4 db 3d e8 23 64 bc
       0.08847248 0.19245172 0.10727822 -0.013924576
0000e0 8b c3 11 3c f6 83 a2 bd 20 f3 ea bd 35 05 93 3d
       0.008896719 -0.07935326 -0.11472154 0.071787275
0000f0 ee 6f 56 bc ab db 8c be 94 00 af bd cd d4 35 bd
       -0.01308821 -0.27511343 -0.08545032 -0.044392396
000100 65 51 34 be 25 33 3a be 80 e3 79 be ab bf 80 3d
       -0.17609175 -0.18183573 -0.2440319 0.06286558
000110 e4 03 3b bd 1d 39 43 3e 8c 52 c8 3c 7b 79 a5 3d
       -0.045658007 0.19064756 0.024453424 0.08079811
000120 b8 ba 54 bd 93 71 82 3b 72 7c 2b 3d ad 7e 72 be
       -0.05193588 0.0039808243 0.041866727 -0.23681135
000130 ad d4 83 bd 07 a3 30 3e cf 44 8f bd 91 b2 ed 3d
       -0.06437049 0.1724969 -0.06995546 0.116063245
000140 b8 80 c6 3d ad 13 31 be 73 cc e6 3d c6 c6 a7 bd
       0.0969252 -0.17292662 0.11269464 -0.0819221
000150 5e ad a3 bd c7 7b f5 bd 1c ed 29 3e 28 1d 92 be
       -0.079920515 -0.11986499 0.16594356 -0.2853787
000160 e4 c7 9b 3d ee bc 4e 3e c5 f9 ef 3d 2d 5d 04 3e
       0.076064855 0.20189258 0.11717562 0.12926169
000170 18 2e 31 3e 28 18 4c be c6 5a 45 bd 3d 5e d2 bd
       0.1730274 -0.1993109 -0.04818227 -0.10271881
000180 c0 ac 04 bd 5e 70 0a 3e b5 80 ab 3c 45 ae 42 3e
       -0.03239131 0.13519427 0.020935396 0.19011791
000190 46 e8 3e bd fa 85 6f 3e d9 2b 70 bd e4 06 0d 3c
       -0.046608232 0.23390952 -0.058635566 0.0086076
0001a0 be ec 3b bb 53 b2 6d be 82 fb 82 3d 70 04 7f bd
       -0.0028675045 -0.23212557 0.063956276 -0.06226009
0001b0 00 da 70 be da ee fe bd 3d f1 d5 bd 1c 8e 81 bd
       -0.2352066 -0.12447901 -0.10446403 -0.06325933
0001c0 83 0e df bd 3f d3 40 3c ee 44 23 3e cd 22 9a be
       -0.1089144 0.011769115 0.15944263 -0.30104676
0001d0 d3 ad 01 be 3b dd 11 be 0f 19 9f bd fc de 32 be
       -0.12663965 -0.14244549 -0.077684514 -0.17467874
0001e0 b6 be 19 3d a5 ed 84 bd f4 a1 81 3c 27 d3 63 3b
       0.03753539 -0.064906396 0.015824296 0.0034763308
0001f0 ca 79 40 3c 38 e4 b0 3d 17 15 d2 3d 8a 8e 57 3e
       0.011747787 0.08637279 0.10257929 0.21050468
000200 70 a0 85 bd 70 59 a4 bc d0 fb 27 be 30 c9 46 bd
       -0.06524742 -0.020062178 -0.16404653 -0.04853171
000210 0d bb 18 be 1c 2e d3 bd 03 59 65 3e 13 8a 1d be
       -0.14915104 -0.10311529 0.22397237 -0.15384702
000220 21 3e d1 bd a3 cd 6d bd 9b 29 a2 3c 9e e5 0a 3e
       -0.10216928 -0.05805744 0.01979523 0.13564155
000230 2d 93 5a 3e fc da d5 bd 82 43 35 bd 75 6e d8 bd
       0.21345206 -0.104421586 -0.044253834 -0.10567943
000240 84 bb e7 bb 95 1f 3e 3e 30 fa 22 3e 4a 0d 50 bd
       -0.007071914 0.18566735 0.15915751 -0.050793923
000250 20 7c 5f 3e 47 31 94 bc 77 49 ae ba 4f 92 23 3e
       0.21824694 -0.018089904 -0.0013297041 0.15973781
000260 35 1c 27 3d 2a 8d f1 3d 5c 7f 08 be 68 96 0b 3c
       0.040798385 0.11794503 -0.13329834 0.008519746
000270 eb 0f 4f 3c 67 31 d5 3d 21 65 86 be aa ae c2 3d
       0.0126380725 0.104098134 -0.2624903 0.09505971
000280 37 7a 6e 3b 6a 7e 57 3e 28 27 67 3d 9d 04 74 3e
       0.0036388764 0.21044317 0.056433827 0.23829885
000290 65 d1 1a 3e 10 23 ef bd c5 2e ca 3b ab 80 15 be
       0.1511894 -0.116766095 0.006170126 -0.14599864
0002a0 b8 e8 20 3e 0c 61 55 be e5 55 ec bd b0 14 5c be
       0.15713775 -0.20837802 -0.115398206 -0.21492267
0002b0 28 80 ab bd c7 4e 81 bd 84 0a 9d 3c cc 4c 43 be
       -0.08374053 -0.06313854 0.019170053 -0.19072264
0002c0 93 6c 5b 3e a4 60 33 be 4d 03 7f 3e f7 f0 55 be
       0.21428137 -0.17517334 0.24903603 -0.20892702
0002d0 cd d1 f5 3c b1 ca 82 bd f4 fc 53 be 88 59 6e 3d
       0.030007267 -0.063863166 -0.20701963 0.058190852
0002e0 81 64 de bd 72 06 15 be 2c 60 97 bd 3b f6 50 bd
       -0.10859013 -0.1455324 -0.0739139 -0.051016074
0002f0 16 53 0d 3e 03 dc 46 be cb 5c 48 3e ac 41 08 3d
       0.13801226 -0.19419865 0.19566648 0.033265755
000300 52 4a 0b 3d c6 3f 4b 3d 39 31 ea 3d dc 9f 0d 3e
       0.034006424 0.049621366 0.1143517 0.13830513
000310 75 75 5b be c3 46 38 3d ab f6 24 be 2c 54 88 3e
       -0.21431525 0.04498936 -0.16109721 0.26626718
000320 b0 ea 32 be df d5 06 3e 8e 87 3a 3c 4f 3b 7a 3d
       -0.17472339 0.13167523 0.011384858 0.061091717
000330 07 ea 46 bd 22 36 21 3e 18 0a ab 3a a1 55 35 3e
       -0.04856303 0.15743306 0.0013049273 0.17708446
000340 ce 58 74 3e 35 9e 39 be a6 c0 88 bc c7 68 df bd
       0.23862001 -0.18126757 -0.016693424 -0.109086566
000350 85 3e d5 bd 57 4f 8b 3e 14 4a 08 3d 42 f7 7a bd
       -0.10412315 0.2720897 0.03327377 -0.06127096
000360 41 a3 92 be 1b 72 d4 3c c1 d2 31 3d 08 22 21 3e
       -0.28640178 0.025933316 0.04341388 0.15735638
000370 f1 f0 2d be e1 24 e6 bd c4 84 1a 3e 04 6b 8a 3e
       -0.16986443 -0.11237503 0.15089709 0.2703477
000380 f1 8a 11 be 39 ac 0e 3e 66 2b c8 bc 8e 8e ce bd
       -0.14213158 0.13932885 -0.024434756 -0.10085784
000390 f5 26 19 be 26 7e d6 3c 44 8d 94 bd ec 0a bb bd
       -0.14956267 0.0261832 -0.07253507 -0.091329426
0003a0 40 53 b6 bc 59 47 78 be 5f 53 99 3d d5 34 c3 3d
       -0.022256494 -0.24245967 0.07486605 0.09531561
0003b0 44 7b 17 3e 4d ab ea 3c 5c 0d 5d 3e f4 e8 51 3e
       0.14793116 0.028646136 0.21587127 0.20499021
0003c0 6b 76 2a 3d a5 c7 1d be d5 c2 e9 bd e3 23 aa bd
       0.04161684 -0.1540819 -0.114141144 -0.08307626
0003d0 a7 30 c0 bd 18 3b a0 bd d0 c2 eb bc f4 15 f8 bb
       -0.0938428 -0.07823771 -0.028779417 -0.0075709764
0003e0 29 f1 8e 3c f4 f5 a0 bd fa 70 db bd 17 aa fe 3d
       0.017448978 -0.07859412 -0.10714908 0.12434786
0003f0 14 1e d5 3d 7c cb d1 bd ab 69 31 bb f9 8a 57 3e
       0.104061276 -0.1024389 -0.002707104 0.21049108

att.in_proj_bias f4 [96]
000000 8f 52 ba 3b ea 74 2e 3d bb 17 6a 3c 78 3a 81 ba
       0.0056861113 0.042591967 0.014287884 -0.0009859344
000010 c4 19 3a bc e7 a9 02 3c 98 13 12 3d 90 dd a1 bc
       -0.011358682 0.007975078 0.035663217 -0.01975897
000020 df 47 26 3b 46 f0 90 3c dd e1 01 3d 35 9f b1 3c
       0.0025372428 0.017692696 0.03170954 0.021682361
000030 a0 4e b2 3b c7 3e 8c bc 0f 47 25 3c 42 17 8c 3d
       0.0054415017 -0.017119778 0.0100877425 0.068403736
000040 43 64 d2 3c 65 50 b5 bd 7a ac cf 3c f8 95 3e 3d
       0.025682574 -0.08853225 0.025350798 0.04652974
000050 6e fb 38 3d c1 61 92 3c 92 f0 48 bc ed db 8b bd
       0.045161657 0.017868878 -0.012264388 -0.06829057
000060 6d 62 84 bb 2f a5 84 bc d8 c2 9d 3d e2 bc d4 3c
       -0.0040400536 -0.016192047 0.07703179 0.025968973
000070 01 fc 72 3d 6c 16 6d bc 65 6a 25 3d df c2 2d 3d
       0.05932236 -0.014470678 0.04038467 0.04242217
000080 6e d9 8e 3a ad f0 c8 b9 86 2e 49 38 34 e6 04 ba
       0.0010898539 -0.0003832629 4.7965463e-05 -0.00050697033
000090 bc 64 d4 39 49 62 71 ba 6b c9 0f 3a 29 e5 00 ba
       0.00040510844 -0.0009208066 0.00054850307 -0.000491696
0000a0 fd 05 6d b9 6e 4a 79 36 a9 e9 82 39 97 98 91 b9
       -0.00022604312 3.7147215e-06 0.00024969623 -0.00027770243
0000b0 73 fe 9d 38 bb bf b1 b8 53 e8 fc b9 c2 ba 44 3b
       7.533738e-05 -8.47573e-05 -0.0004823828 0.0030018543
0000c0 76 c3 b2 37 7f 15 b7 39 0f a9 4b b9 ec fa 68 39
       2.1310272e-05 0.00034920496 -0.00019422568 0.0002221872
0000d0 e6 c5 80 b9 cf f2 74 b9 24 ea ed b8 d4 77 01 39
       -0.00024561508 -0.00023360107 -0.00011344653 0.00012347038
0000e0 42 a9 19 b9 3f 01 be b8 69 9b ad 35 9e 11 90 b9
       -0.0001465427 -9.060138e-05 1.2934735e-06 -0.00027478946
0000f0 3d 7f 2d 39 20 01 55 b8 ee cc ef 39 ac 34 89 b9
       0.00016545966 -5.0784205e-05 0.00045738317 -0.0002616992
000100 75 36 50 bc 5e 5d f2 3c 94 17 49 3d be 89 7d 3b
       -0.012708296 0.029585537 0.04909475 0.0038686837
000110 ef 60 89 bc 5d 4e 81 bc ee 9d 01 3d 74 0f 09 bd
       -0.016769854 -0.015784437 0.031644754 -0.033462003
000120 3f 23 e1 bb a7 f4 57 bc 83 07 c4 3b f5 64 31 3d
       -0.0068706567 -0.013180888 0.005982341 0.04330917
000130 06 1f 4d 3c b1 de eb bc 45 ad 4d 3d 9d 8b f5 bc
       0.012519604 -0.028792711 0.05021407 -0.0299738
000140 92 0e 54 3c b3 2c d7 3c 0c 39 7c bd b7 96 27 3b
       0.012942927 0.026266431 -0.06157784 0.002557201
000150 e0 70 54 bb 9b c2 4f 3c 20 80 23 3c 68 1c b0 ba
       -0.0032415912 0.012680675 0.009979278 -0.00134362
000160 b9 17 61 3b 3e 8a 91 bc 96 8a 8f bc 7d 8c 15 3b
       0.0034346415 -0.017766114 -0.017522138 0.0022819333
000170 bd 53 2c 3d 28 2d ef bb 68 d6 a8 3b 05 50 1c bc
       0.042072047 -0.007299084 0.0051525123 -0.0095405625
