checkpoints/with_easyAtt/zara2/s_vae_model_best.pth (torch, 98009 bytes, 29 tensors)

V_obs_trunc f4 [16, 8]
0	0xbd16cc6d	-0.03681605
1	0xb3edff88	-1.10826534e-07
2	0xbdeaec7d	-0.11470888
3	0x332be5bf	4.0022993e-08
4	0xbe6260f6	-0.221073
5	0x346c3246	2.1997502e-07
6	0xbe9cd231	-0.30629113
7	0xb499e1ff	-2.8662905e-07
8	0xbd65e6e9	-0.056128416
9	0x3ba91548	0.0051600076
10	0xbe2a6fc7	-0.16644202
11	0xbccbe13e	-0.024887677
12	0xbe8db5a0	-0.2767763
13	0x3d5b4e53	0.053541493
14	0xbe9d921d	-0.30775538
15	0xbd9bebe1	-0.0761335
16	0xbd4c3019	-0.049850557
17	0x3c95696f	0.018238751
18	0xbe0a2ee8	-0.13494456
19	0xbdadc2ba	-0.08484407
20	0xbe33124c	-0.17487448
21	0x3e31319f	0.17304085
22	0xbde2be03	-0.11071398
23	0xbe69b533	-0.22823028
24	0xbd068bd1	-0.032848183
25	0x3d3c80ed	0.04602139
26	0xbdad675a	-0.08466978
27	0xbe3d4071	-0.18481614
28	0xbdc5a4bf	-0.096505634
29	0x3e9aa6ff	0.30205533
30	0xbd26b4b8	-0.04069969
31	0xbe889418	-0.26675487
32	0xbdc2120d	-0.09476099
33	0x3d1b6fa5	0.03794827
34	0xbe655451	-0.22395445
35	0xbe02f082	-0.12787059
36	0xbe41a246	-0.18909559
37	0x3e19b767	0.15011369
38	0x3d136aaa	0.035990395
39	0xbd197e09	-0.037473712
40	0xbe0fae1d	-0.14031263
41	0x3cf6846f	0.030092446
42	0xbe8c0025	-0.2734386
43	0xbdc476f4	-0.09593001
44	0xbdb7d6f2	-0.089765444
45	0x3dcdd496	0.10050313
46	0x3e719423	0.23591666
47	0xbbf5c7e3	-0.007500635
48	0xbda1d4cb	-0.07901915
49	0x3dc1ca60	0.09462428
50	0xbdf4cd19	-0.11953182
51	0xbe8343cd	-0.25637665
52	0x3cd9e25f	0.0265972
53	0x3e283053	0.16424684
54	0x3e054c9e	0.13017508
55	0x3e1b70a7	0.15179692
56	0xbd95568a	-0.07291897
57	0x3e08ff32	0.133786
58	0xbdd4f0e7	-0.10397511
59	0xbe8d7ba0	-0.2763338
60	0x3d0bf8c9	0.034172807
61	0x3c97862f	0.0184966
62	0x3de392f6	0.11112015
63	0x3e8b1a32	0.27168423
64	0xbe4407e9	-0.19143642
65	0x3d94dc1d	0.07268546
66	0xbe464610	-0.19362664
67	0xbddf396d	-0.10899625
68	0x3e43029e	0.19043967
69	0xbd56a58a	-0.052403964
70	0x3e10c18f	0.14136337
71	0x3db92bb4	0.09041539
72	0xbe551eaa	-0.20812479
73	0x3dacc0fc	0.08435246
74	0xbde3e4b6	-0.111276075
75	0xbdf1aed4	-0.11800924
76	0x3e77852e	0.24171898
77	0xbd902d30	-0.07039869
78	0xbd8f9e2a	-0.07012589
79	0x3db9c8a2	0.09071471
80	0xbdc56dc0	-0.09640074
81	0x3e5d7aef	0.21628927
82	0xbc800f84	-0.015632398
83	0xbe3cc9f9	-0.18436421
84	0x3dc0bd7c	0.09411141
85	0xbe7f7498	-0.2494682
86	0xbda6e12b	-0.08148416
87	0xbc54d309	-0.012989768
88	0xbe0c186e	-0.13681194
89	0x3e5fa1d5	0.21839078
90	0xbc1a19f0	-0.009405598
91	0xbd8d04fe	-0.06885718
92	0x3e012b47	0.12614165
93	0xbe5f7b47	-0.2182437
94	0xbe05dbb3	-0.1307209
95	0xbe40a27c	-0.18811983
96	0xbe954160	-0.2915144
97	0x3dd143c3	0.10218003
98	0x3dc9c46d	0.09851918
99	0x3b3b793e	0.0028606202
100	0x3dfc35c6	0.12314944
101	0xbd86d0be	-0.06582783
102	0xbe7eb466	-0.24873504
103	0xbdb7fdba	-0.089839414
104	0xbe78c2b6	-0.24293026
105	0x3e37e9c7	0.17960273
106	0x3e2f3bf3	0.17112713
107	0x3ceedfae	0.029159393
108	0xbd699029	-0.057022247
109	0xbdb95813	-0.09050002
110	0xbd1ed2c8	-0.038775235
111	0xbe224542	-0.15846732
112	0xbde916c5	-0.11381296
113	0x3eb2173f	0.3478336
114	0x3dcea2fe	0.10089682
115	0x3e494084	0.19653517
116	0xbd920620	-0.071300745
117	0x3d5393ca	0.051654615
118	0x3d31ec86	0.043438457
119	0xbda33f92	-0.079711094
120	0x2fbfbcde	3.4876896e-10
121	0x3f048ff3	0.5178215
122	0xb406ae70	-1.2543182e-07
123	0x3eed9330	0.46401358
124	0x342df14c	1.6199664e-07
125	0x3ed416d3	0.41423663
126	0x35583999	8.0550086e-07
127	0x3eb39787	0.35076544

conv_layers.0.weight f4 [64, 1, 3]
0	0xbef85ac2	-0.48506743
1	0x3e167760	0.14693975
2	0x3d32f2ee	0.043688707
3	0x3eb06c75	0.34457746
4	0xbec4b965	-0.38422695
5	0xbec54690	-0.38530397
6	0x3d53019e	0.051515214
7	0xbe12a1c8	-0.14319527
8	0x3bd16373	0.006390029
9	0xbd80c851	-0.06288207
10	0xbccae186	-0.024765741
11	0xbe9bbce9	-0.30417565
12	0xbec7825f	-0.38966653
13	0x3d87a68d	0.06623564
14	0x3e9e9ae9	0.30977562
15	0x3d290ff7	0.04127499
16	0xbec6e6bd	-0.38847914
17	0xbda53095	-0.08065907
18	0x3ed1f85d	0.410098
19	0x3e0bb663	0.13643794
20	0x3e93cf45	0.28869072
21	0x3ec0da1f	0.37666413
22	0xbf01c2b9	-0.5068775
23	0xbdda0962	-0.10646321
24	0xbe2144a4	-0.1574884
25	0x3f19c1a0	0.60061073
26	0xbd98bfd9	-0.07458467
27	0x3ec4c614	0.38432372
28	0xbf0452f1	-0.5168906
29	0x3eb26695	0.3484389
30	0xbf040d4a	-0.5158278
31	0x3d461461	0.04835928
32	0xbf0467a1	-0.51720625
33	0xbedcc2ce	-0.43117374
34	0xbecb4b0e	-0.397057
35	0xbec634f6	-0.3871228
36	0x3ee49f94	0.44652998
37	0x3ea2b4e5	0.31778637
38	0xbf0b5061	-0.54419523
39	0x3ed5e634	0.41777194
40	0x3e1524b6	0.14564785
41	0xbf01c8a3	-0.5069677
42	0x3ec0c475	0.37649885
43	0x3ed18d7a	0.4092825
44	0xbedfc569	-0.437053
45	0xbe3aa3a4	-0.18226486
46	0xbe5a3329	-0.21308579
47	0x3e34c0ab	0.17651622
48	0x3e64e526	0.22353038
49	0x3e1f450d	0.15553685
50	0xbe96ac59	-0.29428366
51	0x3ee60c31	0.44931176
52	0x3f064f7b	0.5246503
53	0x3bfe665f	0.0077636684
54	0xbdc6086d	-0.09669576
55	0xbea7a96c	-0.32746446
56	0x3e457f92	0.19286945
57	0xbda220db	-0.07916423
58	0xbddfecf2	-0.109338656
59	0x3e8673c2	0.2626019
60	0x3de14c3b	0.11000868
61	0x3e0f8db9	0.14018907
62	0xbf14094b	-0.5782668
63	0xbef46200	-0.47731018
64	0xbebfd147	-0.37464353
65	0x3ea0793b	0.31342492
66	0xbe5e6c5e	-0.21721026
67	0x3eb674bd	0.3563594
68	0x3d70c950	0.058785737
69	0x3d128397	0.035770025
70	0xbeb3c252	-0.35109192
71	0x3c77f639	0.015134388
72	0xbd477e4f	-0.04870444
73	0x3f030eb1	0.5119429
74	0x3ecbc951	0.3980203
75	0xbe815b84	-0.25265133
76	0xbd4ae67b	-0.04953621
77	0x3ea0eccb	0.3143066
78	0xbdb6c57c	-0.08924386
79	0xbe6ad4dd	-0.22932763
80	0x3e5f849b	0.21827929
81	0xbec1c01f	-0.3784189
82	0x3ef8701e	0.4852304
83	0x3f166a42	0.58755887
84	0xbe00d9c6	-0.12583074
85	0xbe8214c5	-0.2540647
86	0xbf2a8cda	-0.6662117
87	0x3debd0a1	0.11514402
88	0x3e8f07fa	0.27935773
89	0xbdb4432e	-0.08801876
90	0xbeb64566	-0.35599822
91	0x3f06a043	0.5258829
92	0xbe54b4d0	-0.207721
93	0x3e0a3c51	0.13499571
94	0x3ed95964	0.42451012
95	0x3ee62f6e	0.4495806
96	0xbee7944a	-0.45230323
97	0xbd3eb2af	-0.046557125
98	0x3ec23b8c	0.37936056
99	0x3da166da	0.078809455
100	0x3e5b181c	0.21395916
101	0x3e84d98e	0.2594723
102	0xbee01b29	-0.43770722
103	0xbefa376c	-0.4887041
104	0x3e7d198e	0.2471678
105	0xbe9a1728	-0.30095792
106	0xbd2ac94f	-0.04169589
107	0xbf0e280b	-0.5552985
108	0xbe8d09ac	-0.27546442
109	0xbea2f5e4	-0.31828225
110	0xbc0370a8	-0.008022465
111	0x3b058d85	0.0020378542
112	0x3e7a47fd	0.24441524
113	0x3ec94703	0.3931199
114	0x3ecb3082	0.39685446
115	0xbed8ccb6	-0.42343682
116	0x3e60dbb1	0.21958806
117	0xbdec454c	-0.11536655
118	0x3e98ad55	0.29819742
119	0xbca60add	-0.020268852
120	0x3ed983c5	0.42483345
121	0xbeadc85b	-0.33941922
122	0x3ede0e4f	0.43370292
123	0x3ea8bab9	0.32954958
124	0x3ecf9902	0.40546423
125	0x3dac751f	0.084207766
126	0xbed05d70	-0.40696287
127	0xbec186ae	-0.37798065
128	0x3e911417	0.2833564
129	0x3eeb93f0	0.46011305
130	0xbf0fc21b	-0.56155556
131	0xbe483d58	-0.19554651
132	0x3ddee90c	0.10884294
133	0xbeda39b9	-0.42622164
134	0xbf215962	-0.6302701
135	0x3ed32c0b	0.4124454
136	0x3e5b6019	0.21423377
137	0xbd80306a	-0.06259234
138	0xbe25e3dc	-0.16200203
139	0xbec05d16	-0.3757102
140	0x3ef91612	0.4864965
141	0x3e838be6	0.25692672
142	0x3efedeb0	0.49779272
143	0xbdfce1d0	-0.12347758
144	0xbdba38d3	-0.090928696
145	0x3ebdc2d7	0.37062714
146	0x3ea40535	0.32035223
147	0xbea7a70d	-0.32744637
148	0xbe481b65	-0.195417
149	0xbd7ed4e5	-0.06221475
150	0x3f0cbf29	0.5497919
151	0x3ebde67f	0.37089917
152	0xbef2255d	-0.4729413
153	0x3ee7c914	0.45270598
154	0xbea15972	-0.31513554
155	0x3f04e760	0.5191555
156	0xbee642c1	-0.44972804
157	0x3f0b74c3	0.5447504
158	0x3f0d7372	0.5525428
159	0xbf152691	-0.5826197
160	0xbdf846e4	-0.12122896
161	0xbf081979	-0.5316387
162	0xbf0ab924	-0.5418875
163	0x3f0583ec	0.5215442
164	0x3df10487	0.11768442
165	0xbe037a7f	-0.12839697
166	0xbe47a1ec	-0.19495362
167	0xbe0aeccb	-0.13566892
168	0x3e8b412b	0.27198157
169	0xbe0351cb	-0.1282417
170	0x3d4e2abc	0.050333723
171	0x3ec191b3	0.37806472
172	0xbefc6ed7	-0.49303314
173	0x3e500577	0.20314585
174	0x3ee5c3ef	0.44876048
175	0x3f10c621	0.5655232
176	0x3e36634f	0.1781132
177	0xbe60f565	-0.2196861
178	0xbeae1972	-0.34003788
179	0x3e5c90c7	0.21539603
180	0x3e3b74ab	0.18306224
181	0x3c66986d	0.014074427
182	0x3e6da313	0.23206739
183	0x3ebeedb7	0.37290737
184	0x3ebf08c6	0.3731138
185	0x3eb82582	0.35966116
186	0xbe6f841a	-0.23390236
187	0x3ee6f8c9	0.45111683
188	0x3aa69d68	0.0012711706
189	0x3e0ce19a	0.13757935
190	0xbeaa8422	-0.33303934
191	0xbdf98d75	-0.12185184

conv_layers.0.bias f4 [64]
0	0xbd4e0c79	-0.050304864
1	0x3e0a722d	0.13520117
2	0xbeb68e9a	-0.3565567
3	0xbee31b5a	-0.44356805
4	0xbd5cd569	-0.05391446
5	0x3d45e72c	0.048316166
6	0x3d123eb1	0.03570432
7	0x3f08adf5	0.5339044
8	0x3ec3aabe	0.38216203
9	0xbf0fd043	-0.5617716
10	0x3f13aa27	0.57681507
11	0x3eb0e821	0.345521
12	0x3dc21b13	0.0947782
13	0x3d9a9d55	0.0754954
14	0xbeb57594	-0.35441267
15	0xbe8ec48e	-0.27884334
16	0xbe470adf	-0.1943774
17	0xbea353bc	-0.31899822
18	0xbdbb671c	-0.09150526
19	0x3ee70624	0.45121872
20	0xbe0d7d92	-0.13817433
21	0x3ed0f657	0.40812942
22	0xbf0d5ba6	-0.5521797
23	0x3f1682f9	0.587936
24	0xbe429fd7	-0.19006287
25	0x3e887262	0.26649767
26	0x3dcef4d7	0.10105293
27	0xbe90fcf8	-0.28318
28	0xbea691ef	-0.32533213
29	0xbe21818c	-0.15772074
30	0xbe392cc1	-0.18083479
31	0xbf10e8de	-0.5660533
32	0x3f27dd73	0.6557228
33	0x3e42acda	0.1901125
34	0x3f24f119	0.64430386
35	0x3edab17c	0.42713535
36	0x3f02b743	0.51060885
37	0xbbeafec0	-0.007171482
38	0xbe7f9989	-0.24960913
39	0x3e81abe4	0.25326455
40	0xbdf6a78d	-0.120436765
41	0x3e145d54	0.14488727
42	0x3ee47ad9	0.44624975
43	0xbe50234e	-0.20325968
44	0x3f06d46c	0.5266788
45	0x3ecd0d98	0.40049434
46	0x3e9c5a6a	0.3053773
47	0xbbca4124	-0.006172316
48	0xbe959820	-0.29217625
49	0xbe3fec9a	-0.187426
50	0xbe7d4560	-0.24733496
51	0x3ea237d1	0.3168321
52	0xbef5c246	-0.4799978
53	0x3e87d118	0.26526713
54	0xbe3fa4a1	-0.18715145
55	0x3ef075f2	0.46964985
56	0xbed44c2d	-0.41464368
57	0xbe30510a	-0.17218414
58	0x3edba321	0.42897895
59	0xbdc39ca4	-0.09551361
60	0xbd9a70ee	-0.07541071
61	0x3ed6fb97	0.41988823
62	0xbf0f58bc	-0.5599477
63	0xbe54adaf	-0.2076938

conv_layers.2.weight f4 [32, 64, 3]
0	0xbc20dc6c	-0.009818178
1	0xb9c008f1	-0.00036627756
2	0xbd81f1de	-0.06344961
3	0x3da1158a	0.078654364
4	0x3d45ea5c	0.048319206
5	0xbd9d55e9	-0.07682402
6	0xbd80218b	-0.06256398
7	0x3ba82174	0.005130941
8	0xbda5b8c6	-0.08091883
9	0x3d211602	0.03932763
10	0xbcb09d79	-0.021559464
11	0xbc88b968	-0.016689971
12	0x3cd6918a	0.026192445
13	0x3d6dae06	0.05802729
14	0x3d5f187f	0.05446672
15	0xbd43dfa3	-0.0478207
16	0x3df3dd8d	0.11907492
17	0xbcb74156	-0.022370022
18	0xbcd8f31a	-0.026483107
19	0x3c1cafe2	0.009563418
20	0x3daee325	0.08539418
21	0x3c8c0651	0.017092856
22	0x3d3ddfe1	0.046356086
23	0x3ae046ab	0.0017110904
24	0x3db0c264	0.08630827
25	0x3daf0645	0.08546118
26	0xbc9db21d	-0.01924997
27	0x3c944999	0.0181015
28	0x3ab1b423	0.0013557713
29	0x3d6ecb08	0.058299094
30	0x3dd24c2b	0.10268434
31	0xbd16fa96	-0.03686007
32	0x3d4adfa3	0.049529683
33	0x3d6c31e6	0.057664774
34	0x3d9f8abe	0.07790135
35	0xbdc79ecf	-0.09747087
36	0xbcb54fd7	-0.022132797
37	0x3d515556	0.051106773
38	0xbd08afad	-0.033370662
39	0x3d8419b8	0.06450218
40	0x3d55775e	0.05211579
41	0x3d141f29	0.03616253
42	0x3d9c2846	0.07624869
43	0xbd1c2041	-0.038116697
44	0xbbabf2fd	-0.0052474723
45	0x3d048f2f	0.032363113
46	0xbbcaf7c5	-0.006194087
47	0xbd6f29b8	-0.058389395
48	0x3d918b57	0.07106655
49	0x3cbdd3c3	0.023172265
50	0xbcc550ea	-0.024086434
51	0x3b7c59b4	0.0038505616
52	0x3dccaf2c	0.09994349
53	0xbd1bbaeb	-0.038020056
54	0xbac9fe38	-0.0015410846
55	0x3dbd1f56	0.092344925
56	0xbd4cf035	-0.050033767
57	0x3d14c017	0.036316004
58	0x3c832a00	0.016011238
59	0xbd1fd453	-0.039020848
60	0x3dbd1263	0.092320226
61	0x3da37561	0.079813726
62	0x3df6d7eb	0.12052902
63	0x3cc8689a	0.02446394
64	0x3de5f912	0.11229147
65	0xbd17b9a8	-0.03704229
66	0xbd6f8b6d	-0.058482576
67	0xbbdcfa64	-0.006743716
68	0xbd3f7227	-0.046739724
69	0xbc932323	-0.01796109
70	0x3d86ab97	0.06575697
71	0x3c71e74f	0.014764621
72	0xbce4ae98	-0.027915284
73	0x3c8d58d6	0.017254274
74	0xbcda44d3	-0.026644146
75	0xbc99bb8e	-0.01876619
76	0x3d3ba229	0.045808945
77	0xbcb9e5aa	-0.02269252
78	0xbc9a5a51	-0.018841894
79	0x3bc8490e	0.0061122244
80	0x3c43c66c	0.011949163
81	0xbc977109	-0.018486517
82	0xbd206b37	-0.039164748
83	0xbd719d98	-0.058988184
84	0x3d2d00be	0.042237036
85	0x3d089ab4	0.03335066
86	0xbd0cf29e	-0.034411065
87	0x3da3d679	0.07999892
88	0xbd12923c	-0.03578399
89	0x3d773016	0.060348593
90	0x3c043ad7	0.008070669
91	0xbd0a201d	-0.03372203
92	0x3d620642	0.05518175
93	0x3cc80a94	0.024419107
94	0xbc5314a6	-0.012883341
95	0xbc3533b5	-0.011059691
96	0x3d101649	0.035177503
97	0xbc4abe59	-0.012374484
98	0x3d885d78	0.06658453
99	0xbcb8ab08	-0.022542492
100	0x3d667e3a	0.056272723
101	0x3d8e3a84	0.06944755
102	0xbc1764ea	-0.009240368
103	0x3c2732bc	0.010204967
104	0xbbdc42e9	-0.0067218435
105	0x3e00b5b0	0.12569308
106	0x3d647b30	0.055781543
107	0x3d87ed96	0.06637113
108	0xbc133c1f	-0.008986502
109	0x3d2472f9	0.04014871
110	0xbc9cff4e	-0.019164708
111	0x3bd53ea0	0.0065077096
112	0x3d1bad57	0.038007107
113	0xbd600392	-0.054690905
114	0x3cd84f6f	0.026405064
115	0xbd267477	-0.040638413
116	0xbbad5a50	-0.005290307
117	0xbd3936be	-0.04521822
118	0xbc996d4f	-0.01872888
119	0xbb314e61	-0.0027054774
120	0x3c94c772	0.01816151
121	0x3d712a67	0.05887833
122	0x3d9b1bdf	0.07573675
123	0xbbd5785b	-0.0065145916
124	0xbcde2bf4	-0.027120568
125	0x3d61dd6a	0.055142798
126	0xbd4cb07c	-0.049972996
127	0x3e02ada0	0.12761545
128	0x3ccc956a	0.02497359
129	0xbd508b1e	-0.050913922
130	0xbc3d7c88	-0.011565335
131	0xbcc8ae09	-0.024497049
132	0xbaf8670c	-0.0018951609
133	0x3d42c7e1	0.0475539
134	0xbc85f8d4	-0.016354002
135	0x3cf825c1	0.03029144
136	0xbc3b3ec7	-0.0114285415
137	0x3b1273a3	0.0022346757
138	0x3d76eae7	0.060282614
139	0x3da02d06	0.078210875
140	0xbd0cfadc	-0.034418926
141	0xbcf1e7d1	-0.029529484
142	0x3d841a41	0.0645032
143	0x3c381dbe	0.01123756
144	0x3dc471af	0.09591996
145	0xbcb40e7f	-0.021979569
146	0xbd53a550	-0.051671326
147	0x3d2552b5	0.04036208
148	0x3daff276	0.08591168
149	0xbdb0c927	-0.08632117
150	0x3c8c53df	0.017129837
151	0x3aa20227	0.0012360261
152	0x3d9345bd	0.07191036
153	0x3be42925	0.0069629126
154	0xbb05dec0	-0.0020426959
155	0xbb10487b	-0.0022015858
156	0x3b1751fa	0.0023089633
157	0xbce00a4f	-0.027348666
158	0x3d1bc3c3	0.03802849
159	0x3e05d3b3	0.13069038
160	0x3cce66c5	0.025195489
161	0x3d70832c	0.058718845
162	0x3d6335df	0.055471297
163	0x3c0af5d8	0.008481465
164	0xbd1cf6ad	-0.038321186
165	0xbc432394	-0.011910338
166	0xbb822ac6	-0.003972384
167	0xbda49cbe	-0.08037709
168	0x3c41bdf0	0.01182507
169	0xbd377c41	-0.044796232
170	0xbcb2da5d	-0.02183264
171	0x3d6fabee	0.058513574
172	0x3bdc0578	0.006714519
173	0xbc011d53	-0.007880527
174	0xbd102ca9	-0.03519884
175	0x3d3fe0f7	0.046845403
176	0x3da02549	0.078196116
177	0x3d03bb75	0.032161195
178	0x3d39280c	0.045204207
179	0xbcf59e56	-0.029982727
180	0x3d626fed	0.055282522
181	0x3d6b2ca2	0.057415612
182	0x3d275012	0.040847845
183	0x3d85078f	0.06495582
184	0xbcd64c62	-0.026159469
185	0x3c33b1fe	0.01096773
186	0x3d111ca9	0.035427723
187	0x3d62fa58	0.055414528
188	0x3ce75f0e	0.028243568
189	0xbd3facff	-0.04679584
190	0x3dd5baa0	0.104359865
191	0xbcf7e4be	-0.03026044
192	0x3dc10e7b	0.0942659
193	0x3c85f6a4	0.016352959
194	0xbd2832ea	-0.04106418
195	0xbcccfb88	-0.025022283
196	0x3c4e3ab3	0.012587237
197	0x3baaa7fc	0.0052080136
198	0x3cf2b839	0.02962886
199	0xbc0df0b5	-0.008663346
200	0xbd47ee08	-0.04881099
201	0xbb1b449a	-0.0023692013
202	0xbc854746	-0.016269337
203	0x3ce83d68	0.028349593
204	0x3d9027fa	0.07038875
205	0x3d29e8e5	0.04148187
206	0xbcca016d	-0.024658883
207	0x3d4bdb1c	0.049769506
208	0xbc8b9b4a	-0.017041821
209	0xbcd8abe7	-0.026449157
210	0x3d25ff0a	0.040526427
211	0x3cb63a02	0.022244457
212	0x3cd458f4	0.025921322
213	0xbdbcd552	-0.09220375
214	0xbc3fbba6	-0.011702454
215	0x3c6d9220	0.014500171
216	0x3d30274c	0.043006226
217	0x3c9b9273	0.01899073
218	0xbd344dac	-0.044019386
219	0xbcbeceeb	-0.023292026
220	0xbcf66541	-0.030077578
221	0x3d26650f	0.04062372
222	0xbd9290de	-0.071565375
223	0xbd53144b	-0.051533025
224	0xbd94a18e	-0.072573766
225	0xbc34f21d	-0.011044052
226	0x3ce33902	0.027737144
227	0x3ca61ec7	0.020278348
228	0x3d42895d	0.04749428
229	0xbd5da410	-0.05411154
230	0xbc36e194	-0.01116218
231	0xbca51ed1	-0.020156296
232	0xbbb52e8f	-0.005529232
233	0xbd6fd0cd	-0.058548737
234	0x3d1482d6	0.036257587
235	0x3bce8260	0.006302163
236	0x3d9f5f22	0.07781817
237	0x3b2f52bd	0.0026752197
238	0xbb90c0c4	-0.0044175107
239	0xbcf1310a	-0.029442329
240	0x3da6e65f	0.081494085
241	0x3d2efdcf	0.04272252
242	0x3d9663d7	0.07343262
243	0x3d99eee4	0.07516268
244	0xbccffb52	-0.025388394
245	0xbd61a5f0	-0.05508989
246	0x3ce8eeae	0.028434124
247	0xbce4b9bc	-0.027920596
248	0x3d4020da	0.04690633
249	0xbccf434a	-0.02530064
250	0xbd8d80c9	-0.069093294
251	0xbd643795	-0.05571707
252	0xbd00dec3	-0.031462442
253	0xbd14f71a	-0.036368467
254	0x3d12130e	0.035662703
255	0x3c10e598	0.008843802

conv_layers.2.bias f4 [32]
0	0xbcd42fec	-0.025901757
1	0x3d328559	0.0435842
2	0xbcbbeb44	-0.022939332
3	0xbd68aa6b	-0.05680315
4	0x3d8a4a19	0.06752414
5	0xbc94616f	-0.018112866
6	0x3b5abe58	0.0033377614
7	0xbc9d210a	-0.019180793
8	0xbcc8fa21	-0.024533333
9	0xbcd312b1	-0.025765749
10	0xbd8715b3	-0.06595936
11	0x3aea49dd	0.0017874796
12	0x3d866fba	0.06564279
13	0xbd03f6b5	-0.0322177
14	0xbcd0aa04	-0.025471695
15	0xbc5f185a	-0.013616646
16	0x3c88d121	0.016701283
17	0xbcf822b9	-0.030289995
18	0x3c4d8937	0.012544922
19	0xbd0be2c9	-0.034151826
20	0x3d5dcde2	0.054151423
21	0x3c8f3a96	0.01748399
22	0x3dd422ad	0.103581764
23	0x3caee19e	0.021347817
24	0x3d474f90	0.04865986
25	0x3cd6e67c	0.02623295
26	0x3dafb243	0.085789226
27	0xbcb78410	-0.02240184
28	0x3d0b6e18	0.03404054
29	0x3bc86187	0.006115142
30	0xbd424483	-0.04742862
31	0x3da98c34	0.08278695

lstm.weight_ih_l0 f4 [128, 32]
0	0xbdaee551	-0.085398324
1	0x3dd3cfae	0.10342346
2	0xbddbfb40	-0.107412815
3	0x3d62df1d	0.05538856
4	0x3da6ded1	0.081479676
5	0x3e23ff96	0.16015467
6	0xbdc31ba3	-0.09526756
7	0x3b2985a3	0.0025867007
8	0xbe13e122	-0.1444135
9	0xbdc836a7	-0.09776049
10	0xbd2e04cc	-0.042485043
11	0x3d6d3fdb	0.057922225
12	0xbd069fab	-0.032867115
13	0xba8927fc	-0.0010464187
14	0x3d5a25d7	0.053258743
15	0xbe26c24e	-0.16285059
16	0xbc80e059	-0.015731977
17	0xbd647c3b	-0.055782538
18	0x3d54acbf	0.051922556
19	0x3e268415	0.16261323
20	0xbd8582bd	-0.06519077
21	0xbe250cf0	-0.16118217
22	0x3d22dda1	0.039762143
23	0xbdf13065	-0.11776809
24	0xbd773765	-0.060355563
25	0xbdad1ae5	-0.08452395
26	0xbe3eb71b	-0.18624537
27	0x3e1e50b8	0.1546048
28	0xbe09550f	-0.13411354
29	0xbdd90fef	-0.10598742
30	0xbd894914	-0.06703392
31	0xbd85f587	-0.06540971
32	0x3cac88d1	0.021061333
33	0x3da6de9c	0.08147928
34	0x3d4bf34f	0.049792584
35	0xbe02b9ca	-0.12766185
36	0x3d18510c	0.037186667
37	0x3e08ac0f	0.13346885
38	0xbd3682af	-0.044558223
39	0xbe03c5be	-0.12868401
40	0x3d48fe0f	0.049070414
41	0xbc67f46b	-0.014157395
42	0x3c846492	0.016161237
43	0xbe0201aa	-0.12695947
44	0xbe23a460	-0.15980673
45	0xbc882dad	-0.016623342
46	0xbdca76a0	-0.09885907
47	0xbdf1c283	-0.11804678
48	0x3db62464	0.0889366
49	0xbca3e622	-0.020007197
50	0x3df3bd59	0.119013496
51	0x3d8f8c86	0.070092246
52	0x3e453682	0.19259074
53	0x3db11181	0.08645917
54	0xbcf1eb17	-0.029531045
55	0xbd6dddb1	-0.05807275
56	0xbe239864	-0.15976101
57	0x3d57c69e	0.05267965
58	0xbe25bcf9	-0.16185369
59	0xbd3e9266	-0.046526335
60	0xbddc3208	-0.1075173
61	0x3ce11eec	0.027480565
62	0xbdfdbdb9	-0.12389702
63	0xbc961aa7	-0.018323256
64	0x3dfd9250	0.123814225
65	0x3db1bce2	0.08678605
66	0x3cbd09d5	0.023075977
67	0x3d75f445	0.060047407
68	0x3dfbe33c	0.12299201
69	0x3e359456	0.17732367
70	0x3e4a0648	0.19728959
71	0xbc26e925	-0.010187422
72	0x3d2c18ff	0.042016026
73	0xbd024fe8	-0.031814486
74	0x3d853419	0.065040775
75	0xbdb18f1b	-0.08669873
76	0x3e017656	0.12642798
77	0xbb0ba008	-0.0021305103
78	0x3d4f2365	0.050570864
79	0xbb337d84	-0.0027388046
80	0x3dc2e692	0.09516634
81	0x3d3af296	0.045641504
82	0x3d9852f5	0.07437698
83	0xbd97d67a	-0.07413955
84	0x3ce9ab86	0.028524172
85	0xbe1fa645	-0.1559077
86	0x3dc3b927	0.095567994
87	0xbd52cc59	-0.051464412
88	0x3e3d094c	0.18460578
89	0xbe1f3243	-0.15546517
90	0xbd1cd74a	-0.038291253
91	0x3d821283	0.06351187
92	0xbce424ee	-0.02784964
93	0x3d6a97aa	0.057273544
94	0x3e29f211	0.16596247
95	0xbe081bc9	-0.13291849
96	0x3d7b7318	0.06138906
97	0xbd98bccf	-0.074578874
98	0x3b9728a3	0.0046129986
99	0x3e0fb4d3	0.14033823
100	0x3e43751a	0.1908764
101	0xbe0c2dac	-0.13689297
102	0x3e4168ab	0.18887584
103	0x3d0012b8	0.03126785
104	0x3d8c6c57	0.06856602
105	0x3d63590e	0.05550485
106	0xbc63150d	-0.013859999
107	0xbde7a0ee	-0.11309992
108	0xbe0117ac	-0.12606686
109	0xbde01387	-0.109412245
110	0xbcfd664f	-0.030932574
111	0xbd482042	-0.04885889
112	0x3bf077e9	0.007338513
113	0x3da1d753	0.07902398
114	0x3dc92619	0.0982172
115	0x3e44a9f0	0.19205451
116	0x3e4dbc0a	0.20091262
117	0xbd60259f	-0.05472338
118	0x3e065bc7	0.13120948
119	0xbddd0fed	-0.10794053
120	0x3e35840f	0.17726158
121	0xbe1223c1	-0.14271452
122	0xbda302f8	-0.079595506
123	0xbdfe8dda	-0.124294
124	0x3d294abb	0.041331034
125	0xbd88e66a	-0.06684573
126	0x3e223e60	0.15844107
127	0x3e2e0720	0.16994905
128	0x3d87abfb	0.066245995
129	0xbe11de9b	-0.14245073
130	0xbd373703	-0.044730198
131	0x3e427952	0.18991593
132	0x3c0b8262	0.008514972
133	0x3e3fe9a0	0.18741465
134	0x3df04751	0.117323525
135	0x3d93d8a4	0.07219055
136	0xbd9561d1	-0.072940476
137	0x3db4cb71	0.08827866
138	0x3de94c04	0.11391452
139	0x3ba7eda0	0.0051247627
140	0xbe0ee57d	-0.1395473
141	0xbde7f696	-0.113263294
142	0xbdaec7e5	-0.085342206
143	0xbce7b6cc	-0.028285407
144	0x3ddbbb74	0.10729113
145	0x3c08078d	0.0083025815
146	0x3d6626ac	0.056189224
147	0x3d9543a8	0.07288295
148	0x3bfe8744	0.0077675898
149	0x3e016a7f	0.12638281
150	0xbd61051b	-0.05493651
151	0xbc12be07	-0.008956439
152	0x3d409dbc	0.047025427
153	0xbd897f93	-0.06713786
154	0x3d178cc2	0.03699947
155	0x3c14b19a	0.009075547
156	0xbe2139b4	-0.15744668
157	0xbdcdf97a	-0.100573495
158	0x3e49276c	0.19643945
159	0x3dcebb67	0.10094338
160	0x3e20fc7b	0.15721314
161	0x3dc28e0f	0.09499752
162	0xbe0e1a95	-0.13877328
163	0x3e548486	0.20753679
164	0x3d36e1bb	0.044648867
165	0xbd37979c	-0.04482232
166	0x3e519670	0.20467544
167	0xbd96726b	-0.07346042
168	0x3d42b0b1	0.047531787
169	0x3e4ac014	0.19799834
170	0x3b6b35dd	0.003589026
171	0xbc000e8d	-0.007815969
172	0x3e1b2173	0.15149479
173	0xbde1701a	-0.1100771
174	0xbc9648ff	-0.018345354
175	0xbc2dc538	-0.010606103
176	0x3dc95995	0.098315395
177	0x3db86e04	0.09005359
178	0x3e0109d2	0.12601402
179	0x3d2e9b14	0.042628363
180	0x3cf1f015	0.029533425
181	0xbd006bdf	-0.031352874
182	0xbd9a92b9	-0.075475164
183	0x3e493197	0.19647823
184	0x3dee224b	0.116276346
185	0x3e0421d1	0.12903525
186	0x3cac8ad9	0.021062301
187	0xbd44fd74	-0.048093274
188	0xbe1bd6ac	-0.1521861
189	0xbe1485ef	-0.14504217
190	0xbd97c732	-0.0741104
191	0xbd322c88	-0.0434995
192	0xbdc98f9b	-0.09841844
193	0x3cceec6a	0.025259215
194	0x3dc58aa2	0.09645583
195	0x3ad70608	0.0016404996
196	0xbdc1c57c	-0.09461495
197	0xbdcc5e18	-0.099788845
198	0xbde1a9f8	-0.11018747
199	0xbda313b0	-0.079627395
200	0x3db451bf	0.08804654
201	0x3d81e50b	0.063425146
202	0x3dc9056e	0.09815489
203	0xbd8a6cea	-0.06759055
204	0x3d6efcf3	0.0583467
205	0xbda5dc3c	-0.08098647
206	0x3dcd4320	0.10022569
207	0x3c32250b	0.01087309
208	0xbd54cf55	-0.05195554
209	0xbdd29253	-0.102818154
210	0xbc4283d7	-0.011872253
211	0xbdfce387	-0.12348085
212	0xbe10f6ec	-0.14156693
213	0xbe15fab9	-0.14646424
214	0x3cc82170	0.024430007
215	0x3d7f3dd4	0.062314823
216	0x3c8ff40b	0.017572423
217	0xbdc2153e	-0.09476708
218	0x3af7ebb0	0.0018914845
219	0xbd960b8f	-0.073264234
220	0x3dc9857b	0.098399125
221	0xbcbdd905	-0.023174772
222	0x3e05b4d0	0.13057256
223	0xbd9916ad	-0.07475028
224	0x3c3c884b	0.011507104
225	0x3e1a404e	0.15063593
226	0xbe19c5c9	-0.15016855
227	0xbe317a77	-0.17331873
228	0x3dcac29a	0.099003986
229	0xbd8a4fb5	-0.06753484
230	0xbe4374d9	-0.19087543
231	0xbdcd2bce	-0.10018121
232	0x3c89a827	0.016803814
233	0xbdb8de1d	-0.0902674
234	0xbe1863be	-0.14881799
235	0xbdccd24f	-0.10001051
236	0xbd71b3e6	-0.059009455
237	0xbdd81236	-0.105503485
238	0x3e140e90	0.1445868
239	0xbe5eb77f	-0.21749686
240	0x3e0f2414	0.13978606
241	0x3d2831ad	0.041063
242	0x3df8d497	0.12149923
243	0x3ddc4da3	0.107569955
244	0x3e035801	0.1282654
245	0xbe0d7dd9	-0.13817538
246	0x3d8a51ff	0.06753921
247	0x3e07dadf	0.13267086
248	0xbd0402d1	-0.03222925
249	0x3dfa0794	0.12208477
250	0xbde3b70c	-0.11118898
251	0xbe188d3d	-0.14897628
252	0xbdbdfbee	-0.092765674
253	0x3df32841	0.11872912
254	0x3db28dfd	0.08718488
255	0xbd47d82a	-0.048790134

lstm.weight_hh_l0 f4 [128, 32]
0	0xbe0cca24	-0.13748986
1	0x3d6a46e0	0.057196498
2	0x3dc1e44b	0.094673716
3	0xbdd55c34	-0.10417977
4	0x3de16300	0.11005211
5	0x3c1d02a9	0.009583154
6	0x3d97b17f	0.074069016
7	0xbd3b5c4a	-0.04574231
8	0x3e2abc27	0.16673337
9	0x3da88d5a	0.08230086
10	0x3e1a0617	0.15041386
11	0x3e07a4b8	0.13246429
12	0x3c5aceca	0.013354966
13	0x3d0ade9d	0.033903707
14	0x3d559d49	0.052151952
15	0xbe2de388	-0.16981328
16	0x3dd9c8d6	0.106340095
17	0x3c5d4e61	0.0135074565
18	0x3e3ad20c	0.18244189
19	0x3d822e8d	0.06356535
20	0xbcc071a0	-0.02349168
21	0x3e080c9c	0.1328606
22	0x3dd6532f	0.10465085
23	0x3d78cacc	0.060740277
24	0x3d705d89	0.058682952
25	0xbe24b165	-0.16083296
26	0x3ddfa2bf	0.10919713
27	0xbe2c395a	-0.16818753
28	0xbe1db9de	-0.15402934
29	0xbdf0db5f	-0.11760592
30	0x3e2ec0c5	0.17065723
31	0x3de5b6de	0.1121652
32	0xbde06810	-0.10957348
33	0x3c755afe	0.0149753075
34	0xba727882	-0.00092495244
35	0x3dfe1cc7	0.124078326
36	0x3de9676d	0.1139668
37	0x3d218892	0.039436884
38	0xbc94ce51	-0.018164786
39	0xbe4ecfe8	-0.20196497
40	0xbd8cd87f	-0.06877231
41	0xbd38f34a	-0.045153894
42	0xbde03c7d	-0.10949037
43	0xbcd51d0c	-0.026014827
44	0x3e02471d	0.1272244
45	0xbdc0ec3c	-0.09420058
46	0x3d7b0b5f	0.06129014
47	0xbe14178a	-0.14462104
48	0x3dcb46c5	0.099256076
49	0x3d6d11e0	0.057878375
50	0x3e2f8fd4	0.1714471
51	0xbe0c8345	-0.1372195
52	0x3da58e3f	0.08083772
53	0x3dac4e89	0.08413417
54	0xbe18d587	-0.14925204
55	0x3e123b72	0.14280489
56	0xbe238abc	-0.15970892
57	0x3df8bac9	0.121450014
58	0xbe02cda2	-0.12773755
59	0x3d140289	0.03613523
60	0xbd3da583	-0.046300422
61	0xbe003180	-0.12518883
62	0xbda0a137	-0.07843249
63	0x3e03c89f	0.128695
64	0x3d90bf6a	0.07067759
65	0x3d79a33f	0.0609467
66	0xbc13e090	-0.009025708
67	0xbd100dd4	-0.035169438
68	0x3c23bfeb	0.009994487
69	0xbd3a10ab	-0.045426052
70	0xbce9e79c	-0.028552823
71	0xbd45b172	-0.04826493
72	0x3df4ac5f	0.1194694
73	0x3db32470	0.08747184
74	0xbc726c4b	-0.014796327
75	0x3dbbe434	0.09174386
76	0x3d81fa11	0.063465245
77	0xbe20a96c	-0.1568963
78	0x3e758067	0.23974763
79	0xbe32bfb5	-0.17455943
80	0xbb3323f2	-0.0027334657
81	0x3dc2fd78	0.095210016
82	0x3dafe4b3	0.08588543
83	0x3de870d4	0.11349645
84	0xbdd07cdd	-0.10180066
85	0x3dff5482	0.124672905
86	0x3c29564c	0.010335516
87	0xbd227e95	-0.0396715
88	0xbe24c417	-0.16090427
89	0x3e194cb1	0.14970662
90	0x3d186a25	0.037210602
91	0xbd8866d3	-0.06660237
92	0x3e31c599	0.17360534
93	0xbcb562cd	-0.022141838
94	0xbd995c16	-0.07488267
95	0xbe52fa88	-0.20603383
96	0x3d11ea84	0.035624042
97	0xbdfe75cd	-0.124248125
98	0x3e19a83d	0.15005584
99	0x3c13a7f0	0.009012207
100	0xbe130fe8	-0.14361537
101	0x3c4339ef	0.011915668
102	0xbe4b898e	-0.19876692
103	0xbe09da6a	-0.13462225
104	0x3d29cb19	0.041453455
105	0xbd291588	-0.0412803
106	0xbd996504	-0.0748997
107	0xbdb955fc	-0.09049603
108	0x3e4de18b	0.20105569
109	0xbdbbe4c6	-0.091744944
110	0xbc463562	-0.012097688
111	0x3dee7039	0.116424985
112	0x3df0099d	0.117205836
113	0xbe0bbf10	-0.13647103
114	0xbe330f70	-0.17486358
115	0x3de418f9	0.11137576
116	0xbbc13a77	-0.005896862
117	0xbd8b6d15	-0.06807915
118	0x3e12af19	0.14324607
119	0xbd3fc216	-0.046815954
120	0x3e184256	0.14869055
121	0xbde0881b	-0.1096346
122	0xbe149b74	-0.14512426
123	0xbd36078b	-0.044440787
124	0x3dfdb439	0.1238789
125	0x3dfad662	0.122479215
126	0x3e243694	0.16036445
127	0x3e09b671	0.13448502
128	0xbdc3a760	-0.095534086
129	0xbc0a294e	-0.008432699
130	0xbe23e8ce	-0.16006777
131	0xbbdbcf88	-0.0067080893
132	0xbb2f34d3	-0.0026734367
133	0x3b2aff97	0.0026092285
134	0x3deecf53	0.11660638
135	0x3da01864	0.07817152
136	0xbdff2032	-0.12457313
137	0x3e2a1e37	0.16613089
138	0x3ce881c5	0.028382191
139	0xbd41a868	-0.047279745
140	0x3ddbac7f	0.107262604
141	0x3b09e6de	0.0021042149
142	0xbe1fda0e	-0.15610525
143	0xbe150d22	-0.14555791
144	0x3de0cafd	0.10976217
145	0xbd4182bc	-0.04724382
146	0x3b09bbf0	0.002101656
147	0x3df94654	0.12171617
148	0x3dc49aa5	0.095998086
149	0xbe3f743b	-0.18696682
150	0x3dc736f5	0.09727279
151	0x3cdaeb12	0.026723418
152	0x3d232fa5	0.03984036
153	0xbd596361	-0.05307329
154	0x3e086705	0.13320549
155	0x3c06710e	0.008205665
156	0x3da1162e	0.078655586
157	0x3daa34e1	0.08310867
158	0x3d3a6fd4	0.045516804
159	0x3e1f9d9d	0.15587468
160	0x3e4e9913	0.2017558
161	0xbd00d8f4	-0.031456903
162	0xbd9eed96	-0.0776016
163	0xbe13fef6	-0.14452729
164	0x3d25215d	0.04031502
165	0xbd4d61cf	-0.050142106
166	0xbddffaff	-0.109365456
167	0x3be46522	0.006970064
168	0x3e078bf4	0.13236982
169	0x3d3a8b08	0.045542747
170	0x3e412a48	0.18863785
171	0xbcf2f7f8	-0.029659256
172	0x3e437dc4	0.19090945
173	0x3e1fb1e3	0.15595202
174	0xbd719faf	-0.058990177
175	0xbe49c2cd	-0.19703217
176	0x3dfd3130	0.123628974
177	0x3cd68e67	0.02619095
178	0xbd4a26bd	-0.04935335
179	0x3d73a800	0.05948639
180	0xbe0875da	-0.13326207
181	0xbd01ad1e	-0.031659238
182	0xbbd27658	-0.006422799
183	0xbe13b9ac	-0.14426297
184	0xbe2fb97a	-0.17160597
185	0xbe00c034	-0.1257332
186	0xbe45aca2	-0.19304135
187	0x3dcb68c4	0.09932092
188	0xbe15fd32	-0.14647368
189	0xbe01407f	-0.1262226
190	0x3e1d0d0f	0.15337013
191	0x3dada826	0.084793374
192	0x3df0b167	0.11752587
193	0xbd2c87fc	-0.042121872
194	0x3bb233c4	0.0054383
195	0xbe2ac037	-0.16674887
196	0xbd8c4396	-0.068488285
197	0x3be3e535	0.006954814
198	0x3c888880	0.01666665
199	0x3da02d2e	0.07821117
200	0xbdd80a3f	-0.10548829
201	0x3d4f2352	0.050570793
202	0x3dcfb558	0.101420105
203	0x3df21817	0.11821001
204	0xbdd03269	-0.10165865
205	0xbdcd0d51	-0.100123055
206	0xbe3e4825	-0.18582208
207	0xbdf9e689	-0.12202174
208	0xbd82489e	-0.06361507
209	0xbddcd966	-0.10783653
210	0xbcfa62a4	-0.030564614
211	0xbda65ca8	-0.081231415
212	0xbded1359	-0.11575956
213	0xbde959fe	-0.11394118
214	0x3e187140	0.14886951
215	0xbd7a291d	-0.061074365
216	0xbd605e1c	-0.05477725
217	0xbe4ccd0e	-0.20000097
218	0x3db21ab2	0.08696498
219	0xbe1676df	-0.14693783
220	0xbe0901ec	-0.1337964
221	0x3ba98f8d	0.0051745833
222	0x3d43e02c	0.04782121
223	0x3e3849c0	0.17996883
224	0xbe508a34	-0.2036522
225	0xbe051710	-0.12997079
226	0x3d0de94e	0.034646325
227	0xbda85ff2	-0.08221425
228	0xbcfcf14b	-0.030876776
229	0xbe701a02	-0.23447421
230	0x3e2c0b0a	0.16801086
231	0xbc39a461	-0.011330695
232	0xbc4ac58d	-0.012376201
233	0xbda84f04	-0.08218196
234	0xbe771e52	-0.2413266
235	0x3e22062e	0.1582267
236	0xbd47983d	-0.04872917
237	0xbd396565	-0.045262713
238	0x3d8573b1	0.06516207
239	0x3d8b920c	0.068149656
240	0xbe07187d	-0.13192935
241	0x3e1c0148	0.15234864
242	0x3d73db19	0.05953512
243	0xbd38df16	-0.045134626
244	0x3e86f2d0	0.26357126
245	0x3ddc9ce6	0.107721135
246	0x3daaf407	0.08347326
247	0xbd2ea249	-0.042635236
248	0x3dc22a95	0.09480778
249	0x3defd20f	0.11709987
250	0xbc0a6dbe	-0.008449016
251	0xbe05e9e6	-0.13077506
252	0x3e4d991f	0.20077942
253	0x3d0fc268	0.03509751
254	0x3d96f63a	0.07371183
255	0xbe249747	-0.16073333

lstm.bias_ih_l0 f4 [128]
0	0xbd69c5ca	-0.057073392
1	0x3d1d8bb2	0.038463302
2	0x3e72c7c4	0.23709017
3	0x3e73d6e9	0.2381245
4	0xbd0b6f93	-0.034041952
5	0x3e0df09f	0.13861321
6	0x3d8c333b	0.06845709
7	0xbd643bae	-0.055720977
8	0xbcb5036b	-0.022096356
9	0x3b1522dd	0.0022756376
10	0xbe0bb17a	-0.1364192
11	0x3d4e0f3c	0.050307497
12	0xbc116440	-0.008873999
13	0xbdbb7ed0	-0.09155047
14	0xbd61e58a	-0.055150546
15	0x3dda2e7b	0.10653397
16	0x3de86902	0.11348154
17	0x3e2fadda	0.17156163
18	0xbda300a0	-0.079591036
19	0xbdae7990	-0.0851928
20	0xbd6f1e34	-0.058378413
21	0x3cdba9d6	0.026814383
22	0x3dc555d6	0.096355125
23	0x3e1a2e7b	0.15056793
24	0xbcc021d8	-0.023453638
25	0x3e1168dd	0.14200158
26	0x3e25000a	0.16113296
27	0x3db60f79	0.0888967
28	0xbb6bf7fa	-0.003600596
29	0x3d88e5ec	0.06684479
30	0x3d9e0dc4	0.07717469
31	0x3e25d56e	0.16194698
32	0x3bb40316	0.005493532
33	0x3e32ff2c	0.17480153
34	0x3c984f18	0.018592402
35	0x3e3cd41a	0.18440285
36	0xbc15a2e1	-0.009133072
37	0x3dc44dc3	0.09585144
38	0xbdf341a3	-0.118777536
39	0x3e454618	0.1926502
40	0xbdb1b652	-0.08677353
41	0xbd4d0ddb	-0.05006204
42	0xbc437b3d	-0.011931238
43	0x3dce9ea0	0.10088849
44	0x3da71464	0.08158186
45	0x3d8a9637	0.067669325
46	0xbd1e2c5e	-0.03861653
47	0x3d86417c	0.06555459
48	0xbdad072f	-0.08448636
49	0xbdcbc5bc	-0.09949824
50	0x3d4efd26	0.05053439
51	0x3da85479	0.08219237
52	0x3d80faeb	0.06297859
53	0xbd622a1f	-0.05521595
54	0x3e57776d	0.21041651
55	0x3df5090d	0.11964617
56	0x3cb0488d	0.02151897
57	0x3d4b91f9	0.049699757
58	0xbcd22be1	-0.025655689
59	0x3d87b950	0.066271424
60	0xbd85d0fb	-0.065340005
61	0x3c0f01b1	0.008728431
62	0x3dcf6472	0.1012658
63	0xbdfb36d7	-0.12266319
64	0x3e23442d	0.15943976
65	0xbdea4b30	-0.11440122
66	0x3d9c034a	0.07617815
67	0xbe671210	-0.22565484
68	0x3d6829bf	0.056680437
69	0x3d0e1107	0.034684207
70	0xbe3e015d	-0.18555208
71	0x3e18ae78	0.14910305
72	0x3ddbd8a6	0.10734682
73	0x3e1b5b17	0.15171467
74	0x3c226d38	0.009913735
75	0x3d8535d7	0.0650441
76	0x3d2883fc	0.041141495
77	0x3a870e32	0.0010303913
78	0xbd880a0e	-0.06642543
79	0x3df416cd	0.119184114
80	0xbcefd4d4	-0.029276289
81	0xbe015163	-0.12628703
82	0xbdb9d792	-0.0907432
83	0x3d2a7f12	0.04162509
84	0x3dd4624a	0.1037031
85	0x3e11a0f2	0.14221552
86	0xbe36e27d	-0.17859836
87	0x3d0d1f23	0.034453522
88	0x3d8ab585	0.06772903
89	0x3c4ea146	0.012611693
90	0xbd7f7be3	-0.062374007
91	0x3c446264	0.011986349
92	0xbd66ea90	-0.05637604
93	0xbd3f72de	-0.046740405
94	0xbdee63da	-0.11640139
95	0x3dc635e0	0.096782446
96	0x3e36eb46	0.17863187
97	0x3de017e1	0.109420545
98	0x3d92e6b3	0.07172909
99	0xbdc7e7d8	-0.097610176
100	0xbdd489cf	-0.103778474
101	0x3e184635	0.14870532
102	0xbd937fc3	-0.07202103
103	0xbc9dab4e	-0.019246724
104	0x3d9f6f8c	0.07784948
105	0xbcc3b69f	-0.023890791
106	0x3e147b9e	0.14500281
107	0x3d21d5ea	0.039510645
108	0xbd87e430	-0.0663532
109	0x3e300ad3	0.17191629
110	0x3e2ae362	0.16688302
111	0x3e493199	0.19647826
112	0x3e2e0a60	0.16996145
113	0x3d13f4eb	0.036122244
114	0x3d06e78d	0.032935668
115	0xbe03e737	-0.1288117
116	0x3df267b2	0.118361846
117	0x3ccbfea2	0.024901692
118	0x3e0deafb	0.13859169
119	0xbdede096	-0.11615102
120	0x3d16f235	0.03685208
121	0x3dde6113	0.10858359
122	0x3d9a8e58	0.07546681
123	0xbd99bd48	-0.07506806
124	0x3dc9bda2	0.09850623
125	0xbc0e136d	-0.008671624
126	0x3c82beb8	0.015960082
127	0xbd14cbfd	-0.03632735

lstm.bias_hh_l0 f4 [128]
0	0xbd4ef3a7	-0.050525334
1	0x3d271a59	0.04079661
2	0x3e1bd9db	0.15219824
3	0x3e5f2299	0.21790542
4	0xbd869879	-0.065720506
5	0xbd967a60	-0.0734756
6	0x3cdcbcd5	0.02694551
7	0xbe4ec7f1	-0.20193459
8	0xbe066628	-0.13124907
9	0x3dde5ba1	0.108573206
10	0xbc35c753	-0.011094886
11	0x3da0d5f8	0.07853311
12	0xbd2e9c13	-0.042629313
13	0x3ca9ee32	0.020743463
14	0x3d2dff49	0.042479787
15	0x3e5b3578	0.21407115
16	0x3e206311	0.15662791
17	0x3c5d03cc	0.013489675
18	0x3e379457	0.17927681
19	0xbcfa087b	-0.030521622
20	0x3da3a3d8	0.07990235
21	0x3d898252	0.0671431
22	0x3e56f28f	0.20990966
23	0xbd195146	-0.037431024
24	0xbdde8460	-0.10865092
25	0x3e095c35	0.1341408
26	0xbdfdf0e8	-0.12399465
27	0xbcd128d6	-0.025532167
28	0x3e323648	0.17403519
29	0xbe1859b1	-0.14877965
30	0xbe1bdd36	-0.15221104
31	0xbd45a279	-0.04825065
32	0x3c3f0a07	0.011660106
33	0xbd40817c	-0.046998486
34	0x3c862bc7	0.016378297
35	0x3e350f75	0.17681678
36	0x3dceb7ae	0.10093628
37	0x3e5dbd3c	0.21654218
38	0x3d152828	0.03641525
39	0xbcc8ed1d	-0.024527127
40	0xbdb69550	-0.08915198
41	0x3d93e7cc	0.07221946
42	0xbda459e1	-0.080249555
43	0x3c9443cf	0.01809874
44	0x3c67ff10	0.014159933
45	0xbcc93fb3	-0.024566507
46	0x3d232673	0.03983159
47	0x3db66c15	0.08907334
48	0xbd85711c	-0.065157145
49	0xbdd0c2f0	-0.101934314
50	0xbcf80aec	-0.030278645
51	0xbdaedbac	-0.08537993
52	0xbcd09dda	-0.025465894
53	0xbe020f63	-0.12701182
54	0x3dfc8e38	0.123318136
55	0xbd59066e	-0.052984647
56	0x3dc64864	0.09681776
57	0x3e055dbb	0.13024037
58	0x3e3a53b1	0.18195988
59	0xbd4e152f	-0.05031317
60	0xbd461092	-0.048355646
61	0xbdd45713	-0.103681706
62	0x3e20ac3a	0.15690699
63	0x3d425562	0.04744471
64	0xbdc995a2	-0.09842993
65	0x3e01806f	0.1264665
66	0xbd909002	-0.07058717
67	0xbe22d464	-0.15901333
68	0xbd9bea02	-0.07612993
69	0x3c700aab	0.014650981
70	0x3c682e42	0.014171185
71	0x3df9af21	0.12191606
72	0x3c30d2e6	0.01079247
73	0xbdadd3d8	-0.084876716
74	0x3e39df36	0.18151554
75	0xbcf1b420	-0.029504836
76	0x3e086e86	0.13323411
77	0xbd40964f	-0.047018345
78	0xbe19d145	-0.15021236
79	0xbdb1c11e	-0.08679412
80	0xbdd6b4bf	-0.10483693
81	0xbe03ce8d	-0.12871762
82	0xbd67cc17	-0.05659112
83	0x3d644c62	0.055736907
84	0x3d2b3bd2	0.041805096
85	0xbdb12b48	-0.08650833
86	0x3c541b3e	0.012945948
87	0xbe40d0e4	-0.18829685
88	0xbdaa9404	-0.08329013
89	0x3d337cb8	0.043820113
90	0xbe26f43c	-0.16304106
91	0x3e321ef2	0.17394617
92	0xbe0c9034	-0.13726884
93	0x3d787cda	0.060665943
94	0xbd2ba8cb	-0.04190902
95	0xbcc7086b	-0.024296006
96	0x3e00881b	0.1255192
97	0x3c8f8e39	0.017523872
98	0x3e872a97	0.2639968
99	0x3e2dcd31	0.16972806
100	0x3d1c7388	0.038196117
101	0x3defecb1	0.11715067
102	0x3e03c54c	0.12868232
103	0x3d009b2e	0.03139799
104	0xbdb897a1	-0.09013296
105	0x3de501ee	0.11182009
106	0xbd872ff8	-0.06600946
107	0x3db67d6a	0.089106396
108	0xbdca287d	-0.09871004
109	0xbdfe16d2	-0.124066964
110	0x3d811cc6	0.06304316
111	0x3e2168a1	0.15762569
112	0x3e57bddc	0.2106852
113	0x3e00055d	0.12502046
114	0xba901838	-0.0010993546
115	0x3da86118	0.08221644
116	0xbce40086	-0.02783228
117	0x3e23d397	0.15998684
118	0xbd696f7e	-0.056991093
119	0x3ddb5fcd	0.10711632
120	0xbd84f6bb	-0.064923726
121	0x3b790e2c	0.0038002832
122	0x3de65bbf	0.11247968
123	0xbcfa448b	-0.030550262
124	0xbe043c43	-0.12913613
125	0x3df06ae5	0.117391385
126	0x3e47218a	0.19446388
127	0x3c12f0a6	0.008968508

att.in_proj_weight f4 [96, 32]
0	0xbd1ac27c	-0.03778313
1	0x3e069421	0.13142444
2	0xbea53241	-0.32264903
3	0xbd9cfb5e	-0.07665132
4	0xbd7effcb	-0.062255662
5	0xbcdee512	-0.027208839
6	0xbd248170	-0.040162504
7	0x3df6343c	0.12021682
8	0xbea28332	-0.3174072
9	0xbcf13984	-0.02944637
10	0x3e571ab4	0.2100628
11	0x3e727bd6	0.23680052
12	0xbdf60a0e	-0.120136365
13	0x3cb7aa19	0.022419976
14	0xbdd3d2ba	-0.10342927
15	0xbda153cd	-0.07877312
16	0x3df12827	0.117752366
17	0x3d8a7914	0.06761375
18	0xbd1f7010	-0.03892523
19	0xbe62dee5	-0.2215534
20	0x3e1f9122	0.15582708
21	0x3e377782	0.17916682
22	0x3df195f7	0.11796182
23	0xbe79669a	-0.24355546
24	0x3dc65fae	0.09686218
25	0x3e351c82	0.17686656
26	0xbdb3683c	-0.087601155
27	0xbe02065a	-0.12697735
28	0x3e1eabe0	0.15495253
29	0x3e908f74	0.28234446
30	0xbc1afed6	-0.009460172
31	0xbdd639cc	-0.10460243
32	0xbdbc102c	-0.09182772
33	0x3ca7e76a	0.020496089
34	0xbd876296	-0.06610601
35	0xbd8cf053	-0.06881776
36	0x3e734fef	0.23760961
37	0x3d9e2130	0.07721174
38	0xbde4b54c	-0.11167392
39	0x3e87336e	0.26406425
40	0xbe0575dc	-0.13033241
41	0x3df12422	0.1177447
42	0x3a1872a2	0.00058154215
43	0xbd611dfb	-0.054960232
44	0xbe5ce75f	-0.21572636
45	0xbba58db6	-0.0050522937
46	0x3bcc7d10	0.0062404945
47	0xbe48966a	-0.19588628
48	0x3d06b360	0.03288591
49	0xbd955734	-0.07292023
50	0x3d6ef9fa	0.058343865
51	0x3dddfe33	0.108395
52	0x3e22aa00	0.15885162
53	0x3e2b18a3	0.16708617
54	0xbd11591c	-0.035485372
55	0xbe53893b	-0.20657818
56	0x3e8971df	0.2684469
57	0x3e27afc0	0.16375637
58	0xbd2956bb	-0.04134248
59	0xbe08f66a	-0.1337525
60	0x3e38e1cf	0.18054889
61	0xbb31940d	-0.0027096302
62	0x3d697992	0.057000704
63	0x3d9df7ee	0.077133045
64	0xbd8a340a	-0.06748207
65	0xbe06562e	-0.13118812
66	0x3d762642	0.06009508
67	0xbdb6bed2	-0.08923115
68	0xbe61afa6	-0.22039661
69	0x3ddebb36	0.108755514
70	0xbe3158c3	-0.17319016
71	0x3e2a707e	0.16644475
72	0xbe981150	-0.29700708
73	0x3e04c1a9	0.129645
74	0x3e44a081	0.19201852
75	0x3e684c9c	0.22685474
76	0xbc0dfb39	-0.008665853
77	0x3decc0a1	0.115601785
78	0x3e9372a0	0.2879839
79	0x3d7c1d66	0.061551474
80	0x3c6ea15b	0.014564837
81	0x3d25209c	0.0403143
82	0xbe14e973	-0.14542179
83	0xbc89ba15	-0.016812364
84	0xbe607ca2	-0.21922544
85	0x3e6ca351	0.23109175
86	0xbe3cc4d9	-0.18434466
87	0xbe3a9526	-0.18220958
88	0x3d7c5049	0.061600003
89	0xbdb95e55	-0.090511955
90	0xbe823bfc	-0.2543639
91	0xbdcc9fa6	-0.09991388
92	0x3e4d495d	0.20047517
93	0x3e903d5c	0.28171813
94	0xbe2ec563	-0.17067485
95	0xbe94f67f	-0.29094312
96	0xbda02a15	-0.078205265
97	0x3d56aa1e	0.05240833
98	0x3d86866e	0.06568609
99	0xbd03e1a5	-0.032197613
100	0x3e810b85	0.252041
101	0xbe195ba1	-0.1497636
102	0xbe144801	-0.14480592
103	0xbd953f6d	-0.07287488
104	0xbd03fdbe	-0.03222441
105	0xbe0a0824	-0.13479668
106	0x3d1f29ea	0.03885833
107	0x3e106940	0.1410265
108	0xbdf457ce	-0.1193081
109	0xbcbe0ba1	-0.023198904
110	0xbcdf77bb	-0.027278772
111	0xbc3137fa	-0.0108165685
112	0xbdc4e9fd	-0.09614942
113	0x3d0eb281	0.034838203
114	0x3e5ee2c6	0.21766195
115	0x3e89653f	0.26835057
116	0xbda50441	-0.08057452
117	0xbdefe651	-0.11713851
118	0x3e1b385f	0.15158223
119	0x3dc8719f	0.097872965
120	0x3e1ae880	0.15127754
121	0xbe542f3e	-0.20721146
122	0x3d57648b	0.05258612
123	0xbe2cc9e7	-0.16873895
124	0xba486b88	-0.0007645418
125	0x3d87ce87	0.06631189
126	0xbd4e4f4b	-0.05036859
127	0xbda454ce	-0.08023988
128	0xbd556a6e	-0.052103452
129	0xbdfab83a	-0.1224217
130	0xbe9128e0	-0.28351498
131	0x3e0125e5	0.12612112
132	0xbe329de1	-0.17443039
133	0xbdd15271	-0.102208026
134	0xbe25de7c	-0.16198152
135	0x3beab4fd	0.0071626888
136	0xbe6a5fb5	-0.22888072
137	0x3e00e2c0	0.12586498
138	0x3db70a74	0.08937541
139	0x3d71c6a2	0.05902732
140	0xbd18e7bb	-0.03733037
141	0x3d534ccb	0.051586907
142	0x3de48699	0.11158485
143	0xbe6a579d	-0.22884984
144	0x3e41274d	0.18862648
145	0xbd8dbdab	-0.06920942
146	0xbdf19dad	-0.117976524
147	0xbde1efbf	-0.11032056
148	0xbe380149	-0.1796924
149	0x3e9a1eb9	0.30101565
150	0xbde0cd68	-0.10976678
151	0x3d4389f7	0.047738995
152	0xbdc4eca3	-0.09615447
153	0x3bad84f5	0.0052953907
154	0x3c8c275c	0.017108612
155	0x3e295252	0.16535309
156	0xbc723454	-0.014782984
157	0x3e81d644	0.25358784
158	0x3d81b6ad	0.06333671
159	0xbe4da65b	-0.20082991
160	0xbe1b2f2c	-0.15154713
161	0x3dd9b822	0.10630824
162	0x3d83cfac	0.06436095
163	0x3e0f424b	0.13990133
164	0xbd1f9ab7	-0.038965907
165	0xbc8991fe	-0.016793247
166	0x3e57f701	0.21090318
167	0xbcea1c97	-0.028578086
168	0xbe93eded	-0.2889246
169	0xbb8bcc20	-0.004266277
170	0xbe342620	-0.17592669
171	0x3e1f380f	0.15548728
172	0xbe14395a	-0.14475003
173	0xbcb6b36c	-0.022302352
174	0x3e3b166b	0.1827027
175	0xbe843462	-0.25821215
176	0x3d243c12	0.04009635
177	0x3e0feda6	0.140555
178	0xbdc3721a	-0.095432475
179	0xbe67d973	-0.22641544
180	0xbd121938	-0.03566858
181	0x3e83ba5e	0.25728124
182	0xbdddf46a	-0.10837634
183	0xbd570806	-0.052497886
184	0xbe439d06	-0.19102868
185	0x3e39238e	0.1807997
186	0xbe5dd3bf	-0.21662806
187	0x3e2e275f	0.17007206
188	0xbca31218	-0.019906089
189	0x3d8a541b	0.06754323
190	0xbe9402b7	-0.2890832
191	0xbe560209	-0.20899214
192	0xbd1b5678	-0.03792426
193	0x3c230508	0.00994993
194	0x3cf826b2	0.030291889
195	0x3e13d003	0.14434819
196	0x3d1aa4aa	0.037754692
197	0xbe117b52	-0.14207199
198	0xbd4db364	-0.05021991
199	0xbdc1dd5d	-0.0946605
200	0x3e3943df	0.18092297
201	0xbdf7c228	-0.12097579
202	0xbde2642f	-0.11054265
203	0xbdb98678	-0.09058851
204	0xbdbafe8e	-0.09130584
205	0x3d2d17d1	0.04225904
206	0xbe6d5762	-0.23177865
207	0x3e9b6e66	0.30357665
208	0xbdeef206	-0.11667256
209	0x3d5f8ff4	0.054580644
210	0x3d0e432a	0.03473202
211	0x3da56cf4	0.08077422
212	0xbd8a46c9	-0.067517824
213	0xbea79076	-0.32727402
214	0x3dc3698b	0.09541615
215	0x3d9c40dc	0.076295584
216	0x3c292ff9	0.010326379
217	0x3e245417	0.16047703
218	0xbd2ca109	-0.042145763
219	0x3def9587	0.11698442
220	0xbe8627d1	-0.26202253
221	0x3dc77573	0.097391985
222	0x3e81be9c	0.25340736
223	0xbd8994cb	-0.06717833
224	0x3da90e89	0.082547255
225	0x3e0716c8	0.13192284
226	0x3e92c05b	0.2866238
227	0x3d8b625d	0.06805871
228	0x3da43619	0.08018131
229	0xbd9e0628	-0.07716018
230	0xbe6b7d5e	-0.22997043
231	0xbd697c5a	-0.057003357
232	0x3e8e2ce7	0.27768633
233	0x3e3a0a31	0.1816795
234	0xbe37c751	-0.17947127
235	0x3d8533be	0.0650401
236	0x3e3533af	0.17695497
237	0xbdb40d9d	-0.08791659
238	0xbe8d4353	-0.27590427
239	0x3d40eac7	0.0470989
240	0xbdec62fb	-0.115423165
241	0x3e421292	0.18952397
242	0x3c92f8a1	0.017940821
243	0xbd0cc898	-0.03437099
244	0x3e0bd791	0.13656451
245	0xbe6af23d	-0.22943969
246	0xbdd146b8	-0.10218567
247	0xbd72b826	-0.05925765
248	0xbbd370c1	-0.0064526503
249	0xbcd84f0c	-0.02640488
250	0x3e852930	0.26007986
251	0xbe3315aa	-0.17488733
252	0xbc9d7f3c	-0.01922571
253	0x3dda330d	0.106542684
254	0x3e11d86e	0.14242718
255	0xbc7ee8e7	-0.015558458

att.in_proj_bias f4 [96]
0	0xbccb2a56	-0.02480046
1	0xbcbdb0ac	-0.023155533
2	0xbcaf0b7a	-0.021367777
3	0x3c3dc2c9	0.011582085
4	0xbc6ca9d3	-0.014444786
5	0xbc97fe6c	-0.018553935
6	0x3c8e5d76	0.01737855
7	0x3c88cd91	0.016699584
8	0xbc3b75b7	-0.01144164
9	0x3d13b997	0.036065664
10	0x3d21ee6e	0.039534025
11	0x3b627832	0.0034556505
12	0x3cbb9bff	0.022901533
13	0x3cb18240	0.021668553
14	0xbccf4dee	-0.025305714
15	0xbc506078	-0.012718312
16	0x3ce3e3c1	0.027818562
17	0x3cea7092	0.02861813
18	0x3cb8122c	0.022469603
19	0xbd474130	-0.048646152
20	0x3d8c7f46	0.06860213
21	0x3cdd79dd	0.027035648
22	0x3c82db69	0.015973764
23	0xbd87b202	-0.06625749
24	0xbceac653	-0.028659021
25	0xbbb9ba20	-0.00566794
26	0xbc2d141a	-0.010563875
27	0xbce13dae	-0.027495231
28	0x3d697c5f	0.057003375
29	0x3c9c8540	0.019106507
30	0x3d79b65b	0.060964923
31	0x3c040da3	0.008059892
32	0xba0d1ba9	-0.0005382845
33	0x3afaeff3	0.0019144997
34	0xbaa80520	-0.001281891
35	0x3a403aa1	0.0007332955
36	0xba9e1055	-0.0012059311
37	0xbae8744d	-0.0017734856
38	0x3a38e5b9	0.00070532743
39	0x3a8160fd	0.0009870824
40	0x3abf7195	0.0014605994
41	0x3ae55392	0.0017496219
42	0xba162de5	-0.0005728885
43	0x393c33d3	0.00017948383
44	0x3a587af2	0.00082580664
45	0xb96ab243	-0.00022382387
46	0x39134b5b	0.00014047085
47	0xbaaf2e98	-0.0013365326
48	0x396277cf	0.00021597672
49	0xb902745b	-0.00012441112
50	0xb7489362	-1.1955244e-05
51	0x37bf1a53	2.2781232e-05
52	0xba509d82	-0.0007958041
53	0xb885ac1c	-6.373992e-05
54	0xb90b76ce	-0.00013300331
55	0x3a0bd24c	0.0005333766
56	0x39d78f2f	0.00041114676
57	0x38b3d580	8.5751526e-05
58	0xb660278a	-3.3401616e-06
59	0xb8600ca1	-5.3417523e-05
60	0x39830201	0.0002498776
61	0x383ee2db	4.5510806e-05
62	0x34887314	2.5415704e-07
63	0x3abf539b	0.001459706
64	0x3c86adf7	0.016440375
65	0x3c90a138	0.017655
66	0xbca1c3f7	-0.019746764
67	0xbd2a7d9a	-0.04162369
68	0xbccbca06	-0.024876606
69	0x3d0af094	0.03392084
70	0xbcd55dd7	-0.026045723
71	0xbcd4ccab	-0.0259765
72	0x3abc53ca	0.0014368233
73	0x3c4e4e5b	0.012591924
74	0x3d386c52	0.045025177
75	0xbc74767a	-0.014920825
76	0xbcdd3e2b	-0.027007183
77	0xbc4efbeb	-0.012633304
78	0x3bd7ebd3	0.0065893917
79	0x3c869257	0.016427202
80	0x3ca8ea03	0.020619398
81	0x3c4d5d5f	0.012534468
82	0x3c1e7e22	0.009673627
83	0x3cc203d0	0.023683459
84	0x3dafc058	0.085816085
85	0xbb4eb65a	-0.0031541795
86	0x3d31ebef	0.043437894
87	0x3cf4bbe0	0.029874742
88	0xbbd52c30	-0.0065055117
89	0xbca569ae	-0.020191994
90	0xbc3291ce	-0.01089902
91	0x3cf04cd0	0.029333502
92	0xbce7f6b4	-0.02831588
93	0x3ccbd424	0.02488143
94	0xbcad17d3	-0.021129524
95	0x3c7dd522	0.015492709
