checkpoints/k8_simuSVD/zara2/m_vae_model_best.pth (torch, 79809 bytes, 25 tensors)

V_obs_trunc f4 [16, 8]
-0.04175765 -6.316042e-08 -0.1222491 -6.894169e-08 0.22195552 -8.9577284e-08 -0.30258325 -5.1853766e-07
-0.062179696 0.006059833 -0.17290488 -0.02719695 0.27280125 0.056171875 -0.30253702 -0.08243261
-0.05406762 0.02121256 -0.13779062 -0.091505244 0.17191814 0.17892262 -0.10987273 -0.23820351
-0.035367206 0.052285235 -0.085935436 -0.19593845 0.09477339 0.3030473 -0.040070977 -0.25210458
-0.100790955 0.04231097 -0.224704 -0.13373882 0.18512852 0.14466359 0.038200554 -0.021756668
-0.14667627 0.03337267 -0.27052477 -0.09981499 0.08388045 0.09563181 0.24028586 0.0032104943
-0.08142786 0.10345373 -0.1164636 -0.2622177 -0.03055644 0.14476894 0.13119675 0.1697915
-0.07495706 0.14322205 -0.10099848 -0.27335274 -0.03778264 -0.006838155 0.11173973 0.26761284
-0.19460942 0.07636617 -0.18450631 -0.103985086 -0.19865526 -0.06152737 0.13867877 0.080924675
-0.20933779 0.08833147 -0.101671495 -0.11166253 -0.2458249 -0.07990555 -0.07028861 0.07897161
-0.09627664 0.2225278 -0.011849028 -0.16398424 -0.09431185 -0.25634724 -0.08078163 -0.038111098
-0.13639535 0.22077136 -0.0042877104 -0.049407337 -0.12584457 -0.21386032 -0.12952766 -0.19462141
-0.28865832 0.10208994 0.10604186 0.01016697 -0.11886809 -0.061540592 -0.2501745 -0.08795557
-0.23927927 0.17861597 0.17489593 0.040751275 0.05997771 -0.081458904 -0.043304123 -0.15183057
-0.11184068 0.34099653 0.102267556 0.20621128 0.07228651 0.06720279 0.04324757 -0.06911777
2.6748403e-10 0.5010011 -1.7530938e-07 0.4581565 2.2898917e-07 0.42100754 -9.759904e-08 0.35720462
00000000: 120a 2bbd cfa2 87b3 bc5d fabd 180d 94b3
00000010: 4f48 633e a25d c0b3 31ec 9abe a331 0bb5
00000020: 23b0 7ebd 9091 c63b fa0d 31be 23cc debc
00000030: 9bac 8b3e 7b14 663d 22e6 9abe 6ed2 a8bd
00000040: 0276 5dbd f6c5 ad3c fc18 0dbe 1a67 bbbd
00000050: 4f0b 303e 7e37 373e f404 e1bd 9feb 73be
00000060: 34dd 10bd 0b29 563d ebfe afbd 17a4 48be
00000070: 8d18 c23d 0429 9b3e 7721 24bd da13 81be
00000080: 7d6b cebd 454e 2d3d ce18 66be d4f2 08be
00000090: 5592 3d3e b122 143e 2f78 1c3d 0a3b b2bc
000000a0: 4e32 16be c8b1 083d 3982 8abe cd6b ccbd
000000b0: 83c9 ab3d 9cda c33d 7f0d 763e 2867 523b
000000c0: a6c3 a6bd 8ddf d33d 7884 eebd 6641 86be
000000d0: 8051 fabc 4f3e 143e 7158 063e d3dd 2d3e
000000e0: 1683 99bd cda8 123e 4bd8 cebd e4f4 8bbe
000000f0: f8c1 1abd 9a12 e0bb cdd7 e43d 8d04 893e
00000100: b147 47be de65 9c3d 39ef 3cbe 22f6 d4bd
00000110: 496c 4bbe 2004 7cbd cf01 0e3e d6bb a53d
00000120: a55c 56be 21e7 b43d 2539 d0bd 53af e4bd
00000130: 86b9 7bbe 85a5 a3bd 7af3 8fbd debb a13d
00000140: b02c c5bd 54de 633e 6d22 42bc 7ceb 27be
00000150: 9226 c1bd f23f 83be d770 a5bd 621a 1cbd
00000160: 39ab 0bbe e311 623e ec7f 8cbb 595f 4abd
00000170: 66dd 00be 33fe 5abe e6a2 04be d64a 47be
00000180: 06cb 93be 8814 d13d 7a2c d93d 5d93 263c
00000190: 1d71 f3bd fd11 7cbd df16 80be 0d22 b4bd
000001a0: a005 75be 1be7 363e eb17 333e cfea 263d
000001b0: 30ab 753d edd3 a6bd aa5f 31bd 7979 1bbe
000001c0: ba0c e5bd 1997 ae3e a771 d13d 0d29 533e
000001d0: f30a 943d 9ea1 893d 5d24 313d 9e8d 8dbd
000001e0: 080d 932f 9c41 003f ad3c 3cb4 7d93 ea3e
000001f0: 10e0 7534 4d8e d73e a497 d1b3 86e3 b63e

conv_layers.0.weight f4 [64, 1, 3]
0.39296925 0.4941281 -0.15410192 0.59068805 0.29283032 0.35326892 0.20110798 0.06411477
-0.03591321 0.49540794 0.5357621 -0.16428427 -0.39660054 0.5443483 0.5458535 0.5136222
0.33505467 0.10786105 0.37363076 0.30490667 0.49006236 -0.016475394 -0.08365073 0.60051954
-0.4574541 -0.40162027 -0.61447674 0.012337188 0.15462178 0.07684754 -0.07623068 -0.0991314
-0.3244015 0.4373994 0.43923518 -0.12291333 -0.025540538 0.2693963 -0.19535619 0.081757456
0.52907884 -0.15244433 -0.15617752 -0.122859545 -0.33955708 -0.5086947 0.56566757 0.09148067
0.051879812 -0.311723 0.050841484 -0.26965398 0.51916957 -0.4189072 -0.32993492 0.28456098
-0.05405817 0.27153832 -0.49320516 0.36758828 0.2383851 0.38893703 0.5526008 0.289367
0.40075472 -0.36064726 -0.16313931 -0.56479585 0.35097104 0.38855833 0.56876177 -0.382854
-0.5234115 0.49469703 -0.47231677 0.35594982 0.3350739 -0.5267902 0.10722251 0.012847745
-0.03717771 0.40302798 -0.033106826 -0.23426078 0.3778848 -0.2724133 -0.39258072 -0.16399613
-0.0051635327 -0.38925725 -0.0012127983 0.27070847 -0.46646187 0.41131335 -0.50207067 0.014358317
0.22554736 0.16111368 -0.5077656 0.15862964 -0.18686135 -0.1856179 -0.036677446 0.027023327
0.27077913 -0.27701885 0.3193234 -0.4087587 -0.06467269 0.3309942 -0.17133683 0.16724095
-0.5000768 -0.09677035 -0.35312527 0.4761182 0.30083245 -0.28859305 -0.044290755 -0.6235475
-0.16191168 0.25575355 -0.123878404 -0.550356 0.32509133 0.44443324 0.57240677 -0.32995158
-0.48430234 0.3036217 -0.39051172 0.24861786 -0.37272573 -0.5347752 0.5821475 -0.64392656
-0.4986175 0.23150302 0.60553765 -0.2119224 -0.30529165 0.44125652 -0.03211777 -0.18499872
-0.100011766 0.3656667 0.31219372 0.2298111 0.26283452 0.42585057 0.32879743 0.48636705
0.2802124 -0.0683192 -0.6079495 -0.3514773 0.15282169 -0.48212644 0.14087236 -0.6267448
-0.48246998 -0.52529395 0.49912214 0.47208607 -0.49702108 -0.29606628 -0.048291475 0.1526151
0.3113108 -0.29691473 0.6080165 -0.4945572 -0.25078028 0.35798928 -0.3546766 0.2600729
-0.11830594 0.30796865 -0.0900777 0.1866441 0.28759715 -0.36980873 -0.19093229 0.3930035
0.5265831 0.10278187 -0.17440884 0.37603918 -0.3595658 -0.4110963 -0.5882613 0.17236961
00000000: 4433 c93e 5cfe fc3e e5cc 1dbe 5537 173f
00000010: dbed 953e aadf b43e 40ef 4d3e 9b4e 833d
00000020: bb19 13bd 1ca6 fd3e b427 093f 233a 28be
00000030: 3a0f cbbe 695a 0b3f 0ebd 0b3f bf7c 033f
00000040: 498c ab3e 41e6 dc3d 884c bf3e ba1c 9c3e
00000050: 74e9 fa3e 68f7 86bc 1351 abbd a6bb 193f
00000060: 6c37 eabe 2ca1 cdbe 594e 1dbf eb21 4a3c
00000070: 2c55 1e3e 3e62 9d3d d51e 9cbd 6705 cbbd
00000080: f417 a6be d0f2 df3e 6fe3 e03e fcb9 fbbd
00000090: 643a d1bc 50ee 893e 740b 48be 7470 a73d
000000a0: b671 073f 5e1a 1cbe 00ed 1fbe c99d fbbd
000000b0: 6dda adbe d139 02bf 97cf 103f 385a bb3d
000000c0: ed7f 543d 289a 9fbe 293f 503d 1610 8abe
000000d0: 4ce8 043f 017b d6be 3bed a8be fab1 913e
000000e0: 1a6c 5dbd 1207 8b3e 6385 fcbe 8834 bc3e
000000f0: 391b 743e c122 c73e 3f77 0d3f e927 943e
00000100: b92f cd3e c2a6 b8be fe0d 27be 7696 10bf
00000110: 7ab2 b33e 1ef1 c63e 5f9a 113f 7105 c4be
00000120: 4cfe 05bf ee48 fd3e 81d3 f1be 0e3f b63e
00000130: ce8e ab3e b9db 06bf 7a97 db3d 597f 523c
00000140: a847 18bd af59 ce3e 069b 07bd 0fe2 6fbe
00000150: 1e7a c13e c279 8bbe 5700 c9be 9aee 27be
00000160: da32 a9bb ba4c c7be c2f6 9eba 4d9a 8a3e
00000170: 17d4 eebe aa97 d23e b487 00bf 253f 6b3c
00000180: e3f5 663e fcfa 243e edfc 01bf cf6f 223e
00000190: 9558 3fbe 9e12 3ebe 173b 16bd 0660 dd3c
000001a0: 90a3 8a3e 6ad5 8dbe 5b7e a33e d248 d1be
000001b0: 1e73 84bd 1278 a93e ec72 2fbe 3641 2b3e
000001c0: 0805 00bf 892f c6bd d6cc b4be c4c5 f33e
000001d0: b606 9a3e 78c2 93be 396a 35bd cfa0 1fbf
000001e0: 2dcc 25be 21f2 823e f6b3 fdbd 21e4 0cbf
000001f0: 5f72 a63e c18c e33e 4089 123f 6aef a8be
00000200: 7af6 f7be 4e74 9b3e 27f1 c7be ae95 7e3e
00000210: e8d5 bebe 07e7 08bf 9e07 153f 5fd8 24bf
00000220: cb4a ffbe 210f 6d3e 8404 1b3f 3002 59be
00000230: 304f 9cbe 60ec e13e ec8d 03bd 4e70 3dbe
00000240: f8d2 ccbd aa38 bb3e dbd7 9f3e 9a53 6b3e
00000250: 3f92 863e 1609 da3e 2358 a83e 1a05 f93e
00000260: 0078 8f3e f0ea 8bbd 94a2 1bbf d5f4 b3be
00000270: 4a7d 1c3e 47d9 f6be d840 103e 5972 20bf
00000280: 4e06 f7be aa79 06bf f08c ff3e 44b5 f13e
00000290: 8c79 febe 0096 97be 48cd 45bd 2247 1c3e
000002a0: 2164 9f3e 3505 98be f8a6 1b3f 9a36 fdbe
000002b0: 4666 80be 5f4a b73e 2c98 b5be 4628 853e
000002c0: 624a f2bd 11ae 9d3e a87a b8bd a21f 3f3e
000002d0: ef3f 933e 9257 bdbe c183 43be c137 c93e
000002e0: 26ce 063f 4d7f d23d 3b98 32be 3588 c03e
000002f0: 0219 b8be 377b d2be 4b98 16bf a981 303e

conv_layers.0.bias f4 [64]
-0.16375348 -0.1464324 0.21981779 -0.365 -0.10257001 -0.50914645 -0.30540213 0.31100467
-0.24482718 -0.11784397 -0.5037505 -0.44244018 0.44549212 0.13505098 0.6433397 -0.5101051
-0.33152053 0.19544564 0.18991648 0.5755852 0.37931576 0.15402047 0.055037417 -0.27011973
0.0045411466 0.059476685 -0.43874952 -0.30005407 0.10859622 -0.31565058 0.37576413 -0.45565614
-0.45009017 -0.12195639 -0.5311039 -0.06265425 -0.27637434 0.44400352 -0.40100533 0.09029351
0.5419916 -0.28347692 0.2867643 -0.41125086 0.45844185 0.14784403 0.28279862 -0.27628264
0.23607668 -0.53030914 0.27588674 -0.1442294 -0.151009 -0.11797147 0.5673866 0.117902175
0.40984315 0.50075847 -0.09018426 -0.15036593 0.54391485 0.3817917 0.42734236 0.330988
00000000: feae 27be 60f2 15be ea17 613e 48e1 babe
00000010: 3a10 d2bd 6c57 02bf ab5d 9cbe 013c 9f3e
00000020: fab3 7abe 2e58 f1bd cbf5 00bf 8587 e2be
00000030: 8b17 e43e ce4a 0a3e e9b1 243f 3f96 02bf
00000040: 0fbd a9be e722 483e 7779 423e 8d59 133f
00000050: ad35 c23e 8bb7 1d3e ea6e 613d 224d 8abe
00000060: e6cd 943b d39d 733d c7a3 e0be b0a0 99be
00000070: b267 de3d f49c a1be 2864 c03e c34b e9be
00000080: 3872 e6be 46c4 f9bd 6df6 07bf df50 80bd
00000090: f080 8dbe 6e54 e33e 9250 cdbe ceeb b83d
000000a0: f6bf 0a3f e323 91be c5d2 923e 798f d2be
000000b0: e4b8 ea3e 6d64 173e fbca 903e eb74 8dbe
000000c0: 16be 713e 57c2 07bf 0741 8d3e dfb0 13be
000000d0: 1aa2 1abe 079b f1bd 4040 113f b276 f13d
000000e0: f6d6 d13e b531 003f 86b2 b8bd 87f9 19be
000000f0: 013e 0b3f 347a c33e 9ecc da3e 4277 a93e

conv_layers.2.weight f4 [32, 64, 3]
0.09182787 0.016647246 -0.03636964 0.0077675716 0.038500424 -0.06081874 0.046039373 -0.0003854402
-0.015285439 -0.012301222 0.09831129 -0.05590766 -0.028586606 -0.07471227 -0.07865815 0.002040132
0.087870784 -0.07544353 -0.034015838 -0.049056705 -0.030734636 0.0029009115 -0.025524458 0.024788782
-0.030406186 -0.007409782 0.023276705 0.07085718 0.04727453 -0.019298775 -0.09510777 0.08023303
0.083303966 -0.0050290897 0.06270076 -0.07350983 0.122314915 -0.024028346 -0.0923019 0.0021283291
0.0347606 -0.09298755 0.05780749 0.09410564 0.06907933 0.07288507 -0.023385111 -0.018315628
0.032472484 -0.014418724 -0.03334358 -0.0019329133 -0.062364765 -0.04440329 0.037648745 -0.006137873
-0.023659585 0.00819122 0.0028791635 0.13116027 -0.005460428 0.022239039 -0.028609974 0.01648063
0.06077852 -0.061699387 0.13276142 -0.11584214 0.06880142 0.06470209 -0.014731658 -0.052229308
0.0662239 -0.106431805 -0.027871666 0.13355853 0.042801574 -0.14077531 -0.08959094 0.07096568
0.0459819 -0.02948903 0.043007422 0.043020464 -0.005455801 0.11490835 0.17117602 0.028626764
0.015259441 0.08361997 -0.01836486 -0.04646063 -0.025039785 -0.083027475 0.08882629 0.072721615
-0.055097934 0.0030101382 -0.11916933 -0.012400756 0.0934723 0.061026327 0.0030784905 -0.016812753
0.104209304 0.005967299 0.024039714 -0.13287741 0.039574202 -0.005403972 -0.0072006867 0.02768097
0.008612405 0.10588852 0.041884284 -0.026520617 -0.14848587 0.04730113 0.02941878 0.07543363
0.018429771 0.0009269114 -0.022550192 0.123342596 -0.060136214 -0.07160642 -0.045663375 0.14584133
0.09365861 -0.038207185 0.027483061 0.15001966 0.08137298 -0.089531586 0.06653863 0.044891044
-0.049865324 0.03838148 -0.08007881 0.16921493 0.027651198 -0.006031784 0.137962 0.106128894
0.08714514 -0.035597652 -0.104681715 0.016944354 -0.07494955 -0.05720263 -0.017212762 0.036387596
0.020731201 0.051214628 -0.02424248 0.037977483 -0.18767038 -0.0010215852 0.017067876 0.041286677
0.01735219 0.073277 0.007152722 0.084284216 -0.108925104 0.10220899 0.09895311 0.022599408
0.01626187 0.03344075 0.027143562 0.12686743 -0.08879809 -0.012441661 0.00022701368 -0.11281178
-0.031129861 -0.040868223 -0.022799166 0.094520204 0.022038652 0.1980783 0.07766137 0.039504103
0.013118773 -0.09878009 0.014147054 -0.03903519 -0.13020778 0.057787795 0.02025645 0.032188613
-0.024852982 -0.017428646 0.050822333 0.026175322 0.036436558 0.018953582 0.08642809 0.039056364
0.063190185 0.056404334 -0.02548845 -0.03880077 -0.040134232 0.029175157 0.038170192 -0.03202984
0.08846297 0.045807447 0.042688176 0.021486273 -0.0036163055 0.041233744 -0.05183466 0.022032002
0.000889438 0.04083288 0.058070183 -0.026925405 -0.03354131 -0.036967292 0.053758632 0.0012289454
0.0663612 0.02780817 -0.03124862 -0.06409237 -0.03546418 0.032533683 0.062158227 0.087568834
0.08722426 -0.05362253 0.0007766178 -0.023775328 -0.052941754 -0.0016475552 -0.04445329 0.03824615
0.07168558 -0.0083458545 0.097320944 0.031773873 -0.010955649 -0.003432903 0.065212116 0.062951215
0.041551244 0.075706415 0.07404104 0.02659954 0.02545382 0.06727373 -0.050703026 0.05023199
00000000: 4010 bc3d ce5f 883c 55f8 14bd 1d87 fe3b
00000010: 9fb2 1d3d 121d 79bd c893 3c3d e814 cab9
00000020: c76f 7abc 118b 49bc 6e57 c93d 6eff 64bd
00000030: 752e eabc bf02 99bd 8617 a1bd bcb3 053b
00000040: 99f5 b33d 2382 9abd 3154 0bbd afef 48bd
00000050: 34c7 fbbc 381d 3e3b ab18 d1bc d811 cb3c
00000060: 6516 f9bc c2cd f2bb caae be3c 921d 913d
00000070: f0a2 413d 7718 9ebc ddc7 c2bd 3751 a43d
00000080: 459b aa3d 10cb a4bb 4269 803d 528c 96bd
00000090: 3e80 fa3d 18d7 c4bc c708 bdbd 707b 0b3b
000000a0: 2261 0e3d 4270 bebd 8cc7 6c3d 75ba c03d
000000b0: 7779 8d3d c544 953d 2292 bfbc a80a 96bc
000000c0: de01 053d 833c 6cbc 4793 08bd cf59 fdba
000000d0: 3272 7fbd 39e0 35bd 9235 1a3d 3620 c9bb
000000e0: bfd1 c1bc 7834 063c 59b0 3c3b e14e 063e
000000f0: 64ed b2bb a52e b63c 775f eabc 6302 873c
00000100: e6f2 783d 7fb8 7cbd 9cf2 073e a53e edbd
00000110: c2e7 8c3d 8882 843d 0d5d 71bc 66ee 55bd
00000120: 65a0 873d ebf8 d9bd 1f53 e4bc 91c3 083e
00000130: b450 2f3d 6727 10be 747b b7bd 7456 913d
00000140: 8457 3c3d fa92 f1bc 8d28 303d 3a36 303d
00000150: 93c6 b2bb 1255 eb3d c448 2f3e ad82 ea3c
00000160: bc02 7a3c f240 ab3d e771 96bc 804d 3ebd
00000170: 3c20 cdbc 4f0a aabd 8fea b53d 12ef 943d
00000180: 5fae 61bd bd45 453b 0d0f f4bd 8a2c 4bbc
00000190: 686e bf3d bef6 793d 80c0 493b e6ba 89bc
000001a0: b06b d53d 5589 c33b efee c43c 0411 08be
000001b0: 8f18 223d ce13 b1bb bdf3 ebbb 34c3 e23c
000001c0: 0b1b 0d3c 15dc d83d db8e 2b3d c441 d9bc
000001d0: ae0c 18be d4be 413d a7ff f03c f27c 9a3d
000001e0: 08fa 963c f9fb 723a 2ebb b8bc 0b9b fc3d
000001f0: 6451 76bd 63a6 92bd 8509 3bbd 6e57 153e
00000200: 16d0 bf3d 237f 1cbd 2824 e13c c19e 193e
00000210: e0a6 a63d 565c b7bd 6845 883d acdf 373d
00000220: 953f 4cbd e635 1d3d 5c00 a4bd ae46 2d3e
00000230: c484 e23c 46a6 c5bb e945 0d3e 1b5a d93d
00000240: 2779 b23d d8ce 11bd 5e63 d6bd e3ce 8a3c
00000250: 267f 99bd 4e4d 6abd c701 8dbc 290b 153d
00000260: 7bd4 a93c 6ec6 513d 2a98 c6bc 478e 1b3d
00000270: aa2c 40be b6e6 85ba eed1 8b3c 381c 293d
00000280: 2e26 8e3c 4012 963d 6261 ea3b 349d ac3d
00000290: 2014 dfbd f252 d13d eea7 ca3d 6522 b93c
000002a0: 9d37 853c 2bf9 083d 2d5c de3c 89e9 013e
000002b0: c6db b5bd 1cd8 4bbc 850a 6e39 dd09 e7bd
000002c0: 0d04 ffbc 7065 27bd 51c5 babc cf93 c13d
000002d0: 678a b43c 0ad5 4a3e ed0c 9f3d 0ecf 213d
000002e0: 1ff0 563c 374d cabd 0cc9 673c 5de3 1fbd
000002f0: 3055 05be e5b2 6c3d dbf0 a53c 35d8 033d
00000300: 7b98 cbbc 85c6 8ebc 142b 503d a16d d63c
00000310: 803e 153d 8b44 9b3c 3601 b13d 91f9 1f3d
00000320: db69 813d 3b08 673d 27cd d0bc 8eed 1ebd
00000330: cb63 24bd bd00 ef3c 5958 1c3d b931 03bd
00000340: 132c b53d 97a0 3b3d ccd9 2e3d fb03 b03c
00000350: 8aff 6cbb b7e4 283d 9550 54bd 757c b43c
00000360: 2c29 693a 6140 273d 00db 6d3d ab92 dcbc
00000370: 9d62 09bd 046b 17bd 0332 5c3d 9114 a13a
00000380: 61e8 873d f6cd e33c 1bfd ffbc dc42 83bd
00000390: e342 11bd 0a42 053d a099 7e3d 4a57 b33d
000003a0: a2a2 b23d 4ca3 5bbd f095 4b3a 7ac4 c2bc
000003b0: 74d9 58bd c7f2 d7ba a714 36bd ffa7 1c3d
000003c0: e4cf 923d 0dbd 08bc 3450 c73d 5225 023d
000003d0: 537f 33bc 8efa 60bb ee8d 853d 91ec 803d
000003e0: a331 2a3d f70b 9b3d d4a2 973d 47e7 d93c
000003f0: 8884 d03c cfc6 893d faad 4fbd 0fc0 4d3d

conv_layers.2.bias f4 [32]
0.0777662 -0.05356876 0.041673534 0.0547503 0.09141899 0.08335631 0.04055703 0.10546377
0.049465742 0.028399417 0.083382525 -0.028407617 0.07808371 0.11322751 0.11066429 -0.06490608
-0.026665952 -0.04727517 -0.0377473 0.06403123 0.017579846 0.0050190133 0.0060559227 0.047731444
0.062506564 0.0036436568 0.06563101 0.0004014896 0.071593426 0.107580535 -0.024939202 0.09341479
00000000: e343 9f3d eb6a 5bbd deb1 2a3d da41 603d
00000010: e139 bb3d b7b6 aa3d 211f 263d 64fd d73d
00000020: 979c 4a3d e5a5 e83c 75c4 aa3d 17b7 e8bc
00000030: 5aea 9f3d d3e3 e73d f6a3 e23d 7bed 84bd
00000040: 8e72 dabc 9ca3 41bd ea9c 1abd ce22 833d
00000050: 9c03 903c 8976 a43b c370 c63b 0c82 433d
00000060: 7103 803d 6bca 6e3b 8d69 863d 067f d239
00000070: 939f 923d 2f53 dc3d 4c4d ccbc 4150 bf3d

lstm.weight_ih_l0 f4 [128, 32]
0.042017467 0.122434415 -0.05385059 -0.18488699 0.04936152 0.0046152086 -0.052631177 0.15347819
0.032003306 0.065298446 0.18134265 0.008411404 0.102840625 -0.0839706 0.17970334 0.041863892
-0.009953345 -0.08632659 0.057589818 0.12643294 0.17505704 -0.26887944 0.058651797 -0.03412618
0.053685967 0.15732248 0.11826661 0.13223255 -0.047508523 0.14300676 0.064763896 0.1797889
-0.038919594 -0.027556116 -0.01542925 0.16961746 -0.058062702 -0.07395106 0.15850993 -0.073967166
0.052004267 0.20411159 0.060617477 0.15623471 -0.029010743 -0.062184475 -0.14456876 -0.07263918
-0.17419586 -0.16926621 0.01706017 0.12642136 0.16303553 0.17171876 -0.012308872 -0.08265065
0.023029381 0.09392669 -0.116338044 0.068132356 0.12573737 -0.031509764 0.14258392 -0.08634447
0.1235385 -0.120577 -0.12855339 -0.1311911 -0.015298026 0.015643112 0.022126688 0.09763064
0.048708823 0.18600512 0.13817272 0.008567608 0.1575143 -0.08143364 -0.020507578 0.19612755
-0.0064129825 0.06326915 -0.103754476 0.20940915 -0.087334014 -0.14236677 0.052596234 -0.09799414
-0.16310613 -0.17206427 -0.030752717 0.09552746 0.15395813 0.039321043 0.0012625168 0.059510574
-0.2258757 -0.08932514 0.039242934 0.1465423 0.14619093 -0.13223004 0.05779561 -0.11985836
0.025230993 0.03733601 0.05486324 -0.054249857 0.12582156 0.106304646 -0.07786295 -0.110223114
-0.039632376 -0.080293536 -0.0094744135 -0.14696717 0.058181994 0.15939489 0.12018089 0.09930905
-0.17155787 0.096449226 0.042484857 -0.05763194 -0.17475659 -0.11059496 0.22662133 -0.07325054
0.14905833 0.035682745 -0.19377185 -0.13302189 0.20478387 0.027334167 -0.1087316 -0.026682142
0.028156906 -0.04568921 0.1995255 -0.14580218 -0.009431967 -0.011334067 0.1165568 -0.13719709
-0.07799328 0.13346088 0.17818475 -0.02418936 0.016070234 0.026571123 -0.07225952 0.007685439
0.011439436 -0.065792836 0.03996253 -0.12527691 0.056253605 0.17954727 -0.10252611 -0.110442616
0.06861256 0.18670607 0.03306605 0.24484871 0.13408232 0.11400343 -0.04184629 0.15944983
0.17214292 0.21176021 0.16711457 0.065979406 0.17062458 0.037438333 -0.0757577 0.088349
0.051237993 -0.15464137 0.08394243 0.11793759 0.001911944 0.09719066 0.10419557 0.02376016
-0.06302196 0.18867081 -0.11407561 -0.04981577 0.18074207 -0.012981451 0.045157418 -0.04303682
0.055161845 -0.13572067 -0.035729773 0.057133075 -0.19083746 -0.069821306 0.1979569 -0.03867372
0.20087236 -0.1255322 0.18354714 -0.118688606 0.20712715 -0.073428005 0.032802593 0.07314987
-0.09187262 -0.07399144 0.084786594 -0.025218042 0.12170236 0.0040937797 0.035841748 0.14853346
0.012677731 0.20625104 -0.040114723 0.08946956 0.05446305 -0.06307289 -0.051292446 -0.062356018
0.2911526 0.073393136 -0.051088206 -0.1276045 -0.059426814 0.27797937 0.13359925 0.091500595
0.09517744 0.02288746 0.090284914 0.086332075 0.07764981 0.021932952 0.17857894 0.004151805
0.073113255 -0.13147533 0.20904009 -0.045006093 0.08182134 0.04609756 -0.1186704 0.10502465
0.07487647 0.13169934 -0.007498749 0.04689389 0.015233539 0.20184548 0.14199056 0.1624496
00000000: 821a 2c3d e5be fa3d 7092 5cbd 0453 3dbe
00000010: 4e2f 4a3d 2d3b 973b ca93 57bd 6329 1d3e
00000020: e615 033d 31bb 853d e3b1 393e fccf 093c
00000030: 1b9e d23d c7f8 abbd 2704 383e 7979 2b3d
00000040: 5b13 23bc ffcb b0bd 4de3 6b3d a377 013e
00000050: 2742 333e 91aa 89be de3c 703d e5c7 0bbd
00000060: d1e5 5b3d 2519 213e c435 f23d f867 073e
00000070: 4c98 42bd 5d70 123e efa2 843d 951a 383e
00000080: 276a 1fbd 5dbd e1bc f7ca 7cbc 33b0 2d3e
00000090: 28d3 6dbd a773 97bd 6d50 223e 197c 97bd
000000a0: 6d02 553d a102 513e 084a 783d fefb 1f3e
000000b0: f0a7 edbc 26b5 7ebd d509 14be dac3 94bd
000000c0: 6660 32be 1f54 2dbe c5c1 8b3c 9a74 013e
000000d0: c9f2 263e 0bd7 2f3e 27ab 49bc be44 a9bd
000000e0: 1da8 bc3c a35c c03d a442 eebd fa88 8b3d
000000f0: 4cc1 003e 6210 01bd 8501 123e 5fd5 b0bd
00000100: c101 fd3d 13f1 f6bd 80a3 03be f656 06be
00000110: 92a4 7abc fc25 803c 0743 b53c 93f2 c73d
00000120: e782 473d 2078 3e3e 267d 0d3e 275f 0c3c
00000130: 6e4b 213e aec6 a6bd 82ff a7bc a9d5 483e
00000140: ff23 d2bb 4293 813d 3a7d d4bd 5a6f 563e
00000150: 2ddc b2bd 98c8 11be 266f 573d 27b1 c8bd
00000160: 4b05 27be 9e31 30be 1fed fbbc e7a3 c33d
00000170: 33a7 1d3e 1a0f 213d 097b a53a 5cc1 733d
00000180: f64b 67be 19f0 b6bd 33bd 203d 2f0f 163e
00000190: 13b3 153e 5067 07be 17bb 6c3d 4d78 f5bd
000001a0: 3ab1 ce3c a5ed 183d 47b8 603d 1935 5ebd
000001b0: 5ed7 003e 40b6 d93d 9c76 9fbd a8bc e1bd
000001c0: 8f55 22bd f070 a4bd 923a 1bbc 907e 16be
000001d0: 3e50 6e3d 6a38 233e 6621 f63d 8b62 cb3d
000001e0: deac 2fbe 2c87 c53d 9a04 2e3d 780f 6cbd
000001f0: 64f3 32be 9c7f e2bd 6c0f 683e 6104 96bd
00000200: bfa2 183e 1228 123d 216c 46be e436 08be
00000210: ddb2 513e e7eb df3c acae debd 8294 dabc
00000220: 50a9 e63c 9c24 3bbd 6a50 4c3e 2b4d 15be
00000230: 8988 1abc 86b2 39bc 55b5 ee3d 657d 0cbe
00000240: f1ba 9fbd f8a9 083e 1076 363e c428 c6bc
00000250: b9a5 833c afab d93c cdfc 93bd 23d6 fb3b
00000260: 796c 3b3c 65be 86bd c0af 233d 9748 00be
00000270: 2e6a 663d 3ddb 373e 36f9 d1bd bd2f e2bd
00000280: be84 8c3d e02f 3f3e 4470 073d 9fb9 7a3e
00000290: e04c 093e a17a e93d 0467 2bbd d146 233e
000002a0: 3c46 303e abd7 583e 1520 2b3e 3620 873d
000002b0: 36b8 2e3e f058 193d da26 9bbd 52f0 b43d
000002c0: eede 513d 4f5a 1ebe 02ea ab3d 4389 f13d
000002d0: 329a fa3a e60b c73d 7d64 d53d aba4 c23c
000002e0: a811 81bd ec32 413e 79a0 e9bd 9f0b 4cbd
000002f0: 7314 393e 27b0 54bc fcf6 383d 6047 30bd
00000300: 63f1 613d 5cfa 0abe 6259 12bd 5f04 6a3d
00000310: e56a 43be 79fe 8ebd 37b5 4a3e 5668 1ebd
00000320: 7cb1 4d3e 838b 00be c8f3 3b3e 0313 f3bd
00000330: 2419 543e 6c61 96bd 035c 063d 99cf 953d
00000340: b627 bcbd d388 97bd 98a4 ad3d 1196 cebc
00000350: 163f f93d 1d25 863b ccce 123d 2819 183e
00000360: 42b6 4f3c 7933 533e 564f 24bd d13b b73d
00000370: a614 5f3d 5c2c 81bd 0718 52bd 0669 7fbd
00000380: f411 953e 244f 963d de41 51bd c1aa 02be
00000390: 8869 73bd 5053 8e3e 3ece 083e aa64 bb3d
000003a0: 64ec c23d 7c7e bb3c 4ce7 b83d dfce b03d
000003b0: dd06 9f3d bcac b33c 66dd 363e dd0b 883b
000003c0: 67bc 953d 78a1 06be 9b0e 563e 4f58 38bd
000003d0: f291 a73d ccd0 3c3d 7709 f3bd 2a17 d73d
000003e0: d658 993d 31dc 063e 11b8 f5bb cf13 403d
000003f0: 1896 793c 95b0 4e3e f965 113e 3059 263e

lstm.weight_hh_l0 f4 [128, 32]
-0.03594951 -0.24507864 0.03490326 -0.21543865 0.1427636 -0.079880685 0.033210177 0.029935427
0.06239285 0.027543306 -0.1273016 0.12310773 0.24469534 -0.02055294 -0.11119832 -0.028097898
-0.010998694 -0.1987005 0.23446119 -0.2285762 -0.09687592 -0.13254777 -0.102749966 0.16906998
-0.12511821 -0.027280912 -0.2318716 -0.15659174 -0.025561804 0.1293444 0.09710269 0.22203639
-0.14881 0.14725585 0.06313171 -0.19836886 -0.022805171 0.024976315 -0.017754473 0.0023869271
-0.046047546 0.17564245 -0.11608781 -0.12955593 -0.1928694 -0.097325645 0.19650425 0.05506017
-0.025523515 0.14426322 -0.10861672 -0.06878454 -0.062732555 -0.071858265 0.061643336 -0.030460853
0.13867551 -0.03608579 0.04620154 0.026548082 -0.095924936 0.06109351 -0.008469664 0.018114401
0.15159261 0.1730192 -0.20435289 -0.13647224 -0.009945518 -0.11652314 0.04862025 -0.015476942
-0.048479367 -0.12324481 0.10406124 0.09798454 0.039365098 0.11874932 -0.06433558 0.045195397
-0.15318061 -0.18497023 0.06753245 -0.07302767 -0.093201205 -0.12042836 0.0034831853 0.0734291
-0.095735 -0.0019724977 0.017709484 0.075835645 -0.0021730142 0.034598917 -0.10310159 0.118246
-0.010557786 0.13292085 0.22122714 0.06720841 0.036207344 0.34266365 -0.010564963 0.3705216
0.072944336 -0.09410721 0.10441155 -0.1069227 0.011254899 -0.049467355 0.03115976 0.048663557
0.0044099675 0.34806278 -0.13418488 0.02387292 -0.0824884 -0.26779878 -0.048700813 -0.15472895
-0.047451574 -0.0060516433 -0.2042353 0.016481297 -0.009113586 0.15892856 0.083205454 0.07345022
0.057222515 -0.04912899 0.003892515 -0.0615094 -0.16127858 -0.08786352 -0.1260588 -0.14437547
0.168785 0.10543607 0.061447665 0.08293668 -0.12304029 0.19810286 0.07934653 0.025876535
0.14301424 -0.114971064 -0.055984136 -0.010186748 -0.045093562 -0.14376889 0.08791078 -0.11542553
-0.06534295 0.0864708 -0.0714537 0.14135934 0.027041633 -0.051977135 -0.027910275 -0.051771898
-0.24462803 0.107526764 0.054723255 -0.22197121 -0.1514047 -0.0010221212 0.14969705 0.033446845
0.09342483 -0.06711477 -0.06472264 0.045237496 0.14299276 0.25767407 0.226322 0.07561006
-0.040858157 0.06612004 -0.08752356 0.086537555 0.12661737 0.07745194 -0.18510632 -0.019721394
-0.008823164 0.09482811 0.031994976 -0.010070653 -0.07837454 -0.25865957 -0.2040391 -0.055510104
-0.11963867 -0.12473109 0.1433211 -0.15794563 -0.09599919 -0.09171921 0.11631948 -0.1002677
0.08281482 -0.045437124 0.05439446 0.030206682 0.0426694 0.06513941 -0.1309832 0.14446762
-0.11576452 -0.07297856 0.09904838 -0.08618029 0.03598142 -0.08297071 0.022948405 -0.0597699
0.20561272 0.09334421 0.12075322 -0.040677056 0.23039386 -0.022020338 -0.016181039 -0.096996546
-0.083534636 0.0018398266 -0.13511053 -0.18480922 -0.14598587 0.27422008 0.040831503 0.17163466
-0.2149942 0.086922154 0.04087919 -0.070694864 -0.16324444 0.13776335 0.029526187 0.119655445
0.16334856 0.057174966 0.016208425 0.15643859 0.11123089 0.06335125 -0.1329286 0.26717335
0.2633095 0.060071543 0.008677276 -0.13724028 -0.03370277 -0.0026281097 0.030893955 -0.043931592
00000000: cb3f 13bd e5f5 7abe b9f6 0e3d f39b 5cbe
00000010: 9f30 123e 7c98 a3bd 6507 083d 243b f53c
00000020: a58f 7f3d 80a2 e13c 5a5b 02be e81f fc3d
00000030: 6a91 7a3e a45e a8bc f2bb e3bd 902d e6bc
00000040: de33 34bc 2578 4bbe 9816 703e e10f 6abe
00000050: e266 c6bd 9aba 07be 936e d2bd ae20 2d3e
00000060: fd1e 00be 387c dfbc c06f 6dbe 9659 20be
00000070: fd66 d1bc dc72 043e c6dd c63d 825d 633e
00000080: a661 18be 3dca 163e 334b 813d 3521 4bbe
00000090: e9d1 babc 219b cc3c d471 91bc fe6d 1c3b
000000a0: 5a9c 3cbd 9ddb 333e 72bf edbd 4faa 04be
000000b0: 8e7f 45be ab52 c7bd 6938 493e c686 613d
000000c0: b116 d1bc bdb9 133e 7172 debd e9de 8cbd
000000d0: ed79 80bd 6d2a 93bd b97d 7c3d 0a89 f9bc
000000e0: f400 0e3e b1ce 13bd d33d 3d3d 5d7b d93c
000000f0: 4b74 c4bd 303d 7a3d 58c4 0abc a764 943c
00000100: 183b 1b3e f22b 313e e241 51be 61bf 0bbe
00000110: 87f2 22bc afa3 eebd 0726 473d 0093 7dbc
00000120: 4d92 46bd c667 fcbd 0f1e d53d 1eac c83d
00000130: 4c3d 213d d832 f33d 5fc2 83bd cf1e 393d
00000140: 61db 1cbe d668 3dbe 744e 8a3d 888f 95bd
00000150: 46e0 bebd 25a3 f6bd 2746 643b ff61 963d
00000160: b610 c4bd 0545 01bb 7b13 913c b84f 9b3d
00000170: 2169 0ebb 98b7 0d3d ed26 d3bd f52a f23d
00000180: 90fa 2cbc 671c 083e 5e89 623e 90a4 893d
00000190: 274e 143d 9c71 af3e ab18 2dbc 02b5 bd3e
000001a0: d763 953d 48bb c0bd b9d5 d53d 4afa dabd
000001b0: 7866 383c 489e 4abd c142 ff3c 7053 473d
000001c0: 7d81 903b 4935 b23e c367 09be 2491 c33c
000001d0: aeef a8bd ec1c 89be 817a 47bd 4471 1ebe
000001e0: 955c 42bd dd4c c6bb 0f23 51be c903 873c
000001f0: 2651 15bc 2bbe 223e 9f67 aa3d 126d 963d
00000200: 2862 6a3d 7b3b 49bd 9119 7f3b 48f1 7bbd
00000210: 3626 25be caf1 b3bd 8f15 01be 2ad7 13be
00000220: fad5 2c3e deee d73d 8cb0 7b3d b5da a93d
00000230: 8cfc fbbd 7adb 4a3e 6f80 a23d 07fb d33c
00000240: 5372 123e f375 ebbd 9f4f 65bd 51e6 26bc
00000250: 07b4 38bd 2738 13be 910a b43d 3864 ecbd
00000260: 86d2 85bd 9a17 b13d 5156 92bd 81c0 103e
00000270: 6a86 dd3c fae5 54bd 17a4 e4bc c50e 54bd
00000280: c57f 7abe fe36 dc3d 7e25 603d 6c4c 63be
00000290: d509 1bbe b2f8 85ba 2f4a 193e 8fff 083d
000002a0: 8455 bf3d 7873 89bd 4e8d 84bd f44a 393d
000002b0: b26c 123e dbed 833e f4c0 673e 72d9 9a3d
000002c0: e25a 27bd f269 873d 8d3f b3bd 9a3a b13d
000002d0: fca7 013e 1f9f 9e3d 838c 3dbe c38e a1bc
000002e0: 088f 10bc 3d35 c23d 2a0d 033d 61ff 24bc
000002f0: d582 a0bd 076f 84be a0ef 50be 905e 63bd
00000300: 1e05 f5bd 0473 ffbd c4c2 123e 80bc 21be
00000310: 399b c4bd 48d7 bbbd e838 ee3d 2759 cdbd
00000320: d19a a93d 471c 3abd bacc 5e3d 0174 f73c
00000330: 1cc6 2e3d d067 853d 7620 06be 52ef 133e
00000340: f315 edbd c975 95bd e1d9 ca3d 4b7f b0bd
00000350: 4161 133d 8cec a9bd 4bfe bb3c 48d1 74bd
00000360: 248c 523e 402b bf3d 774d f73d fc9c 26bd
00000370: 5eec 6b3e ff63 b4bc 198e 84bc 20a6 c6bd
00000380: 3514 abbd 5626 f13a 6a5a 0abe a13e 3dbe
00000390: 527d 15be 9366 8c3e ef3e 273d ffc0 2f3e
000003a0: 7127 5cbe 3e04 b23d f070 273d 78c8 90bd
000003b0: 8d29 27be d611 0d3e e7e0 f13c ea0d f53d
000003c0: d844 273e 4c30 6a3d 88c7 843c 7031 203e
000003d0: 05cd e33d 4dbe 813d 6f1e 08be f2ca 883e
000003e0: 81d0 863e 940d 763d 222b 0e3c b788 0cbe
000003f0: ea0b 0abd 5d3c 2cbb 5215 fd3c 9df1 33bd

lstm.bias_ih_l0 f4 [128]
-0.05559395 -0.032972936 0.06823749 0.07165978 -0.041533113 0.21377796 -0.008652423 0.21176378
0.08847484 0.1256454 0.13288957 0.09899432 0.15314174 0.17481981 0.16526282 -0.095572576
0.051980484 -0.010125911 0.15392664 -0.011689626 0.15975958 0.10460582 -0.113723375 0.023008699
-0.111714944 0.032108594 0.054062936 0.047981847 0.006526659 -0.08139752 0.054235086 0.023044804
0.1674229 -0.12310915 0.16744602 -0.09799189 0.15752943 0.11923292 0.027785268 -0.088267505
0.06443458 -0.020947346 0.090584055 0.009400239 0.016632523 -0.076045714 -0.13469918 0.011683491
0.20825934 0.0426708 -0.03668272 0.22055745 0.111002326 0.048221134 0.20300245 -0.012318031
0.069150366 -0.19132279 0.07195343 -0.054805458 0.13708015 -0.1148828 -0.06631885 -0.0111953495
0.07942542 0.08488881 0.12592198 -0.13074365 0.15119937 0.012672229 0.041412357 -0.0768563
-0.16828927 0.0076132263 0.06876249 -0.107171185 0.037158925 -0.02482366 0.10906705 0.0021689937
0.004196422 0.17762023 -0.03257385 -0.084123015 0.061206605 -0.066187076 -0.016758101 -0.025596287
-0.06592118 -0.08575442 0.14532244 0.03949155 -0.11300971 -0.1637066 0.08524483 -0.07129343
0.03425648 -0.12549587 0.027010461 -0.01409676 0.15848583 0.06293818 0.0013843023 0.10055637
-0.12799901 0.09608498 0.15853135 -0.09208434 -0.1381169 0.15252076 0.21683262 -0.10854853
-0.14545532 0.13827738 0.15331014 0.0863755 0.10066742 -0.077981405 -0.1040147 0.028739775
-0.056207463 0.050382 0.077035084 0.12599565 0.12409105 -0.09329054 0.033706155 -0.058744475
00000000: 7bb6 63bd a10e 07bd 19c0 8b3d 5dc2 923d
00000010: a01e 2abd 9ce8 5a3e e4c2 0dbc 9bd8 583e
00000020: 4c32 b53d 30a9 003e 3414 083e 89bd ca3d
00000030: 30d1 1c3e f703 333e a83a 293e 8ebb c3bd
00000040: 7de9 543d 26e7 25bc f29e 1d3e d885 3fbc
00000050: 0498 233e 933b d63d cde7 e8bd bd7c bc3c
00000060: ceca e4bd 4d84 033d 1971 5d3d 9d88 443d
00000070: 95dd d53b beb3 a6bd 9c25 5e3d 75c8 bc3c
00000080: e970 2b3e a620 fcbd f876 2b3e f9af c8bd
00000090: 654f 213e 6430 f43d ee9d e33c 98c5 b4bd
000000a0: 47f6 833d c599 abbc 2284 b93d 7603 1a3c
000000b0: ee40 883c dbbd 9bbd 95ee 09be 1d6c 3f3c
000000c0: f041 553e 94c7 2e3d 9f40 16bd d0d9 613e
000000d0: 3055 e33d 8683 453d e0df 4f3e 91d1 49bc
000000e0: b59e 8d3d 1fea 43be 525c 933d b07b 60bd
000000f0: bd5e 0c3e ac47 ebbd 2dd2 87bd b36c 37bc
00000100: cba9 a23d 2fda ad3d b1f1 003e aae1 05be
00000110: 02d4 1a3e 2e9f 4f3c 01a0 293d d666 9dbd
00000120: 0654 2cbe 5f78 f93b 59d3 8c3d 917c dbbd
00000130: f533 183d fd5a cbbc 8c5e df3d ad25 0e3b
00000140: 2482 893b 14e2 353e 286c 05bd b048 acbd
00000150: c7b3 7a3d 178d 87bd 4948 89bc 4eaf d1bc
00000160: af01 87bd 03a0 afbd 68cf 143e e4c1 213d
00000170: a371 e7bd b4a2 27be d794 ae3d 4a02 92bd
00000180: 8650 0c3d fd81 00be 0b45 dd3c 19f6 66bc
00000190: 1c4a 223e bce5 803d 7a71 b53a 80f0 cd3d
000001a0: 2c12 03be 34c8 c43d 0b56 223e b796 bcbd
000001b0: 846e 0dbe 672e 1c3e 5f09 5e3e b14e debd
000001c0: 3df2 14be 9698 0d3e 55fd 1c3e a3e5 b03d
000001d0: b82a ce3d b7b4 9fbd a905 d5bd ad6f eb3c
000001e0: cc39 66bd 5b5d 4e3d 92c4 9d3d 0105 013e
000001f0: 7323 fe3d 1c0f bfbd 770f 0a3d 0c9e 70bd

lstm.bias_hh_l0 f4 [128]
0.029228061 -0.12609518 -0.043322455 0.11818446 -0.14038576 -0.011127557 0.0589473 -0.092391536
0.07353828 -0.13323288 -0.03356642 0.0032309273 0.009718935 -0.029154068 -0.031810176 0.013145721
0.20154361 -0.08879329 -0.09826082 0.24711977 -0.07411821 0.11323226 0.024971087 -0.04912133
0.0009928552 0.22236757 0.09677674 -0.0027852468 -0.007857976 -0.09054033 -0.022030624 0.096241586
-0.08734987 0.21134175 -0.07524019 -0.15044898 -0.0055690045 -0.120362714 0.1997327 0.14962816
-0.07160833 0.15589531 -0.107509464 -0.04472817 -0.070277855 -0.09531429 -0.045605056 0.22301427
0.123831876 0.10089383 0.004471221 -0.08296068 0.10737651 0.0098346425 0.045447364 0.00022049369
0.0716876 -0.09291187 -0.16922727 -0.11437955 0.20607159 0.07785365 0.18420506 0.19192515
0.08475304 -0.05443227 -0.045886736 0.019680547 -0.15598205 0.09313071 -0.121920966 0.08379815
0.14255601 -0.15561599 0.1512462 -0.14458035 0.124449246 -0.022603933 -0.009721613 0.05311729
0.06894053 -0.14984615 -0.1029928 0.119151965 0.033445284 0.100776605 -0.15874659 -0.11549566
0.073473915 0.06729383 0.12683263 -0.034337856 -0.0022097614 -0.02118627 0.048242345 -0.12466453
-0.07547592 -0.14154609 -0.1384248 0.14633474 -0.007550545 -0.08563474 0.1495555 -0.062571645
-0.11694555 -0.1348542 -0.026722707 0.18252991 0.15885486 0.19649968 0.09220334 -0.02872461
0.0033517168 0.039088782 0.093846716 0.07017959 0.16594236 -0.035109587 0.029122656 0.16120775
-0.030135257 -0.044622567 0.13899432 -0.06332342 0.075391054 -0.061586548 0.022292288 -0.11491405
00000000: b06f ef3c 181f 01be e372 31bd b20a f23d
00000010: 49c1 0fbe 5b50 36bc b972 713d c637 bdbd
00000020: 3d9b 963d 336e 08be f17c 09bd f7bd 533b
00000030: 2b3c 1f3c 83d4 eebc 634b 02bd 2661 573c
00000040: 7361 4e3e 42d9 b5bd f83c c9bd f70c 7d3e
00000050: 4acb 97bd 51e6 e73d 2a90 cc3c 7333 49bd
00000060: b122 823a 53b4 633e e232 c63d b088 36bb
00000070: bdbe 00bc 356d b9bd 9179 b4bc 4f1a c53d
00000080: 7de4 b2bd f969 583e 8717 9abd 4c0f 1abe
00000090: 327c b6bb ba80 f6bd bb86 4c3e 2038 193e
000000a0: 63a7 92bd 05a3 1f3e ec2d dcbd e334 37bd
000000b0: d6ed 8fbd 2334 c3bd 5ecc 3abd da5d 643e
000000c0: 919b fd3d 6da1 ce3d 5283 923b 4ae7 a9bd
000000d0: 37e8 db3d 7b21 213c 0427 3a3d 5334 6739
000000e0: f3d0 923d 9448 bebd ea49 2dbe d33f eabd
000000f0: 6e04 533e bc71 9f3d 40a0 3c3e 0788 443e
00000100: 0093 ad3d 5ff4 5ebd bbf3 3bbd 1939 a13c
00000110: c2b9 1fbe 50bb be3d b3b1 f9bd 5d9e ab3d
00000120: 34fa 113e cc59 1fbe 49e0 1a3e df0c 14be
00000130: 3fdf fe3d e22b b9bc 6647 1fbc 8491 593d
00000140: b130 8d3d 4571 19be e4ed d2bd f205 f43d
00000150: ecfd 083d f763 ce3d 778e 22be fd88 ecbd
00000160: 7e79 963d 59d1 893d 6ae0 013e daa5 0cbd
00000170: a5d1 10bb d48e adbc c499 453d 1e50 ffbd
00000180: 1f93 9abd 75f1 10be 3bbf 0dbe c6d8 153e
00000190: 906a f7bb 4461 afbd 1425 193e 9025 80bd
000001a0: 2681 efbd 3817 0abe 94e9 dabc 1fe9 3a3e
000001b0: d9aa 223e 3637 493e 1bd5 bc3d e04f ebbc
000001c0: 7aa8 5b3b 8f1b 203d b532 c03d 51ba 8f3d
000001d0: cbec 293e 12cf 0fbd a392 ee3c a513 253e
000001e0: 37de f6bc 27c6 36bd 8754 0e3e b6af 81bd
000001f0: a066 9a3d 2d42 7cbd 519e b63c 0f58 ebbd

fc_mu.weight f4 [8, 32]
-0.11960123 -0.1092651 -0.15753388 -0.19631332 0.00061247614 0.038511958 -0.2854879 0.053078156
0.011704179 -0.1251106 -0.3054187 0.03918987 -0.16578102 0.09997103 -0.1352824 0.035637133
0.16340263 0.24217486 -0.056910064 0.110458106 0.14349426 -0.19686523 0.061504252 0.09318196
-0.093896076 -0.022937838 -0.15491855 -0.04826396 -0.17623022 0.06034363 -0.31271815 0.29543695
0.029930482 -0.1107234 0.18156403 0.12610753 0.06390562 0.1283864 -0.020367078 -0.152206
-0.07834183 0.027400613 0.2536913 -0.014142026 0.12699626 -0.076447755 -0.09619998 0.12599345
-0.050212096 0.10679282 -0.068424456 0.12912397 -0.06334152 0.0063993144 0.03392096 -0.008931592
0.09836044 0.11608029 -0.12496753 0.05262451 0.23422554 0.1394497 0.03320646 -0.13451505
-0.20901744 0.17508656 0.08851791 -0.22679341 0.12159768 0.22184823 0.011722437 -0.16566707
-0.42751488 -0.020774383 0.05114304 0.16356388 0.17632297 0.034777336 0.22427131 -0.22447564
0.14390482 0.39741597 -0.1337489 0.47065935 -0.15069391 0.30588263 0.26898873 0.13718338
-0.26408643 0.17685409 0.037892107 0.06681152 0.27545732 0.046339165 0.19045727 0.092701875
-0.20607306 0.007566938 0.073596016 -0.18890487 -0.05110354 -0.19687545 -0.21327716 0.18746969
-0.06215185 -0.223026 -0.26169625 -0.07600227 0.04111648 0.14268573 -0.20609547 -0.048615463
0.2726063 0.17696469 0.13360444 0.21734446 -0.098082066 -0.103716165 0.11976078 0.09297796
0.05316019 0.16288754 -0.19859761 -0.21133682 -0.022356289 -0.10406589 -0.19712773 0.08641718
0.21406469 0.15980539 0.12562507 0.171624 -0.11817943 0.17121962 0.42919835 -0.21794559
-0.24279244 0.06301399 -0.09170217 0.10762266 0.12722506 -0.12648848 0.38764578 -0.052954234
-0.061131272 0.03289877 -0.22194672 0.16640086 0.01224257 0.14528199 0.16010062 -0.14509965
-0.22467493 -0.19426316 -0.10160531 0.16965227 0.27065966 -0.05671021 0.42031294 -0.3399022
-0.04270141 0.13672255 0.23296583 0.15090229 0.16010112 -0.030009203 -0.045446996 -0.015641065
0.10879379 0.16836695 0.061013643 0.1885914 -0.071375854 0.016702978 -0.14743663 -0.031258408
-0.26935184 0.12050362 -0.18539156 0.081074014 -0.23062065 0.26094437 0.25029886 -0.06394006
-0.11167925 -0.31477413 0.09530234 0.0036482916 0.16674924 0.10685431 -0.18876573 0.067561395
0.04469722 0.09187215 0.22152437 -0.14083762 -0.03351006 0.03688258 0.27348462 -0.19002198
-0.3285248 0.1829329 0.074428655 0.07119593 0.25888023 -0.03309373 0.36679125 -0.042440798
0.084412605 0.06953359 -0.27723026 0.30841976 -0.2432191 0.19306192 0.19415762 -0.11421948
-0.23989204 -0.07779722 -0.06005622 -0.004797775 0.14216879 0.09499499 0.37851286 -0.13877311
0.030346787 0.115480945 0.031130165 0.07996592 0.17566787 -0.017500527 -0.19777282 -0.08675357
0.2870795 0.10958655 0.34116286 -0.00131595 0.0019353962 0.020787768 -0.0746859 -0.054224063
-0.24519344 0.11586707 -0.18319356 -0.24846227 -0.31039366 0.13758393 0.014676046 -0.2210891
0.1409915 -0.3545119 0.23709735 0.3384576 0.15421341 0.18906657 -0.18598685 -0.16894443
00000000: 7df1 f4bd 61c6 dfbd 9050 21be 5c06 49be
00000010: 948e 203a b7be 1d3d 782b 92be 7b68 593d
00000020: e3c2 3f3c fe1c 00be d75f 9cbe 8f85 203d
00000030: 80c2 29be 9dbd cc3d 7887 0abe 3ef8 113d
00000040: 0553 273e b0fc 773e 871a 69bd dc37 e23d
00000050: 29f0 123e 0a97 49be e2eb 7b3d 2fd6 be3d
00000060: 964c c0bd 22e8 bbbc f8a2 1ebe 6eb0 45bd
00000070: b275 34be e22a 773d 981c a0be 8343 973e
00000080: c530 f53c f3c2 e2bd eceb 393e 5522 013e
00000090: f3e0 823d b977 033e dcd8 a6bc e4db 1bbe
000000a0: ae71 a0bd 4077 e03c d3e3 813e f5b3 67bc
000000b0: 4f0b 023e a490 9cbd 7f04 c5bd 6d04 013e
000000c0: 33ab 4dbd 32b6 da3d 1f22 8cbd 1339 043e
000000d0: 33b9 81bd 57b1 d13b b4f0 0a3d d055 12bc
000000e0: 3371 c93d 81bb ed3d faee ffbd cc8c 573d
000000f0: d2d8 6f3e e7cb 0e3e 7f03 083d 50be 09be
00000100: ab08 56be e449 333e e148 b53d 883c 68be
00000110: 3408 f93d 2f2c 633e 770f 403c a1a4 29be
00000120: 3be3 dabe 0a2f aabc 5d7b 513d 4a7d 273e
00000130: 028e 343e ae72 0e3d 61a7 653e f1dc 65be
00000140: c95b 133e 1b7a cb3e 79f5 08be 43fa f03e
00000150: 814f 1abe a69c 9c3e e4b8 893e cd79 0c3e
00000160: 5636 87be 3d19 353e c134 1b3d 7ad4 883d
00000170: be08 8d3e 23ce 3d3d 3b07 433e 7bda bd3d
00000180: d104 53be 14f4 f73b 82b9 963d 4770 41be
00000190: f251 51bd b899 49be 5465 5abe 0ef8 3f3e
000001a0: f092 7ebd ee60 64be 0dfd 85be 14a7 9bbd
000001b0: c169 283d 351c 123e b10a 53be 0221 47bd
000001c0: 0e93 8b3e 3b36 353e 9acf 083e 8c8f 5e3e
000001d0: 40df c8bd 2469 d4bd 2445 f53d 3b6b be3d
000001e0: 80be 593d fecb 263e 2c5d 4bbe ae68 58be
000001f0: 8924 b7bc 7f20 d5bd dadb 49be 7efb b03d
00000200: c633 5b3e 06a4 233e dca3 003e 34be 2f3e
00000210: 0f08 f2bd 3254 2f3e e3bf db3e 212d 5fbe
00000220: 959e 78be 7b0d 813d 59ce bbbd 4569 dc3d
00000230: 4947 023e 3286 01be 8279 c63e 8ae6 58bd
00000240: c964 7abd dcc0 063d 0046 63be fd64 2a3e
00000250: 0f95 483c cdc4 143e 6bf1 233e 0195 14be
00000260: 2f11 66be ecec 46be 7216 d0bd 53b9 2d3e
00000270: e793 8a3e f748 68bd 4233 d73e a907 aebe
00000280: ace7 2ebd ff00 0c3e 988e 6e3e 2186 1a3e
00000290: 8cf1 233e dcd5 f5bc a126 3abd b121 80bc
000002a0: 47cf de3d 6368 2c3e 71e9 793d 1b1e 413e
000002b0: 812d 92bd afd4 883c a1f9 16be d108 00bd
000002c0: 7ce8 89be 9aca f63d 49d7 3dbe 220a a63d
000002d0: d227 6cbe 809a 853e 2c27 803e 02f3 82bd
000002e0: 17b8 e4bd 132a a1be e02d c33d 2d18 6f3b
000002f0: 50c0 2a3e 6fd6 da3d ce4b 41be a15d 8a3d
00000300: 6f14 373d 7727 bc3d 49d7 623e bd37 10be
00000310: d841 09bd 3012 173d 2d06 8c3e 1f95 42be
00000320: 6734 a8be c352 3b3e 0d6e 983d 2ccf 913d
00000330: f38b 843e 4b8d 07bd 10cc bb3e 67d6 2dbd
00000340: 84e0 ac3d a067 8e3d 20f1 8dbe 32e9 9d3e
00000350: 6e0e 79be 06b2 453e 41d1 463e e7eb e9bd
00000360: 42a6 75be 2654 9fbd 83fd 75bd a736 9dbb
00000370: b294 113e bc8c c23d 70cc c13e 8a1a 0ebe
00000380: d399 f83c 4681 ec3d b004 ff3c 2cc5 a33d
00000390: 47e2 333e 445d 8fbc f584 4abe dbab b1bd
000003a0: 16fc 923e ea6e e03d e6ac ae3e f47b acba
000003b0: 1fad fd3a 1c4b aa3c ecf4 98bd 0d1a 5ebd
000003c0: fd13 7bbe b74b ed3d 1897 3bbe e56c 7ebe
000003d0: ebeb 9ebe cde2 0c3e cc73 703c 2e65 62be
000003e0: 1360 103e 9582 b5be a6c9 723e 514a ad3e
000003f0: 1fea 1d3e ab9a 413e 5673 3ebe c5ff 2cbe

fc_mu.bias f4 [8]
0.1609188 -0.1117883 -0.012479514 -0.13792208 0.079527974 0.008674465 -0.14840509 -0.20121045
00000000: e6c7 243e 44f1 e4bd e076 4cbc 723b 0dbe
00000010: 90df a23d 581f 0e3c 81f7 17be 1d0a 4ebe

fc_logvar.weight f4 [8, 32]
0.09978078 0.106793195 0.12575406 -0.025629694 0.08683662 0.11136302 -0.13749176 0.003880277
0.16053721 0.061205357 0.109674186 0.12500006 0.12491467 -0.168857 0.26484466 0.028326847
0.08781668 -0.11912753 0.08967617 0.055337448 -0.10280863 -0.118369974 0.061525136 0.037360124
0.0048132935 -0.04824982 -0.064307705 -0.020356344 -0.05110628 0.13294181 -0.021599114 0.08453856
-0.009957392 0.11881988 -0.09114973 -0.034572948 -0.024690999 0.059939515 -0.059572797 0.00033573378
0.05906039 -0.08670908 0.10264771 0.009352265 0.08849978 -0.020830376 0.087980926 -0.11320695
-0.11661816 0.012226385 0.060465783 0.01443996 0.0082478365 0.015393293 0.00092300284 0.09963323
0.011026271 0.035951108 0.09722977 -0.06882758 -0.106780075 -0.046040826 -0.019522846 -0.03644848
-0.0776381 0.19831787 0.26415294 0.21776916 0.08103892 0.13532275 -0.1490771 0.32991505
-0.12597214 -0.1421579 -0.39381483 0.17220831 0.4225404 -0.20314714 0.026626367 -0.37721375
-0.16193749 0.0054178406 -0.16600269 0.018953985 -0.1562904 -0.220043 0.12365222 0.01922683
-0.34489593 0.034073524 0.09314588 0.29019585 -0.14891016 0.35930774 0.10226823 -0.050427675
0.08667313 -0.008369656 0.13336611 0.17067572 0.01085258 0.06192412 -0.15502968 0.13116643
0.13894789 -0.10429494 0.10808334 0.09027535 0.17313115 -0.13020505 -0.046062592 -0.20680527
-0.12606452 -0.012962545 0.13599408 -0.082134135 -0.13448955 -0.107063815 0.03192666 -0.1440312
-0.21763231 -0.016611341 -0.05930394 -0.0641041 0.043116715 0.13203116 0.17342494 -0.117276944
0.22637098 0.08019335 0.19371021 0.113384016 0.077496454 0.027693616 0.07672784 -0.00048492907
-0.124682516 -0.029251108 -0.11022037 0.07225713 0.07898246 -0.15407147 0.19939138 -0.16751486
-0.047120575 0.14403835 -0.14831537 0.084966645 -0.10990348 -0.14020687 0.29454687 -0.023233611
-0.1565657 0.06592621 -0.042106017 0.1251489 -0.083209105 0.3677914 0.07654799 -0.17361449
0.28686213 0.19500138 0.41924953 0.16001415 0.15711743 0.19785085 -0.18727061 0.32844785
0.13696261 -0.0044678757 -0.21151546 0.45011228 0.171637 -0.4778016 -0.06188382 -0.48067787
-0.10057562 0.06958454 -0.12519234 -0.0713832 0.029237734 -0.19438504 0.25419036 -0.23356198
-0.17008673 0.10081165 -0.055835728 -0.07029146 -0.28422293 0.17134981 -0.0038876222 0.0043632393
0.19407117 0.15392998 0.28899315 0.05907486 0.098835565 0.26706764 0.034902632 0.12565498
-0.046848517 0.12574215 -0.2522295 0.38575912 0.16745767 -0.1813265 0.21771125 -0.24892269
-0.043548122 0.04892971 -0.13229428 0.038035035 -0.023192713 -0.09853154 0.42233303 -0.1595055
-0.21334276 0.20330496 -0.019768648 0.02081055 -0.13917527 0.22074698 -0.036883663 0.067947894
0.37064114 0.09841563 0.20318404 0.27174237 0.14915682 0.33965474 -0.19425212 0.15507579
0.22165045 0.08075203 -0.12797718 0.22911726 0.08915835 -0.3991247 -0.19713205 -0.44484028
-0.09832168 0.116410784 -0.0665028 -0.053870674 -0.13994485 -0.30088454 0.25458166 -0.08528513
-0.24948888 0.14279497 -0.0064110816 0.14199643 -0.39794156 0.44571257 0.065084435 0.09402791
00000000: de59 cc3d 64b6 da3d acc5 003e 5df5 d1bc
00000010: 66d7 b13d 4c12 e43d a4ca 0cbe 3f4c 7e3b
00000020: de63 243e 78b2 7a3d dc9c e03d 0400 003e
00000030: 43d3 ff3d d9e8 2cbe b899 873e b40d e83c
00000040: 3bd9 b33d 22f9 f3bd 24a8 b73d 85a9 623d
00000050: 558d d2bd f56b f2bd c801 7c3d ee06 193d
00000060: d5b8 9d3b 9aa1 45bd c2b3 83bd 59c2 a6bc
00000070: d254 51bd e621 083e a0f0 b0bc 8d22 ad3d
00000080: 5424 23bc d657 f33d b6ac babd 5d9c 0dbd
00000090: c744 cabc 2383 753d 9b02 74bd 6d05 b039
000000a0: 4fe9 713d 8894 b1bd f638 d23d 3e3a 193c
000000b0: 5f3f b53d 77a4 aabc 582f b43d 0cd9 e7bd
000000c0: 80d5 eebd 2d51 483c f8aa 773d 9595 6c3c
000000d0: ef21 073c 2734 7c3c acf5 713a 820c cc3d
000000e0: 88a7 343c 7841 133d 6720 c73d 79f5 8cbd
000000f0: 83af dabd 4e95 3cbd 60ee 9fbc 004b 15bd
00000100: b900 9fbd d713 4b3e 0e3f 873e e1fe 5e3e
00000110: bcf7 a53d 0c92 0a3e aba7 18be a0ea a83e
00000120: d7fe 00be d791 11be 19a2 c9be 6057 303e
00000130: 3757 d83e ce05 50be 8a1f da3c 2922 c1be
00000140: f1d2 25be 2488 b13b 9cfc 29be 6345 9b3c
00000150: 970a 20be f452 61be 603d fd3d 9681 9d3c
00000160: 3396 b0be ae90 0b3d 44c3 be3d 8d94 943e
00000170: e87b 18be 2ff7 b73e 0172 d13d 408d 4ebd
00000180: af81 b13d e220 09bc 2091 083e 9ec5 2e3e
00000190: 05cf 313c 25a4 7d3d 1ac0 1ebe 7e50 063e
000001a0: 5b48 0e3e 9698 d5bd cc5a dd3d 48e2 b83d
000001b0: 4b49 313e 7954 05be 21ac 3cbd c3c4 53be
000001c0: 0f17 01be db60 54bc 0842 0b3e f135 a8bd
000001d0: a1b7 09be 4644 dbbd 88c5 023d ea7c 13be
000001e0: 01db 5ebe 8214 88bc b0e8 72bd 0349 83bd
000001f0: 279b 303d 2d33 073e 4f96 313e e52e f0bd
00000200: cbcd 673e 693c a43d f85b 463e e135 e83d
00000210: 76b6 9e3d b9dd e23c 7c23 9d3d 143e feb9
00000220: 8c59 ffbd 05a0 efbc 38bb e1bd 8cfb 933d
00000230: 8ec1 a13d e9c4 1dbe 412d 4c3e 0489 2bbe
00000240: 8101 41bd ca7e 133e fcdf 17be fe02 ae3d
00000250: 1315 e1bd 6492 0fbe d9ce 963e 6a54 bebc
00000260: c252 20be 5204 873d 5c77 2cbd 0927 003e
00000270: 8969 aabd 284f bc3e 31c5 9c3d ffc7 31be
00000280: 98df 923e 71ae 473e e0a7 d63e c0da 233e
00000290: 64e3 203e 6a99 4a3e dec3 3fbe 512a a83e
000002a0: ed3f 0c3e 4267 92bb 8297 58be 1e75 e63e
000002b0: 9cc1 2f3e 69a2 f4be e379 7dbd 691b f6be
000002c0: 97fa cdbd 5782 8e3d 6c32 00be 5b31 92bd
000002d0: f983 ef3c df0c 47be 3d25 823e df2a 6fbe
000002e0: 372b 2ebe 5776 ce3d 01b4 64bd f8f4 8fbd
000002f0: ab85 91be 5376 2f3e 7ac7 7ebb 81f9 8e3b
00000300: 98ba 463e d29f 1d3e e9f6 933e 7bf8 713d
00000310: 4d6a ca3d 17bd 883e 10f6 0e3d b3ab 003e
00000320: 3be4 3fbd 8dc2 003e 3a24 81be 3882 c53e
00000330: 067a 2b3e a7ad 39be b3ef 5e3e 97e5 7ebe
00000340: 845f 32bd 856a 483d 2778 07be a0ca 1b3d
00000350: a5fe bdbc e7ca c9bd 093c d83e 6955 23be
00000360: 8676 5abe 2d2f 503e dcf1 a1bc e37a aa3c
00000370: f683 0ebe 7f0b 623e 5313 17bd 4428 8b3d
00000380: adc4 bd3e 228e c93d 7a0f 503e d121 8b3e
00000390: 91bc 183e 3ae7 ad3e 07ea 46be 30cc 1e3e
000003a0: 56f8 623e 5261 a53d 730c 03be b79d 6a3e
000003b0: a798 b63d 135a ccbe fcdc 49be 1bc2 e3be
000003c0: e15c c9bd c768 ee3d 9f32 88bd 7fa7 5cbd
000003d0: b44d 0fbe 8a0d 9abe 8758 823e f8a9 aebd
000003e0: 037a 7fbe d838 123e 0d14 d2bb 8367 113e
000003f0: ffbe cbbe 7034 e43e fd4a 853d b491 c03d

fc_logvar.bias f4 [8]
-0.0014095987 -0.02400383 -0.17949691 0.004482409 -0.033141207 -0.45626852 -0.19513737 -0.24869683
00000000: 49c2 b8ba aea3 c4bc 0ace 37be 2ce1 923b
00000010: 13bf 07bd 079c e9be 17d2 47be 62aa 7ebe
