checkpoints/k8_simuSVD/zara2/s_vae_model_best.pth (torch, 79809 bytes, 25 tensors)

V_obs_trunc f4 [16, 8]
000000 6d cc 16 bd 88 ff ed b3 7d ec ea bd bf e5 2b 33
       -0.03681605 -1.10826534e-07 -0.11470888 4.0022993e-08
000010 f6 60 62 be 46 32 6c 34 31 d2 9c be ff e1 99 b4
       -0.221073 2.1997502e-07 -0.30629113 -2.8662905e-07
000020 e9 e6 65 bd 48 15 a9 3b c7 6f 2a be 3e e1 cb bc
       -0.056128416 0.0051600076 -0.16644202 -0.024887677
000030 a0 b5 8d be 53 4e 5b 3d 1d 92 9d be e1 eb 9b bd
       -0.2767763 0.053541493 -0.30775538 -0.0761335
000040 19 30 4c bd 6f 69 95 3c e8 2e 0a be ba c2 ad bd
       -0.049850557 0.018238751 -0.13494456 -0.08484407
000050 4c 12 33 be 9f 31 31 3e 03 be e2 bd 33 b5 69 be
       -0.17487448 0.17304085 -0.11071398 -0.22823028
000060 d1 8b 06 bd ed 80 3c 3d 5a 67 ad bd 71 40 3d be
       -0.032848183 0.04602139 -0.08466978 -0.18481614
000070 bf a4 c5 bd ff a6 9a 3e b8 b4 26 bd 18 94 88 be
       -0.096505634 0.30205533 -0.04069969 -0.26675487
000080 0d 12 c2 bd a5 6f 1b 3d 51 54 65 be 82 f0 02 be
       -0.09476099 0.03794827 -0.22395445 -0.12787059
000090 46 a2 41 be 67 b7 19 3e aa 6a 13 3d 09 7e 19 bd
       -0.18909559 0.15011369 0.035990395 -0.037473712
0000a0 1d ae 0f be 6f 84 f6 3c 25 00 8c be f4 76 c4 bd
       -0.14031263 0.030092446 -0.2734386 -0.09593001
0000b0 f2 d6 b7 bd 96 d4 cd 3d 23 94 71 3e e3 c7 f5 bb
       -0.089765444 0.10050313 0.23591666 -0.007500635
0000c0 cb d4 a1 bd 60 ca c1 3d 19 cd f4 bd cd 43 83 be
       -0.07901915 0.09462428 -0.11953182 -0.25637665
0000d0 5f e2 d9 3c 53 30 28 3e 9e 4c 05 3e a7 70 1b 3e
       0.0265972 0.16424684 0.13017508 0.15179692
0000e0 8a 56 95 bd 32 ff 08 3e e7 f0 d4 bd a0 7b 8d be
       -0.07291897 0.133786 -0.10397511 -0.2763338
0000f0 c9 f8 0b 3d 2f 86 97 3c f6 92 e3 3d 32 1a 8b 3e
       0.034172807 0.0184966 0.11112015 0.27168423
000100 e9 07 44 be 1d dc 94 3d 10 46 46 be 6d 39 df bd
       -0.19143642 0.07268546 -0.19362664 -0.10899625
000110 9e 02 43 3e 8a a5 56 bd 8f c1 10 3e b4 2b b9 3d
       0.19043967 -0.052403964 0.14136337 0.09041539
000120 aa 1e 55 be fc c0 ac 3d b6 e4 e3 bd d4 ae f1 bd
       -0.20812479 0.08435246 -0.111276075 -0.11800924
000130 2e 85 77 3e 30 2d 90 bd 2a 9e 8f bd a2 c8 b9 3d
       0.24171898 -0.07039869 -0.07012589 0.09071471
000140 c0 6d c5 bd ef 7a 5d 3e 84 0f 80 bc f9 c9 3c be
       -0.09640074 0.21628927 -0.015632398 -0.18436421
000150 7c bd c0 3d 98 74 7f be 2b e1 a6 bd 09 d3 54 bc
       0.09411141 -0.2494682 -0.08148416 -0.012989768
000160 6e 18 0c be d5 a1 5f 3e f0 19 1a bc fe 04 8d bd
       -0.13681194 0.21839078 -0.009405598 -0.06885718
000170 47 2b 01 3e 47 7b 5f be b3 db 05 be 7c a2 40 be
       0.12614165 -0.2182437 -0.1307209 -0.18811983
000180 60 41 95 be c3 43 d1 3d 6d c4 c9 3d 3e 79 3b 3b
       -0.2915144 0.10218003 0.09851918 0.0028606202
000190 c6 35 fc 3d be d0 86 bd 66 b4 7e be ba fd b7 bd
       0.12314944 -0.06582783 -0.24873504 -0.089839414
0001a0 b6 c2 78 be c7 e9 37 3e f3 3b 2f 3e ae df ee 3c
       -0.24293026 0.17960273 0.17112713 0.029159393
0001b0 29 90 69 bd 13 58 b9 bd c8 d2 1e bd 42 45 22 be
       -0.057022247 -0.09050002 -0.038775235 -0.15846732
0001c0 c5 16 e9 bd 3f 17 b2 3e fe a2 ce 3d 84 40 49 3e
       -0.11381296 0.3478336 0.10089682 0.19653517
0001d0 20 06 92 bd ca 93 53 3d 86 ec 31 3d 92 3f a3 bd
       -0.071300745 0.051654615 0.043438457 -0.079711094
0001e0 de bc bf 2f f3 8f 04 3f 70 ae 06 b4 30 93 ed 3e
       3.4876896e-10 0.5178215 -1.2543182e-07 0.46401358
0001f0 4c f1 2d 34 d3 16 d4 3e 99 39 58 35 87 97 b3 3e
       1.6199664e-07 0.41423663 8.0550086e-07 0.35076544

conv_layers.0.weight f4 [64, 1, 3]
000000 d8 92 01 3f 83 ce a0 3e e8 d5 9d 3c f7 a5 97 be
       0.5061469 0.31407556 0.019267038 -0.2961881
000010 e4 ce 7b 3e ae 94 6d 3e f2 17 4b 3d 53 de 00 3f
       0.24590641 0.23201248 0.049583383 0.5033924
000020 54 5a 9d 3e be 16 b6 3e 48 f4 80 be fe fa db 3c
       0.30732977 0.35564226 -0.25186372 0.02685308
000030 26 0e 41 3e 66 5e 11 3f 02 ef b1 3c cc fa aa be
       0.18853053 0.56784666 0.021720413 -0.33394468
000040 32 a2 c1 3b 38 39 a0 be fe 4a fa 3e 3c 58 65 3d
       0.0059092278 -0.31293654 0.4888534 0.05599235
000050 4d 31 cf be bb f6 e0 be 13 3a 6c be fa 3d 0e 3f
       -0.404673 -0.4393824 -0.23069029 0.5556332
000060 41 98 96 3e cd c9 0f 3e ca a5 9d be 95 66 33 be
       0.29413036 0.14041825 -0.3079055 -0.175196
000070 70 23 21 3d 5b 0c 8c be 01 be 95 3e 1b 18 08 3e
       0.039340436 -0.27353176 0.29246524 0.13290446
000080 22 ea 1a bf a0 eb 34 3e 97 58 97 3e 28 f6 00 bc
       -0.6051351 0.17668009 0.29559776 -0.007871188
000090 4b b8 65 be 9c d6 00 bf 37 14 7b be 63 0a bd 3e
       -0.22433583 -0.5032747 -0.2451943 0.36921987
0000a0 f1 87 30 be be 6c 14 bf 78 33 ea be e1 31 bd 3e
       -0.17239358 -0.5797843 -0.45742393 0.36952117
0000b0 a0 08 a4 3e 14 34 9e be 70 9b e4 be e0 2d b5 be
       0.3203783 -0.30899107 -0.4464984 -0.35386562
0000c0 1f 4d 86 3e 17 53 b9 be 82 1b 06 3f 00 55 d0 3e
       0.26230714 -0.36196205 0.52385724 0.4068985
0000d0 8c 0e f3 3e b1 66 58 be 9e a9 5e 3e d9 4f 7f 3d
       0.47472036 -0.21132924 0.21744391 0.062332008
0000e0 e9 bc 8e bc 5a 3f a0 3e e7 ef f3 3e 6c 3e 03 be
       -0.017424064 0.31298333 0.47643968 -0.12816781
0000f0 69 cc d6 be 4a e4 ca 3e 46 ed ab 3e b5 cd 83 bd
       -0.41952828 0.39627296 0.33579463 -0.0643572
000100 38 c3 ba be 2c 64 ef be 54 43 25 3e 2d 17 a0 3e
       -0.36477065 -0.46756113 0.16138965 0.31267682
000110 83 0e a7 3e 21 f6 ed be 5c f3 71 be f4 7c 9e 3e
       0.3262826 -0.46476844 -0.2362799 0.30954707
000120 0e 41 3b 3e 12 36 e3 3c 32 ff 47 3e 39 c2 96 3d
       0.18286535 0.027735744 0.19530943 0.07361264
000130 ea 85 14 bf e5 4a 00 3e a6 e4 97 3e eb 81 b2 3c
       -0.58016837 0.1252857 0.29666632 0.021790465
000140 10 91 28 be 6d 2b a0 3e 47 66 0b 3f c4 46 08 be
       -0.16461587 0.3128313 0.5445294 -0.13308245
000150 4b d5 e2 be 3f ee 10 bd 23 62 2c bf a9 28 88 be
       -0.44303355 -0.03538346 -0.67337245 -0.2659352
000160 f7 21 19 bf c9 a4 8c be 9d 4c e3 3e b3 9f 00 be
       -0.5981745 -0.2746947 0.4439439 -0.1256092
000170 b9 19 0e 3f 20 af 0e be cf ac 0d 3e e7 e2 de be
       0.55508 -0.13933992 0.13835452 -0.43532488
000180 58 20 d0 be 8a 08 04 3f 6f 4a 17 ba 64 58 9a be
       -0.40649676 0.5157553 -0.00057712843 -0.30145562
000190 17 a5 9d 3c 09 82 87 3e 99 04 20 3e 7a 1b 03 bf
       0.01924376 0.26466396 0.15626754 -0.512138
0001a0 f9 93 e8 3e 70 cd e5 be 02 15 f9 3e ab 1c 08 3f
       0.45425394 -0.448833 0.4864884 0.53168744
0001b0 f0 75 13 3f c1 88 2f be 36 ba 10 3f 41 a5 f6 3e
       0.57601833 -0.17142011 0.56534135 0.48172954
0001c0 50 51 92 3e 6c 32 af 3d ac 6d 62 bd 3f dc a3 be
       0.28577662 0.08554539 -0.055280373 -0.32003972
0001d0 71 c9 ca be 0b 56 98 3e 66 d8 02 bf e9 f9 92 3e
       -0.39606813 0.29753146 -0.5111145 0.2870629
0001e0 e0 26 99 be d6 b8 fd be 94 59 0d 3f f8 62 d3 3d
       -0.29912472 -0.4955508 0.5521481 0.10321611
0001f0 d8 82 60 3e c3 cc 99 be 0a 16 46 bd dc 74 ad 3c
       0.21924913 -0.30039033 -0.04836086 0.021173887
000200 33 4c 00 be 1b 4f 92 be b6 b7 1c 3f 4b 40 0a 3f
       -0.12529068 -0.28575978 0.6121782 0.54004353
000210 8c f8 d0 be 41 95 86 3e d0 82 07 3f 76 38 03 be
       -0.40814626 0.26285747 0.5293398 -0.12814507
000220 2d bd 14 3f 15 e5 0f 3e b8 b4 2f be d8 22 f2 3e
       0.5810116 0.14052232 -0.17158782 0.4729221
000230 f9 1b 9c 3e 72 7c f8 bd 57 02 40 bf ae 82 f4 be
       0.3049009 -0.12133111 -0.7500357 -0.4775595
000240 f9 0c 07 3f 2c 42 b6 be 7d f1 03 3f b2 35 19 3f
       0.5275417 -0.3559736 0.51540357 0.5984756
000250 7d 0d dd bd 1f f9 91 3e 16 9e fb be f6 29 03 3f
       -0.10793588 0.28510377 -0.49144047 0.512359
000260 9c eb 0e be 67 c0 98 3e 49 66 09 3f 6c c2 c5 be
       -0.13957065 0.2983429 0.536717 -0.38624895
000270 c5 f3 cc be 33 ed 26 bf 47 cd eb be c0 08 fa 3e
       -0.4002973 -0.6520569 -0.46055052 0.488348
000280 d1 78 2b be 37 fb c0 3e 86 71 11 3f c5 4e 23 be
       -0.16745307 0.37691662 0.5681385 -0.15948017
000290 73 1a 6f be 16 5c fa 3e e8 e9 bb 3e f9 10 ed be
       -0.23349933 0.4889838 0.36701894 -0.46302012
0002a0 67 7b 81 be ec 1d 00 be 55 1f 06 3f 08 4b 24 bc
       -0.2528946 -0.12511414 0.5239156 -0.0100276545
0002b0 b2 7f 87 3e 91 0f 1b bf 38 9f a1 be 36 dd e0 3e
       0.2646461 -0.6057063 -0.31566787 0.4391877
0002c0 16 40 d1 bd 20 4a fe be 27 bf 82 3e 1b c9 45 bd
       -0.102173015 -0.49665928 0.25536463 -0.048287492
0002d0 01 72 87 be f3 a7 bb 3e f5 f0 ce bd 3c c9 d4 be
       -0.26454166 0.36651573 -0.10104553 -0.4155978
0002e0 9e 3b 17 be 7b 5f 23 bf 4a 4b b2 3e 6f 5e 9b be
       -0.14768836 -0.63817567 0.34823066 -0.30345485
0002f0 fb 6a 38 3e b1 95 39 3e c2 9a d1 3e f6 f0 4f be
       0.1800956 0.18123509 0.40938383 -0.20306763

conv_layers.0.bias f4 [64]
000000 55 32 eb be fd 76 8c be 03 6b e6 3e 33 99 37 bd
       -0.45936838 -0.2743453 0.45003518 -0.044823837
000010 0a 5f a3 be 10 f7 bc 3e b5 19 02 bf 37 7e c4 3e
       -0.31908447 0.36907244 -0.50820476 0.38377544
000020 d1 e8 36 be 8f c5 ec be 34 40 89 3e c5 9a cc be
       -0.1786225 -0.46244475 0.26806796 -0.3996183
000030 2f 78 2c 3f 46 9c 19 3f 8b f7 a6 bd 34 54 0c 3b
       0.67370886 0.6000408 -0.08152684 0.0021412494
000040 9b 29 7a 3e 09 09 7c 3e ff bc f5 be 5d 9e 02 be
       0.24429934 0.24612822 -0.47995755 -0.12755723
000050 cc 74 50 be 83 90 5a 3e 18 e7 bf 39 ed be d4 3e
       -0.20357054 0.2134419 0.00036602537 0.41551915
000060 4a 1f 78 3e ed 31 78 3e 79 d8 1c 3e f9 04 15 3e
       0.24230686 0.24237795 0.15316953 0.14552678
000070 b6 cf 3b 3e dd 15 1e be c1 60 b5 3e 61 52 0c 3f
       0.18340954 -0.15438028 0.3542538 0.548132
000080 bf 1f 36 be 41 13 78 3d 15 a4 92 3e ba 42 07 bf
       -0.17785548 0.060565237 0.2864081 -0.5283619
000090 fc d8 b4 bd 0f a6 0f 3f 7c 4c 83 3e 11 b4 dc 3e
       -0.08830449 0.5611276 0.2564429 0.4310613
0000a0 4c 16 3a bd e6 5c e9 3e b2 71 18 3f be 52 f2 3e
       -0.04543142 0.45578688 0.59548485 0.47328752
0000b0 73 8d ff be 72 ee 17 3f 60 a4 96 3e e3 5f e7 3e
       -0.49912605 0.59348214 0.29422283 0.45190343
0000c0 dd e3 ce 3e 09 c9 c0 3e f7 17 c5 be 00 e7 6b be
       0.4040822 0.37653378 -0.38494846 -0.23037338
0000d0 85 e3 7f bd 6a 51 33 3e 0d 8d 14 bf 1c 70 14 bd
       -0.06247284 0.17511526 -0.58027726 -0.03623973
0000e0 8e 9c b6 be 89 85 d9 bc 95 3f 1a 3f 75 5f c5 be
       -0.35666317 -0.026552932 0.6025327 -0.3854939
0000f0 8c b6 6e 3e c4 38 94 be 91 c9 da 3e 38 da 28 be
       0.23311824 -0.2894956 0.42731908 -0.16489494

conv_layers.2.weight f4 [32, 64, 3]
000000 51 0c 3a bd ca 54 22 bd 3d 59 f2 bc 1f 41 98 bd
       -0.045421902 -0.039631642 -0.029583568 -0.07434296
000010 36 cc 27 3e bd e2 b6 bc 76 c3 a4 3d 78 49 2a 3d
       0.16386494 -0.022324914 0.08045094 0.04157397
000020 5e 03 c7 bd 24 e2 29 bd d1 07 c2 ba b3 8a 1b be
       -0.09717439 -0.04147543 -0.0014803355 -0.15189628
000030 27 eb 56 3d f1 17 e6 3c 3a 5c a9 bd 64 1c 58 bd
       0.052470353 0.028087588 -0.08269544 -0.05276145
000040 c5 0a df 3c f1 66 80 3d 13 0c f6 bd 19 ea 07 bd
       0.027226815 0.062696345 -0.12014022 -0.033182237
000050 1a af e7 bd a4 93 fe 3d 7d 21 91 3d a5 ae d2 3c
       -0.11312695 0.12430504 0.070864655 0.025718043
000060 cd 8a ba bd ac 15 8a 3c 91 1e e6 bd 42 5e c9 bc
       -0.091085054 0.016856037 -0.11236299 -0.024581078
000070 0f 99 9c bd 5c 4d 86 bd 67 ed 1a bd 56 61 89 3d
       -0.07646381 -0.06557724 -0.03782406 0.067080185
000080 cf ea 48 be a1 24 bb bc d4 26 5a bd c8 79 51 bd
       -0.19620822 -0.022844614 -0.053259686 -0.05114153
000090 ab e4 a9 3d 7d a5 eb bc 49 08 16 3d bf c1 8a 3d
       0.08295568 -0.028765434 0.036628995 0.067752354
0000a0 9c f9 a9 3d 0f 9a 1d be 78 51 aa bd 44 c5 31 3d
       0.08299562 -0.153908 -0.0831632 0.043401018
0000b0 aa e7 39 bd 0c 82 bb bc 10 52 10 bd d2 36 e7 bc
       -0.045386948 -0.02288916 -0.03523451 -0.028224383
0000c0 5a 57 8c 3d ad 66 a7 bd 73 4f 9b bc bc f4 6c bd
       0.068525985 -0.08173881 -0.018958783 -0.057850584
0000d0 46 3b ed bc 94 35 c9 bd 43 56 d4 3b d1 d3 12 3c
       -0.028958928 -0.09824672 0.0064800098 0.008961634
0000e0 db af 54 bd e0 c0 ff 3c 7f 28 9e 3c 6f 95 a6 bd
       -0.05192552 0.0312199 0.01930642 -0.08133971
0000f0 35 a4 2e 3c e2 6d ed 3d 3c b8 28 3d 56 87 12 3c
       0.010659267 0.11593224 0.041191325 0.008943399
000100 df 74 6f bd 3e 9e a4 3c fb 71 86 3d 7f 51 7d 3d
       -0.058461066 0.020094987 0.06564709 0.0618453
000110 a9 4f b9 bd f4 09 87 3d cf 68 64 3d e4 d5 42 3d
       -0.09048397 0.06593695 0.055764016 0.047567263
000120 79 24 b1 3d 95 b8 05 3d cf 26 b8 bc e9 9e 1b 3e
       0.08649535 0.032646734 -0.022479443 0.15197338
000130 fa f3 a7 bd 56 e5 a5 bc 1a 2e 19 3d e5 98 84 bd
       -0.08200832 -0.020250957 0.03739748 -0.06474475
000140 7b 9e c4 bd b0 6b 01 3d 4c 2b fa bc f2 29 78 bd
       -0.0960054 0.03159684 -0.030538224 -0.060586877
000150 59 f3 be 3c 4e 58 82 3d ac bc cb 3c ba ec 35 bd
       0.023309397 0.06364499 0.02487024 -0.044415213
000160 e0 50 b1 bb 5c 84 59 bd 22 eb 29 bd 21 85 0e 3d
       -0.0054112524 -0.053104743 -0.041484006 0.03479493
000170 c4 57 fd bd 50 12 99 3d 96 01 5b 3d 8d b6 8e 3c
       -0.123702556 0.07474196 0.05346831 0.017421031
000180 b7 32 12 3d 56 14 34 3d fa b3 38 3b 77 f0 06 3e
       0.035692897 0.043964706 0.0028183446 0.13177668
000190 db fe 6a 3d 17 06 4f bd 79 9e aa 3d dc e2 e4 bd
       0.057371955 -0.050542917 0.083310075 -0.111760825
0001a0 53 a3 df 3c cd 49 19 bc ae ed d5 bc 0b b5 0e bc
       0.027299559 -0.009355974 -0.026114311 -0.008710156
0001b0 96 7d a2 3d bd b5 8c bc fa 9f 05 be 44 ce a9 3d
       0.0793411 -0.017176503 -0.13049307 0.08291295
0001c0 f5 0c e5 3a 21 28 9b bd 98 4e a1 bc fa d1 b4 bc
       0.0017475175 -0.07576013 -0.019690797 -0.02207278
0001d0 f3 4e 88 3c b5 d7 a4 3c 57 81 fc bb 75 2a 12 bd
       0.016639208 0.020122388 -0.007705848 -0.03568502
0001e0 c9 92 21 3e 07 3e 2e bc 38 d5 8b 3c f1 a2 cf bc
       0.1577865 -0.010634906 0.017069444 -0.025346251
0001f0 75 5b cf 3c 96 40 9b bd 2d 70 5b 3d b4 7b 13 3d
       0.025312165 -0.07580678 0.053573776 0.036006644
000200 fc b4 80 bc c4 f5 2b 3d 99 76 88 3d 9a c2 f2 bc
       -0.0157113 0.041982427 0.06663246 -0.029633809
000210 f9 c8 0a bd 8d 78 d6 3d a1 bb 94 bc 21 e3 59 bd
       -0.03388307 0.10472212 -0.018155875 -0.053195123
000220 a3 83 38 ba 69 d1 37 bd 7f d9 81 3d 48 f0 1f bd
       -0.00070386584 -0.044877443 0.06340312 -0.03904751
000230 6f e4 74 bd b4 71 8f 3d ff e4 00 bd 25 fe 5d bd
       -0.059788164 0.07004109 -0.031468388 -0.05419745
000240 1e a4 6e 3d d9 25 46 bb 84 2e 82 bd 92 5d 42 3d
       0.058261983 -0.0030234961 -0.063565284 0.047452517
000250 47 e2 1a bc d3 33 47 bd c6 df 72 bd 1c 92 c8 3d
       -0.009453363 -0.048633408 -0.05929544 0.09793493
000260 17 1d 1c bb 04 6a b3 bd 7d d8 26 3c 8f 4b 40 bd
       -0.002382105 -0.08760455 0.010183451 -0.04694706
000270 9a 8a 87 bd 69 5b 9e bd 02 c8 7c bd 7a 78 d9 bc
       -0.06618233 -0.07732279 -0.06171418 -0.026546706
000280 d0 e8 a8 3c 91 55 03 be ee 2c 8e bd 2c 76 9a bc
       0.020618826 -0.1282561 -0.069421634 -0.018855177
000290 3c 9c 8d bd e9 08 82 bc 20 af 80 3d 4a a0 f7 bd
       -0.06914565 -0.01587339 0.062834024 -0.120911196
0002a0 d2 01 28 bc cd 07 1a bb 22 7a f1 3c ab fa fb 3c
       -0.01025434 -0.0023503185 0.029477183 0.030759176
0002b0 9f a5 b2 3c d1 48 50 3d 2b 91 e5 bb dd 8d 59 bc
       0.02180749 0.050850693 -0.0070058308 -0.013278452
0002c0 de 34 26 3c e1 cd bd bd 54 84 c9 3d c0 af 3e 3c
       0.01014444 -0.09267784 0.09839693 0.011638582
0002d0 76 76 49 bc c3 07 74 3d cc 4d 5f 3d 12 9e ef bc
       -0.01229631 0.059577715 0.054517552 -0.029250178
0002e0 3e 99 b3 ba 37 fd 1e bd de 3e 17 3d 1a 72 69 bd
       -0.0013702286 -0.038815703 0.03692519 -0.05699358
0002f0 0a 66 86 bd 26 cd 88 38 81 cc 84 bb b2 69 29 bc
       -0.06562431 6.523197e-05 -0.004052699 -0.010340141
000300 f3 e3 18 bc ae ac 1a bc 0a 72 0e 3d 76 2d 3d 3d
       -0.009331691 -0.009440584 0.034776725 0.046185933
000310 a4 3c a3 bd 2e e8 2c bd 45 1f 4e bd 3d 97 a5 3d
       -0.07970551 -0.04221361 -0.05032279 0.08085487
000320 03 3b 82 3c de 44 39 3d 1c 1f 51 3d 34 86 5d 3d
       0.01589728 0.045231692 0.05105506 0.054083064
000330 2b 13 59 3b 9c 4e 87 3d a9 55 ee bc a5 4c 5b bc
       0.0033122997 0.066067904 -0.02909358 -0.013384973
000340 19 4b b5 3d a6 84 11 3d 21 fe 54 bd b4 9e 03 bd
       0.08852214 0.035526894 -0.05200017 -0.032133773
000350 3f 6c c0 ba 4f b0 08 bd 61 f6 89 bb 00 ae a1 bd
       -0.0014680697 -0.033371266 -0.004210279 -0.07894516
000360 bf 7f b5 3c 18 ec 68 3d ff 8e 92 bd 12 4a 92 bd
       0.02215564 0.05686578 -0.071561806 -0.07143034
000370 a5 2a 01 be f8 6c f3 bc 3c 34 33 bd f3 4f 4c 3d
       -0.12613924 -0.029715046 -0.043750986 0.049880933
000380 36 3c ac 3b 84 78 48 bd 1d 7d a0 3c c1 16 76 3c
       0.005256201 -0.048943058 0.019590909 0.015020073
000390 56 29 21 3e 80 8e 29 3d e8 2f 33 3e 26 1c 0a 3e
       0.15738425 0.041395664 0.17498744 0.134873
0003a0 2f f6 55 3d 8a 9c 39 3c 47 cc 1d bd c0 01 09 bc
       0.052236732 0.011328826 -0.038524892 -0.008362234
0003b0 0d d8 1b 3d 65 e7 b7 3c a4 4e cc 3c 5b 4e df 3c
       0.03804784 0.022449205 0.024939843 0.027259042
0003c0 ed f3 ae 3d fd 4d c8 3c db cf 35 3d fd 2f e1 3c
       0.08542619 0.02445125 0.04438768 0.027488703
0003d0 a6 d7 16 3d de eb 29 3d 4f 8c a0 bd f4 1e af bd
       0.036826752 0.041484706 -0.07839262 -0.08550826
0003e0 26 40 d7 bc f9 7b 49 bd cc 8f 44 bb fc ef 70 3d
       -0.026275706 -0.049190495 -0.0029992936 0.058822617
0003f0 fb 5b f5 3c 57 da 3b 3a 37 1a c3 3c 6e 4a c5 3c
       0.029951086 0.0007166019 0.023816211 0.024083342

conv_layers.2.bias f4 [32]
000000 ca 8d c3 3b ea 57 fe 3d f3 14 8e 3d ac 28 96 3d
       0.0059678303 0.12419112 0.069375895 0.07331976
000010 9c 6c 3f bc 34 12 d1 3c 1b ff 72 3d 47 72 0b 3d
       -0.011683609 0.025521375 0.05932532 0.03404453
000020 3f e8 fc bc 05 d9 92 3d a1 6e 8c bd 92 cf 9c bc
       -0.030872462 0.071702994 -0.06857038 -0.019141946
000030 8f cd ed 3c df 1f a7 bc 1b 11 23 bd a4 1a a2 3d
       0.029028682 -0.02040094 -0.039811235 0.079152375
000040 25 b7 04 3d 50 37 ea 3d d8 98 21 bb e8 1f 5b 3c
       0.032401223 0.11436331 -0.0024657752 0.013374306
000050 d6 1d 80 bd 27 b9 33 3c 03 49 9e 3d 8f a3 a3 bd
       -0.06255691 0.010969437 0.0772877 -0.07990181
000060 bf e3 75 bc e4 9a 80 bd ef d6 1f 3d 89 9d 9b bd
       -0.015007912 -0.06279543 0.039023336 -0.07598407
000070 00 40 56 3d 4f 7a 14 3d 62 af 81 bd b6 8e d8 bc
       0.05230713 0.036249455 -0.0633228 -0.026435237

lstm.weight_ih_l0 f4 [128, 32]
000000 f2 27 90 bc ae c3 3b be 1a a6 fb bc c9 ca 24 3d
       -0.017597172 -0.18336365 -0.030718852 0.040232453
000010 3e 0a 3e 3e 30 2b 24 3e dd bb c1 3c 43 c2 87 3c
       0.18558595 0.160321 0.02364915 0.016572123
000020 a1 a6 39 3d f4 01 21 bc 19 d7 9c bd 88 70 65 3e
       0.045324925 -0.009827126 -0.07658214 0.22406209
000030 cf d0 69 3d a7 d0 68 bd 2c 2d b4 3c 21 9a 81 3b
       0.0570839 -0.05683961 0.021994196 0.003955141
000040 be a4 21 3e 81 de 35 3b 4d a6 39 3e 77 36 03 3e
       0.157855 0.002775103 0.18129845 0.12813745
000050 61 28 7e 3d 2e ca 6c bb 58 08 6e 3c 2f 98 1f 3e
       0.062050227 -0.003613125 0.0145283565 0.15585397
000060 64 0f 14 3e e3 23 d1 bd f8 90 d9 bd de c8 cb bd
       0.14458996 -0.10211923 -0.10623354 -0.09950422
000070 6c 49 bc bd 58 7e d7 bd 97 6e 42 3e 2c 21 73 3d
       -0.091936916 -0.10522145 0.18987499 0.059357807
000080 53 7b 80 be 76 83 24 3e 79 88 01 bb 02 78 86 3a
       -0.2509409 0.16065773 -0.0019765182 0.0010259154
000090 32 7f 37 bb c0 28 b5 bb c0 ff 0b 3e 66 1d 5b 3d
       -0.0027999398 -0.0055285394 0.1367178 0.053494833
0000a0 7c 2b ae 3c 29 df 36 3e 3d 86 d3 3c 6f 24 d4 bd
       0.02126097 0.17858566 0.025820846 -0.10358512
0000b0 44 79 68 3d 48 32 57 3d 6b a8 a1 3d 95 c1 41 be
       0.056756273 0.052538186 0.07893451 -0.18921502
0000c0 64 37 53 3d 96 1a 90 3d 47 66 09 bd f2 97 a9 3d
       0.051566496 0.07036321 -0.033544805 0.082809344
0000d0 c7 90 56 bd 3a b7 0f 3d e3 15 93 bd 0b 80 0e be
       -0.052384164 0.035086848 -0.07181909 -0.13916032
0000e0 5d 71 d8 3d 6d 5a bb 3d e0 c3 15 3e 61 0e dd 3c
       0.10568497 0.09148107 0.14625502 0.026984395
0000f0 56 ab 96 bd b4 12 57 bd d3 71 f9 bd 48 fd 35 bd
       -0.073568985 -0.05250807 -0.12179913 -0.044431
000100 8a 32 4f be ed ba 5c 3d 29 3f 8f 3a 92 ef 28 be
       -0.20234123 0.053889204 0.0010928857 -0.16497639
000110 59 e2 c4 3d f8 6e de bc 29 93 01 3e 85 ff 26 bd
       0.09613485 -0.027152523 0.12653793 -0.040771026
000120 6f b1 50 3e 03 f7 a1 bd 54 cf 9d bd 46 47 f7 3d
       0.20380186 -0.07908442 -0.0770556 0.12074141
000130 47 9e 27 3e 2c c7 dd bd ca 41 1e 3e e6 5c 0c be
       0.16368972 -0.10829005 0.15454784 -0.13707313
000140 e5 b8 76 3c ee c7 23 3e 2c b5 7c bc 31 52 cb bd
       0.015058731 0.15994236 -0.015424054 -0.09927786
000150 fc 6f 00 3e 53 c0 25 bd 38 3d 8f bd 28 41 21 3c
       0.12542719 -0.040466618 -0.069940984 0.009842195
000160 fd 1a 2a bd 74 65 35 3e c4 b0 d3 bd d3 f1 2b be
       -0.041529644 0.17714483 -0.1033645 -0.16791467
000170 10 b7 d0 3d de 45 99 bd 4b 19 40 3e b0 c1 6a bd
       0.101911664 -0.07484029 0.18759649 -0.05731362
000180 b7 9b c8 3d cc bf fd 3d 8b fe 8a 3d a8 96 33 bd
       0.09795325 0.12390098 0.067868315 -0.04384485
000190 c9 5b d5 bd 63 dd 7f bc c5 d7 0e 3e ca 4c ef bd
       -0.10417897 -0.015616748 0.13949497 -0.11684568
0001a0 3e 76 7a bd 2a ee 5b 3e 44 1f 81 3d 8c c7 52 3e
       -0.06114792 0.21477571 0.063047916 0.20583934
0001b0 59 42 84 bc fa 4a 77 3d 7d ad c9 3d ba df d0 3c
       -0.016144918 0.060374238 0.098475434 0.025497306
0001c0 be cc 91 bd ca 57 ba 3d 2d 66 e5 bd 3b ed e2 bd
       -0.071191296 0.09098776 -0.11201129 -0.11080404
0001d0 c5 b0 02 bd 1b ff 3b 3d f3 9e 2a be 48 48 de bd
       -0.03190686 0.045897584 -0.16662197 -0.1085363
0001e0 6b bb c7 3d 8b 05 5f 3d 50 42 f6 3c 06 dc 09 3e
       0.09752544 0.054448646 0.030060917 0.13462839
0001f0 e8 5d f4 bd 02 1d 3d 3c f6 60 3d be 07 73 a4 bd
       -0.11931974 0.0115425605 -0.18494019 -0.08029752
000200 d9 cf c6 bd be 33 c1 3d c0 69 84 3d d1 7d 4a bd
       -0.097076125 0.09433697 0.06465483 -0.049436394
000210 4d a7 65 3e 18 5c 83 bd 96 f1 f9 3d 84 94 63 3e
       0.22427101 -0.0641405 0.12204282 0.22224623
000220 4e 82 d6 bd bc 07 c0 3b 8f 72 28 3e 1e 8d f9 3d
       -0.104740724 0.005860297 0.1644995 0.12185119
000230 0c d3 fb 3d d3 25 1a 3e ec 62 65 bd aa c7 f2 3d
       0.12296113 0.15053491 -0.056002542 0.11854489
000240 68 b2 89 3d 52 da 5b 3e 23 ed bc 3d ef e5 03 3e
       0.067234814 0.21470001 0.09224918 0.12880681
000250 37 2e 47 3e 6f 3c 93 bd fd 87 45 3e 8a db cc 3c
       0.19451223 -0.07189261 0.19290157 0.025007028
000260 f0 93 90 bc cd d4 48 3c f5 aa 37 bd 85 5b fc 3b
       -0.017648667 0.012257767 -0.04484077 0.0077013397
000270 8e 03 63 3e e4 b8 53 3e 02 f9 d2 3d a3 84 9a 3d
       0.22169325 0.20675999 0.10301401 0.0754483
000280 09 2c eb 3d fc 74 5c bd b0 fb d4 bd e8 98 99 3c
       0.114830084 -0.053822502 -0.10399568 0.01874967
000290 57 86 e6 bd 93 b1 5b bd 31 8e 30 3c 2d 34 8a bd
       -0.11256092 -0.053636145 0.010776089 -0.06748233
0002a0 3c e6 4c 3c 88 68 d9 3d 9d 5f 97 3d 5f 23 36 3e
       0.012506064 0.10615641 0.07391284 0.1778693
0002b0 0d 6f 74 3b 46 79 9e 3c 8f f7 76 bd 42 01 3e 3e
       0.0037297637 0.019344937 -0.060294684 0.18555167
0002c0 1f 91 20 be 17 d0 87 bd d0 13 96 bd d4 e4 43 3e
       -0.1568036 -0.06631487 -0.07327998 0.1913026
0002d0 87 fa 0b 3e ba c5 0b be 14 9f e7 bd a3 4c cc bd
       0.13669787 -0.13649645 -0.113096386 -0.09975555
0002e0 e7 4f 04 3e cb 96 a3 bd 30 1b a5 bd f9 34 03 bd
       0.12921105 -0.07987746 -0.08061826 -0.03203294
0002f0 59 17 21 be 10 cb 68 3d bb 26 be 3d eb 7c e1 bc
       -0.15731563 0.05683428 0.09284731 -0.027525386
000300 9b c5 33 3e 6d 94 52 bd 1e 9e 09 be e7 01 80 3d
       0.17555849 -0.05141108 -0.13439223 0.06250363
000310 23 7d 96 bd e0 bd 09 3e ee be db bd 1e 8f cf bd
       -0.07348087 0.13451338 -0.10729776 -0.10134719
000320 2d 29 13 be bb 93 85 3d a4 6a 68 bd 0d 89 bc 3d
       -0.14371176 0.06522318 -0.056742325 0.09205828
000330 54 a7 ac 3d 6f fb 4a be 2d 9d 22 3e 58 e8 54 3d
       0.08430353 -0.19822477 0.1588027 0.051979393
000340 bf 21 27 3d 67 ea a4 bd a9 45 2a 3e a7 3c 3a 3d
       0.040803667 -0.08052521 0.16628136 0.045468
000350 b5 e5 2c be ea 09 0f be 66 83 37 bb 67 4e 7f 3d
       -0.16884501 -0.13968626 -0.0028001904 0.06233063
000360 e9 8a e7 3b a7 32 19 be 41 26 ed 3d 2e a3 00 3d
       0.00706612 -0.14960729 0.11579562 0.03140562
000370 8e f2 01 be 54 cb 22 3d 33 5e 0a be 67 76 94 3c
       -0.12690184 0.03974469 -0.13512497 0.018122865
000380 45 f5 aa 3c 42 cb ce bd da 03 b8 3d 0f bf be 3d
       0.020868907 -0.10097362 0.089851096 0.09313785
000390 49 3b ee bd 2e c8 dd 3d bb 65 db bb 11 9d f8 bc
       -0.116324015 0.10829197 -0.006695477 -0.030348333
0003a0 dc 04 33 3e 6c d4 8e bd 6b 13 c3 3d d9 62 00 bd
       0.17482322 -0.0697411 0.09525188 -0.03134427
0003b0 01 bb 26 be 76 24 81 bd c5 a9 e2 bd 38 dc 03 bd
       -0.16282274 -0.063057825 -0.11067537 -0.03219244
0003c0 08 78 7f 3d e9 98 70 bc 14 d6 ea 3d 86 f6 1f 3e
       0.06237033 -0.014684894 0.114666134 0.15621385
0003d0 3e 2d 0f be fc 81 05 be 45 08 24 3e da ff 04 bd
       -0.13982102 -0.13037866 0.1601878 -0.03247056
0003e0 a1 ec 76 bd 03 df 09 3d 6e 97 9c bd 07 90 84 3d
       -0.06028426 0.033659946 -0.076460704 0.064727835
0003f0 5a 2b d9 3d 55 5c ad 3c 43 f9 2a 3c 17 6b 53 bd
       0.10603972 0.021162191 0.010435405 -0.0516158

lstm.weight_hh_l0 f4 [128, 32]
000000 06 fd 07 be 5e cf 4d 3e 19 39 93 bd ca eb 33 be
       -0.13280115 0.20098636 -0.07188625 -0.17570415
000010 23 a4 f9 3d dc cf 39 be da 68 00 3e 86 b3 36 bc
       0.1218951 -0.18145698 0.12539998 -0.0111512
000020 83 b8 33 be 5a ca e6 bd 7f bc f7 bd 21 58 e0 bd
       -0.17550854 -0.11269064 -0.120965 -0.10954309
000030 56 55 6e 3e ba 88 0b be f7 72 57 be c2 59 cb bd
       0.2327474 -0.13626376 -0.2103995 -0.09929229
000040 05 99 b7 bd bf 49 16 be 16 2a 6b 3d c7 96 e4 bc
       -0.08964733 -0.1467657 0.057413183 -0.027903927
000050 59 76 ef 3d 0d 09 ab bd e7 16 12 3e 72 83 02 bd
       0.11692495 -0.08351336 0.14266549 -0.031863637
000060 9e a5 34 3e e0 92 86 bd 46 33 b8 3d 0b 05 c8 bd
       0.17641303 -0.06570983 0.08994155 -0.09766587
000070 aa da 95 3d 26 be cb 3d 35 5e 0b be 6c c5 ab 3d
       0.073170975 0.09948377 -0.13610156 0.083872646
000080 c2 11 ef bd d6 62 73 3d 20 bd 83 be 27 9b bf 3d
       -0.11673309 0.05942043 -0.25730228 0.09355765
000090 7f 15 e5 bc cf 97 4c 3e ac e0 2c be 7b a0 0c bd
       -0.027964352 0.19979785 -0.1688258 -0.034332734
0000a0 16 35 e9 bd aa ea 15 3c b3 8c 08 be 1f 4b ac 3d
       -0.113870785 0.009150187 -0.13334922 0.08412766
0000b0 ac 96 aa bd 54 9a 9c bc 68 d4 95 3d 87 d0 da bd
       -0.0832952 -0.019116558 0.07315904 -0.10684305
0000c0 7f 2a 8a 3c b9 09 62 bd 45 d5 72 bc 28 ed bc 3d
       0.016865967 -0.055185053 -0.014821355 0.092249215
0000d0 6a 5e 26 be c3 63 5b bd 9c 70 f5 3d 1e ab bf bd
       -0.16246954 -0.053561937 0.11984369 -0.0935881
0000e0 28 eb 7d bd da 23 67 bd 3b b2 fb bd 9d 31 5b 3e
       -0.06199184 -0.056430675 -0.12289854 0.21405645
0000f0 55 5a ac bd 85 34 08 be e6 7c 2b be ef 93 fa bc
       -0.08415667 -0.13301285 -0.16746864 -0.030588118
000100 9f ef 32 bc 35 be 67 3d 14 9d 41 bd a3 97 ec bd
       -0.010921388 0.05657788 -0.047268942 -0.1155236
000110 7c bc 46 bc fb 20 38 3e 5b 28 b1 bd 00 29 16 be
       -0.012129899 0.17981331 -0.08650275 -0.14664078
000120 db f1 c8 3d 90 32 3a bb 1a a0 4b bd 2d 62 ee bd
       0.09811755 -0.0028411485 -0.04971323 -0.11639819
000130 93 64 39 be a2 6a a3 bb 95 f4 84 bd 53 b8 0a be
       -0.18104772 -0.004987077 -0.06491963 -0.13546877
000140 00 a5 9e 3d c5 cd 2e 3c 52 f6 a2 3d d1 d4 90 3d
       0.07746315 0.0106691765 0.07957138 0.070718415
000150 aa fd 27 3e e4 37 65 3e 2c 9b ff 3c a1 ea 1f 3c
       0.16405359 0.22384602 0.031201921 0.00976053
000160 c6 ce 27 be 2d b9 e2 3d 6c 0b 55 be 90 e8 42 3d
       -0.16387472 0.11070476 -0.20805138 0.04758507
000170 09 5c 90 bd e5 27 82 3c 9b 25 08 be 55 a0 b5 3c
       -0.07048804 0.015888164 -0.13295595 0.022171179
000180 cc 63 16 3e f8 99 d8 3d de 02 f4 3a f9 58 ae 3c
       0.14686507 0.10576242 0.0018616577 0.02128266
000190 36 a1 46 3e 39 e9 15 3e e2 25 47 3e bd 23 71 3d
       0.19397435 0.14639749 0.19448045 0.058871973
0001a0 f7 7d 8f bc d1 2c 06 bd 66 2a 99 3d 59 e9 73 bd
       -0.01751612 -0.032757584 0.0747879 -0.05954871
0001b0 89 2e 0b 3e 1b ac 28 bc 99 4f 11 3c 50 60 b5 bb
       0.1359197 -0.010294939 0.008869075 -0.005535163
0001c0 03 5b aa 3d 35 6d 55 3c a2 90 c2 3d d3 06 ad bd
       0.0831814 0.013026525 0.09500243 -0.08448567
0001d0 0b 73 06 3d db eb 30 be c8 fa 9e 3d 61 0e d7 bd
       0.032824557 -0.17277472 0.077626765 -0.105007894
0001e0 ff 1e e5 3d 0c f0 4a be 54 cd 87 bd ad 8e 0b 3d
       0.11187553 -0.19818133 -0.0663096 0.034071613
0001f0 5a 15 f7 bc f3 70 81 3d 82 13 00 3e 0d c1 1c be
       -0.030161548 0.063203715 0.12507442 -0.15308018
000200 00 20 10 3c 71 15 e6 bd 4b 7b 68 bd b4 db a2 bc
       0.008796692 -0.112345584 -0.056758206 -0.019880153
000210 2d 44 67 3e 50 8a 4f be ae af 3f 3e 9c f8 2d 3d
       0.22584601 -0.20267606 0.1871936 0.04247342
000220 2c fe 8c bd cc 84 c3 bb 35 4d c5 3b c4 1b 24 be
       -0.06884417 -0.0059667584 0.0060211667 -0.16026217
000230 b3 af 50 be ec 51 50 be be 8e 5f be 91 57 d7 bc
       -0.20379524 -0.2034375 -0.21831796 -0.026286872
000240 b2 b4 04 be f4 b7 0e bd 3c 67 86 bb 0c 10 32 3e
       -0.12959555 -0.0348434 -0.004101662 0.17388934
000250 d0 df df 3d 48 86 eb bd 0a 52 dd 3c 26 e1 08 be
       0.10931361 -0.115002215 0.027016658 -0.13367137
000260 5a 9b cf 3d 5a 07 79 be 6a 91 d0 bd 77 0a 2e be
       0.10137053 -0.2431921 -0.101839855 -0.1699618
000270 65 23 09 3d 15 3e b9 bd eb 67 05 3e 25 51 9d 3d
       0.03348102 -0.09045044 0.13027923 0.07681493
000280 cc e2 01 3d c8 9d 01 be 73 b6 b0 bd d7 41 40 3e
       0.03171043 -0.12657845 -0.086285494 0.18775116
000290 c8 fa 9c bd a5 77 10 3e 8e dd 00 3e bc 21 21 3d
       -0.0766502 0.14108141 0.12584516 0.039338812
0002a0 40 0e db bd 5b ba 41 3d 5c 68 df 3d ac 8e dc 3c
       -0.10696077 0.047296863 0.10908577 0.0269235
0002b0 66 3d 0d be 37 23 22 be 60 eb f9 bd 7f dc f9 3c
       -0.13792953 -0.15833746 -0.12203097 0.030500649
0002c0 e8 db 5e 3d 95 79 2c bd 90 51 77 3d 5d be 67 3d
       0.054408938 -0.042108137 0.06038052 0.05657803
0002d0 29 50 9c 3c 10 b3 1f 3e fa 2a 9d bd 0a b9 64 bc
       0.019081192 0.1559565 -0.07674213 -0.013960132
0002e0 69 8d c6 3c 5a fa c1 bd 8d fb 69 bc 07 4b 75 bd
       0.024237351 -0.09471579 -0.014281166 -0.059886005
0002f0 d7 d6 fd bd 3f 86 af bd d8 8a e8 3d dd 07 84 3d
       -0.12394493 -0.08570527 0.11354607 0.06446812
000300 d6 66 07 3e 0a ee c3 3d 9a b9 37 be 6c 12 30 3e
       0.13222823 0.09566887 -0.17941895 0.17194527
000310 39 39 af 3c 22 be bf bd 96 68 39 3e b9 66 6d bd
       0.02138959 -0.09362437 0.18106303 -0.057959292
000320 2b 19 1f 3c 3b 77 2d 3e 11 cf 81 bc 49 8a ff bc
       0.00971059 0.16940014 -0.015845807 -0.03119387
000330 80 83 1c 3e 99 31 03 be 3f d3 a5 bd 34 86 98 bd
       0.15284538 -0.12811889 -0.080969326 -0.07447472
000340 68 bb cd 3c b4 7a 67 3d 81 62 d0 3d 60 aa 0f 3d
       0.025113776 0.056513503 0.10175038 0.03507459
000350 d7 ba bc bc d0 90 48 bd 14 f1 dd bd 31 ad 1d 3e
       -0.02303831 -0.04896623 -0.10836998 0.15398099
000360 d1 5f a5 3d c8 2b 5b 3d 6e d9 85 bd 0b 6f 80 bd
       0.08074916 0.05350855 -0.06535612 -0.0627118
000370 68 b9 2d be 24 79 25 be 2b 13 05 be f0 19 ab bd
       -0.16965258 -0.16159493 -0.12995593 -0.083545566
000380 38 f2 af bd 3f 85 8a 3c 44 52 aa 3d 9e 36 93 bd
       -0.085911214 0.01690924 0.08316472 -0.07188152
000390 86 e3 c8 bd 61 56 22 be 42 39 ae bd af 3d 5c bd
       -0.09809022 -0.15853263 -0.08507015 -0.053769764
0003a0 a4 98 20 3d ae 69 69 bd 40 27 11 3e ce e8 3c bd
       0.03920807 -0.05698555 0.14175129 -0.046120457
0003b0 f6 26 90 3d 3e 52 5b bd 3e 69 31 3d ef 3e a2 bc
       0.07038681 -0.05354523 0.043313257 -0.0198054
0003c0 8b 7b de bd 38 08 21 be 1e 3c 7c bb 17 85 a2 bc
       -0.10863408 -0.15725791 -0.003848798 -0.019838853
0003d0 cb 8e 26 be a9 59 5b be c2 9d 17 bd b7 56 f6 3c
       -0.16265409 -0.21420921 -0.037015684 0.030070646
0003e0 37 d6 33 3d 80 ae 32 be 0f f6 2c be 79 03 eb bd
       0.043905463 -0.17449379 -0.16890739 -0.11475272
0003f0 17 8a 96 3c c5 21 bf bc c1 54 46 3e cb ef b5 bd
       0.018376393 -0.023331532 0.19368269 -0.088836275

lstm.bias_ih_l0 f4 [128]
000000 dc 0e 48 3e 55 db 09 bc fe 71 cc 3c 76 e9 54 3d
       0.19536918 -0.008414109 0.0249567 0.05198046
000010 a1 91 47 3e 94 c5 38 3c a4 68 97 bd 45 de 82 bd
       0.19489147 0.011277575 -0.073930055 -0.06390051
000020 1a af 20 be 39 a9 fb bd 8b be 21 be 06 f9 19 3e
       -0.15691796 -0.12288136 -0.15795343 0.15036401
000030 e3 03 98 bc 65 83 d8 bd e6 09 26 bd f8 15 e8 3d
       -0.01855654 -0.105719365 -0.040536784 0.11332315
000040 47 4c 88 bd a0 59 1b 3e 4b 14 a0 bd 2a ed a8 3c
       -0.06655174 0.15170908 -0.078163706 0.020620901
000050 ad 74 a6 bd 6b 41 24 3e 12 5f 11 3e 54 e0 15 be
       -0.08127723 0.1604058 0.14196423 -0.14636356
000060 42 a0 06 be 71 b6 fe bd 09 23 54 3e 1e 90 a4 3d
       -0.13147071 -0.12437142 0.2071649 0.08035301
000070 fc 3b 2f be 4a db 96 3d 61 7b d4 bd d0 20 a6 3d
       -0.17112726 0.07366045 -0.10375095 0.08111727
000080 99 54 1f be e8 4c 9e 3d b2 68 ca 3d e9 58 65 bd
       -0.15559615 0.077295125 0.0988325 -0.055992994
000090 68 88 06 3e 53 20 c6 3d dd 73 18 3e 8c aa a0 3d
       0.13137972 0.09674134 0.14887948 0.07845029
0000a0 1c f1 6c 3e b8 b2 ad 3d 68 ac 02 3e b1 cd 27 3e
       0.23138851 0.084813535 0.1276108 0.16387059
0000b0 de 03 bb 3d 3d ba 7e bc b1 53 0b 3e b8 68 48 bd
       0.09131597 -0.015547332 0.13606144 -0.048927993
0000c0 e6 47 1c 3e 6b b7 87 3d 7a da 80 3e 85 99 cd 3d
       0.15261802 0.06626781 0.25166684 0.10039047
0000d0 c2 4a 53 bc 7a 7c 6c 3e cf 5a e2 3d b6 ba 83 3d
       -0.012896242 0.23094359 0.110524766 0.06432097
0000e0 b5 2c 32 3d db e4 17 be 5c 19 d1 3d e2 d1 d3 bd
       0.043499667 -0.14833395 0.10209915 -0.10342766
0000f0 34 22 19 be 7e 43 50 bd b1 99 1b 3e e4 80 d4 3d
       -0.14954454 -0.050845616 0.15195347 0.103761464
000100 2b e0 1c be b0 48 20 3d 69 e4 82 bd a7 25 b0 3d
       -0.15319888 0.03913182 -0.06391222 0.086009316
000110 ee 3f d3 3d 3f 94 66 3d 76 69 27 3d 92 32 64 bd
       0.10314928 0.056293722 0.04087206 -0.05571229
000120 de 85 93 bd 73 2b 94 bd 67 bf eb bd de f6 93 3b
       -0.072032675 -0.0723485 -0.115111165 0.004515513
000130 e3 6c 0f 3e 36 21 02 be 1a 35 d5 3d 30 94 f3 bd
       0.1400638 -0.12707981 0.10410519 -0.11893499
000140 32 66 00 3e 92 71 83 3d c6 50 1f 3e a4 ca fb bd
       0.12538984 0.06418146 0.15558156 -0.1229451
000150 bf 81 30 3d ca ad b8 3d e9 ef d7 bd 9d b6 12 3e
       0.043092486 0.09017523 -0.10543806 0.14327474
000160 99 8f 34 be a6 7c 1e 3e 17 4c e1 bd 5a 3f 25 3d
       -0.17632903 0.15477237 -0.11000841 0.04034362
000170 0a 65 07 3c 1d 3d bf bd 2b b6 af bd d5 4c df 3d
       0.008263836 -0.09337828 -0.08579668 0.109033264
000180 26 d3 7a 3d 23 33 c3 3d b5 d0 09 3d 6f d3 30 3d
       0.061236523 0.09531238 0.033646304 0.04317039
000190 1f f5 41 3e 13 62 e5 bc 06 6e 74 3b a2 a2 f9 3c
       0.18941163 -0.028000867 0.0037297024 0.030473057
0001a0 dc a2 51 3e 7d b6 eb 3d 52 e3 34 bd 55 9b 30 3e
       0.20472282 0.11509416 -0.044162102 0.17246754
0001b0 fa 47 1e 3e 7d 8a db bd 17 bf 61 3e 0d 69 a1 bc
       0.15457144 -0.10719774 0.22045551 -0.019703412
0001c0 d3 04 50 3d 68 b7 f7 3d 63 44 48 3e 0c 60 7d 3e
       0.05078585 0.12095529 0.19557337 0.2474367
0001d0 76 9c 1b bc 76 8f b7 3d 62 a4 c9 3d be 92 fe 3b
       -0.009497752 0.0896291 0.09845807 0.007768958
0001e0 f2 19 e5 bd 3c 0b 5e 3e 50 18 c8 3d bf bc b2 bd
       -0.11186589 0.21683973 0.09770262 -0.08727407
0001f0 7e c7 3a 3e ce 7f bd bc cb 95 80 bc e4 61 23 be
       0.18240163 -0.023132231 -0.015696427 -0.15955311

lstm.bias_hh_l0 f4 [128]
000000 23 74 05 3d 95 6d bd bd ce d2 36 3e 24 a5 8c 3d
       0.03258146 -0.09249417 0.17853853 0.068674356
000010 25 9b 97 bd 55 e0 4d 3c 49 8c 17 be 8f 92 f1 bd
       -0.07402638 0.012565692 -0.14799608 -0.11795532
000020 ea c9 0a 3d 7d 49 c2 bd a3 0f c7 bd d5 af d0 3b
       0.033883967 -0.09486673 -0.09719779 0.006368617
000030 ac 16 1d 3e 20 9c f6 bc 5f 80 80 bb 0f f7 86 3e
       0.1534068 -0.030103743 -0.003921553 0.26360366
000040 a5 a7 26 3e ab 75 32 be 36 fe 08 be 92 fb 1e 3e
       0.16274889 -0.174277 -0.13378224 0.15525654
000050 3d 1b 13 3d 84 1c 01 bd 0d af 28 3e 88 8d 99 bd
       0.03591465 -0.031521335 0.16473027 -0.07497698
000060 8a c1 14 3e af fc a6 bd ac 6f b3 bd 87 43 92 3c
       0.14526954 -0.08153664 -0.08761534 0.017854465
000070 d3 33 0c 3e 6f 26 22 3e 39 ec 0a 3e 78 40 e9 3d
       0.13691644 0.15834974 0.13566674 0.113892496
000080 01 35 d8 bd ef 6c d9 3c 93 a7 d3 bd 2a 11 8e 3d
       -0.10556985 0.026541201 -0.103346966 0.069368675
000090 ca cf 7c 3c 39 40 08 3d af 39 51 3e 44 24 8c 3d
       0.0154304 0.033264372 0.20432161 0.068428546
0000a0 56 96 2d bd 76 14 0d 3e 01 38 93 bc 16 98 d0 bb
       -0.0423797 0.13777336 -0.01797104 -0.0063657863
0000b0 04 ab 28 3e 85 d6 63 3c 1e 69 c9 bd 7e b4 ac bd
       0.16471487 0.013906126 -0.09834503 -0.08432864
0000c0 33 27 30 3e 45 31 a6 39 92 f9 09 3e c6 e9 49 3e
       0.17202453 0.00031698696 0.1347411 0.19718084
0000d0 3d d8 0b 3e 00 de c1 bd 06 ec 0a 3e b8 dd 70 3b
       0.13656707 -0.09466171 0.13566598 0.0036753248
0000e0 22 ce 81 3d bd d1 96 bc eb e9 12 3e 89 d3 d3 3c
       0.06338145 -0.018410558 0.14347045 0.025857704
0000f0 20 eb 82 3d 78 52 17 3e 80 62 d5 bc 9b 13 1d 3e
       0.06392503 0.14777553 -0.026047945 0.1533951
000100 69 f8 20 3e 89 0e 9f bc a7 dc e6 bd 37 d1 35 be
       0.15719761 -0.01941611 -0.11272555 -0.1775559
000110 9c 50 3a 3d 4c 2c c0 bd 5d f8 0d bd 9d f1 04 3e
       0.04548703 -0.09383449 -0.034660686 0.12982793
000120 77 68 2b 3e 9f 27 0e 3c b5 9a 15 3e ed 5c 4a bc
       0.16739069 0.008676439 0.14609797 -0.012351257
000130 b2 65 46 3e 21 08 27 3e cc 0f 71 bd 79 1b 11 be
       0.19374731 0.16311695 -0.058852956 -0.14170636
000140 f0 08 08 3e 1e 65 09 3d 11 13 9c bc 9a 8d f9 3d
       0.1328466 0.0335437 -0.01905206 0.121852115
000150 a6 73 c1 bd f5 d9 ad bd 29 07 ec 3d 2a 38 15 be
       -0.09445886 -0.08488838 0.11524803 -0.14572206
000160 5e ca 11 be 33 ec b7 bd a1 c6 dd bd 8f bd 8c 3c
       -0.14237353 -0.08980598 -0.10828901 0.017180232
000170 19 ac f3 bd a7 4d ce bd 7e c4 13 3e 2c 7a f2 3d
       -0.118980594 -0.10073405 0.14430425 0.11839709
000180 91 cf 17 3d a8 c2 d7 3c 28 02 56 bb f7 20 55 bd
       0.037063185 0.026337937 -0.0032655094 -0.05203339
000190 a0 63 17 3d d0 b1 8a 3d 9f ed a4 3d 16 c7 45 3e
       0.036960244 0.06772196 0.08053135 0.19314227
0001a0 d0 8e a0 bd 85 21 50 3d 8f 34 95 3d 3b d4 68 3e
       -0.07839739 0.050813217 0.072854154 0.2273721
0001b0 7f d9 71 bd df c0 af bd 2e 94 d5 bd f9 04 87 3d
       -0.05904531 -0.08581709 -0.10428654 0.06592745
0001c0 e6 64 e4 3c 68 d6 00 be 1d 8f 88 3d 66 78 81 3d
       0.027880143 -0.1258179 0.06667922 0.06321792
0001d0 8a e0 d3 bd 13 f1 bd bd 4c 81 44 3e 72 11 4a bd
       -0.10345562 -0.09274497 0.19189948 -0.049333043
0001e0 12 20 72 bd b4 52 f1 bd fa 73 cb 3d a2 a1 bb bd
       -0.059112616 -0.117833525 0.0993423 -0.091616884
0001f0 d4 dd 69 bd 79 49 c3 3d 6b 2b 35 3d 2c b7 23 3e
       -0.057096317 0.09535498 0.04423086 0.15987843

fc_mu.weight f4 [8, 32]
000000 1d 9f 6d be 7d 2f 90 be 81 a7 a6 3e dd b6 95 bd
       -0.23205228 -0.2816123 0.3254967 -0.07310269
000010 16 48 00 3d c4 5a fe bc db 17 9f 3c a4 a8 f4 bc
       0.031318747 -0.03104914 0.019420555 -0.02986557
000020 0f 80 d2 3d d6 09 0e be 6f 35 27 be d7 93 ae 3d
       0.102783315 -0.1387094 -0.16328977 0.08524292
000030 9f 95 bb bd ce db 4a bd b7 71 68 3e 3c a7 ce 3e
       -0.09159397 -0.04952603 0.22699629 0.40361965
000040 fe 12 c9 3c b9 e2 9c 3e 76 d6 df bd 0d dc 83 bc
       0.024545189 0.30641726 -0.10929577 -0.01609614
000050 d8 da ff 3d f2 b8 8c 3c 86 87 24 3e 1e 3b a3 3d
       0.12492913 0.017178033 0.16067323 0.0797026
000060 dd aa eb bd b7 6b 2f 3e 67 25 b9 3d 2a 85 ba be
       -0.11507199 0.17130934 0.09040337 -0.3642972
000070 05 79 76 3e c2 01 7f 3d d7 c8 d1 3d 17 3c 9c be
       0.24069603 0.062257536 0.10243385 -0.30514595
000080 37 ce b5 3d 1c 6a dd 3d a2 a2 29 3e 31 1a ce bd
       0.08877223 0.108112544 0.16565946 -0.10063589
000090 3b b5 07 be 8a 48 92 be 60 98 bb 3d 3a b7 ed 3c
       -0.13252728 -0.28570968 0.091599226 0.029018033
0000a0 8a 9f d8 bd e7 e5 5a be 6a f7 aa 3e be fd 79 3e
       -0.10577305 -0.21376763 0.33391887 0.24413201
0000b0 76 fc 97 3e 0d a7 fd 3c 0f ce aa 3e 0c 97 3d 3e
       0.296848 0.030963445 0.33360335 0.18514651
0000c0 da cc 96 3d dd a7 be bb 5c 56 3b 3e 4e 26 a9 be
       0.07363291 -0.0058183507 0.18294662 -0.33037037
0000d0 db 52 5b 3e 6e 23 da 3d 64 db 4e 3e 42 86 de bb
       0.21418326 0.10651289 0.20200878 -0.006790907
0000e0 9a fc 0a 3e 0e 66 bf be 86 78 ca bd 6e 58 56 be
       0.13572922 -0.3738255 -0.09886269 -0.20932171
0000f0 88 6f 17 be 0a 6e 24 3e 3b 03 3c be 4d e2 5a be
       -0.1478864 0.16057602 -0.18360607 -0.2137539
000100 e9 2f 0b 3e 3a eb 65 3e 46 c4 c2 be b9 c2 17 be
       0.13592495 0.22453013 -0.3804037 -0.14820375
000110 ca 71 05 be 84 90 95 bd 1b 35 92 3d 12 c9 0a be
       -0.13031688 -0.07302955 0.07139035 -0.13553265
000120 10 6f 2c 3d 91 37 ab 3e 60 71 e7 bd d6 d6 a6 3b
       0.042098105 0.3344083 -0.113009214 0.0050915284
000130 50 36 ac 3d 6e 47 82 be 69 e9 e3 bd be 30 2b be
       0.08408797 -0.25445122 -0.11128504 -0.16717812
000140 0d 88 70 be 1d 0a 16 be 62 24 62 bd d9 fc 65 be
       -0.23489399 -0.14652295 -0.05521048 -0.22459735
000150 c0 8c ac 3d 37 6c d3 3c f7 be 80 be 94 7b 62 be
       0.084252834 0.025808437 -0.25145695 -0.22117454
000160 ca c5 72 bd db 45 b9 bd db 4a 96 be 46 dd 16 3e
       -0.059270658 -0.09046527 -0.29353985 0.14732847
000170 b6 06 ff 3c 53 46 cc 3d 06 18 ea bd 6f 5d 5a 3e
       0.03113113 0.09974351 -0.11430363 0.21324705
000180 54 d4 1d bd 1a 62 2d bd 89 62 a9 3d ba 2a 1f bd
       -0.03853257 -0.042329885 0.08270747 -0.038859107
000190 7a e0 a7 3d ee ae 4f 3e 54 1d 58 be 82 7b 1f 3e
       0.081971124 0.20281574 -0.21104938 0.15574458
0001a0 d6 eb b0 3d 99 8a 9f 3b f2 c5 32 be 16 bc 3b be
       0.08638732 0.004868817 -0.17458323 -0.18333468
0001b0 7f 8e 0f be 9c 76 6b 3e f0 3d 1d be a5 4d 22 3e
       -0.14019202 0.22994465 -0.15355659 0.15849932
0001c0 c8 8f d7 3d e1 e1 ce 3d 34 1e 57 be 86 bc 34 3e
       0.10525471 0.10101677 -0.21007615 0.17650041
0001d0 19 02 5c be 41 95 a0 be 16 1d fe bd 92 f1 8c 3e
       -0.21485175 -0.31363872 -0.124078915 0.27528054
0001e0 49 f6 58 be fd 31 2e 3e 87 46 09 3e 28 ca 80 bd
       -0.211877 0.17011257 0.1340581 -0.06288558
0001f0 1a 91 01 3e 6d c7 b2 bd 41 26 bb 3d 41 53 88 3d
       0.12653008 -0.08729444 0.09138156 0.066565044
000200 4e b9 ee bd 92 04 5b 3e a7 61 d6 bd 2c cb 55 be
       -0.11656438 0.21388462 -0.104678445 -0.20878285
000210 05 e1 34 be 17 22 19 be 5a d5 a0 3d f6 11 42 be
       -0.17663963 -0.1495441 0.078531936 -0.18952164
000220 5d 87 13 be a5 46 5e 3e 0e 47 fa 3d cc af 7f bd
       -0.14407106 0.21706636 0.12220584 -0.062423512
000230 14 09 c5 bc 23 c9 8f bd 02 63 57 3d 34 71 80 3e
       -0.02405218 -0.07020786 0.052584656 0.25086367
000240 e2 ed 09 be f7 08 4f be 91 22 91 3d 4c 9b 1c be
       -0.13469651 -0.20218264 0.07086671 -0.15293616
000250 0d 64 ca 3d b8 b9 49 3e 90 2a 56 3e 94 d8 40 be
       0.098823644 0.19699752 0.20914674 -0.18832618
000260 86 71 90 3d 57 de 0c be 70 0c b7 3d 79 f2 9d be
       0.07052903 -0.13756691 0.08937919 -0.30849054
000270 fd 9f 49 be ea 15 f7 3c ff 3a 07 be 75 d0 18 3e
       -0.19689937 0.030161817 -0.13206099 0.1492327
000280 1c 43 b7 be a3 c9 b9 bc a0 70 e6 3c d2 e5 be 3d
       -0.35793388 -0.022679156 0.028129876 0.093211785
000290 b4 64 71 bd 71 52 46 3e 8f 12 42 be 5d 35 6a 3d
       -0.05893393 0.19367386 -0.18952392 0.057179797
0002a0 e0 9f e0 3b a1 bc a6 3e 9c b1 ec bd 6e 9b ad be
       0.006854996 0.32565787 -0.11557314 -0.33907646
0002b0 83 de 16 be 5c 58 00 be 38 40 ca bd 13 cb 2f 3e
       -0.14733319 -0.12533706 -0.0987553 0.1716731
0002c0 f0 f2 92 bc fe 1f b2 3d 8d 85 1a be 45 01 00 3e
       -0.017938107 0.08697508 -0.15090008 0.12500484
0002d0 40 79 4b be ba 04 07 bc 94 28 29 be 35 57 92 3e
       -0.19870472 -0.008240873 -0.16519386 0.2858216
0002e0 c1 35 8c be 11 1c 2e 3e 45 2a 8b 3e 1f cf 40 be
       -0.2738476 0.17002894 0.27180687 -0.1882901
0002f0 6f 72 90 3d 74 fb 9d 3c 04 55 cc bd 60 de 19 be
       0.070530765 0.019284941 -0.09977153 -0.15026236
000300 1f d3 76 be af e7 82 3e 85 e2 8a be fc 16 ea bd
       -0.24103974 0.25567386 -0.27125946 -0.11430165
000310 e6 0f 6c be 06 9d 6a be 6c e0 a5 bd 84 e9 47 be
       -0.2305294 -0.22911462 -0.08099446 -0.19522673
000320 16 ab 33 be d6 18 0a 3f 16 79 9a 3d 98 99 88 3d
       -0.17545733 0.53944147 0.075426266 0.06669921
000330 64 2d cc 3d 75 fa 20 be a4 d6 09 be 77 3e 3a be
       0.09969595 -0.15720542 -0.13460785 -0.18187891
000340 98 83 a0 be ad ea 87 be fe 2c f0 3d 73 b5 80 be
       -0.31350398 -0.2654623 0.117273316 -0.25138435
000350 b5 43 16 be 49 d9 ae 3d 5d e3 d2 bd 27 a3 ca 3d
       -0.14674266 0.085375376 -0.10297272 0.098944
000360 ec 55 19 3e b9 11 6e bd 56 1f 8b bd e1 41 9f 3e
       0.14974183 -0.05812237 -0.06793086 0.3110495
000370 15 4e 9b bd fc 28 df bd 0f 7d ac be 22 c2 31 3e
       -0.07583252 -0.10896489 -0.33689162 0.17359212
000380 ff 19 82 be c1 5a 40 3d 4f cd 90 3d d1 84 37 3e
       -0.25410458 0.04696155 0.070704095 0.17921759
000390 76 b3 9b 3e 14 e5 e4 3d b2 8a 76 be f3 d0 46 3c
       0.30410355 0.11176506 -0.24076346 0.012134778
0003a0 ff da cb 3c db b0 a8 bd e4 5f ed 3d a0 d1 4d be
       0.024884699 -0.082368575 0.11590555 -0.20099497
0003b0 e9 da e2 bd b8 aa ac 3d 5b da 0e bd c7 5a db 3e
       -0.1107691 0.084309995 -0.03487621 0.42842695
0003c0 d6 51 91 3e 7f 91 00 3e 20 97 5e bd 7e 54 fe 3d
       0.28382748 0.12555502 -0.054343343 0.12418459
0003d0 c0 a4 f5 bd 34 3d 3e be 6b 6f af 3e 86 02 3c bd
       -0.11994314 -0.18578035 0.34264693 -0.045900844
0003e0 81 83 7e be 5a e5 e9 bc a3 dd 85 3e 94 99 ef be
       -0.24854852 -0.028551746 0.26145658 -0.46796858
0003f0 c8 59 d4 bd 33 44 61 be 22 c4 62 3e 38 52 87 be
       -0.10368687 -0.21998672 0.22145131 -0.26429915

fc_mu.bias f4 [8]
000000 46 ff ba 3d 75 4c b9 3d 75 d4 f2 3d 8b 7c 06 3e
       0.09130721 0.09047786 0.11856929 0.13133447
000010 18 31 d2 bd fb 73 53 be ad 89 5f 3d 1a c8 96 bd
       -0.1026327 -0.20649712 0.054574657 -0.07362385
