checkpoints/HOTEL-vae/hotel/m_vae_model_best.pth (torch, 75829 bytes, 24 tensors)

conv_layers.0.weight f4 [64, 1, 3]
000000 46 51 8b 3e a8 6d f5 3d f9 bd 52 3e 6b f0 ea 3e
       0.27210444 0.11983806 0.20580281 0.4588655
000010 f5 ee d6 3e 8a 56 ec 3e 18 7b 1a 3f b1 f6 ab 3d
       0.41979185 0.46159774 0.60344076 0.08396662
000020 1b 90 b4 bd 22 05 07 3f f3 0c 0c 3f 4e d9 e7 3e
       -0.088165484 0.5274221 0.5470726 0.45282978
000030 df 91 8a be 67 65 e4 bd 51 5b c5 3d 0b f0 ee be
       -0.27064416 -0.111521535 0.09636558 -0.46667513
000040 46 cf 3c bd 52 ea ed 3e 50 3d b0 3e d2 0d 20 be
       -0.04609611 0.46467835 0.34421778 -0.15630272
000050 e7 21 7d be 8f c2 e7 3e e6 7e a7 3e 60 58 32 3e
       -0.24719964 0.45265624 0.32714003 0.17416525
000060 3f e0 9a be 16 b7 96 be 8c 7a 11 3d 76 a5 f1 3e
       -0.3024921 -0.29436558 0.03551726 0.4719655
000070 e4 eb c2 be e2 93 0e 3e 47 68 aa bd 83 cc ab 3e
       -0.38070595 0.139236 -0.083206706 0.33554468
000080 99 0d 03 bf e0 27 41 3e 26 35 62 be f8 d7 f4 3e
       -0.51192623 0.18862867 -0.22090587 0.4782102
000090 03 2a 4c 3e 03 5d ca be be 3a ac be 58 77 12 bf
       0.19937901 -0.39524087 -0.33638567 -0.57213354
0000a0 05 b4 0e bf d4 8d 7c be e1 cd 9c 3d d8 a7 ba be
       -0.5574344 -0.24663478 0.07656456 -0.3645618
0000b0 2f e3 9f 3e ec 71 95 be 90 71 41 be f9 90 c1 be
       0.31228015 -0.29188478 -0.18890977 -0.37805918
0000c0 b1 13 be be 0b 5d 90 3e f1 58 db be f5 c8 f3 3e
       -0.37124398 0.28195986 -0.42841294 0.47614256
0000d0 ec 29 cb be 35 e9 d4 3e b2 13 3d 3e a1 98 d1 3e
       -0.3968042 0.41584173 0.18464544 0.4093676
0000e0 a9 db ff 3e c7 ae 70 be bf 44 0e be 84 df 8a 3e
       0.49972275 -0.23504172 -0.13893412 0.27123654
0000f0 f2 e5 cc bc f6 0a 5b 3e 83 b8 c1 be 80 9c 09 3f
       -0.02501199 0.213909 -0.37836084 0.53754425
000100 9f 75 88 be 1a b2 e7 3e 69 4e 8c 3e b7 a4 c2 bd
       -0.26652238 0.45253068 0.27403572 -0.09504073
000110 da 30 09 3f 93 55 e8 be 3b 79 96 be 67 bb 00 3f
       0.53590167 -0.45377788 -0.29389367 0.50285953
000120 23 53 16 3f 8e 9f e8 be cb 25 10 3f 9e 4e c7 3e
       0.58720607 -0.4543423 0.5630767 0.38927168
000130 e0 dd c6 3e 82 4a cd 3d b2 85 05 3f c1 a7 a9 be
       0.38841152 0.10023977 0.5215713 -0.331358
000140 ed e4 1d bf b1 d0 8e 3e 6e 51 ca be b2 e7 b3 3e
       -0.6167744 0.27893594 -0.3951525 0.35137707
000150 c7 a4 1e be 92 47 9a be e7 6c 23 bf fe ba bf 3e
       -0.15492545 -0.3013273 -0.63838047 0.3744735
000160 bc 43 48 3e 82 8e 29 be 85 1a 78 3e d0 ea 47 bd
       0.19557089 -0.16558269 0.24228866 -0.04880792
000170 78 c9 77 bc 5b 42 ee 3e ae c6 1c 3e 28 2a ce bd
       -0.0151237175 0.46535 0.15310165 -0.100666344
000180 c7 0f c8 3d 40 cc a3 3d 8a 58 e8 be fe 48 ab be
       0.09768634 0.07997942 -0.4538005 -0.33454126
000190 dc e2 da 3e f5 21 03 3f 66 b9 65 3c 16 3f da 3e
       0.42751205 0.5122369 0.014021253 0.42626256
0001a0 c0 73 ba 3e 70 88 13 3f 47 06 30 be d9 c5 40 be
       0.36416435 0.5763006 -0.17189895 -0.18825473
0001b0 09 ca 17 bd 75 24 09 3e e6 fb 7a bc df 78 8b be
       -0.03705791 0.13392814 -0.015318846 -0.27240655
0001c0 15 32 ba be c2 31 d2 3e 82 6c 4d be 5d 24 c4 3e
       -0.36366335 0.41053587 -0.20060924 0.38308993
0001d0 71 58 60 be c3 05 9d 3c bf d5 df be 23 2d a7 3e
       -0.21908738 0.019167786 -0.43717763 0.32651624
0001e0 04 44 cf be 31 f1 5b 3e 09 f9 ea 3b fe db 4c be
       -0.4048158 0.21478726 0.0071708006 -0.20005795
0001f0 f6 41 cd be 9c c1 c0 3e e7 cb 20 3f 6a 3c c8 be
       -0.40089387 0.37647712 0.6281113 -0.39108592
000200 1d 18 0c be e7 90 d1 be f5 52 95 3d 1b a5 8e be
       -0.13681073 -0.40930864 0.072912134 -0.2786034
000210 61 25 17 be 5c d2 0d bf be 17 5f be e5 9d cf be
       -0.14760353 -0.5539911 -0.217864 -0.4055015
000220 2c 67 70 3e 36 8c fc be b6 e7 9f 3e f8 5c e4 3d
       0.23476857 -0.49325722 0.3123147 0.11150545
000230 76 29 0f 3f a0 bd 91 3e 6c 6c 15 bd f2 77 80 be
       0.5592264 0.28464985 -0.036480352 -0.2509151
000240 08 25 d8 be 7b e1 1f 3e 82 fb 08 be 83 7f 62 bd
       -0.42215753 0.15613358 -0.13377193 -0.055297386
000250 17 e9 12 3d 07 0a 04 bf c4 0b bd be 46 9c 05 bf
       0.035866823 -0.515778 -0.3692304 -0.5219158
000260 b7 8e a1 3e 57 f8 80 be 37 23 3d be 1c 62 f3 3e
       0.31554195 -0.25189468 -0.18470465 0.4753579
000270 c1 c6 14 bf 25 d1 c6 3d e0 f7 8b be 86 53 99 be
       -0.58115774 0.0970786 -0.2733755 -0.29946536
000280 41 0e f1 3e 7d 12 c4 bd 2d 5f e5 be 31 4f 76 3a
       0.47081187 -0.09573839 -0.44799176 0.0009395956
000290 61 87 46 3e 62 f0 0c 3f 99 21 15 bd 4b e7 83 be
       0.1938758 0.55054295 -0.036408994 -0.257624
0002a0 2e 20 d8 bc 20 75 a5 3e c7 16 bc be 7d 3d 09 bf
       -0.026382532 0.32315922 -0.36736128 -0.5360945
0002b0 48 9c d6 3e 5c 78 90 be d0 0e cd 3e 1c e8 4b be
       0.41916108 -0.28216827 0.40050364 -0.19912761
0002c0 a9 35 a6 be 04 25 12 3e 49 fe 7d 3e 03 54 d8 3e
       -0.32462814 0.14271933 0.24804033 0.42251596
0002d0 10 92 03 3f 14 ab 87 be 55 57 36 3e 70 6d 03 bf
       0.5139475 -0.2649771 0.17806752 -0.51338863
0002e0 cc 15 c4 3e 0f 3a cd bd 2b a1 09 be 99 00 93 3e
       0.3829788 -0.100208394 -0.13440387 0.28711393
0002f0 35 92 21 3e 4c aa db 3c de 75 b6 3e 8d c3 e4 bd
       0.1577843 0.026814602 0.356368 -0.11170111

conv_layers.0.bias f4 [64]
000000 f2 c1 06 bf 8c 3d 6d 3e 09 83 3e 3e 7b f5 41 be
       -0.5263969 0.2316801 0.18604673 -0.189413
000010 18 e6 64 bd 28 5f 8a 3d db 6b f4 3e 75 13 5d be
       -0.055883497 0.06756431 0.47738537 -0.21589454
000020 24 a2 d6 be 39 53 d5 be 8c ba c3 3c 8b b3 f5 3e
       -0.41920578 -0.41665056 0.023892663 0.47988543
000030 1c e3 1d 3f d9 72 7e 3e d7 b3 cc 3e 8b 18 da be
       0.61674666 0.24848498 0.39980957 -0.4259685
000040 6b 88 b3 bd ea 36 ee 3d 8a f6 30 3c 59 f6 e7 3d
       -0.08766254 0.11631568 0.010800967 0.11326284
000050 47 1d e1 be 14 20 15 3e 7a 42 80 3e b6 73 9b be
       -0.4396765 0.14563018 0.25050718 -0.30361718
000060 e6 d2 d5 3e 3a bc 40 be 53 0b c8 3d b4 60 28 3d
       0.41762465 -0.18821803 0.09767785 0.04110785
000070 f8 85 99 3d 0b 99 00 3f 8f 15 1c 3e 80 45 5b 3e
       0.07496256 0.50233525 0.15242599 0.21413231
000080 93 b5 da 3e 72 4e 0f bf 49 90 01 3f ab 0f e6 3e
       0.42716655 -0.55979073 0.50610787 0.4493383
000090 0a de db 3e ae a9 d5 3e 6e ab c2 be 32 84 e2 3e
       0.4294284 0.41731018 -0.38021415 0.44241482
0000a0 84 23 16 3f 9e e3 9b be a8 53 1b bd c5 6c c5 be
       0.5864794 -0.30447096 -0.037921578 -0.38559547
0000b0 18 1e 38 be 7d 42 14 3e d9 aa 8b bd 90 8c ba be
       -0.1798023 0.14478488 -0.06819696 -0.36435366
0000c0 b4 62 6f be ee e8 27 3f 67 5c f6 3c dd 51 91 3e
       -0.23377496 0.655898 0.030073358 0.2838277
0000d0 1e 33 52 3d 37 1e a9 3c 03 e2 6e be 7d 6c 17 3f
       0.05131828 0.02064429 -0.23328404 0.59149915
0000e0 57 85 0c 3f 64 b7 c0 3d b0 a2 64 be 60 df 01 bd
       0.5489096 0.09409979 -0.22327685 -0.031707168
0000f0 58 6f 80 be 09 e2 91 3e f0 fa 04 bf b2 a4 44 be
       -0.2508495 0.28492764 -0.519454 -0.19203451

conv_layers.2.weight f4 [32, 64, 3]
000000 24 35 ae 3d 07 aa 90 3d 17 ab 35 3d c2 98 96 bc
       0.085062295 0.0706368 0.044352617 -0.018383387
000010 40 b4 8a bc 2c 02 71 ba 86 d2 09 bd b2 cd 60 3d
       -0.016931653 -0.0009193744 -0.033648036 0.054883666
000020 bf 70 25 3d e1 09 8a 3d c2 67 b0 bc aa 62 93 3d
       0.040390726 0.067401655 -0.02153385 0.07196553
000030 cf 23 d2 bd e9 29 c5 bc 27 99 2e bd 24 a7 ad bc
       -0.10260736 -0.024067836 -0.042626526 -0.021197863
000040 3a 5c 95 bd be 96 c7 bd 58 ab a9 bc 02 f5 3f bd
       -0.072929814 -0.09745549 -0.020711586 -0.046864517
000050 3f cf b3 3b 07 f3 a3 3d 06 65 79 3d 89 a0 a9 3d
       0.005487352 0.08005338 0.06088736 0.08282573
000060 b9 a1 26 3c 04 ae 08 bc 4f 65 72 bb 60 84 88 bb
       0.010170394 -0.00834227 -0.0036986654 -0.004166171
000070 28 f4 d0 bc 8e 4b 63 3d 8c a6 17 bd 6d 0f 00 3d
       -0.025507048 0.055491976 -0.037024066 0.03126471
000080 18 12 aa bc f3 af b0 3d 01 0c 0e 3c 5b e2 61 3d
       -0.02076058 0.0862731 0.008669854 0.05514751
000090 3a 32 ef 3c 90 42 e3 3d a9 0f 7c 3d af bc e9 bb
       0.029198755 0.1109668 0.061538372 -0.0071330885
0000a0 8b 00 bf 3d 75 59 3c bc a9 a3 26 3c 2c 47 b1 3d
       0.093262754 -0.011495938 0.010170856 0.08656153
0000b0 15 9b 91 bc 4a 80 42 bd 0b ae 9d 3d cb 8f 0a 3d
       -0.017774144 -0.047485627 0.07699212 0.033828538
0000c0 2f ae 39 bd 0d 8d 04 3d c5 08 a0 3c e1 60 cc 3d
       -0.04533213 0.03236108 0.019535432 0.09979416
0000d0 e3 24 92 3c c3 ea 86 3c 8b 2d 83 3d fb f4 f8 bb
       0.017839855 0.016469365 0.06405171 -0.0075975633
0000e0 4d 80 c0 3c d1 b3 c9 bd f9 e0 d6 bc c1 cf 4f bd
       0.023498679 -0.098487504 -0.026230322 -0.05073524
0000f0 4a 80 03 bd 51 8f d9 3c 00 8b 0e 3c 16 97 42 3d
       -0.032104768 0.026557596 0.008700132 0.047507368
000100 ba 3c bb bc 35 71 5c bd 20 42 02 3d 33 b6 65 3d
       -0.022856105 -0.0538189 0.031801343 0.05608196
000110 da ca 9d 3d 87 db fe bc 17 41 31 3d a3 80 36 bd
       0.077047065 -0.031110538 0.043274965 -0.04455627
000120 b2 7e 86 3b ce 0b 9d bc de da ff 3c e7 16 bb 3d
       0.0041044587 -0.019170668 0.031232294 0.09135228
000130 f3 9e de 3a 60 82 e3 bc 0c 18 7e 3d b9 2b d6 3c
       0.0016984626 -0.027772129 0.06203465 0.026143895
000140 8b cf ca bd 1e 9a 21 bd c2 1f cf 3c ec 14 3b bd
       -0.09902867 -0.03945362 0.025283698 -0.04567425
000150 70 43 84 3d 88 f7 39 3c 44 f9 9e 3d 11 8b 38 3d
       0.06458175 0.01135052 0.077623874 0.0450545
000160 0a af 77 bc 84 4f b1 b8 6b 1d 4f 3d 26 ba 0f bb
       -0.015117416 -8.454829e-05 0.050565165 -0.0021931021
000170 80 4c a7 3c de d2 dc bc 75 2e ba bc 32 9b 20 3d
       0.02042222 -0.026956018 -0.02272723 0.039210506
000180 7b 9b 74 3d 71 42 e9 3c 58 9a 29 bd 2e 13 e9 3c
       0.05971859 0.028474065 -0.04140696 0.028451528
000190 e9 a7 1b 3d 0f 0b 38 bd 56 9d b7 3c 1c 2b 1b bd
       0.03800193 -0.04493242 0.02241389 -0.03788291
0001a0 9f 46 85 3d 57 f9 a7 bc 4c 7d b6 bc 16 15 9f 3d
       0.065076105 -0.020504637 -0.022276543 0.07767694
0001b0 ef 2c 59 3d 36 55 b0 3d d8 19 8d 3d 6c ea 3a 3d
       0.053021368 0.08610003 0.06889695 0.04563372
0001c0 3c e6 92 bc f0 52 78 3d fb 20 2d 3d 4b 61 49 bd
       -0.01793205 0.06062597 0.04226778 -0.04916505
0001d0 b5 b0 97 3d ed 1b fd bc 71 95 22 bd a2 af 31 3c
       0.07406751 -0.030897105 -0.0396933 0.010845097
0001e0 cb ca 02 3d 1c 88 9d bc 5f d8 c9 3d 3b 90 05 bd
       0.03193168 -0.019229941 0.09855723 -0.032608252
0001f0 85 9b a4 bc 20 ec 10 3d e7 e3 9c 3b e6 cc 5c 3d
       -0.020093689 0.035381436 0.0047879103 0.053906344
000200 04 4f 2b 3d 24 88 83 3c df da 96 bd 2e 03 bf 3b
       0.041823402 0.016056128 -0.07365965 0.0058292365
000210 c2 93 ad 3c ae 14 aa 3c 76 c6 c3 3d 38 3c fe bc
       0.02118862 0.020761814 0.09559338 -0.031034574
000220 69 3a f7 bc 99 09 85 3d 53 c5 b5 3d 9b 20 44 3d
       -0.03017922 0.06495971 0.08875527 0.047882657
000230 ae 82 28 bc 9b 1b 76 3d 70 d2 5a 3d 2b 72 2d 3c
       -0.010285063 0.06008492 0.053423345 0.010586302
000240 36 97 13 bd 5c 97 e6 3b 00 97 d1 3d 65 cc 6c 3d
       -0.036032878 0.0070370864 0.10233879 0.057812113
000250 84 54 7c bd c7 17 0f 3d a6 ee 3b bd c6 10 5b bd
       -0.061604038 0.034934785 -0.04588189 -0.053482793
000260 64 03 72 ba 4c 79 10 bd f1 a2 2a 3d 91 0b 9d 3d
       -0.00092320726 -0.035271928 0.0416593 0.07668222
000270 25 de ad bb 88 66 e9 bc 38 5c a8 3b 82 fc 10 bd
       -0.0053060227 -0.028491274 0.0051379465 -0.03539706
000280 ca 5e 8a bb f9 d9 b0 bc 42 1d 6c bd ec 4f b2 bc
       -0.0042227255 -0.021588312 -0.05764509 -0.021766625
000290 76 17 d2 3c c6 60 dc 3c 91 18 e1 3c f3 13 4f 3c
       0.025645953 0.026901614 0.027477534 0.012639034
0002a0 42 f0 8c 3d d7 bb bf 3d 98 12 98 bc 74 16 96 3c
       0.06881763 0.093619995 -0.018563554 0.018321253
0002b0 5e cc b6 3c 4f 36 97 3d e8 62 d3 3c 17 07 94 bb
       0.022314247 0.073834054 0.025803998 -0.0045174467
0002c0 91 8f c3 3c a7 4a df bb 36 7d 23 3b c2 7b 48 bc
       0.023872169 -0.006814319 0.0024946458 -0.012236537
0002d0 d0 6d 20 bd 9b c9 ce bb 5e 2f a5 bc 2d 89 63 3d
       -0.039167225 -0.0063106543 -0.020164188 0.055550743
0002e0 f4 21 9e 3c 7a fe 5d 3d 5c e1 b4 3d 9c 1b 76 bd
       0.0193033 0.054197766 0.088320464 -0.060084924
0002f0 2a ad 25 3d 19 b0 48 bc bd 2b 8c 3c 8d 4a e5 bc
       0.040448345 -0.012249016 0.0171107 -0.02798965
000300 67 d1 f4 3b 7d ba 86 bc ac 68 0a bd 5b 74 dd 3c
       0.0074712518 -0.016446346 -0.03379123 0.027033022
000310 ec c1 51 bb 18 12 0c bd 03 ae 07 bd 22 af 23 bc
       -0.0032006456 -0.034196943 -0.033124935 -0.009990485
000320 52 39 27 bd 5d 93 75 3c 14 da 43 bd 2f 37 37 3d
       -0.04082615 0.014988747 -0.047815397 0.04473036
000330 d4 d6 31 bd a9 e9 3e bd 24 69 c8 3b c5 fd aa bd
       -0.043417767 -0.046609554 0.0061160494 -0.08349184
000340 c2 87 23 3d 0b 9b 22 bd af a2 ab 3d 47 d3 23 bd
       0.03992439 -0.03969864 0.08380639 -0.03999641
000350 c2 bc 90 bd 62 46 f3 bc 45 88 bc bc f3 33 2a bc
       -0.07067253 -0.029696647 -0.023014197 -0.010388362
000360 81 00 14 bd 89 15 01 bd 64 6a d3 bc 69 b0 5e 3d
       -0.036133293 -0.03151468 -0.025807567 0.054367457
000370 52 80 d5 3c c1 7b f6 3c a7 b0 ac bd dd 26 bc 3d
       0.026062164 0.030088307 -0.08432131 0.091871
000380 7d 7c ae 3d d7 f1 65 3d ee c7 ac 3d 0b 89 3a 3c
       0.08519838 0.05613884 0.08436571 0.011385213
000390 27 2f f4 3d 03 19 1d be cb c1 35 be 7f c1 5e 3c
       0.11923056 -0.15341572 -0.17749707 0.013595938
0003a0 74 b7 a7 bb 51 43 56 3b 48 62 8f 3d 8f d8 7e 3d
       -0.005118305 0.0032693932 0.070011675 0.062218245
0003b0 57 06 f2 bb 0e d7 d3 3d 18 71 5b 3d e3 3a 20 3d
       -0.0073860097 0.10343753 0.05357465 0.03911866
0003c0 c8 65 41 bd c1 ad 15 3d 87 e6 10 3d 3c 08 35 3d
       -0.047216207 0.036542658 0.035376098 0.044197306
0003d0 0f 54 a6 bc b4 2e 87 3d 05 dc 40 bd e1 34 86 ba
       -0.020303754 0.06600705 -0.047084827 -0.0010239148
0003e0 d8 f0 b7 bc 4e 1e 08 bd 43 f1 01 be 67 df 0d be
       -0.02245371 -0.033232026 -0.1268969 -0.13854752
0003f0 1c 10 1b bc b0 3d d2 3c 3e de 5f bc 6a 42 10 3d
       -0.00946429 0.02566418 -0.0136638265 0.035219587

conv_layers.2.bias f4 [32]
000000 d7 fb 89 3d 33 1a 06 3e 2f 46 c4 bc 2b b8 be 3d
       0.06737488 0.13095932 -0.023959247 0.09312471
000010 93 de 71 bd ce 95 f3 3c 9e f5 ea bc 1b 8b 59 3d
       -0.059050154 0.029734518 -0.028681573 0.053111177
000020 93 80 75 3d ac c5 87 39 1d bd 69 bd a1 c7 49 bd
       0.05993707 0.00025896484 -0.057065118 -0.049262647
000030 5e c8 43 3d 74 5e ee 3d a1 3c 8d bb 8c ef 47 3d
       0.047798507 0.11639109 -0.004310206 0.048812434
000040 51 bd 3c bd 20 73 c3 3d 4a 68 7d bc c5 e6 b2 3d
       -0.046078984 0.09543443 -0.015466759 0.08735422
000050 0f bf 97 bd 96 6f 10 3d 92 8b 36 bd a0 54 a8 3c
       -0.074094884 0.035262667 -0.0445667 0.020548165
000060 48 a3 88 bd 2a d9 4c bc 49 73 4a 3d 54 a5 7a bd
       -0.066717684 -0.012502948 0.04942635 -0.061192825
000070 bf cb 58 3d 4a 2c ff 3d d3 72 4a bd 9b ed 1a bd
       0.052928682 0.12459619 -0.04942591 -0.037824254

lstm.weight_ih_l0 f4 [128, 32]
000000 bc b8 9e bc 26 6a 1b be 5e bf 5f 3c f7 44 82 bd
       -0.019375198 -0.15177211 0.013656465 -0.0636081
000010 30 6a 9f 3b 5b 10 21 bc 9b 3b b3 bc 9d 86 93 3d
       0.0048649535 -0.00983056 -0.021879008 0.0720341
000020 bb 0e 5e bc 2f b1 0b 3e 38 3d 1c 3e 92 00 e5 bd
       -0.013553317 0.13641809 0.15257728 -0.111817494
000030 6b 1c c3 3d d5 df 09 3e 4c a9 a8 bd 21 2d 75 bc
       0.09526905 0.13464291 -0.08235416 -0.014964373
000040 73 3f 3f be 83 4b 39 3d a4 e6 ab bd c4 81 2c 3d
       -0.18676548 0.04523803 -0.083936006 0.04211594
000050 50 b2 ca bd 64 92 f2 3d 94 47 da 3d 87 a6 12 3e
       -0.09897292 0.11844328 0.10658184 0.14321338
000060 d8 19 15 be 61 f5 cb 3c 0b 5f 4d bc d5 57 ac bd
       -0.1456064 0.02489728 -0.012534867 -0.0841519
000070 7f a9 68 bd 03 64 2f 3e 6b f1 25 3e 92 13 56 3c
       -0.05680227 0.17127995 0.16205375 0.013066189
000080 47 9c 2e 3e 67 e0 c8 bc 08 96 a6 bd 8c 45 09 3e
       0.17051803 -0.024521066 -0.08134085 0.13405436
000090 90 59 cb 3d a2 97 03 3e 29 0e 13 3d 4b 2c 40 bd
       0.09929192 0.12850812 0.035902176 -0.04691724
0000a0 59 9b ad 3c 4f e1 11 3e d8 2e 0a bd 2c 4c c0 3d
       0.02119224 0.14246105 -0.03373608 0.09389529
0000b0 1a eb ac 3d e5 1c ad bd c3 35 e0 bd b2 1c 41 3e
       0.084432796 -0.08452777 -0.10947754 0.18858603
0000c0 ca 5d 35 3e 36 51 fe bd 33 20 92 bd 36 77 39 3e
       0.17711559 -0.124178335 -0.07135048 0.18111882
0000d0 2e 6d e3 3c c9 69 40 3e 21 f5 86 3c 54 59 e0 bd
       0.027762022 0.18790354 0.016474308 -0.10954538
0000e0 48 6f 90 3c f1 ee 23 bd 68 f4 3b be 91 45 95 bd
       0.017631188 -0.040022794 -0.18354952 -0.07288659
0000f0 43 70 7f bd 0f 43 b7 bc ce 59 d9 bd 9f e3 8a bc
       -0.06236292 -0.022370843 -0.10612832 -0.016954241
000100 16 d6 37 be 01 41 0a 3e 8a 86 b0 bd a2 6a 95 bd
       -0.17952761 0.1350136 -0.08619411 -0.07295729
000110 34 8b b3 3b f3 03 ca bd 42 3d 10 3e 60 2e 00 3d
       0.005479241 -0.098640345 0.14085868 0.031294227
000120 7b 65 17 3e 81 16 ab bc d3 d8 f6 3d f8 6d 4a be
       0.14784805 -0.020884754 0.12053075 -0.19768512
000130 78 d8 27 3e 10 86 17 be c3 5f 9c 3d 7a 96 ed bd
       0.1639117 -0.14797235 0.076354526 -0.11600967
000140 48 46 17 3e 32 74 0b 3e ad da 61 3d 6f 22 ec bd
       0.14772904 0.13618544 0.055140186 -0.11530005
000150 5c 65 ca bd 8b 75 c4 3c 1f 39 a6 bd 3d d1 ff bd
       -0.09882614 0.02398183 -0.08116364 -0.12491081
000160 c1 85 09 bd 50 32 cb 3d 48 79 a7 be 29 48 95 bd
       -0.033574823 0.09921706 -0.32709718 -0.07289154
000170 0f 4d 54 3c c2 3c 2e 3e ef f9 23 be c3 60 a7 bd
       0.012957825 0.17015365 -0.16013311 -0.08172753
000180 d8 7a 9f 3d 45 39 44 be b6 fa 5c 3d de 62 aa bd
       0.077871025 -0.19162472 0.053950034 -0.08319639
000190 13 6c 10 bd 24 92 f1 bc 34 70 6f 3d b7 77 f5 bd
       -0.035259318 -0.02948863 0.058456615 -0.119857244
0001a0 f5 6c bc bd 42 14 c5 bc c2 c3 1f be d0 dc 44 be
       -0.092004694 -0.024057511 -0.1560202 -0.19224858
0001b0 50 94 67 3d 4f a7 a9 3a 8f 29 f5 bd 31 6c ce bd
       0.056537926 0.0012943539 -0.11970817 -0.100792296
0001c0 2b 1b 3f 3d 4e 3c 37 3d bf e4 2b 3d f8 e3 a5 3d
       0.04665677 0.044735245 0.041966196 0.08100122
0001d0 19 80 ed bd a8 aa 84 bd fb 72 26 be 83 f5 14 3e
       -0.11596698 -0.064778626 -0.16254799 0.1454678
0001e0 23 e7 59 3d d3 38 8e 3d 62 aa 6d 3a 35 3b 15 3e
       0.053198945 0.06944432 0.00090662215 0.14573367
0001f0 17 ce 38 bd c3 bc b1 bd b2 55 aa bd 49 71 c8 bc
       -0.045118418 -0.086785816 -0.08317126 -0.024468081
000200 ed 12 3d 3c 9a 45 25 3e 6a 81 32 3e f1 dc 0e bd
       0.011540157 0.16139832 0.1743218 -0.034878675
000210 c9 fb db 3c b1 62 27 3e cb fd e7 3c b9 87 b1 3d
       0.026853459 0.16346242 0.02831926 0.08668465
000220 88 f7 f9 3d 88 f6 30 be 2d 79 a7 bd 7a 03 3b 3e
       0.12205416 -0.17281544 -0.08177409 0.18263045
000230 d1 38 44 bd ab 9a c4 3b dd d4 67 bc 55 27 a9 3d
       -0.047905747 0.005999883 -0.014149872 0.08259455
000240 07 a6 cb bd 26 73 12 bb dc 53 31 3d a0 f4 1b 3e
       -0.099437766 -0.0022346466 0.043292865 0.15230036
000250 24 02 cb 3c a6 67 01 3d b9 ac 2e 3e 5f d7 02 3d
       0.024781294 0.031592987 0.17058076 0.031943675
000260 fa db b8 bd c8 32 3c 3b 44 11 7c 3d d9 ca 4d bd
       -0.09026332 0.0028716791 0.061539903 -0.05024228
000270 c2 48 2c 3a 44 7b 8b 3d a4 70 25 be a3 b5 b8 bb
       0.0006572121 0.068106204 -0.1615625 -0.005636887
000280 76 6d de 3c 36 f6 2c be 26 2b cd 3d b7 ee 2c bc
       0.027151804 -0.16890797 0.100179955 -0.010554961
000290 c2 ea 04 be 8c 6a b8 bd 84 a9 28 3c 0f fd 03 3c
       -0.12980178 -0.09004697 0.010294322 0.008055939
0002a0 8f f1 35 3e c0 68 7d b9 25 03 ad bd a8 24 bf 3c
       0.17767929 -0.00024166983 -0.084478654 0.023332909
0002b0 a9 95 d6 bd 34 14 0b 3e b5 6e f0 bd 8c 6a 0e 3c
       -0.10477764 0.13581926 -0.11739866 0.008692395
0002c0 69 b5 a9 3c 33 9d e2 bd db 3f a2 bd 0a 91 2e bd
       0.020716386 -0.110651396 -0.07922336 -0.04261879
0002d0 a8 aa 22 3e 74 d4 1b 3e 71 e0 0a 3e a3 27 2b 3e
       0.15885413 0.15217763 0.1356218 0.16714339
0002e0 f7 ca 93 bd a9 03 c6 3d 5f 53 d1 bd ec 49 76 3d
       -0.07216447 0.09668667 -0.1022098 0.06012909
0002f0 8f 28 e0 bd 7b ba bd bd ad ce e3 bd cb ac 33 3b
       -0.10945236 -0.09264084 -0.11123405 0.0027416225
000300 f3 2f ef bd b0 a5 a7 3c 65 9f 07 3e 51 54 80 3b
       -0.116790675 0.020464748 0.13244398 0.0039163013
000310 ac e9 1f be 4b 89 9d bc 30 15 1a 3e 7f 1b 12 be
       -0.15616482 -0.019230505 0.15047145 -0.14268301
000320 70 e1 33 be 44 e6 18 be 1e fa d8 3d ef ee e6 bd
       -0.17566466 -0.1493159 0.10594581 -0.11276042
000330 db f3 30 3e 52 22 dd bc 81 a7 39 be f1 af bc 3d
       0.17280523 -0.026993904 -0.18130304 0.09213246
000340 40 bf ee 3c a5 fd 61 bc 4c 3f c8 bd 46 50 f5 3d
       0.02914393 -0.013793384 -0.09777698 0.119782016
000350 98 84 97 bc b5 51 8a bc 93 17 1e 3e 08 c9 50 3c
       -0.018495843 -0.016884664 0.1543868 0.012743242
000360 13 cf a4 bd 3e 77 82 3d 24 0d 87 3d f3 8c 05 be
       -0.08047309 0.063704 0.06594303 -0.13042049
000370 ce 0a ac 3d b6 7a f0 bd 2d 07 9d 3c 90 b0 a1 bc
       0.08400498 -0.11742155 0.01916846 -0.019737512
000380 df 72 ff bb ed c8 61 be a6 d5 2b be 2e 2d a9 3d
       -0.007795676 -0.22049303 -0.16780719 0.082605705
000390 28 cd de 3d 7d c5 4d 3e fb b2 f0 bc 73 ee e8 3d
       0.10878974 0.20094867 -0.02938222 0.113736056
0003a0 25 76 10 be 16 32 f3 3c 1a d4 bb 3c dd 4c 0a 3e
       -0.14107569 0.029686969 0.022928286 0.13505884
0003b0 db ba 86 bd b7 25 4b 3b 40 7b cd 3d f7 6b 11 3d
       -0.065786086 0.0030997822 0.10033274 0.035503354
0003c0 e7 dc fd 3c de 52 aa bc 33 e8 e7 3d 7c 2b 3e be
       0.030989124 -0.020791467 0.11323585 -0.18571275
0003d0 01 07 1f 3e 28 04 18 be 9e 5e c7 3c f9 25 0c 3e
       0.15530016 -0.14845335 0.02433711 0.1368636
0003e0 de c7 f2 3d 21 14 07 3e db 5c 03 3e 08 6e a5 bd
       0.11854528 0.13191272 0.1282839 -0.080776274
0003f0 fa b0 3e bd 0e af 76 3d ec e5 0c bd bd 8e 27 3e
       -0.046555497 0.06022554 -0.034398958 0.16363044

lstm.weight_hh_l0 f4 [128, 32]
000000 ab fd 2a 3e 3e 26 50 be ee f2 24 3d 3b 85 23 be
       0.16698329 -0.20327088 0.04027074 -0.15968792
000010 30 c0 02 3e 18 c4 ad 3a 12 88 15 3e 1b 66 0b 3d
       0.12768626 0.0013257293 0.14602688 0.034032922
000020 9a d7 a7 3d 33 60 81 bd ca 4f f4 bd c9 4d e3 bd
       0.081954196 -0.06317177 -0.11929281 -0.11098821
000030 c8 e4 b3 bd 7b 7e 0d 3e c6 a1 02 3e 76 3e 69 bc
       -0.08783871 0.1381778 0.12757024 -0.014236083
000040 7f e7 3b 3d f9 60 3a be 36 a0 9d bc 8b b4 19 bd
       0.04587507 -0.18201055 -0.019241434 -0.037525695
000050 a3 75 08 3b 86 ec 1b 3e ec 0f f1 bd b2 c0 bb 3d
       0.002082207 0.15226945 -0.11770615 0.09167613
000060 f7 cd b4 bd 4b 32 fc bc 8e 1a f0 bb d2 4f 17 3d
       -0.08828347 -0.0307857 -0.0073273843 0.036941357
000070 af 4c ab 3d fc 6c bb 3d 31 f6 5a 3c e1 2b 40 be
       0.083642356 0.091516465 0.013364361 -0.18766738
000080 65 7c 20 bd 61 f3 88 3d 87 9a 18 3e 71 c4 0b be
       -0.039181132 0.06687046 0.14902698 -0.13649155
000090 aa eb a4 bd 2d 58 43 be ed 4c f3 bd 16 2f 17 bd
       -0.08052762 -0.19076605 -0.11879907 -0.03691014
0000a0 51 fc c0 bd b4 10 5d 3e 5e 05 22 be 28 61 61 be
       -0.094231255 0.21588403 -0.1582236 -0.22009718
0000b0 2f 7a 18 3e fe 71 b8 bc 8f bd 86 3c 65 a1 4a 3e
       0.1489036 -0.022515293 0.01644781 0.1978813
0000c0 e6 75 64 bd e9 5c 94 bd 2b 96 9f bd 5a 52 77 3d
       -0.0557765 -0.07244284 -0.07792314 0.06038127
0000d0 be 09 5c 3c f9 03 23 3e a9 32 21 3d 95 22 98 bd
       0.013430057 0.15919484 0.039354954 -0.07428471
0000e0 b2 06 d1 3d 9e 10 0e bd 17 f4 35 3d 0c 2c 69 3a
       0.10206355 -0.034683816 0.044422235 0.0008894808
0000f0 3c 85 e1 3d 9a 04 b1 bd 04 d6 29 be af d3 d8 bd
       0.110117406 -0.08643456 -0.16585547 -0.105872504
000100 28 f2 68 3e 69 54 92 3e b3 2e 16 3d 93 a7 4c be
       0.22748625 0.28580025 0.03666563 -0.199858
000110 af c8 c6 bd 58 ac 9d bc 43 1b a0 bd 3c f9 dd 3c
       -0.09706246 -0.019247219 -0.078177 0.027096383
000120 ca c3 35 3d 8d f9 41 be e2 63 97 bc 78 f3 d9 bc
       0.044376172 -0.18942852 -0.018480245 -0.026605353
000130 ba 77 40 3e 1e 55 aa bd 15 70 b3 3d 29 12 5a 3e
       0.18795672 -0.08317016 0.08761612 0.2129599
000140 a2 cc be bd 3d d5 83 be 88 33 3e 3d 51 59 76 3e
       -0.09316374 -0.25748625 0.046435863 0.24057509
000150 61 10 cb bd f7 e9 30 3c 17 80 b1 bd 2e 12 72 bd
       -0.099152334 0.010797969 -0.08667009 -0.05909937
000160 bf 29 69 bd e8 dd 32 bd 32 d7 c3 3d fa a6 ac bd
       -0.056924578 -0.043668658 0.095625296 -0.08430286
000170 a5 7d 69 3c b2 fb 14 bb 15 bc fc bc 9b 9e 3e 3e
       0.014251147 -0.002273303 -0.030851403 0.1861519
000180 8e 7c af 3d 0e db d2 bd 61 f1 47 bd 1d 7a df 3d
       0.08568679 -0.102956876 -0.04881418 0.10911963
000190 4e e6 f8 bc 1a 70 62 3d a4 96 10 be 42 c1 2f 3e
       -0.030383255 0.05528269 -0.14119965 0.17163566
0001a0 38 cf 88 bd c5 85 09 be fc 07 95 3d d1 de bf 3c
       -0.06680149 -0.13429935 0.072769135 0.023421677
0001b0 d8 59 04 3e fc fe 9f bd 1d b2 c8 3c b6 5a 12 3e
       0.12924898 -0.07812306 0.024498994 0.14292416
0001c0 82 f1 0d be 86 68 b7 3b 05 69 23 be e8 ce f3 bd
       -0.13861659 0.005597177 -0.1595803 -0.119046986
0001d0 f4 8c ed 3c b1 d2 a8 3d 0a d2 3c bd 81 42 cf bd
       0.028997876 0.08243311 -0.046098746 -0.101201065
0001e0 7c 3d 62 3c 80 30 37 3d 7f 9a 0d be 89 41 fd bd
       0.013808604 0.044723988 -0.13828467 -0.123660155
0001f0 b2 fb 39 3d ac 5a 54 bd 15 76 bb 3b 88 ee 7d bd
       0.04540605 -0.051844284 0.0057208636 -0.06199506
000200 8b 06 fe 3d c2 75 3e 3e fc 53 b6 3d 3e 67 4e bd
       0.12403592 0.18599609 0.089027375 -0.05039143
000210 3a f0 ad 3d 5b 8c 2e bd 06 f3 05 3e 42 34 7a 39
       0.08493085 -0.042614322 0.13080987 0.00023861325
000220 74 5d 25 be f0 1b 0d 3e f5 17 6c 3e e2 5f 68 3c
       -0.16148931 0.13780189 0.23056014 0.0141830165
000230 69 e3 15 bd 3f c0 42 bc 53 17 93 3d 17 c2 70 bd
       -0.03659383 -0.011886655 0.07182183 -0.05877885
000240 17 d6 63 bd fa 91 cd 3d 67 57 45 bc 65 2c a3 bc
       -0.055624094 0.100376084 -0.012044764 -0.01991863
000250 07 ce 76 bd 17 b6 3c be 8a 1e 02 be 46 31 02 bd
       -0.060255077 -0.18428837 -0.12706962 -0.031785272
000260 ae bb 76 3d aa 06 1f be 8e cc da bc 92 2d 9f bd
       0.06023758 -0.15529886 -0.026708867 -0.07772364
000270 58 ec d4 3c f5 50 65 3d 7e 9e 22 bd 3f d1 fb bc
       0.025991604 0.05598541 -0.03970193 -0.030739425
000280 98 4d 0e be 9f 1b 0b be e6 29 2f bd 96 8e 65 3e
       -0.13896787 -0.13584755 -0.042764567 0.22417673
000290 33 27 9a bd 92 d2 b9 bd 71 42 a6 bd 86 10 8e be
       -0.07527008 -0.09073366 -0.081181414 -0.2774698
0002a0 b8 d4 05 be 78 37 24 3d cd b9 8e 3d 91 bd 07 be
       -0.13069427 0.04009196 0.069690324 -0.13255908
0002b0 fc 85 12 3d c4 2e fd 3d 95 a1 6e be 69 a7 f2 bd
       0.03577231 0.123624355 -0.23303826 -0.11848337
0002c0 2c a4 8a 3e 47 0b 98 bd 6e 03 07 be 0b f7 4e 3d
       0.27078378 -0.07424026 -0.13184902 0.050528567
0002d0 42 20 02 3e 31 95 02 3e a0 ae 96 3d be 1c 0f be
       0.12707618 0.12752225 0.07357526 -0.13975808
0002e0 b4 d9 5d 3d e8 7f 10 3e 59 5c 8d bd d9 a6 85 bd
       0.054162696 0.14111292 -0.069023795 -0.06525964
0002f0 f9 22 36 3e 34 1e 68 3d b6 57 3a bd 1e 65 c7 3d
       0.17786779 0.05666943 -0.045493804 0.097360834
000300 c9 be 21 be af 9a 49 be 0a 43 db bd 80 8a 2c bc
       -0.15795435 -0.19687913 -0.10706146 -0.010531068
000310 7a 3a fc 3d 71 b5 7b 3d 38 85 25 be c9 ac 07 be
       0.12315841 0.061452333 -0.161641 -0.13249506
000320 4a e2 b9 bd 86 cb 00 bd 30 e1 e0 3d 0c 0c da 3b
       -0.09076364 -0.031444095 0.10980451 0.006654268
000330 f4 d6 a8 bd ca b8 a6 bd 65 d5 20 3e 55 5e 13 be
       -0.08244124 -0.081407145 0.15706404 -0.14391454
000340 43 75 9c bd c4 a0 c3 bb fa a9 e5 bd a5 b6 bd 3c
       -0.076395534 -0.0059700925 -0.11214061 0.02315838
000350 47 11 09 3c a2 0a a0 3d 94 8f 2f be e3 5b a3 3c
       0.008365936 0.07814528 -0.17144614 0.019941276
000360 e6 d2 2d be 2e 3e 47 3e 42 aa eb bd 2a 7b 01 3e
       -0.16974983 0.19457313 -0.115070835 0.1264464
000370 8f b8 85 bd e3 e2 03 bd 36 5f 54 3d 2e 4e f2 bd
       -0.065293424 -0.032198798 0.051848613 -0.11831318
000380 b4 ab 09 be 16 e6 54 be 67 ef f5 bd 5b 5e 90 3d
       -0.13444406 -0.20790896 -0.12008553 0.07049247
000390 37 b8 e6 3d 4e 69 b5 3d ee 9a ba bd 26 05 5a be
       0.11265605 0.08857976 -0.09111582 -0.21291026
0003a0 ba 0a 9f 3d 8d 17 10 3d 81 f5 e5 bd ab 7e 2e be
       0.07765718 0.03517871 -0.11228467 -0.17040507
0003b0 a8 1e 4b be f8 31 26 be e9 b5 c2 3d 7e 49 37 be
       -0.19835913 -0.16229999 0.09507353 -0.17899129
0003c0 68 e2 17 be 01 36 77 bd 81 43 cd bd 0a 4f c4 bd
       -0.14832461 -0.060354237 -0.10022641 -0.09585388
0003d0 62 9c f0 3c d7 34 45 3e 0d ce 29 3e 7f 12 1d be
       0.029371444 0.19258438 0.16582508 -0.15339087
0003e0 38 2e d8 3d dd 21 78 bd 8c 30 6e 3c f0 c7 21 bd
       0.105556905 -0.06057917 0.014537942 -0.039497316
0003f0 3f 72 f6 3d 13 a0 01 bd 04 a5 56 3e 27 c3 c6 bd
       0.120335095 -0.0316468 0.20961386 -0.09705191

lstm.bias_ih_l0 f4 [128]
000000 6e 3e 30 3e 30 a5 e7 3d ca a9 8f bb 73 e5 be 3d
       0.17211315 0.11310804 -0.004384254 0.09321108
000010 01 16 05 bd 4c ae a2 3d ba 07 8e bc 97 3b 9b 3d
       -0.032491688 0.07943401 -0.017337669 0.07579725
000020 04 f1 95 3c e7 51 77 3b 2b 3c 14 3e ed 26 10 3e
       0.018303402 0.0037738027 0.14476077 0.14077349
000030 5b 65 04 bc 6b c6 3f 3e 56 cd 08 3e fe b9 6c 3d
       -0.008080806 0.18728034 0.1335958 0.057794563
000040 41 cc 25 3d b4 45 59 3e f6 96 22 be 2c 5a 7b 3d
       0.040477995 0.21217996 -0.158779 0.06136529
000050 22 e5 97 3d f8 de 02 3e 67 26 6a 3d 8a 30 15 3e
       0.074167505 0.12780368 0.05716553 0.14569297
000060 26 a2 2a 3e 7e ef 49 3d 05 50 77 3d dc fd 6c 3d
       0.16663417 0.049300663 0.060379047 0.057859287
000070 a0 a5 12 3e d0 fa 06 be 40 1b 9c bd c8 51 1b 3e
       0.14320993 -0.13181615 -0.07622385 0.15167916
000080 93 56 e1 3d 5c bb 36 3e 4c d6 1a 3e f8 99 9f 3d
       0.11002841 0.1784491 0.1512081 0.07793039
000090 aa 14 4b 3d 78 20 3c 3c d2 b8 eb bd 25 80 12 3c
       0.049580254 0.0114823505 -0.11509861 0.008941685
0000a0 da d9 14 3e 82 64 eb bc 57 91 84 bd c8 e9 0f be
       0.14536229 -0.02873445 -0.06473034 -0.14054024
0000b0 c6 3f 21 3e f5 7c 47 3d 92 97 36 3e 72 ab ec 3c
       0.15746984 0.048703153 0.17831257 0.028890345
0000c0 8b 89 d8 3d fa ce c9 3b 2b f0 00 be 90 ef d0 3c
       0.10573109 0.0061587067 -0.12591617 0.025504857
0000d0 88 c4 6e 3e a3 cc 4f 3e 75 a9 7e bd cb 37 f7 bb
       0.23317158 0.20292906 -0.062173326 -0.007544493
0000e0 c1 51 36 3e 78 7e 05 3e aa d0 8d bd 1b de 16 3e
       0.17804624 0.13036525 -0.06924565 0.14733164
0000f0 87 35 40 3d 65 d4 92 3d 91 8b 70 bd 82 3b af bd
       0.046926048 0.07169417 -0.05872685 -0.08556272
000100 dd 99 d0 bd a3 bc 38 3e 7f 99 0c 3e 94 63 df bd
       -0.10185597 0.18040709 0.13730429 -0.10907665
000110 bf e4 48 be 2e 72 bb 3d cf 3f 84 3d 45 fd b5 3d
       -0.1961851 0.091526374 0.06457483 0.08886198
000120 63 cc 17 3d 64 9c 0d be d8 a1 a6 3d 0c 19 df bc
       0.037060153 -0.1382919 0.08136338 -0.027233623
000130 0a 45 86 bc 0c 28 26 be a4 22 c5 3c d2 33 f2 bd
       -0.016390342 -0.16226214 0.02406437 -0.1182629
000140 6c d1 12 be 82 32 85 bd b4 e2 05 be d7 3a 23 3e
       -0.143377 -0.06503774 -0.13074762 0.15940414
000150 52 12 11 3d 03 dc d3 bd 8f 7c d1 3d f3 1e f2 3d
       0.035417862 -0.10344698 0.10228836 0.11822309
000160 a5 86 8a 3d 87 d5 0d 3e 2f f4 0b 3e da cd 7b 3d
       0.06763963 0.13850985 0.13667367 0.061475612
000170 ed 65 32 bd 2b 97 36 3e b9 5c 6b bc 22 b7 c1 3d
       -0.043554235 0.17831104 -0.0143653685 0.09458758
000180 c0 9f 3e 3d 90 a1 24 3c e7 ab 20 be 4e ec 9c bd
       0.04653907 0.010048285 -0.15690576 -0.07662259
000190 e3 de fd bd 5d 15 a2 3b a6 bd 39 bc 54 a5 8c 3d
       -0.12396028 0.0049463944 -0.01133672 0.06867471
0001a0 45 ba d2 3d e7 1f d1 bd e6 b0 f3 3c 0d a1 d7 bd
       0.10289434 -0.10211163 0.029747438 -0.10528765
0001b0 3f 14 15 3e 5e ec 64 3e 4d 08 42 bd 6a e3 94 3d
       0.14558505 0.22355792 -0.047371197 0.07269938
0001c0 b6 8e 48 3d 70 4d 30 bc 8d 0c 8a 3d 0c ea 91 3d
       0.048964225 -0.01076065 0.06740675 0.07124719
0001d0 ac 1f b7 bd 53 8b 4f 3d a1 b6 35 3e a1 fc 1d bd
       -0.08941588 0.05066998 0.17745449 -0.038571004
0001e0 44 f6 8e 3d ab d2 6c 3e b4 cb fc 3d bb 1b b2 bd
       0.06980565 0.23127238 0.12343541 -0.086966954
0001f0 49 4f 22 bd 6c 79 98 bd 5c 30 2b 3e ec 3c 92 3d
       -0.039626393 -0.074450344 0.16717666 0.07140526

lstm.bias_hh_l0 f4 [128]
000000 e3 bd 63 3d 4f c9 47 3e 5a dc cc bd 83 af 47 3d
       0.055601012 0.19510387 -0.10002966 0.048751365
000010 c6 34 2c 3e 60 38 20 3e 92 31 b2 bd 22 21 02 be
       0.16817006 0.15646505 -0.08700861 -0.12707952
000020 5a 9c cf bd 36 5e 78 bc 13 fe 9f bd 6c c4 fd bd
       -0.101372436 -0.01515918 -0.07812133 -0.1239098
000030 17 31 c7 3d a1 67 38 3d 65 70 de 3c 80 ce 99 3d
       0.0972616 0.045020703 0.027153203 0.0751009
000040 09 37 66 3d ae 3e a6 3d 65 53 2e 3e 9c 11 05 3e
       0.05620483 0.08117424 0.17024 0.12994999
000050 d9 14 0b be 98 b9 c4 3c 9f 4a 5f 3e 94 7a 2c 3e
       -0.13582171 0.02401428 0.2180581 0.16843635
000060 c1 51 4a bc 6e 64 06 bd d3 cc d9 3d d8 ec 8c bd
       -0.012348593 -0.03281062 0.1063477 -0.06881112
000070 7c ad 03 3e ed 4f 2c 3d 7b 6d cd 3c 53 d5 8d 3d
       0.12859148 0.04206841 0.025076618 0.06925454
000080 69 d9 73 bd 6a 7f 50 3d 98 6c d2 3c 21 df 92 bd
       -0.05953351 0.05090276 0.025686547 -0.07171465
000090 ab 53 b2 3d 53 d8 a3 3d ff 3c 89 bd 4e 0b b6 3d
       0.08707365 0.08000245 -0.06701087 0.08888875
0000a0 04 a6 03 bd 04 cb 17 bc b9 c7 69 3d 09 8d 52 3e
       -0.032140747 -0.009264711 0.057075236 0.20561613
0000b0 95 51 b3 3d fd 74 21 3b fa e7 40 bd bb 81 7b bd
       0.08755795 0.002463638 -0.04709623 -0.061403017
0000c0 95 3b 46 bb 20 55 1f 3e 84 b7 18 be 39 e1 e3 bd
       -0.0030247916 0.15559816 -0.14913756 -0.11126942
0000d0 65 73 50 bd 8b 3d 8c bd 95 5c 68 bd 79 d4 29 3e
       -0.0508913 -0.06847676 -0.056728918 0.16584958
0000e0 69 47 c4 bd 9d 58 67 3c 3f 75 72 3d 98 05 c7 bd
       -0.09583933 0.014120248 0.059193846 -0.09717864
0000f0 00 08 89 3d e3 4a 77 bd f2 ac 4e 3e ba 4a 33 3b
       0.06690979 -0.060374152 0.20183161 0.0027357773
000100 72 e1 15 be 7e fa a6 bc 24 d6 25 be d2 3a 57 bd
       -0.14636782 -0.020383116 -0.1619497 -0.05254633
000110 36 b4 cb bc 81 36 62 3d 69 54 0c bd a9 2a b0 bd
       -0.024866205 0.05522776 -0.034260187 -0.08601887
000120 3b 17 a2 3c a2 13 31 be bf d8 b1 bd 97 58 17 bd
       0.019786468 -0.17292646 -0.08683919 -0.03694972
000130 8b ab 02 be 3a 2e a7 bd 8b cf bc bd 01 29 f9 3d
       -0.12760751 -0.08163114 -0.09219273 0.12166024
000140 da dc d2 bd ad c3 1c 3e 88 e6 1b be d3 82 0b 3e
       -0.1029603 0.1530902 -0.1522466 0.13624124
000150 42 d7 06 be 85 db 14 3d f3 af aa 3d 77 98 b3 bd
       -0.13168052 0.036342163 0.08334341 -0.08769315
000160 57 35 80 3b 5c 72 28 3d de a3 10 3e 6f c2 0b 3e
       0.0039126086 0.041124687 0.1412501 0.1364839
000170 54 02 e2 3d 07 61 f8 bc cb 55 83 3d 76 79 92 3b
       0.110356 -0.030319704 0.06412848 0.0044700457
000180 58 22 6c bd 73 b3 66 3d 63 74 24 be b2 34 41 3e
       -0.05764994 0.05632348 -0.16060023 0.18867758
000190 0a e7 44 3e 54 7b ec 3d 20 fd 74 3d f7 54 ea bc
       0.1922876 0.115469605 0.05981171 -0.028604968
0001a0 b2 f6 c0 3d 86 9a ab 3d 98 98 32 3e ea 06 18 3e
       0.094220534 0.083790824 0.17441022 0.14846388
0001b0 47 dd 94 bc 35 7a a3 3c fb d3 23 bd 99 17 f1 bd
       -0.01817192 0.019955734 -0.039997082 -0.11772079
0001c0 c2 ef f4 3d 32 9f 3a 3e db c7 c4 3d 53 af 23 be
       0.11959793 0.1822479 0.09608432 -0.1598485
0001d0 70 02 4b bc c5 e0 98 bd 6d 30 5d 3d a0 ee bd 3d
       -0.012390718 -0.074647464 0.05400126 0.0927403
0001e0 3c e9 87 3c ea 4e 37 bd ac ea 76 3e b5 23 2d 3e
       0.016590707 -0.044752993 0.24112958 0.16908152
0001f0 98 5a 98 bd de 22 14 be 0b 30 b9 3d 77 62 3e 3e
       -0.074391544 -0.14466426 0.090423666 0.18592249

fc_mu.weight f4 [4, 32]
000000 e8 b8 b5 be b9 f3 fb bd 7f b6 8b be 5c d0 aa 3d
       -0.35492635 -0.12302346 -0.2728767 0.08340523
000010 0f 6a 0c 3f 6d 28 fc 3e e7 a4 5e 3e 05 f2 34 be
       0.5484933 0.49249592 0.21742593 -0.17670448
000020 ff 9c 16 3e 37 18 93 3e de 6a 60 3e 12 f2 3e 3e
       0.14708327 0.28729412 0.21915767 0.1864703
000030 24 e3 9d 3d 70 c3 fe bc 53 5f fc 3e 01 5b dc be
       0.07709339 -0.031099051 0.49291477 -0.4303818
000040 65 bc 9f be 57 08 25 3e 05 d7 5a 3d b3 f1 a7 3d
       -0.3119842 0.16116463 0.053427715 0.08200397
000050 03 7c 6a 3e 33 e6 44 3e 5c e1 a1 be db a3 db 3d
       0.22898869 0.19228439 -0.31617248 0.10724612
000060 08 b2 a0 bd 45 14 15 3c be c6 fd bd f9 16 9d 3e
       -0.07846457 0.009099071 -0.12391423 0.3068159
000070 ba 86 42 bd 38 ee c0 3e 3f ff 4b 3e 4b bc a3 3e
       -0.047491767 0.37681746 0.19921587 0.31979594
000080 2f f9 22 be 82 12 f1 bd c2 32 12 3e 81 a5 f6 3e
       -0.15915368 -0.11771108 0.14277175 0.48173144
000090 c0 3c 80 3e ec 4d cd 3e 73 55 01 3e 96 4d 74 be
       0.2504635 0.40098512 0.12630253 -0.23857722
0000a0 a5 9c 93 be c1 b5 13 3e d9 dd 60 3e 4d 0c 97 3e
       -0.28830448 0.14424802 0.21959628 0.29501572
0000b0 d0 fd 6d 3d d4 cc 44 be aa f3 74 3e 17 4c f1 be
       0.058103383 -0.1921876 0.23921075 -0.47128364
0000c0 67 4e 84 be 2a c8 70 3e 1a 69 3e 3e 7b fc 91 be
       -0.25841066 0.23513857 0.1859478 -0.2851294
0000d0 d5 03 ae be 8f 20 c1 3e e2 98 8b be 3e 9a 4d 3e
       -0.339873 0.37720153 -0.27265078 0.2007837
0000e0 c2 38 e6 3d 53 5a 25 3e e4 db c1 be e4 7e fa bd
       0.112412944 0.16147737 -0.37863076 -0.12231234
0000f0 f1 7e 6e be 35 35 93 3e c3 21 f6 3d 92 23 9b 3e
       -0.23290612 0.2875153 0.12018158 0.30300575
000100 d3 c0 06 be c2 a7 97 be fc 21 e4 be d4 eb 9e 3d
       -0.13159494 -0.29620177 -0.44557178 0.077598244
000110 9c 44 8c 3e 72 cf af bd 54 15 95 3e 2e 3b 58 be
       0.27396095 -0.08584489 0.29117835 -0.21116325
000120 64 80 a2 3c 33 76 5c 3d 42 3e 9a 3e 5d bc f1 3d
       0.019836612 0.05382366 0.30125624 0.118035056
000130 e2 b0 68 be 63 53 31 be d5 b1 af 3e 5e 65 5c 3d
       -0.22723725 -0.17316966 0.34315363 0.05380761
000140 fb bc 12 be 65 92 88 3e 07 a5 fd 3d f3 4d 29 be
       -0.14329903 0.2667419 0.12384992 -0.16533642
000150 9d 3d e4 bb ac ae 9d be a2 b5 64 bd 98 03 1b 3e
       -0.0069653527 -0.30797327 -0.05583728 0.1513809
000160 57 3b 4c bd 23 a3 12 3e 5a 9c d1 3d b1 49 ec 3e
       -0.04986128 0.14320044 0.102349 0.46149972
000170 3b 8e 93 be c1 b5 aa 3d ce 4a 8d 3d e4 91 9e 3c
       -0.2881945 0.08335448 0.068990335 0.019356675
000180 29 8c 39 be 62 22 39 3e 55 88 91 3e 52 b1 c0 bd
       -0.18119873 0.18079522 0.28424326 -0.09408821
000190 4c 5d ec 3d 14 d1 41 3e 84 3f 77 be 7b e8 74 3e
       0.115412325 0.18927413 -0.24145323 0.2391681
0001a0 3a 88 8f 3e 94 96 3d bc 7c 83 d5 bd e0 63 cd bc
       0.2803362 -0.011571545 -0.10425469 -0.025072038
0001b0 b0 2f 77 3e bb c0 18 3d c0 62 00 be f9 59 9b 3c
       0.24139285 0.037293177 -0.1253767 0.0189638
0001c0 87 6d 5a 3e e8 87 05 be df 8a 6c be f6 40 a6 3e
       0.21330844 -0.13040125 -0.2309985 0.32471436
0001d0 30 c8 c7 3e 17 af cd 3e 19 6b 45 3d 03 97 89 be
       0.39019918 0.40172645 0.04819784 -0.26873025
0001e0 80 ff 93 bd 00 87 36 be ad 28 90 bc 5d 39 5c be
       -0.07226467 -0.17824936 -0.01759752 -0.21506257
0001f0 4d 30 99 3d c6 f4 7a 3d f4 ba e4 bd 71 08 3b be
       0.07479916 0.06126859 -0.11168471 -0.18264939

fc_mu.bias f4 [4]
000000 e7 69 39 be fd 37 40 3d 96 c0 82 be f5 1f 69 3e
       -0.18106805 0.046928395 -0.25537556 0.22766097

fc_logvar.weight f4 [4, 32]
000000 17 bf e1 3c 11 90 27 3d d4 e2 77 3d 4f 37 c0 bb
       0.027556939 0.040908877 0.060519055 -0.0058659683
000010 4f 10 24 bc a5 0a 2e be 02 77 c1 3d a0 6c 68 be
       -0.010013654 -0.16996248 0.09446527 -0.22697687
000020 8f 25 83 be dd 99 0c 3e 88 01 4a 3e 9e 0d 13 be
       -0.25614592 0.13730569 0.19727147 -0.14360663
000030 21 41 b3 be e3 68 eb 3e f0 93 b5 bd ce ff 79 3d
       -0.35010627 0.4597846 -0.088661075 0.06103497
000040 d4 26 74 3e 3b 9c f4 3d c3 95 a2 3d 98 21 4c 3d
       0.23842937 0.11943861 0.07938721 0.049836725
000050 38 7e a0 3d 82 bd e9 3e 15 b3 c8 3e 2c a1 2a 3e
       0.07836574 0.45652395 0.3919913 0.16663045
000060 65 a1 eb be 84 6c 48 3e d6 b1 18 be f4 a5 12 3e
       -0.46021572 0.19572645 -0.14911589 0.14321119
000070 74 ba 90 3e 1b 0b 91 be ba 7c 1b 3d d4 14 d2 be
       0.28267252 -0.28328785 0.037960745 -0.41031516
000080 5d 8a ce bd 80 34 91 be 26 94 a4 3e ca 72 39 bd
       -0.100849845 -0.28360367 0.32144278 -0.045275487
000090 c8 1d 38 3e 59 1c 63 3d 87 b2 a4 3e 00 8e 16 be
       0.1798011 0.055446956 0.32167456 -0.14702606
0000a0 a4 9a 0a bd 6d 95 b8 3d 9e 5c 96 3d 67 e8 0c be
       -0.033838883 0.09012876 0.07341884 -0.1376053
0000b0 03 0f 07 bf 10 93 c2 3e 9f b6 c6 3d 4a f5 83 be
       -0.5275728 0.38002825 0.09702801 -0.25773078
0000c0 86 54 80 bd 5e 07 b7 3e a6 e8 0f 3e e2 f8 2b 3b
       -0.062661216 0.35747808 0.14053592 0.0026240875
0000d0 4d 81 6c be 19 fa 1e 3e 01 37 c5 3e 7b 09 db 3d
       -0.230962 0.15525092 0.38518527 0.10695168
0000e0 9f 30 30 be a5 07 64 3e 4d 04 e3 39 10 7b c8 3d
       -0.17206047 0.22268541 0.00043300018 0.09789097
0000f0 a2 1b 21 3e a0 ab 4f be 68 98 29 3e 3d aa d6 be
       0.15733197 -0.20280313 0.16562045 -0.41926757
000100 c1 09 b3 3d ba 17 99 be 5a 8c 36 bd 85 28 af bd
       0.08742095 -0.29900914 -0.044567443 -0.0855265
000110 2f ae 29 3e db 14 bb bd 8b 70 93 3e 9e 05 06 3d
       0.16570352 -0.09134837 0.287968 0.0327202
000120 84 ae f0 3b 64 2f 72 3d e1 29 3d 3e f9 94 c0 bd
       0.0073450226 0.059127226 0.18473007 -0.09403414
000130 43 39 f2 be 73 5e d0 3e 54 26 52 be a0 5b e9 3c
       -0.47309312 0.4069706 -0.20522434 0.028486073
000140 a6 44 af 3e 25 89 07 3e 73 6e 4d 3e 68 a0 93 3c
       0.34232062 0.1323591 0.20061664 0.018020824
000150 3c 67 1d be 85 53 ae 3e ec e9 d5 3e e4 c9 04 3e
       -0.15371412 0.34048095 0.4178003 0.1296764
000160 5f 13 d2 be 51 ed de 3d 4a 34 97 be da 19 d7 3d
       -0.41030404 0.10885108 -0.2953208 0.10502978
000170 b6 ec c7 3d 35 a4 78 be 25 43 38 3e c0 91 d0 be
       0.09761946 -0.2428139 0.17994364 -0.40736198
000180 9a 6b 33 bc bc 75 34 be 6f c1 ae 3c 81 7b 09 bd
       -0.010950947 -0.17623037 0.02133247 -0.033565048
000190 61 3d f3 bc 35 af ca bd 8a ce 1d 3e 9f 7a 85 be
       -0.029692354 -0.09896699 0.1541082 -0.26070115
0001a0 a7 4f 47 be e4 06 6c 3e 2c b5 b0 3d 0f 0c a2 be
       -0.19463979 0.23049504 0.08628306 -0.31649825
0001b0 06 18 06 bf c8 3b cd 3e 7e 73 3f bc f0 e8 30 be
       -0.52380407 0.40084672 -0.01168525 -0.17276359
0001c0 ea dd 5b 3e a5 ae 9e 3c 29 e1 c5 3d 00 14 e8 3c
       0.21471372 0.019370386 0.096620865 0.02832985
0001d0 7f 74 26 be 13 ce 4a 3e 99 ea dc 3e ce 4f 3f 3e
       -0.16255377 0.19805174 0.43147734 0.18682787
0001e0 9b b3 06 bf a8 3c 7a 3e 8a 6d ed bd c0 4a 11 bc
       -0.52617806 0.24437201 -0.115931585 -0.008867919
0001f0 93 45 82 3e df 63 b4 be 3a ed 8e 3e 08 64 de be
       0.25443706 -0.35232446 0.27915365 -0.43435693

fc_logvar.bias f4 [4]
000000 63 e5 d1 bd 80 6f 95 be b5 1e 56 be d9 97 b4 be
       -0.1024883 -0.2918663 -0.20910151 -0.352721

fc3_obs.weight f4 [32, 4]
000000 c9 fd df 3e a7 3b e8 3d 2c 60 3b be fe 43 20 3f
       0.4374831 0.11339503 -0.18298405 0.6260375
000010 50 d4 04 bf d4 48 0d bf bb 59 78 3e e2 93 1e 3f
       -0.51886463 -0.5518925 0.2425298 0.619444
000020 a2 1e d3 3d 4f 29 c1 be 7e b0 e4 be 13 e7 38 be
       0.10308577 -0.37726828 -0.44665903 -0.18056898
000030 67 d0 95 be 7c 8d 94 3e 23 f2 84 3d 7c 9b d4 be
       -0.2926056 0.29014194 0.064914964 -0.41524875
000040 88 43 f5 3d 7c 99 61 3d 1d 1e d9 be d8 e9 04 3e
       0.11975771 0.055078015 -0.42405787 0.1297983
000050 9f 8b 86 3e e3 d7 70 bd 54 47 c8 3d 1c 92 c5 be
       0.26278397 -0.058799636 0.0977923 -0.38588035
000060 88 9a d6 3e 06 b3 6a 3d ec ef 86 3e 35 26 25 3f
       0.41914773 0.057299636 0.2635492 0.64511424
000070 38 a5 56 be 08 d9 f3 be 5c ce 5a be 68 5c 9d 3e
       -0.20961463 -0.4762652 -0.21367782 0.30734563
000080 7f 16 b4 be 90 70 30 bf fa 32 28 3e 86 e4 06 3e
       -0.35173413 -0.68921757 0.16425696 0.13173112
000090 30 ae 33 be c6 38 fc bd 9c 62 4c bf 08 d0 e0 3d
       -0.17546916 -0.12315516 -0.79837966 0.10977179
0000a0 4e 19 f8 be 80 92 ef be 62 30 db bd d4 9e dd 3d
       -0.48456806 -0.46791458 -0.10702588 0.1082131
0000b0 ee ec 9c 3e 84 f7 70 3d bf 1e 90 3e 2a 1f 7a be
       0.30649513 0.0588298 0.28148457 -0.2442595
0000c0 97 14 18 3f 8d b2 f1 bb 4f cf 23 bf ee 0a 03 3f
       0.5940642 -0.0073760212 -0.639882 0.5118855
0000d0 ad 5d f2 3e 85 ba 31 be 91 d3 ea bd 8b 34 aa 3e
       0.47337094 -0.17356308 -0.11466134 0.33243212
0000e0 3c d3 02 be 80 50 b1 be f5 10 00 3e af cc 6c 3e
       -0.12775892 -0.3463173 0.12506469 0.23124956
0000f0 32 21 7c be 66 fb fe bc a6 4d e5 be d2 a2 11 3f
       -0.24622038 -0.031125735 -0.44785804 0.5688907
000100 8e ad d9 be 9b dd df be 71 3a 8a 3e 80 aa 4d 3f
       -0.42515224 -0.4372376 0.26997712 0.8033829
000110 4a 72 1d 3e 1f 51 a2 be 94 da 71 3e 96 6d 2d 3f
       0.15375629 -0.31702515 0.23618537 0.6774534
000120 57 8e 71 bd bd 49 b6 3e 91 54 3f bf 33 da ef 3e
       -0.058973636 0.35603133 -0.74738413 0.4684616
000130 c4 cb 96 3e 5b bd 93 3e 74 bd 1c bf e6 6b d8 bc
       0.29452336 0.28855404 -0.6122658 -0.026418637
000140 5c 35 0a 3f 32 7d c2 3e 4f 3f da be c2 d1 69 3e
       0.5398767 0.3798614 -0.42626426 0.22833923
000150 0d 49 19 3e 71 18 09 bf e3 43 08 bf 3d 18 bc 3e
       0.14969273 -0.5355292 -0.53228587 0.36737242
000160 87 6e 70 3e 45 dc 2d bd 82 0e e1 be 57 81 3d 3f
       0.23479663 -0.042446394 -0.4395638 0.7402548
000170 49 7b c7 be 44 bc 3a bf d1 46 82 3e 4b 25 79 3e
       -0.38961247 -0.7294352 0.25444654 0.24330632
000180 78 6e d4 3d 3f 80 3c bf fd df 07 3e d4 d9 1d 3f
       0.10372633 -0.7363319 0.13269038 0.61660504
000190 27 f9 05 3f ae 54 d4 be 8e f5 18 bd 47 bc 0b 3e
       0.523333 -0.41470855 -0.037343554 0.13646041
0001a0 71 18 90 be 02 ba e2 be 44 f5 39 be 92 a5 e8 3c
       -0.28143647 -0.44282538 -0.18159968 0.028399263
0001b0 6b 17 b0 3e 2d 0f 98 3e 59 97 1b bf bb 96 de 3e
       0.34392866 0.29699078 -0.60777813 0.43474373
0001c0 b1 3c 8d be 49 98 ac be cb 14 83 be 67 fd 75 3e
       -0.27585366 -0.33709934 -0.256018 0.24022447
0001d0 47 df 06 bf 66 ec 45 bf f3 96 91 3c e7 52 be 3e
       -0.52684444 -0.7731384 0.017772174 0.37172624
0001e0 e4 8e 74 3e 63 fd 42 bf d6 2c 0c be c6 f3 df 3e
       0.23882633 -0.7616789 -0.13688979 0.43740672
0001f0 60 c1 ee 3e da ec e3 3d d5 f3 0b 3f 3e e6 de be
       0.46631908 0.1112916 0.54668933 -0.43535036

fc3_obs.bias f4 [32]
000000 e2 b5 94 3e 60 d2 48 3f 5d 38 0b 3f 43 c4 99 be
       0.29045016 0.78446007 0.5438288 -0.30032548
000010 44 f7 4d 3e f3 7c 75 bd f9 62 49 3f 64 2d 2d 3f
       0.20113856 -0.059933614 0.78666645 0.67647386
000020 ce ff 00 3f c1 1d 00 3f 34 f3 98 bd 8a 18 aa be
       0.50390327 0.500454 -0.07468262 -0.33221847
000030 73 68 2e 3e 28 25 c8 3d f8 e4 25 3f 1a 46 15 3f
       0.17032032 0.09772712 0.64802504 0.5831009
000040 fe ad f1 3e d7 ef f0 3d 62 9a 29 3f 18 b5 84 be
       0.47203058 0.11764496 0.66251194 -0.25919414
000050 be 66 b3 3e 23 6b e5 3e e2 de db 3e 8b ec 0a 3f
       0.35039324 0.448083 0.42943484 0.54267186
000060 99 ec 9c 3c 16 54 05 3f e4 dd 13 3e ba 5f b0 3e
       0.019155787 0.5208143 0.14440113 0.34448034
000070 b6 a4 cb 3e 27 95 32 3e 1f 20 51 3d 07 b9 8b bd
       0.39774102 0.1743971 0.051056024 -0.068224005
