checkpoints/HOTEL-vae/hotel/s_vae_model_best.pth (torch, 75829 bytes, 24 tensors)

conv_layers.0.weight f4 [64, 1, 3]
-0.42308548 0.39064583 -0.087831974 -0.031793166 0.15280434 -0.028306762 0.47972116 0.43959802
-0.25973383 0.27762583 0.50335187 -0.28828052 0.5489842 -0.32051218 -0.25481945 -0.33655462
-0.03628297 -0.29459333 -0.072684154 -0.118501835 -0.42773005 -0.022886414 -0.5896782 0.38972
-0.20728773 0.38220102 -0.27711615 0.4603044 0.104719535 -0.036289543 -0.14148565 0.08842712
-0.38808152 -0.18496045 -0.41633272 0.17510967 -0.030752921 0.30104086 -0.58390325 0.5492011
-0.11832835 0.5116872 0.3208967 -0.102114335 -0.35323822 -0.17313583 0.44742638 0.249207
-0.032593362 0.07025629 0.55089843 0.36517203 -0.0031842932 -0.21417171 -0.39649606 0.09536659
-0.113133445 0.37911963 0.22588935 0.28629032 0.18730792 0.027879361 0.18979877 0.23799393
-0.00032856027 -0.124703124 -0.42454487 0.4904978 0.5458428 -0.30459696 0.18832923 0.26771188
-0.44335398 -0.40525135 -0.59322476 -0.19918147 0.027629698 0.43899718 -0.24091771 -0.35986498
0.5173627 0.045958504 -0.57546115 -0.17779376 -0.30698025 0.36932227 0.58046424 0.035344895
0.035511807 0.33544108 0.01958497 0.27154446 0.43532473 -0.3542597 0.4478837 -0.18705633
0.42983708 -0.2048271 -0.3175427 -0.08872887 0.48032695 -0.41066948 0.47311574 -0.36055773
0.57162046 -0.13034846 0.34791425 -0.021166863 0.5026215 -0.5020832 0.19160596 -0.21869563
0.48101547 0.23090637 -0.041826192 -0.44588825 0.20646507 0.19940725 -0.018548194 0.261551
0.38667715 -0.24922131 -0.45200437 -0.22946915 -0.09248408 0.54886395 -0.27923664 -0.2410076
0.42839345 -0.38386256 -0.13330688 0.282998 -0.17326126 0.55768794 0.15395308 -0.5239163
-0.1198996 -0.16055839 -0.0028596006 -0.1378662 0.18950403 0.32082316 -0.0720975 -0.20156956
0.029152742 0.42538586 0.52307165 -0.16044283 0.36597097 -0.49547237 -0.31583875 -0.18356006
-0.4808586 -0.29071972 0.38819 -0.27187404 0.40670264 0.37100437 0.077541366 0.2812761
0.31588063 -0.47006473 0.37809956 0.4065008 0.12952177 0.21285203 -0.092881076 -0.37576917
0.18062752 -0.026008377 0.35056752 -0.45945027 0.56496644 0.32540676 0.1835911 0.48502228
0.10665412 0.33544713 0.5284214 0.25980678 -0.34597898 -0.42827138 -0.23487118 -0.2551062
0.26257855 -0.20059238 0.524363 0.26300216 0.43942252 -0.034535855 0.19943316 -0.2894987
00000000: a99e d8be bb02 c83e 40e1 b3bd 8d39 02bd
00000010: be78 1c3e 95e3 e7bc 039e f53e fe12 e13e
00000020: d5fb 84be f924 8e3e abdb 003f 8199 93be
00000030: 3b8a 0c3f 2c1a a4be b277 82be e350 acbe
00000040: 749d 14bd f0d4 96be 6edb 94bd 17b1 f2bd
00000050: 6fff dabe 4a7c bbbc 27f5 16bf 6189 c73e
00000060: 3c43 54be daaf c33e 2be2 8dbe 05ad eb3e
00000070: 3277 d63d 58a4 14bd 9de1 10be 4719 b53d
00000080: 9fb2 c6be 4666 3dbe 9029 d5be f34f 333e
00000090: 8ded fbbc 0722 9a3e af7a 15bf 7198 0c3f
000000a0: 2256 f2bd effd 023f 924c a43e 5221 d1bd
000000b0: a4db b4be 854a 31be 1215 e53e 1f30 7f3e
000000c0: 9e80 05bd 88e2 8f3d ae07 0d3f d4f7 ba3e
000000d0: 93af 50bb d44f 5bbe 8801 cbbe 8f4f c33d
000000e0: 82b2 e7bd f81b c23e 8a4f 673e a594 923e
000000f0: a6cd 3f3e 4263 e43c 9c5a 423e aeb4 733e
00000100: 9d42 acb9 5a64 ffbd f25d d9be 8722 fb3e
00000110: 5bbc 0b3f 22f4 9bbe 61d9 403e 8811 893e
00000120: 4bff e2be 1b7d cfbe 94dd 17bf 3af6 4bbe
00000130: ad57 e23c 3dc4 e03e 22b3 76be 3940 b8be
00000140: e271 043f fc3e 3c3d 6c51 13bf 910f 36be
00000150: 842c 9dbe cf17 bd3e 4e99 143f cfc5 103d
00000160: d474 113d efbe ab3e a970 a03c e007 8b3e
00000170: e2e2 de3e 8761 b5be 0351 e53e b28b 3fbe
00000180: 9b13 dc3e 32be 51be f594 a2be 7bb7 b5bd
00000190: 6aed f53e 4543 d2be 3a3c f23e 069b b8be
000001a0: b855 123f 117a 05be d121 b23e 2166 adbc
000001b0: cdab 003f 8688 00bf 5a34 443e bff1 5fbe
000001c0: a947 f63e b872 6c3e f151 2bbd 774b e4be
000001d0: 946b 533e 6a31 4c3e 62f2 97bc 03ea 853e
000001e0: 8cfa c53e df33 7fbe 1e6d e7be f6f9 6abe
000001f0: 4b68 bdbd 5982 0c3f 1bf8 8ebe b2ca 76be
00000200: 6356 db3e a289 c4be 9981 08be 1de5 903e
00000210: 666b 31be a3c4 0e3f e0a5 1d3e 611f 06bf
00000220: ec8d f5bd 6b69 24be 2368 3bbb cc2c 0dbe
00000230: 580d 423e ef42 a43e dba7 93bd 4068 4ebe
00000240: bbd1 ee3c 2dcc d93e 06e8 053f 204b 24be
00000250: 8c60 bb3e 8eae fdbe 9eb5 a1be 2bf7 3bbe
00000260: 1933 f6be 37d9 94be d7c0 c63e 1333 8bbe
00000270: 543b d03e 49f4 bd3e 02ce 9e3d 6c03 903e
00000280: 1bbb a13e 53ac f0be 4496 c13e df20 d03e
00000290: 5ba1 043e e2f5 593e 6f38 bebd d164 c0be
000002a0: 6cf6 383e 850f d5bc 967d b33e 113d ebbe
000002b0: a4a1 103f b79b a63e 4eff 3b3e d754 f83e
000002c0: 7a6d da3d babf ab3e a046 073f 6505 853e
000002d0: 2824 b1be 6346 dbbe 1282 70be 489d 82be
000002e0: b270 863e 1768 4dbe a73c 063f 38a8 863e
000002f0: fdfb e03e 7875 0dbd 3538 4c3e 2c39 94be

conv_layers.0.bias f4 [64]
0.007883491 0.4600944 -0.21094607 -0.4051361 -0.42262018 -0.25688037 -0.14499362 0.4945188
-0.24218437 0.086885326 0.30253625 0.054996118 -0.1418288 -0.1171137 0.05560748 -0.45733494
-0.40937084 -0.2368769 0.5219719 -0.1740588 -0.22254586 0.02834889 -0.41622666 -0.0229835
-0.38101426 0.30595207 0.3702165 0.49496636 0.019419061 0.59616673 -0.2696651 0.50269324
0.15904075 -0.086111054 -0.45883158 0.200193 -0.014995636 0.43165836 -0.0907978 -0.09759332
0.73961645 -0.054030426 -0.092988804 0.1411647 -0.3203333 -0.27982512 -0.5183279 0.1868376
0.4487759 0.4374964 -0.36347282 -0.3787443 -0.52415246 0.20524924 -0.5096439 -0.048205882
-0.23240241 -0.037004195 0.5140968 0.16966073 -0.17507268 0.39988515 0.049207434 0.6032341
00000000: c229 013c 7e91 eb3e 3f02 58be 006e cfbe
00000010: ac61 d8be d385 83be 3579 14be 9131 fd3e
00000020: 2eff 77be eff0 b13d 08e6 9a3e 9c43 613d
00000030: 923b 11be 4fd9 efbd abc4 633d ce27 eabe
00000040: 0e99 d1be dc8f 72be f39f 053f 783c 32be
00000050: 10e3 63be ee3b e83c a91b d5be e547 bcbc
00000060: 4d14 c3be c0a5 9c3e 048d bd3e 3b6c fd3e
00000070: b914 9f3c 629e 183f 8b11 8abe 81b0 003f
00000080: 94db 223e fe5a b0bd f9eb eabe 65ff 4c3e
00000090: 42b0 75bc 5302 dd3e 32f4 b9bd 02df c7bd
000000a0: 8157 3d3f 024f 5dbd ea70 bebd 7b8d 103e
000000b0: ba02 a4be 3d45 8fbe 23b1 04bf 5b52 3f3e
000000c0: f4c5 e53e 87ff df3e 1c19 babe c6ea c1be
000000d0: db2e 06bf db2c 523e 0678 02bf 8873 45bd
000000e0: e6fa 6dbe b691 17bd d99b 033f 8bbb 2d3e
000000f0: 4146 33be bfbd cc3e bc8d 493d 8d6d 1a3f

conv_layers.2.weight f4 [32, 64, 3]
0.03313109 -0.010185563 -0.03961921 0.014469628 -0.014070592 -0.044122215 0.036193147 -0.090817
0.011821404 -0.056670267 0.03211509 -0.041414596 -0.051962193 -1.1914789e-06 -0.043328818 0.08139902
0.013264304 0.08606414 0.060472697 0.07265658 -0.014206053 0.024555795 0.0067587956 0.013169909
-0.009889687 -0.0066513745 -0.018855553 0.024772191 -0.051352352 0.055099763 0.079738535 0.08960647
0.064236365 0.094849676 0.027499514 0.04506735 0.018043742 0.060239427 -0.122457854 -0.011509768
0.016381348 -0.011791231 -0.0133056445 -0.14342473 -0.007961725 -0.030026978 -0.049226657 0.049435724
0.026993314 0.015197798 -0.005135029 0.02478913 -0.070075825 -0.094967954 0.13132876 -0.008779143
-0.006562311 0.046729054 0.05637994 -0.065904155 -0.044799022 -0.02078198 0.041057028 -0.06422758
0.026068944 -0.0056153717 0.038829036 0.0218516 0.025819123 -0.010024792 -0.03546407 0.06515209
-0.058826458 0.041607175 -0.0028840057 0.032627594 0.064105615 -0.023035105 -0.017909465 0.041909724
0.070623815 -0.05291523 -0.109820634 -0.00221578 -0.03403854 -0.043876097 -0.051334746 0.0317499
-0.049908113 -0.034011308 0.05010471 -0.0084359655 0.07087312 -0.033398148 -0.0037066154 0.024177771
0.054709427 0.08497721 0.050115753 0.038132604 -0.007135175 0.0068359263 0.056476496 0.0572426
0.033726495 -0.02122686 0.015320243 -0.050416358 -0.06606307 0.007242138 0.028030267 0.022108182
-0.01069082 0.05044262 0.080381095 0.032123495 0.015117966 0.034383103 -0.02031737 -0.019718498
0.039334204 0.11474688 -0.033273477 -0.07019324 0.025185404 -0.0011015241 -0.04022191 0.033619363
-0.020951021 -0.0038859071 0.018557148 0.055315875 -0.047299445 -0.049256936 0.039064206 -0.014003806
0.060659178 0.049336184 -0.023300435 -0.068583064 0.026544359 -0.09326487 -0.033548705 -0.04095963
-0.018780006 -0.03600238 0.018121092 0.07613685 -0.070969775 -0.041878097 -0.005339941 0.12877288
0.07125177 0.019515522 0.07529066 -0.069663905 0.046602286 0.015409396 -0.023641404 0.02248068
-0.08476951 -0.026514003 -0.05373148 -0.021382082 -0.022161 0.0370296 -0.015723726 -0.050112557
0.033127446 -0.026192764 -0.0056833564 -0.08013862 -0.0641666 0.058227323 0.05073753 0.01258017
-0.03720154 0.013639151 0.017300833 0.047245394 0.060388137 0.046981737 0.05138438 -0.0330731
0.0556363 -0.08262843 -0.044833153 -0.00954123 -0.000931112 -0.014579212 0.009673387 -0.09271113
-0.062353823 -0.040074147 0.06856823 -0.032210175 -0.06393414 0.016804054 0.004782976 -0.005120679
-0.041276366 -0.007962547 -0.026396874 0.016254019 -0.024949273 0.025184711 0.054743532 0.118945576
0.011938638 -0.008724456 -0.007325112 -0.012322634 0.045003206 0.04882882 -0.061352562 -0.01914296
-0.021188121 0.013109724 0.07233526 0.02738954 -0.006547128 -0.0007005189 0.13339828 -0.035741296
-0.020949079 0.027503805 -0.22631647 -0.025583345 0.014910895 0.04893348 0.016429367 -0.0420379
0.0091827065 0.012793448 0.021221051 0.009476013 0.13415255 0.033161737 0.022286812 0.078568056
-0.03139303 0.009606069 -0.04420501 0.034756005 -0.0048873634 0.04757508 0.06663154 0.025253473
0.015245486 0.03401213 -0.04880613 -0.025726043 -0.015094169 -0.044257022 0.059810936 -0.00500561
00000000: 77b4 073d 59e1 26bc c147 22bd 0512 6d3c
00000010: 5788 66bc 7fb9 34bd 443f 143d 43fe b9bd
00000020: 90ae 413c 151f 68bd 1d8b 033d 5aa2 29bd
00000030: 4fd6 54bd e7ea 9fb5 8f79 31bd 88b4 a63d
00000040: 8652 593c 6542 b03d 38b2 773d f9cc 943d
00000050: 81c0 68bc 3c29 c93c e378 dd3b 9ac6 573c
00000060: 5b08 22bc c6f3 d9bb f676 9abc 0def ca3c
00000070: d856 52bd 4ab0 613d f54d a33d 9983 b73d
00000080: 5b8e 833d 8c40 c23d a946 e13c 8b98 383d
00000090: 78d0 933c 9ebd 763d 2fcb fabd 7793 3cbc
000000a0: 2d32 863c 0230 41bc ebff 59bc efdd 12be
000000b0: e571 02bc 23fb f5bc e4a1 49bd 1d7d 4a3d
000000c0: 1521 dd3c 2f00 793c bf43 a8bb 9312 cb3c
000000d0: ea83 8fbd 8f7e c2bd 0c7b 063e 65d6 0fbc
000000e0: a808 d7bb f766 3f3d a7ee 663d c2f8 86bd
000000f0: 2e7f 37bd f93e aabc 6a2b 283d c089 83bd
00000100: 8a8e d53c 2701 b8bb 320b 1f3d 2002 b33c
00000110: a082 d33c 063f 24bc c642 11bd 756e 853d
00000120: 03f4 70bd 496c 2a3d 9601 3dbb 83a4 053d
00000130: ce49 833d 1eb4 bcbc dfb6 92bc 88a9 2b3d
00000140: 38a3 903d a4bd 58bd a4e9 e0bd 9f36 11bb
00000150: ff6b 0bbd 6cb7 33bd 6244 52bd 2f0c 023d
00000160: 736c 4cbd 714f 0bbd 993a 4d3d 0137 0abc
00000170: ed25 913d 7fcc 08bd b0ea 72bb 7610 c63c
00000180: fe16 603d 8808 ae3d 2d46 4d3d ef30 1c3d
00000190: 30ce e9bb e8ff df3b e653 673d 3777 6a3d
000001a0: cb24 0a3d f4e3 adbc c201 7b3c 6281 4ebd
000001b0: 134c 87bd 754f ed3b bb9f e53c 381c b53c
000001c0: 8d28 2fbc ec9c 4e3d d89e a43d ed93 033d
000001d0: 58b1 773c 4cd5 0c3d 9d70 a6bc b088 a1bc
000001e0: e71c 213d 6a00 eb3d c549 08bd 79c1 8fbd
000001f0: 9f51 ce3c 0461 90ba bbbf 24bd 75b4 093d
00000200: 7aa1 abbc b4aa 7ebb 2905 983c e692 623d
00000210: 10bd 41bd a4c1 49bd ca01 203d 3870 65bc
00000220: c275 783d bd14 4a3d 8ee0 bebc 4775 8cbd
00000230: 8e73 d93c a701 bfbd 5e6a 09bd 49c5 27bd
00000240: 87d8 99bc 3b77 13bd af72 943c a3ed 9b3d
00000250: 9a58 91bd 5e88 2bbd acfa aebb 0add 033e
00000260: 73ec 913d 04df 9f3c fd31 9a3d f3ab 8ebd
00000270: 0ae2 3e3d b177 7c3c 9eab c1bc 6729 b83c
00000280: a39b adbd e533 d9bc 8a15 5cbd 7a29 afbc
00000290: fc8a b5bc 5aac 173d 0bcf 80bc d342 4dbd
000002a0: a5b0 073d 3592 d6bc 733b babb b81f a4bd
000002b0: c769 83bd c67f 6e3d 28d2 4f3d 0f1d 4e3c
000002c0: a460 18bd bf76 5f3c 7aba 8d3c 6384 413d
000002d0: 8d59 773d ec6f 403d 6d78 523d a977 07bd
000002e0: e4e2 633d 1839 a9bd f8a2 37bd d252 1cbc
000002f0: de15 74ba a6dd 6ebc 207d 1e3c 55df bdbd
00000300: b966 7fbd ca24 24bd 806d 8c3d d1ee 03bd
00000310: e7ef 82bd a8a8 893c 83ba 9c3b 5ecb a7bb
00000320: 6811 29bd 5875 02bc 423e d8bc 2627 853c
00000330: 6b62 ccbc 2b50 ce3c c13a 603d bd99 f33d
00000340: 479a 433c 05f1 0ebc 7e07 f0bb e0e4 49bc
00000350: 4855 383d bb00 483d d34c 7bbd b2d1 9cbc
00000360: b692 adbc 2bca 563c 8224 943d 0760 e03c
00000370: 4a89 d6bb 07a3 37ba 8f99 083e 7765 12bd
00000380: 679d abbc a94f e13c 81bf 67be 2a94 d1bc
00000390: d44c 743c 796e 483d e196 863c ef2f 2cbd
000003a0: 1073 163c 9c9b 513c c5d7 ad3c 4741 1b3c
000003b0: 495f 093e 9ad4 073d d592 b63c 4ae8 a03d
000003c0: fa95 00bd c662 1d3c 5010 35bd 505c 0e3d
000003d0: 2d26 a0bb 16de 423d 1e76 883d 5fe0 ce3c
000003e0: 34c8 793c 4e50 0b3d f0e8 47bd 6cbf d2bc
000003f0: 894d 77bc da46 35bd 50fc 743d 1a06 a4bb

conv_layers.2.bias f4 [32]
0.033146746 -0.079565495 0.046839375 0.09153372 0.024549128 -0.053916164 0.04706691 0.061033126
0.090942524 0.07689082 0.048856903 -0.0364632 0.06021622 0.07095326 -0.045013774 0.064715184
0.032274503 0.049331754 -0.024820877 -0.03119122 0.12991637 0.00055313343 0.037996124 0.07833694
0.003637234 0.10461702 -0.053488232 0.05300741 0.0241915 0.09334862 0.03940247 0.10729257
00000000: e2c4 073d 3cf3 a2bd a5da 3f3d 0876 bb3d
00000010: 411b c93c 32d7 5cbd 3bc9 403d dffd 793d
00000020: 1340 ba3d ef78 9d3d 2d1e 483d 705a 15bd
00000030: 48a5 763d f14f 913d 5d60 38bd 6589 843d
00000040: 4532 043d 1810 4a3d 2755 cbbc bb84 ffbc
00000050: cc08 053e 2800 113a d3a1 1b3d 1e6f a03d
00000060: a95e 6e3b 7341 d63d 7a16 5bbd 4c1e 593d
00000070: 412d c63c 902d bf3d 7c64 213d 35bc db3d

lstm.weight_ih_l0 f4 [128, 32]
0.032129 0.017475784 0.13502827 0.15586789 -0.041721415 -0.10540284 -0.0035888564 -0.10698526
-0.17231163 -0.05958611 -0.07995814 -0.08065702 -0.06972856 -0.13157542 -0.09016501 0.038688213
-0.13820611 -0.07368908 -0.033182207 0.03903848 -0.05011372 0.16198687 0.054397345 -0.11806401
0.012466103 -0.05434699 -0.034217227 -0.05575702 -0.058835298 -0.09396706 -0.03628791 0.12314991
-0.07295682 0.08675051 0.07154142 0.17466806 0.07200735 0.07878922 -0.08706263 0.1685178
0.29996756 -0.112822 -0.13849278 -0.009686128 0.088242926 0.057600103 -0.0062048025 -0.08600134
0.06736036 0.087537 0.18456674 -0.15899768 -0.10903946 -0.1638363 0.10413623 -0.12283237
-0.13970733 0.094372034 0.10910317 -0.089480884 -0.14310718 0.04925036 -0.17701805 0.025469178
-0.06667872 -0.07352452 -0.13670257 0.15752426 -0.10031714 -0.14484827 0.1174521 -0.11528047
-0.026121058 -0.01764069 -0.020597177 0.0722526 0.04804409 0.06703193 -0.15716568 0.09286938
0.05468985 -0.058929678 0.18278268 0.06766938 0.007497019 -0.11661103 0.15868339 -0.16229922
-0.018501395 0.009389682 -0.0837431 0.21781486 -0.28347945 0.008306202 -0.090045735 -0.06930283
-0.002908522 -0.13387164 0.0061979247 0.039050184 -0.0012112819 -0.049077965 -0.1592083 0.04394461
-0.005993179 -0.082785726 0.12029519 -0.09277978 -0.084091425 0.11691501 0.16053376 0.099029586
-0.088060714 -0.059489813 0.093442604 -0.09121584 -0.025543138 0.0035206105 -0.070678934 -0.15773419
0.07430209 -0.17603987 0.17619985 -0.035538625 0.0681243 0.06093733 0.0528058 0.14834173
-0.08308059 -0.056239113 0.014793125 0.007815425 0.16185461 0.19348598 -0.08014548 -0.0990606
0.15401296 -0.07268544 -0.11855755 -0.06065282 -0.07983355 0.078755274 0.026286466 0.00533615
-0.19013527 0.086801425 0.031118497 0.036314625 -0.062011633 -0.09946361 0.11582459 -0.062479656
0.050028067 0.10851755 0.052308746 0.13964541 -0.10314673 0.10064177 -0.17982633 -0.10684372
-0.15434718 0.07898186 0.104318604 0.014199775 0.089409366 -0.029669179 0.04892892 0.07508141
-0.11687635 -0.09892054 0.10242393 0.08847867 0.056132127 0.0063360594 0.0293689 0.11415142
-0.11137909 0.042718492 -0.19360605 0.057104126 -0.023223167 -0.070990235 -0.13629475 -0.15889022
-0.039343964 0.10485238 0.13308541 -0.08994846 -0.1025725 -0.15306623 -0.039262056 -0.033742633
0.04881335 -0.0023815834 0.13553928 -0.07737347 -0.03654161 -0.15052257 0.07386613 0.055428535
-0.2562538 -0.025952885 0.043572597 -0.1372459 0.09288236 -0.120085694 -0.04930376 0.075093396
-0.07794067 -0.002967513 -0.027491974 0.18182479 -0.12916122 0.16804393 -0.026779296 0.09034101
-0.055784076 0.009338386 -0.13352041 -0.053616285 0.2338082 0.067133196 0.080960125 0.07618141
0.12214934 -0.12108774 0.14816926 0.15106247 -0.04797927 0.13789977 -0.12808749 0.008520157
0.041912172 -0.0586976 0.056717418 -0.09848787 -0.07122945 -0.15061277 -0.1298534 0.12921572
0.011567315 -0.15539783 -0.12474136 0.13255863 -0.0628328 -0.115599975 0.14663091 -0.10540101
0.10125675 -0.010035947 -0.0692898 -0.032702986 -0.09258998 0.01858203 0.018769775 0.13888593
00000000: b399 033d 6029 8f3c da44 0a3e d59b 1f3e
00000010: 13e4 2abd 72dd d7bd 0533 6bbb 171b dbbd
00000020: 7672 30be 9110 74bd 18c1 a3bd 822f a5bd
00000030: d9cd 8ebd b5bb 06be 6fa8 b8bd 8877 1e3d
00000040: e785 0dbe 4dea 96bd 11ea 07bd d0e6 1f3d
00000050: 0b44 4dbd e3df 253e c0cf 5e3d 8bcb f1bd
00000060: a03e 4c3c f39a 5ebd 5d27 0cbd 7961 64bd
00000070: 48fd 70bd cd71 c0bd a2a2 14bd 0536 fc3d
00000080: 636a 95bd 40aa b13d 4f84 923d 2fdc 323e
00000090: 9778 933d 3e5c a13d e44d b2bd ee8f 2c3e
000000a0: 5995 993e 390f e7bd 0dd1 0dbe 91b2 1ebc
000000b0: b5b8 b43d 16ee 6b3d a851 cbbb 7821 b0bd
000000c0: 3af4 893d 9946 b33d 10ff 3c3e 4ad0 22be
000000d0: 1550 dfbd b4c4 27be 6045 d53d 8a8f fbbd
000000e0: 700f 0fbe 2046 c13d 7c71 df3d c141 b7bd
000000f0: b08a 12be bfba 493d 3844 35be bda4 d03c
00000100: da8e 88bd 0694 96bd c2fb 0bbe 0a4e 213e
00000110: 1373 cdbd 1b53 14be ba8a f03d 2b18 ecbd
00000120: d4fb d5bc 3583 90bc 69bb a8bc 2cf9 933d
00000130: e1c9 443d 0948 893d 0af0 20be 4d32 be3d
00000140: 7702 603d 3f60 71bd 622b 3b3e 3e96 8a3d
00000150: 8ea9 f53b c4d1 eebd e67d 223e c431 26be
00000160: 3d90 97bc 2ed7 193c 8181 abbd dc0a 5f3e
00000170: 3824 91be bc16 083c e669 b8bd a4ee 8dbd
00000180: e79c 3ebb a615 09be f617 cb3b 16f3 1f3d
00000190: e0c3 9eba fa05 49bd 8007 23be 43ff 333d
000001a0: 6e62 c4bb 908b a9bd 535d f63d 5303 bebd
000001b0: 2038 acbd 2371 ef3d f662 243e 06d0 ca3d
000001c0: 2d59 b4bd 97ab 73bd d65e bf3d 5fcf babd
000001d0: d83f d1bc 0bba 663b 1ec0 90bd 1285 21be
000001e0: b22b 983d cc43 34be bc6d 343e f390 11bd
000001f0: c184 8b3d 6c99 793d e54a 583d e5e6 173e
00000200: 2826 aabd fc5a 66bd dd5e 723c 450c 003c
00000210: 37bd 253e 3021 463e 5023 a4bd 49e0 cabd
00000220: 93b5 1d3e 1bdc 94bd 4dce f2bd 176f 78bd
00000230: c67f a3bd 724a a13d b756 d73c dfda ae3b
00000240: d2b2 42be f2c4 b13d 38ec fe3c a5be 143d
00000250: e9ff 7dbd 94b3 cbbd 7135 ed3d abea 7fbd
00000260: 3bea 4c3d 733e de3d b241 563d 35ff 0e3e
00000270: 983e d3bd 461d ce3d 6524 38be e1d0 dabd
00000280: 300d 1ebe 3ec1 a13d fea4 d53d 2ca6 683c
00000290: 421c b73d c70c f3bc b169 483d 48c4 993d
000002a0: de5c efbd da96 cabd a3c3 d13d 4e34 b53d
000002b0: cdea 653d b89e cf3b 0c97 f03c 38c8 e93d
000002c0: b81a e4bd 96f9 2e3d aa40 46be 04e6 693d
000002d0: 833e bebc 5463 91bd da90 0bbe 1eb4 22be
000002e0: 2327 21bd d8bc d63d 8b47 083e e636 b8bd
000002f0: 8811 d2bd 65bd 1cbe 40d1 20bd b735 0abd
00000300: 82f0 473d 5714 1cbb cfca 0a3e fb75 9ebd
00000310: a8ac 15bd 9722 1abe 2047 973d 0809 633d
00000320: b333 83be 259b d4bc 2e79 323d 308a 0cbe
00000330: 1b39 be3d 7def f5bd bdf2 49bd 91ca 993d
00000340: 5c9f 9fbd 9b7a 42bb d936 e1bc 4730 3a3e
00000350: d742 04be b513 2c3e 4160 dbbc b504 b93d
00000360: d87d 64bd 0800 193c 93b9 08be c09c 5bbd
00000370: 6b6b 6f3e 217d 893d 6cce a53d 0005 9c3d
00000380: 6f29 fa3d d9fc f7bd afb9 173e 1fb0 1a3e
00000390: e985 44bd 9935 0d3e 5e29 03be 2198 0b3c
000003a0: 19ac 2b3d e56c 70bd 8650 683d 02b4 c9bd
000003b0: bfe0 91bd 3c3a 1abe 4af8 04be 2051 043e
000003c0: d684 3d3c 9c20 1fbe 6678 ffbd 73bd 073e
000003d0: 7cae 80bd aebf ecbd 6a26 163e 7cdc d7bd
000003e0: b35f cf3d d06d 24bc d0e7 8dbd 91f3 05bd
000003f0: d19f bdbd 5739 983c 12c3 993c 1d38 0e3e

lstm.weight_hh_l0 f4 [128, 32]
-0.12810288 0.019236233 0.12905757 0.027700726 -0.019014103 0.2236804 0.048747264 0.103534535
0.112513214 -0.0084703285 0.2553066 0.011509766 -0.04166143 0.119093806 0.052312057 0.12166342
-0.012194844 0.1476479 0.25104585 -0.030143026 0.24347499 0.14861578 0.1442464 -0.13847195
-0.008306326 -0.07082047 -0.0382033 0.12653346 -0.16969296 0.014070608 0.027047416 -0.15157546
0.03705192 -0.034341764 0.13752507 0.063018896 0.036209956 0.12501602 0.13109685 -0.07988941
0.04815435 -0.024096655 0.010940498 -0.26246488 -0.10990604 -0.17308013 -0.08598481 0.16285095
-0.04616453 0.012619583 -0.020792443 -0.06999119 0.08038253 0.10118198 -0.094532624 0.0825138
-0.023233606 -0.08503573 -0.15012406 -0.084783606 -0.15586624 0.073017664 0.16300835 -0.09407148
-0.106891565 0.20337296 0.049698524 0.009719394 0.02070503 0.04534853 0.0038865395 0.014943583
0.14063141 0.045323562 -0.076083146 0.08111248 0.09981096 -0.09429258 -0.0739085 0.18783516
0.06628004 0.10707731 0.11235644 -0.073892064 -0.10837036 -0.058495127 0.10275673 0.18211374
0.0926183 0.13483982 -0.02835431 0.17682257 -0.073809505 -0.042233806 -0.06701348 -0.119317494
0.046710104 -0.1914847 -0.18984477 0.08148387 0.13894464 -0.056713443 -0.14172634 -0.16681333
0.12355928 0.123132125 0.18761037 -0.040491376 -0.041737236 -0.04850703 0.12201383 -0.14094198
0.18571563 -0.16382279 -0.11218407 -0.11912765 -0.028754214 0.1415958 -0.15221867 0.17054626
0.028368862 -0.20624883 0.15113035 -0.10461904 0.03720987 0.117779866 -0.042572927 -0.18122248
0.0126880435 -0.13653544 0.012767866 0.11770639 -0.13176097 -0.13116087 0.11289055 0.15949602
0.20056309 -0.19934797 -0.08544281 -0.22681399 -0.00059144135 -0.15241589 -0.20453762 0.02797781
0.17180495 -0.15446176 -0.20516397 0.017720446 0.11392013 0.15521297 0.11722051 0.32789883
-0.22566201 0.13259818 -0.023447335 -0.13911276 -0.12771642 -0.10115173 -0.046782292 0.09150128
0.10902547 -0.06661754 0.014205066 -0.03683499 -0.18050282 0.13978325 0.19255303 -0.13834475
0.14103608 -0.010352767 0.108165935 0.046601366 0.15709098 -0.08301076 -0.13892613 -0.14272551
0.018465867 0.118259765 -0.13257428 0.12904131 0.017204508 -0.023674898 -0.09340797 -0.08307695
0.03859329 0.09416859 0.065313086 0.05553568 0.011393157 0.20135403 0.010465609 0.069908015
-0.079882935 -0.01820705 0.14060894 -0.09517788 -0.077588186 -0.042486276 -0.18680066 -0.049314734
-0.11505018 0.1496386 0.15546693 -0.24839823 -0.06533715 0.00787588 0.05536758 0.13378143
-0.22571735 0.17489693 0.084327556 -0.19265768 0.054332625 0.11852699 -0.20489071 0.059964485
-0.2290686 0.012442598 -0.16651493 0.09275597 0.065738425 0.09846581 0.123998515 -0.04647234
0.08328471 -0.15929501 0.10867371 -0.047709167 0.16263302 0.039062876 0.07763395 -0.019692944
0.08511361 -0.05984587 0.10928206 -0.12853518 -0.16202784 -0.028544266 -0.0035843733 -0.07685973
0.0005340557 -0.06012339 0.0033470695 -0.07179938 0.08650898 -0.02949967 -0.036621496 0.08742426
-0.12098958 -0.11830373 -0.002540913 0.0461114 0.009167784 -0.031661544 -0.2039801 -0.1917546
00000000: 672d 03be 4e95 9d3c ab27 043e a2ec e23c
00000010: 77c3 9bbc 7a0c 653e 36ab 473d ea09 d43d
00000020: 546d e63d 22c7 0abc 8cb7 823e 7593 3c3c
00000030: 2da5 2abd 74e7 f33d 2b45 563d ac2a f93d
00000040: e2cc 47bc 0331 173e 1589 803e 82ee f6bc
00000050: 8251 793e bc2e 183e 54b5 133e 97cb 0dbe
00000060: 4217 08bc 530a 91bd 107b 1cbd fd91 013e
00000070: fec3 2dbe 6888 663c 8b92 dd3c 9936 1bbe
00000080: c1c3 173d f3a9 0cbd 5fd3 0c3e 0d10 813d
00000090: e450 143d 3304 003e 413e 063e 0f9d a3bd
000000a0: 7f3d 453d 5966 c5bc c63f 333c cc61 86be
000000b0: 6b16 e1bd eb3b 31be ce18 b0bd 66c2 263e
000000c0: 0517 3dbd 5ec2 4e3c ea54 aabc 8b57 8fbd
000000d0: 999f a43d 7f38 cf3d 529a c1bd fffc a83d
000000e0: 6754 bebc 3627 aebd 1fba 19be 07a3 adbd
000000f0: 669b 1fbe 498a 953d a9eb 263e 8ca8 c0bd
00000100: f7e9 dabd 0041 503e ae90 4b3d 183e 1f3c
00000110: 989d a93c 61bf 393d 50b5 7e3b eed5 743c
00000120: ae01 103e 33a5 393d 7bd1 9bbd 4d1e a63d
00000130: b069 cc3d 781c c1bd 575d 97bd dc57 403e
00000140: d4bd 873d 594b db3d 221b e63d b954 97bd
00000150: 48f1 ddbd 9698 6fbd 1f72 d23d 067c 3a3e
00000160: aaae bd3d 7313 0a3e 4c47 e8bc fa10 353e
00000170: 7029 97bd 5bfd 2cbd 5d3e 89bd bb5c f4bd
00000180: 1853 3f3d 9114 44be ab66 42be 04e1 a63d
00000190: 8147 0e3e 5b4c 68bd b620 11be 1dd1 2abe
000001a0: a60c fd3d b22c fc3d ef1c 403e 49da 25bd
000001b0: aaf4 2abd 4faf 46bd 63e2 f93d 1853 10be
000001c0: 3d2c 3e3e 29c1 27be c3c0 e5bd 33f9 f3bd
000001d0: f58d ebbc 7dfe 103e 36df 1bbe aea3 2e3e
000001e0: d165 e83c e532 53be eac1 1a3e 8242 d6bd
000001f0: 6069 183d 9236 f13d f360 2ebd 6392 39be
00000200: 83e1 4f3c f2cf 0bbe 5030 513c 0c10 f13d
00000210: 59ec 06be 094f 06be 2933 e73d ed52 233e
00000220: 6960 4d3e e021 4cbe a4fc aebd ed41 68be
00000230: f50a 1bba e912 1cbe 4f72 51be b831 e53c
00000240: a3ed 2f3e 392b 1ebe 8116 52be 782a 913c
00000250: f54e e93d 26f0 1e3e 4f11 f03d 5be2 a73e
00000260: f113 67be d1c7 073e a014 c0bc 9373 0ebe
00000270: 18c8 02be a328 cfbd ca9e 3fbd 0665 bb3d
00000280: bf48 df3d c76e 88bd 5dbc 683c 49e0 16bd
00000290: bbd5 38be 5723 0f3e 9f2c 453e 3faa 0dbe
000002a0: c36b 103e a79e 29bc 1a86 dd3d 13e1 3e3d
000002b0: 75dc 203e 8c01 aabd a742 0ebe a326 12be
000002c0: bb45 973c 2d32 f23d 8dc1 07be 6823 043e
000002d0: 78f0 8c3c dcf1 c1bc ae4c bfbd 3f24 aabd
000002e0: ff13 1e3d 76db c03d dec2 853d 6279 633d
000002f0: 5daa 3a3c c02f 4e3e f277 2b3c ef2b 8f3d
00000300: aa99 a3bd f426 95bc cafb 0f3e 9fec c2bd
00000310: 8ee6 9ebd 1706 2ebd ac48 3fbe 3ffe 49bd
00000320: 6e9f ebbd dc3a 193e b932 1f3e 1b5c 7ebe
00000330: 7ccf 85bd d609 013c 1ec9 623d 00fe 083e
00000340: 7322 67be 2e18 333e edb3 ac3d 0e48 45be
00000350: e38b 5e3d 47be f23d dfce 51be 529d 753d
00000360: f690 6abe 0adc 4b3c e482 2abe d8f6 bd3d
00000370: dea1 863d 71a8 c93d eff2 fd3d c859 3ebd
00000380: 2d91 aa3d 3b1e 23be 5290 de3d b06a 43bd
00000390: 4589 263e 6500 203d 8cfe 9e3d 1953 a1bc
000003a0: 0b50 ae3d f120 75bd 46cf df3d ba9e 03be
000003b0: a0ea 25be aad5 e9bc cee7 6abb a268 9dbd
000003c0: dfff 0b3a f243 76bd 825a 5b3b 8e0b 93bd
000003d0: 9f2b b13d 4ba9 f1bc 6c00 16bd 7e0b b33d
000003e0: 63c9 f7bd 3a49 f2bd 7285 26bb 4fdf 3c3d
000003f0: 7934 163c 89af 01bd 29e0 50be 515b 44be

lstm.bias_ih_l0 f4 [128]
0.18050216 -0.08445785 -0.019683803 0.1669553 0.102128886 0.010091658 -0.09124038 0.1044552
-0.11019183 0.01440426 0.03370717 0.13497326 -0.09625949 -0.122454956 0.15923528 -0.08256597
-0.1734389 0.1516357 0.080630034 0.11095359 0.18279089 -0.026832834 0.05459079 0.043418635
-0.011939312 0.039507616 -0.084078856 0.08913503 0.16372187 -0.026176702 -0.019992296 -0.12878025
0.11356541 -0.15241818 0.03639202 0.07612414 0.06262248 0.15166162 0.13626137 0.118103
0.09823358 0.07287963 0.18770395 -0.1350561 0.039170895 0.08539011 0.13674933 0.18525921
0.13680583 0.18822353 -0.041962683 -0.046298765 -0.18152517 -0.043227702 -0.09207855 -0.13711898
0.079283305 0.22770977 -0.013765108 0.16665733 0.032776963 0.055548243 -0.031542446 -0.05330581
-0.108455375 0.15570316 0.13159797 0.1746992 -0.045131765 -0.095901944 0.15105318 -0.1477529
-0.11464945 0.05664592 0.15165225 0.12411904 0.059769385 0.0047316262 0.17446597 0.15335797
0.0034433547 -0.16396856 0.02634385 -0.1732936 0.10846704 -0.010901813 -0.087302476 0.046436213
-0.10239248 0.14720222 -0.07367043 -0.067468725 -0.052385155 -0.013912001 0.15084267 0.029057195
-0.077097036 0.19827133 0.14103535 -0.030563753 0.20843957 -0.030833665 0.1621866 0.04390343
0.006117154 0.22155431 0.06743883 -0.078125685 -0.011361841 0.14442348 0.0073159356 -0.05778296
0.19265479 0.02254735 0.1628307 0.055877198 -0.119406186 0.16339482 -0.019479068 0.07407881
-0.11538052 0.0948261 -0.03856382 0.16044277 0.010351508 0.1502898 0.12726696 0.0058573904
00000000: 8fd5 383e 3df8 acbd ed3f a1bc 55f6 2a3e
00000010: f328 d13d 7b57 253c 3ddc babd 9cec d53d
00000020: 41ac e1bd d8ff 6b3c 8810 0a3d 6e36 0a3e
00000030: b223 c5bd aac9 fabd 930e 233e 5918 a9bd
00000040: f899 31be 6446 1b3e 5c21 a53d a33b e33d
00000050: 892d 3b3e 88d0 dbbc 989a 5f3d bdd7 313d
00000060: 1b9d 43bc bdd2 213d 8931 acbd 6d8c b63d
00000070: b5a6 273e 8670 d6bc e2c6 a3bc f8de 03be
00000080: fb94 e83d 8313 1cbe cc0f 153d f9e6 9b3d
00000090: 3740 803d 2f4d 1b3e 1a88 0b3e fcdf f13d
000000a0: b02e c93d ea41 953d 7735 403e 254c 0abe
000000b0: a971 203d 03e1 ae3d 0408 0c3e 97b4 3d3e
000000c0: d416 0c3e abbd 403e 10e1 2bbd c6a3 3dbd
000000d0: bce1 39be 880f 31bd ae93 bcbd eb68 0cbe
000000e0: 495f a23d c02c 693e 0c87 61bc 38a8 2a3e
000000f0: 2341 063d 8e86 633d a732 01bd 3157 5abd
00000100: da1d debd a670 1f3e 9ec1 063e 59e4 323e
00000110: 16dc 38bd 3d68 c4bd afad 1a3e 894c 17be
00000120: 55cd eabd 8d05 683d ba4a 1b3e 2032 fe3d
00000130: bed0 743d c20b 9b3b 35a7 323e df09 1d3e
00000140: e8a9 613b 60e7 27be 0fcf d73c e173 31be
00000150: f823 de3d 859d 32bc a4cb b2bd e633 3e3d
00000160: 26b3 d1bd 2ebc 163e 86e0 96bd 0b2d 8abd
00000170: d191 56bd 29ef 63bc 8076 1a3e 5b09 ee3c
00000180: 0de5 9dbd a407 4b3e 926b 103e d660 fabc
00000190: 2f71 553e e296 fcbc 3e14 263e 15d4 333d
000001a0: 6872 c83b 22df 623e 5f1d 8a3d 5c00 a0bd
000001b0: 0427 3abc c0e3 133e 84ba ef3b d3ad 6cbd
000001c0: 4c47 453e 38b5 b83c 17bd 263e 7ddf 643d
000001d0: 3b8b f4bd f950 273e 9192 9fbc a2b6 973d
000001e0: 9f4c ecbd 3034 c23d 19f5 1dbd 1c4b 243e
000001f0: 5f99 293c 92e5 193e 4552 023e 5aef bf3b

lstm.bias_hh_l0 f4 [128]
0.0900386 -0.09312496 -0.15671842 -0.06347866 0.14236398 -0.10096384 0.107609294 -0.07820283
-0.12214304 0.09273027 -0.06126003 0.16372402 -0.08317983 -0.056591637 -0.090373576 0.16049255
-0.023919899 -0.038185287 0.10800083 0.06862234 -0.03773638 -0.061802484 -0.04374921 0.18079616
0.17311995 0.0034913681 -0.03516855 0.0620773 -0.15145057 -0.00035783768 0.1631989 0.056519624
0.07940005 -0.084719434 -0.14881334 0.024477681 -0.10141755 0.0072223525 -0.076138094 0.2207847
-0.05705217 -0.046077706 0.08985406 0.17732851 -0.14000136 0.14246815 0.15552051 -0.034709513
0.02990133 0.056146998 0.21273297 -0.12387643 -0.19611233 0.15967625 -0.113862015 -0.06529108
0.1299922 -0.032744586 0.16439211 0.17067166 -0.08409083 0.1551724 -0.091085695 -0.0946692
-0.053111706 0.10374558 0.04555283 -0.05705179 0.05719434 0.04051914 -0.08848854 0.015834715
-0.0843122 -0.15129937 0.1839139 0.09202659 -0.082714796 -0.18385032 0.14326453 0.08229519
0.03341879 -0.14520553 0.14271103 0.136224 -0.017745344 -0.07885517 -0.01039256 -0.0019098179
0.07800027 0.01573719 -0.08179802 -0.18438469 -0.10947075 -0.12704046 0.111346036 -0.01631386
0.037493814 0.1848745 0.06701395 -0.008846549 0.0368173 0.10432549 -0.009650845 0.18357909
-0.103849195 0.115139015 0.075710155 -0.032533184 0.20399633 0.17639711 0.14620352 -0.14629553
0.16797839 0.24398662 0.109523796 -0.10949584 0.07532359 0.23973802 0.14421467 0.054455206
-0.08015874 0.16781983 0.10571909 -0.06409246 -0.010349002 0.022685291 -0.1102814 0.12429855
00000000: 2866 b83d 4db8 bebd cb7a 20be 1a01 82bd
00000010: ddc7 113e 21c6 cebd 4362 dc3d ce28 a0bd
00000020: 2126 fabd 5ee9 bd3d cceb 7abd 45a7 273e
00000030: 305a aabd a2cc 67bd c815 b9bd 2958 243e
00000040: aaf3 c3bc 2d68 1cbd 8a2f dd3d df89 8c3d
00000050: 7691 1abd 9a24 7dbd 5f32 33bd a122 393e
00000060: 5b46 313e 70cf 643b e60c 10bd c444 7e3d
00000070: dc15 1bbe 299c bbb9 9d1d 273e 1f81 673d
00000080: 7e9c a23d 6281 adbd 8662 18be 6b85 c83c
00000090: 01b4 cfbd 7ca9 ec3b 4aee 9bbd 6215 623e
000000a0: 89af 69bd fabb 3cbd 6805 b83d 9b95 353e
000000b0: 845c 0fbe 2ce3 113e c540 1f3e 902b 0ebd
000000c0: a2f3 f43c 65fa 653d acd6 593e edb2 fdbd
000000d0: acd1 48be 2c82 233e 7d30 e9bd 54b7 85bd
000000e0: ad1c 053e 301f 06bd 6856 283e 8dc4 2e3e
000000f0: d037 acbd 83e5 1e3e 238b babd ede1 c1bd
00000100: a98b 59bd 9078 d43d 9b95 3a3d 23af 69bd
00000110: 9d44 6a3d 66f7 253d 7b39 b5bd ceb7 813c
00000120: e0ab acbd 39ee 1abe ed53 3c3e 7078 bc3d
00000130: 6066 a9bd 4243 3cbe f0b3 123e 618a a83d
00000140: 24e2 083d c2b0 14be d722 123e 4e7e 0b3e
00000150: af5e 91bc d27e a1bd 8e45 2abc db52 faba
00000160: 9bbe 9f3d 48eb 803c b885 a7bd 57cf 3cbe
00000170: 3332 e0bd e516 02be 6409 e43d a5a4 85bc
00000180: 1d93 193d be4f 3d3e 9c3e 893d 1ef1 10bc
00000190: bdcd 163d 9aa8 d53d 941e 1ebc 28fc 3b3e
000001a0: e3ae d4bd 01ce eb3d ed0d 9b3d 8441 05bd
000001b0: 6ae4 503e 72a1 343e 60b6 153e 7fce 15be
000001c0: 8702 2c3e a1d7 793e 034e e03d 5b3f e0bd
000001d0: 4143 9a3d e27d 753e 03ad 133e 6c0c 5f3d
000001e0: 442a a4bd f6d8 2b3e 4083 d83d e842 83bd
000001f0: dc8e 29bc 81d6 b93c 37db e1bd 3d90 fe3d

fc_mu.weight f4 [4, 32]
-0.02336909 -0.25033784 -0.29169044 0.18379648 0.12456686 0.37029245 0.30336463 -0.019262584
0.09613182 -0.32208383 0.5638758 -0.45028958 -0.1518354 -0.15676594 0.38375783 0.03552147
0.11619686 -0.2650423 -0.3512481 -0.33875754 0.35334218 -0.23140226 0.013844167 -0.26837435
0.26124674 -0.31874323 -0.2950445 0.030649606 0.17114303 -0.3846649 0.4264099 -0.28211564
-0.25131783 0.27564698 -0.084790625 0.25204104 0.06682696 0.37352324 0.15572546 -0.24119899
0.008061626 0.29719418 0.24882795 -0.25644735 -0.20134781 -0.16874994 0.07009912 0.32148543
0.19832411 0.054527313 0.38870287 -0.16977048 0.14116943 -0.1333999 0.25497308 0.2950118
-0.16083501 -0.24095589 -0.062352985 -0.22473639 0.08492333 -0.08277173 -0.009039162 -0.2535201
-0.22171374 0.24349648 -0.2179875 0.10740968 0.18130225 -0.030283647 0.19397011 -0.27963012
0.30666277 0.24749112 -0.01685779 -0.12401872 -0.052468315 0.31380925 0.19273832 0.28821364
0.31457296 -0.09622887 0.25714558 -0.22467735 0.16002983 0.38712078 0.2519206 0.3145387
-0.23923111 -0.11718416 0.042862028 -0.273121 0.14663431 -0.113394305 -0.11871807 -0.13796243
-0.006802873 0.15494981 -0.03330053 0.26698363 0.3337345 -0.14554177 0.089326404 0.061453138
0.30168125 -0.018796893 0.24339056 -0.030570915 -0.082500756 0.33028305 0.18876086 0.12132742
0.25068387 -0.21345149 -0.03632818 -0.22555587 -0.015343907 0.16939974 0.2099452 0.043621305
-0.24910215 -0.32678214 -0.2739314 -0.03472104 0.13682966 -0.10167819 0.04367328 -0.27045038
00000000: 8970 bfbc 482c 80be 7358 95be 2535 3c3e
00000010: e91c ff3d f996 bd3e 9c52 9b3e 91cc 9dbc
00000020: c2e0 c43d 2ce8 a4be 2a5a 103f 5b8c e6be
00000030: bd7a 1bbe 4087 20be e87b c43e f67e 113d
00000040: 9ff8 ed3d a0b3 87be cad6 b3be a171 adbe
00000050: 44e9 b43e b7f4 6cbe a5d2 623c 5d68 89be
00000060: 22c2 853e 5032 a3be 1310 97be e214 fb3c
00000070: 1e40 2f3e ccf2 c4be 6652 da3e 7671 90be
00000080: bbac 80be 9a21 8d3e b5a6 adbd 860b 813e
00000090: 93dc 883d 703e bf3e 7f76 1f3e defc 76be
000000a0: e914 043c d629 983e c1cc 7e3e 114d 83be
000000b0: 1f2e 4ebe c9cc 2cbe 2190 8f3d bd99 a43e
000000c0: 7a15 4b3e 0858 5f3d 1004 c73e 50d8 2dbe
000000d0: b88e 103e fc99 08be d58b 823e c90b 973e
000000e0: efb1 24be 24bd 76be d865 7fbd 4c21 66be
000000f0: 48ec ad3d 3a84 a9bd fe18 14bc 63cd 81be
00000100: ed08 63be 2457 793e 1d38 5fbe 9bf9 db3d
00000110: 4ca7 393e 6915 f8bc 1aa0 463e ae2b 8fbe
00000120: e702 9d3e 506e 7d3e 5919 8abc 87fd fdbd
00000130: 04e9 56bd 9bab a03e 325d 453e bd90 933e
00000140: b50f a13e a413 c5bd 96a8 833e d211 66be
00000150: dcde 233e b234 c63e bdfb 803e 370b a13e
00000160: 00f9 74be 40fe efbd 1890 2f3d 84d6 8bbe
00000170: 4e27 163e 463b e8bd 7622 f3bd 0646 0dbe
00000180: a3ea debb 2aab 1e3e 2366 08bd 14b2 883e
00000190: 40df aa3e e708 15be c3f0 b63d 49b6 7b3d
000001a0: f775 9a3e f1fb 99bc 603b 793e db6f fabc
000001b0: 28f6 a8bd dc1a a93e 874a 413e 837a f83d
000001c0: a359 803e 0793 5abe dccc 14bd 1ef8 66be
000001d0: 0365 7bbc 2077 2d3e e0fb 563e 41ac 323d
000001e0: a214 7fbe fd4f a7be bd40 8cbe a637 0ebd
000001f0: 131d 0c3e a83c d0bd c1e2 323d 7978 8abe

fc_mu.bias f4 [4]
0.046302367 0.23009503 0.24240799 0.0027743096
00000000: 8da7 3d3d 089e 6b3e cd39 783e 31d1 353b

fc_logvar.weight f4 [4, 32]
0.27661374 -0.07728707 0.002744494 -0.20436601 -0.20691256 -0.025127634 0.41397378 0.4218743
0.1225872 0.1029355 -0.045373436 -0.057180945 0.23608617 -0.09958361 -0.2004935 0.07511616
-0.0002869331 0.29247993 -0.0866567 -0.517184 0.0825997 0.18501897 -0.22452702 0.10166609
-0.23318614 0.074257664 -0.26658183 0.21195236 -0.2974399 -0.10226101 0.41670996 0.12243897
0.14745885 -0.041044906 0.24758711 -0.4234586 -0.111120895 -0.108921655 0.3009809 0.47155002
-0.0015555598 0.025489457 0.03323545 -0.36384243 0.53180623 0.00824128 -0.16049528 -0.04519344
-0.06316829 0.4732977 -0.14276126 -0.38309088 0.12541157 -0.07733289 -0.14256954 -0.066037744
-0.25688943 0.10025644 -0.21985364 0.4908463 -0.37985668 0.026842287 0.25276446 0.45346308
0.20318443 -0.27258238 0.20507081 -0.43943632 -0.12441519 -0.021681612 0.2846674 0.49192888
0.18674165 -0.12082118 -0.115336016 -0.35415825 0.42060822 0.0045882044 -0.14816917 -0.03438931
-0.045143634 0.45708156 -0.0140160965 -0.43313196 0.006110558 -0.08018976 -0.33488908 -0.2605777
-0.30021825 0.09834061 -0.16406724 0.20019038 -0.5252646 -0.023222096 0.3677372 0.331089
0.005661373 -0.07852968 0.22130759 -0.12771106 -0.32353663 0.08520565 0.39710206 0.27712148
-0.04965905 0.07255092 -0.006019482 -0.31156692 0.07393158 -0.03818288 -0.02166334 -0.04418679
0.18683285 0.21852395 0.0032180287 -0.41799614 -0.07662141 0.14727752 -0.20156617 -0.08257208
-0.1330057 0.081509314 -0.3154419 0.2832779 -0.39178562 -0.10804468 0.45243725 0.31838438
00000000: 51a0 8d3e af48 9ebd f8dc 333b 5345 51be
00000010: e3e0 53be 78d8 cdbc 5ff4 d33e e9ff d73e
00000020: ff0e fb3d d9cf d23d 7fd9 39bd 9136 6abd
00000030: 93c0 713e 7ef2 cbbd 2b4e 4dbe 80d6 993d
00000040: 826f 96b9 eebf 953e 1179 b1bd 2c66 04bf
00000050: 082a a93d 9d75 3d3e 69ea 65be 5036 d03d
00000060: 59c8 6ebe 6714 983d 6a7d 88be 0a0a 593e
00000070: 0b4a 98be 386e d1bd 025b d53e 48c1 fa3d
00000080: 74ff 163e b41e 28bd 7a87 7d3e 91cf d8be
00000090: 5a93 e3bd 5112 dfbd 2b1a 9a3e 016f f13e
000000a0: ede3 cbba 44cf d03c e521 083d 8e49 babe
000000b0: 7424 083f 6f06 073c e058 24be c21c 39bd
000000c0: 605e 81bd 1354 f23e 0230 12be 7d24 c4be
000000d0: e46b 003e b560 9ebd c0fd 11be cc3e 87bd
000000e0: 0387 83be 4053 cd3d 5021 61be 3550 fb3e
000000f0: 937c c2be 5be4 db3c 586a 813e 502c e83e
00000100: 940f 503e eb8f 8bbe 15fe 513e ccfd e0be
00000110: 64cd febd a39d b1bc edbf 913e 1ade fb3e
00000120: 3439 3f3e 1871 f7bd 4a35 ecbd 3b54 b5be
00000130: f659 d73e a658 963b a9b9 17be cedb 0cbd
00000140: 88e8 38bd 9806 ea3e c5a3 65bc 79c3 ddbe
00000150: 133b c83b 873a a4bd 9576 abbe 716a 85be
00000160: 35b6 99be cd66 c93d 3e01 28be b5fe 4c3e
00000170: be77 06bf 443c bebc 0d48 bc3e 7f84 a93e
00000180: 0a83 b93b 2bd4 a0bd 759e 623e b0c6 02be
00000190: 98a6 a5be 4d80 ae3d f650 cb3e dee2 8d3e
000001a0: 4a67 4bbd 9495 943d 133f c5bb b385 9fbe
000001b0: 7169 973d a765 1cbd 5177 b1bc 35fd 34bd
000001c0: 1c51 3f3e bec4 5f3e 90e5 523b 9703 d6be
000001d0: b0eb 9cbd ebcf 163e 5d67 4ebe 8d1b a9bd
000001e0: a532 08be 5bee a63d 9a81 a1be cd09 913e
000001f0: 2098 c8be 8746 ddbd dba5 e73e 4703 a33e

fc_logvar.bias f4 [4]
-0.36644086 -0.3354875 -0.4921258 -0.11679542
00000000: 239e bbbe 05c5 abbe eaf7 fbbe 7032 efbd

fc3_obs.weight f4 [32, 4]
0.42932805 0.15585877 0.63258135 0.04601532 -0.23412752 -0.2935985 0.49749485 0.60499096
-0.079023205 -0.27464756 0.5333603 0.65250677 0.5144693 0.65393597 0.018998094 0.5634687
-0.126179 0.35880828 -0.06789944 -0.30577728 -0.12087365 0.13204867 0.6520035 -0.10813407
0.606767 0.1426091 0.37201744 -0.0670099 0.5132219 0.18423767 0.1482719 0.3916063
0.32214108 0.16639179 0.25424084 0.6225292 -0.6559886 0.40926757 0.040691014 0.4703492
0.41416776 0.44404522 0.65329003 0.203079 0.50864923 0.7662454 -0.20899452 0.26825547
0.6061934 0.13723367 0.32497266 0.55583566 0.53261894 -0.015025254 -0.34065747 -0.44534555
0.14589998 0.0020987664 -0.46053153 0.22812104 0.62386394 -0.23578236 -0.47446895 -0.25987685
-0.41058046 0.4168707 0.54490834 0.72948486 0.4759406 -0.2635117 -0.44099504 -0.45698127
0.52176625 0.9086852 -0.082514405 -0.29533848 -0.7014624 0.21453367 0.22074874 -0.026011813
-0.12838893 -0.32157248 -0.08976319 -0.06373628 0.66301376 -0.15834741 0.040577155 0.61366534
0.44449732 0.18389551 0.46048713 0.10924152 0.14551307 -0.38068938 0.7120447 0.24872069
0.042025555 0.49255094 0.12514482 0.44061878 -0.3946809 -0.3154044 -0.17360273 -0.33578417
0.42382035 -0.16364712 0.5736697 0.15954565 0.22922713 0.5129226 0.437174 -0.08818011
0.23177426 -0.2390972 0.67138857 0.61218816 -0.19863237 -0.5022121 -0.61580247 0.25554386
-0.096800104 -0.1886549 -0.23256703 -0.3832355 -0.42230102 0.4078305 0.41245198 0.44625172
00000000: e3d0 db3e 7199 1f3e daf0 213f 8f7a 3c3d
00000010: 20bf 6fbe 8b52 96be a5b7 fe3e b0e0 1a3f
00000020: ebd6 a1bd 9b9e 8cbe 4d8a 083f af0a 273f
00000030: 43b4 033f 5968 273f e4a1 9b3c 7c3f 103f
00000040: 1135 01be b8b5 b73e dd0e 8bbd d78e 9cbe
00000050: 9b8c f7bd c437 073e b4e9 263f 6575 ddbd
00000060: 1555 1b3f 1f08 123e 1279 be3e 7d3c 89bd
00000070: 8362 033f cda8 3c3e 97d4 173e 9f80 c83e
00000080: adef a43e 9c62 2a3e db2b 823e 135e 1f3f
00000090: deee 27bf 858b d13e 9fab 263d 9cd1 f03e
000000a0: cc0d d43e e559 e33e 043e 273f f1f3 4f3e
000000b0: d636 023f a928 443f a902 56be c858 893e
000000c0: 7e2f 1b3f fc86 0c3e d162 a63e 3f4b 0e3f
000000d0: b759 083f 7c2c 76bc a86a aebe 5504 e4be
000000e0: ce66 153e 758b 093b caca ebbe 9098 693e
000000f0: 8cb5 1f3f ee70 71be 98ed f2be 940e 85be
00000100: 9a37 d2be 1470 d53e 1d7f 0b3f 85bf 3a3f
00000110: 7cae f33e 01eb 86be 1aca e1be 73f9 e9be
00000120: 7992 053f 989f 683f 50fd a8bd 9b36 97be
00000130: 0a93 33bf b7ae 5b3e f50b 623e ba16 d5bc
00000140: 6378 03be 26a5 a4be c3d5 b7bd 2b88 82bd
00000150: 45bb 293f d325 22be 3b34 263d 2c19 1d3f
00000160: 2795 e33e 1b4f 3c3e f8c4 eb3e 05ba df3d
00000170: 6101 153e b8e9 c2be 9048 363f a3b0 7e3e
00000180: fd22 2c3d a32f fc3e f725 003e c998 e13e
00000190: 9d13 cabe af7c a1be eac4 31be e7eb abbe
000001a0: fbfe d83e 1c93 27be 04dc 123f ef5f 233e
000001b0: 84ba 6a3e e54e 033f 45d5 df3e c697 b4bd
000001c0: 3b56 6d3e e5d5 74be 1fe0 2b3f 5db8 1c3f
000001d0: 4966 4bbe f990 00bf 3ba5 1dbf a5d6 823e
000001e0: 223f c6bd c02e 41be 0d26 6ebe 7237 c4be
000001f0: d737 d8be 29cf d03e e82c d33e 1b7b e43e

fc3_obs.bias f4 [32]
0.69087905 0.6464323 0.41196483 0.36386925 0.45398137 0.27905065 0.58762175 0.58098567
0.27758023 0.019720191 0.124235325 0.6687651 0.5571537 0.03138433 0.14192791 -0.14138351
0.48691806 -0.3098338 0.5281814 0.6861242 -0.39194784 0.5672654 0.67662185 0.06799084
0.4134928 -0.17882454 0.5833716 0.39186963 0.47664082 0.20588969 -0.039590612 0.01560818
00000000: 73dd 303f 967c 253f 0eed d23e 124d ba3e
00000010: 3f70 e83e badf 8e3e 616e 163f 7abb 143f
00000020: ff1e 8e3e 3d8c a13c 176f fe3d 3134 2b3f
00000030: a0a1 0e3f db8c 003d 8d55 113e d7c6 10be
00000040: 534d f93e 89a2 9ebe e536 073f d6a5 2f3f
00000050: 63ad c8be 4e38 113f 1737 2d3f c83e 8b3d
00000060: 54b5 d33e c81d 37be d757 153f 23a3 c83e
00000070: 440a f43e bfd4 523e c429 22bd 74b9 7f3c

fc4_obs.weight f4 [16, 32]
0.18664601 0.12406089 0.22079839 0.055087388 -0.27839494 0.2345486 0.3413596 0.14359616
0.13341482 0.31086177 0.17651351 0.13947788 0.32967547 0.14897406 0.13673678 0.020225618
0.12680687 -0.18096432 -0.1065552 -0.061552703 0.15423505 0.13932483 0.2630041 0.13644968
0.22335832 0.13752271 0.3327072 0.11973045 0.28624293 0.055105884 -0.043844786 0.1292509
0.23038696 0.23439182 0.19698523 0.14595096 -0.052844737 0.25814864 -0.05729594 0.25317523
0.10746379 0.3455475 0.123283416 0.0015788105 0.022365639 0.057239402 0.008859989 -0.27910313
0.23622298 -0.12696487 0.013062392 0.22663523 0.1774782 0.24073604 0.22165251 0.116292775
0.025351858 0.06439231 0.025081065 0.22262532 0.18484776 -0.05488329 -0.11814301 0.16770498
-0.051981837 0.14904545 0.04915936 0.104762696 -0.0013995027 0.101611376 0.021843795 -0.059846297
-0.14967594 -0.11403001 -0.16822597 -0.15297295 0.10355089 -0.13218331 0.12891611 -0.016487503
-0.045945276 0.07972483 -0.026814017 0.054197326 -0.1239952 -0.03494294 -0.07272821 -0.09353063
-0.19009595 -0.14613496 -0.07687827 -0.11326726 0.03878534 0.034262665 -0.0062974817 0.017162746
-0.13897097 -0.2455261 -0.2283352 0.05496894 0.013247078 0.21180657 -0.051460493 0.11954433
-0.009349 0.3219901 -0.019049663 0.22298777 0.11780235 0.19370371 0.12403703 0.10633676
0.058799878 0.10915503 0.17388882 0.15815805 0.09242046 -0.20898643 0.050361533 -0.29925275
-0.03144462 -0.19318445 0.07317963 0.21917138 -0.004579086 0.043299638 0.09921514 0.29355744
-0.066078104 -0.13323331 -0.05342588 0.012249325 0.19674444 0.164986 0.044665355 0.032400206
-0.033376936 0.14657298 0.25538135 -0.041790925 0.013211718 -0.0137532 0.080208026 -0.052902564
-0.020967532 0.028902814 0.3119208 0.27673647 0.120538734 -0.14814526 0.077720985 -0.15587503
0.18368012 -0.20723125 -0.24726453 0.094843395 -0.21839727 -0.001345296 -0.1407944 0.29046932
0.008850379 0.4995089 0.4636658 0.043437794 -0.088192016 0.42606017 0.05551925 0.1411098
0.16281685 0.4920867 0.021410128 -0.12374778 0.17620301 -0.10168691 -0.2194039 -0.14324072
0.41085857 -0.17138918 0.0056616715 0.38936016 -0.0050278194 0.06923479 0.08194791 0.53260934
0.0062034903 0.2411808 0.11822728 0.08327216 0.11868796 -0.07202021 0.26460797 0.2972706
-0.024539562 0.31594285 0.21604934 -0.053696044 -0.26810968 0.18368587 -0.043466527 -0.0036234811
0.14522904 0.20703568 0.025979025 -0.28658575 0.2345165 -0.09985906 0.10635575 0.074994445
0.11591663 -0.24356262 -0.22832572 0.26312292 0.045696203 0.25730425 0.21161415 0.2891888
0.19571204 0.20549282 0.4004419 -0.13328966 0.32125765 -0.07742008 -0.013882078 0.23603423
0.10820954 0.11473294 0.083541274 -0.07561053 0.08366222 0.026995808 0.09053955 -0.10333835
0.122049496 -0.09636767 0.101126745 0.017437812 0.051346388 0.09478565 -0.13503517 0.13113889
-0.1880876 0.14763878 -0.11018563 -0.17465441 -0.03256862 0.053724684 -0.118251 -0.111388735
0.1005487 -0.10454501 -0.033432774 -0.031018808 -0.089931704 -0.067749724 0.08172457 0.085136585
00000000: 2220 3f3e a313 fe3d f918 623e 50a3 613d
00000010: c889 8ebe 822d 703e afc6 ae3e df0a 133e
00000020: e59d 083e 4629 9f3e f5bf 343e 4ad3 0e3e
00000030: 39cb a83e a88c 183e ba04 0c3e 32b0 a53c
00000040: a9d9 013e b64e 39be 9d39 dabd b01e 7cbd
00000050: cbef 1d3e 2bab 0e3e 79a8 863e 77b9 0b3e
00000060: 0bb8 643e c1d2 0c3e 9958 aa3e 3d35 f53d
00000070: 6f8e 923e b5b6 613d 9796 33bd 595a 043e
00000080: 8fea 6b3e 6904 703e 7fb6 493e 2b74 153e
00000090: b973 58bd 0f2c 843e 26af 6abd 2fa0 813e
000000a0: fa15 dc3d 9aeb b03e 047c fc3d 17f0 ce3a
000000b0: 2538 b73c dd73 6a3d 7d29 113c 9be6 8ebe
000000c0: 70e4 713e 1403 02be a503 563c 1113 683e
000000d0: d8bc 353e 8283 763e e0f8 623e e82a ee3d
000000e0: b3ae cf3c 1ee0 833d ce76 cd3c e4f7 633e
000000f0: bb48 3d3e 4dcd 60bd f6f4 f1bd dbba 2b3e
00000100: e8ea 54bd 5f9f 183e 535b 493d d38d d63d
00000110: 856f b7ba a019 d03d c2f1 b23c 6421 75bd
00000120: a644 19be 9188 e9bd 6e43 2cbe f1a4 1cbe
00000130: 7d12 d43d 105b 07be 9602 043e cd10 87bc
00000140: 1d31 3cbd c646 a33d 12a9 dbbc 04fe 5d3d
00000150: 32f1 fdbd 5420 0fbd 87f2 94bd fd8c bfbd
00000160: 83a8 42be 67a4 15be 5b72 9dbd aaf8 e7bd
00000170: 60dd 1e3d 0257 0c3d 1b5b cebb e398 8c3c
00000180: 684e 0ebe 326b 7bbe b4d0 69be 1c27 613d
00000190: 460a 593c d2e3 583e 3dc8 52bd a8d3 f43d
000001a0: 8c2c 19bc e3db a43e 0a0e 9cbc e856 643e
000001b0: 5c42 f13d 445a 463e 2007 fe3d 16c7 d93d
000001c0: 24d8 703d ac8c df3d e90f 323e 2ff4 213e
000001d0: f046 bd3d 8a00 56be e547 4e3d a837 99be
000001e0: 13cc 00bd 25d2 45be 34df 953d 766e 603e
000001f0: 280c 96bb f65a 313d 4f31 cb3d 294d 963e
00000200: f553 87bd 506e 08be 18d5 5abd 65b1 483c
00000210: 6077 493e 17f2 283e 05f3 363d 14b6 043d
00000220: 41b6 08bd 3a17 163e 58c1 823e f62c 2bbd
00000230: f675 583c 1a55 61bc 1b44 a43d 5cb0 58bd
00000240: 1ac4 abbc 98c5 ec3c 15b4 9f3e 67b0 8d3e
00000250: 03dd f63d 64b3 17be 2e2c 9f3d b49d 1fbe
00000260: a416 3c3e 6e34 54be ea32 7dbe 413d c23d
00000270: 89a3 5fbe a554 b0ba 682c 10be 65b8 943e
00000280: 2e01 113c a1bf ff3e 9b65 ed3e d4eb 313d
00000290: 049e b4bd 8f24 da3e 2768 633d 167f 103e
000002a0: 76b9 263e caf2 fb3e 4b64 af3c 7a6f fdbd
000002b0: 906e 343e 3a41 d0bd 6aab 60be b2ad 12be
000002c0: 0e5c d23e a580 2fbe 8b85 b93b 375a c73e
000002d0: 68c0 a4bb f8ca 8d3d 4ed4 a73d 1659 083f
000002e0: a646 cb3b 1af8 763e 2521 f23d 988a aa3d
000002f0: ac12 f33d 557f 93bd b27a 873e da33 983e
00000300: 3107 c9bc 43c3 a13e 0a3c 5d3e 62f0 5bbd
00000310: ac45 89be 2618 3c3e f509 32bd ed77 6dbb
00000320: ecb6 143e 2901 543e f7d1 d43c 5ebb 92be
00000330: 1825 703e e882 ccbd 0bd1 d93d b096 993d
00000340: b365 ed3d 7b68 79be 38ce 69be 0cb8 863e
00000350: f12b 3b3d 62bd 833e 61b1 583e 8e10 943e
00000360: bd68 483e b66c 523e b906 cd3e 167d 08be
00000370: e27b a43e 6b8e 9ebd a871 63bc f5b2 713e
00000380: f79c dd3d 1bf9 ea3d b017 ab3d b2d9 9abd
00000390: 1957 ab3d 5026 dd3c cd6c b93d 0fa3 d3bd
000003a0: 16f5 f93d 6a5c c5bd 8a1b cf3d bed9 8e3c
000003b0: 9750 523d fb1e c23d a946 0abe 4649 063e
000003c0: 099a 40be 9f2e 173e 01a9 e1bd 9bd8 32be
000003d0: ac66 05bd 6a0e 5c3d 952d f2bd c71f e4bd
000003e0: 7aec cd3d b21b d6bd cef0 08bd 281b febc
000003f0: 1d2e b8bd 5ec0 8abd 365f a73d 175c ae3d

fc4_obs.bias f4 [16]
0.0369336 -0.064313166 -0.1348295 -0.17393957 0.12345436 0.20541777 0.26863894 -0.08185128
0.19525579 0.1268447 0.00455058 0.043993082 0.19780762 0.051004723 0.12354115 0.122802734
00000000: b047 173d 9fb6 83bd bf10 0abe 371d 32be
00000010: a4d5 fc3d 0959 523e 0b8b 893e a5a1 a7bd
00000020: 22f1 473e 94e3 013e 081d 953b 1732 343d
00000030: 158e 4a3e 54ea 503d 2403 fd3d 0080 fb3d
